Homework 6/project/st_fdmobilenet_v1/NUCLEO-F446RE/st_fdmobilenet_v1_quant.tflite (tflite, 220624 bytes, 24 tensors)

tfl.pseudo_qconst1 i1 [10, 1, 1, 256]
000000 81 27 0a 1d 27 08 be 27 d9 f6 ef da f1 15 0a fb
       -127 39 10 29 39 8 -66 39 -39 -10 -17 -38 -15 21 10 -5
000010 13 e3 df 14 c2 c8 e1 2e c8 04 cd 26 d6 d5 c3 1f
       19 -29 -33 20 -62 -56 -31 46 -56 4 -51 38 -42 -43 -61 31
000020 f9 d1 f0 15 da 1d ec 24 e3 af c9 d8 e3 12 dd 14
       -7 -47 -16 21 -38 29 -20 36 -29 -81 -55 -40 -29 18 -35 20
000030 bc 0f 12 db c6 e6 1f d6 1d 13 ff 06 f6 11 22 13
       -68 15 18 -37 -58 -26 31 -42 29 19 -1 6 -10 17 34 19
000040 2f 14 32 ba 3e d8 d0 2b de eb 18 a5 00 02 ca 26
       47 20 50 -70 62 -40 -48 43 -34 -21 24 -91 0 2 -54 38
000050 f2 ed e0 05 b0 27 dd 10 9a ed 0d cc c2 b1 ef b9
       -14 -19 -32 5 -80 39 -35 16 -102 -19 13 -52 -62 -79 -17 -71
000060 da 1c 0a e1 cb 15 e9 c8 e4 29 04 25 1d 0f d6 e8
       -38 28 10 -31 -53 21 -23 -56 -28 41 4 37 29 15 -42 -24
000070 f2 d4 29 27 bb 2c cd fc d9 1e 2d f0 de a6 c2 e1
       -14 -44 41 39 -69 44 -51 -4 -39 30 45 -16 -34 -90 -62 -31
000080 d1 f1 c2 ec 23 01 e5 e7 03 23 02 20 e4 0d bf d7
       -47 -15 -62 -20 35 1 -27 -25 3 35 2 32 -28 13 -65 -41
000090 25 1c d9 fb d0 f2 eb 06 d6 a0 11 bd 0e 11 c5 f6
       37 28 -39 -5 -48 -14 -21 6 -42 -96 17 -67 14 17 -59 -10
0000a0 1d 15 e0 d6 e1 25 11 bb 21 0b 19 27 27 12 e4 d8
       29 21 -32 -42 -31 37 17 -69 33 11 25 39 39 18 -28 -40
0000b0 0b d1 34 b0 e8 ac 18 36 10 ed bc ba d1 c1 0d df
       11 -47 52 -80 -24 -84 24 54 16 -19 -68 -70 -47 -63 13 -33
0000c0 ea 1b 06 f9 dd 2a 02 15 14 f5 2a f4 30 ec 22 01
       -22 27 6 -7 -35 42 2 21 20 -11 42 -12 48 -20 34 1
0000d0 ca d7 d3 f5 b4 e5 bd eb d5 c0 10 bb b9 27 ff dc
       -54 -41 -45 -11 -76 -27 -67 -21 -43 -64 16 -69 -71 39 -1 -36
0000e0 d6 15 fc 09 f8 da 19 fa 02 c3 eb 07 d4 c7 20 f0
       -42 21 -4 9 -8 -38 25 -6 2 -61 -21 7 -44 -57 32 -16
0000f0 dc 23 17 1c 1a 02 1c d4 32 e5 c6 ca 04 32 2f dd
       -36 35 23 28 26 2 28 -44 50 -27 -58 -54 4 50 47 -35

tfl.pseudo_qconst3 i1 [256, 1, 1, 128]
000000 fd 01 28 0b 34 16 1f 0b 2a ff 22 3a f6 05 14 32
       -3 1 40 11 52 22 31 11 42 -1 34 58 -10 5 20 50
000010 ee 0e fe 1e 0b fa a9 d2 31 f3 00 25 0c f8 d3 04
       -18 14 -2 30 11 -6 -87 -46 49 -13 0 37 12 -8 -45 4
000020 e7 0a fa be 28 1a 10 ff df e7 3d 3c e4 e5 43 f7
       -25 10 -6 -66 40 26 16 -1 -33 -25 61 60 -28 -27 67 -9
000030 c8 0b c9 16 f3 30 2a f6 fb 13 20 06 2b fa 28 e1
       -56 11 -55 22 -13 48 42 -10 -5 19 32 6 43 -6 40 -31
000040 fb 0b d7 ef ce 13 00 03 1e 73 2b 24 0f 29 54 e5
       -5 11 -41 -17 -50 19 0 3 30 115 43 36 15 41 84 -27
000050 e1 0c d5 81 10 03 e6 d4 1d 1f 1f da d5 27 fe dc
       -31 12 -43 -127 16 3 -26 -44 29 31 31 -38 -43 39 -2 -36
000060 37 fe fb a2 d5 05 0c e1 30 2e ef 0d 30 01 06 fb
       55 -2 -5 -94 -43 5 12 -31 48 46 -17 13 48 1 6 -5
000070 11 16 46 df 11 50 35 1c e0 5e 38 1e 59 cf e9 ee
       17 22 70 -33 17 80 53 28 -32 94 56 30 89 -49 -23 -18
000080 08 17 14 1a 00 02 fb eb 0a fc 81 9c 25 22 e5 fd
       8 23 20 26 0 2 -5 -21 10 -4 -127 -100 37 34 -27 -3
000090 fe d4 40 09 da dc 11 00 d9 00 f3 17 ed f9 bf 11
       -2 -44 64 9 -38 -36 17 0 -39 0 -13 23 -19 -7 -65 17
0000a0 d4 22 e8 13 df 3b 15 e3 09 cc 14 8f d2 3c f4 eb
       -44 34 -24 19 -33 59 21 -29 9 -52 20 -113 -46 60 -12 -21
0000b0 46 20 fa be e8 20 da e1 47 f0 31 ce 1d c8 ea 2a
       70 32 -6 -66 -24 32 -38 -31 71 -16 49 -50 29 -56 -22 42
0000c0 f0 c5 3d e2 e9 1d e2 2a 13 0d 2a c8 0a e8 f7 b5
       -16 -59 61 -30 -23 29 -30 42 19 13 42 -56 10 -24 -9 -75
0000d0 0d f8 49 14 f4 ff c5 f2 c1 b3 48 2a c0 4d fa da
       13 -8 73 20 -12 -1 -59 -14 -63 -77 72 42 -64 77 -6 -38
0000e0 2d cb 00 0c 0f fa 2e 27 26 c9 2e b3 fa e0 0b ff
       45 -53 0 12 15 -6 46 39 38 -55 46 -77 -6 -32 11 -1
0000f0 df c5 fb e1 05 c2 c7 06 1f c5 25 17 a7 fc 05 96
       -33 -59 -5 -31 5 -62 -57 6 31 -59 37 23 -89 -4 5 -106

tfl.pseudo_qconst5 i1 [1, 3, 3, 128]
000000 d6 3a 53 bd 8a 36 81 38 28 81 ec 3a c6 08 e2 33
       -42 58 83 -67 -118 54 -127 56 40 -127 -20 58 -58 8 -30 51
000010 2a 41 8f 0b 2c 2d 0f df af 10 a9 db e5 52 0a 13
       42 65 -113 11 44 45 15 -33 -81 16 -87 -37 -27 82 10 19
000020 e7 fd 36 4b f6 45 59 9b c4 39 14 ed 34 63 7f 3e
       -25 -3 54 75 -10 69 89 -101 -60 57 20 -19 52 99 127 62
000030 ff be 7f 1e 19 f0 0d fe 08 0d 1e 81 8c f5 7f 32
       -1 -66 127 30 25 -16 13 -2 8 13 30 -127 -116 -11 127 50
000040 65 49 ff e4 b1 17 c3 b9 1a dc 29 aa 7f 7f e0 dc
       101 73 -1 -28 -79 23 -61 -71 26 -36 41 -86 127 127 -32 -36
000050 cb 9e 38 c5 85 e2 ef c1 ec 81 b6 76 ea 07 4d 45
       -53 -98 56 -59 -123 -30 -17 -63 -20 -127 -74 118 -22 7 77 69
000060 31 e9 07 a7 14 19 9a 13 3e 4a 5f d1 ac f1 1e 46
       49 -23 7 -89 20 25 -102 19 62 74 95 -47 -84 -15 30 70
000070 81 da de 13 07 00 4e cd b2 7c 1b 14 12 8d 69 1f
       -127 -38 -34 19 7 0 78 -51 -78 124 27 20 18 -115 105 31
000080 e7 43 f0 7d eb 1b 95 1b 69 34 c4 cb 7f b8 07 fb
       -25 67 -16 125 -21 27 -107 27 105 52 -60 -53 127 -72 7 -5
000090 a8 d1 87 9e f7 d8 14 02 da de 60 1c bf 0b d5 f3
       -88 -47 -121 -98 -9 -40 20 2 -38 -34 96 28 -65 11 -43 -13
0000a0 15 ba 19 40 20 cb 4d b1 1d 1c 2c fc 7a 7f d8 f6
       21 -70 25 64 32 -53 77 -79 29 28 44 -4 122 127 -40 -10
0000b0 66 ba 67 48 27 3e 95 a1 29 10 43 2a 5d 19 cb eb
       102 -70 103 72 39 62 -107 -95 41 16 67 42 93 25 -53 -21
0000c0 ca 10 ea 1d 81 2c 1a f0 11 f7 a8 50 96 48 62 2f
       -54 16 -22 29 -127 44 26 -16 17 -9 -88 80 -106 72 98 47
0000d0 dc 61 72 58 2f 26 cb 81 4f 79 e5 10 46 7f 91 ba
       -36 97 114 88 47 38 -53 -127 79 121 -27 16 70 127 -111 -70
0000e0 07 03 3e e6 52 d8 0c d1 22 cb 1b 31 87 1f 27 81
       7 3 62 -26 82 -40 12 -47 34 -53 27 49 -121 31 39 -127
0000f0 5f 14 4b 31 3f 36 fd 29 eb a6 1e 3e 1b e5 b9 cd
       95 20 75 49 63 54 -3 41 -21 -90 30 62 27 -27 -71 -51

tfl.pseudo_qconst7 i1 [128, 1, 1, 128]
000000 47 45 29 4c 17 18 f0 c6 be a8 81 db 77 01 d7 c5
       71 69 41 76 23 24 -16 -58 -66 -88 -127 -37 119 1 -41 -59
000010 c6 3b 20 d1 d7 e8 c3 fd ac f7 e9 3a 49 d5 d2 5a
       -58 59 32 -47 -41 -24 -61 -3 -84 -9 -23 58 73 -43 -46 90
000020 c0 c0 03 51 08 1b 16 13 55 1f fc f1 91 14 2c c7
       -64 -64 3 81 8 27 22 19 85 31 -4 -15 -111 20 44 -57
000030 47 52 9e 59 e1 22 c6 1d 00 c5 1f 56 e5 07 02 e2
       71 82 -98 89 -31 34 -58 29 0 -59 31 86 -27 7 2 -30
000040 bd 18 a2 57 f0 f6 e8 b0 0a f4 1f d6 23 0b e7 23
       -67 24 -94 87 -16 -10 -24 -80 10 -12 31 -42 35 11 -25 35
000050 b0 d0 ff c8 3f 5d 18 e8 47 ec cb f2 1c 52 37 f6
       -80 -48 -1 -56 63 93 24 -24 71 -20 -53 -14 28 82 55 -10
000060 31 e0 04 28 93 f4 ea e6 d7 fa de cb c3 09 1c 59
       49 -32 4 40 -109 -12 -22 -26 -41 -6 -34 -53 -61 9 28 89
000070 be 03 11 64 27 67 96 4e bf de 2b 16 57 bf f8 02
       -66 3 17 100 39 103 -106 78 -65 -34 43 22 87 -65 -8 2
000080 12 b6 44 3d 39 ef e3 0c c5 f9 22 0d 07 43 1b a7
       18 -74 68 61 57 -17 -29 12 -59 -7 34 13 7 67 27 -89
000090 56 08 d7 f0 fb ed e0 08 1e 49 ca d9 31 06 03 f6
       86 8 -41 -16 -5 -19 -32 8 30 73 -54 -39 49 6 3 -10
0000a0 07 3a 16 2b 4e c7 fc e0 81 32 02 e6 e1 f4 d0 dd
       7 58 22 43 78 -57 -4 -32 -127 50 2 -26 -31 -12 -48 -35
0000b0 a7 e7 f2 0f d6 3e 05 06 b5 13 49 f5 c3 dc 1b 0d
       -89 -25 -14 15 -42 62 5 6 -75 19 73 -11 -61 -36 27 13
0000c0 0e 0d 37 2a d4 1e f9 d4 f8 e5 05 c8 1b ab 02 2d
       14 13 55 42 -44 30 -7 -44 -8 -27 5 -56 27 -85 2 45
0000d0 1d f9 e8 2d ec 13 e7 ef e4 fd 21 34 d4 c3 1c cf
       29 -7 -24 45 -20 19 -25 -17 -28 -3 33 52 -44 -61 28 -49
0000e0 3d de ee ee 00 ff 10 f5 1f 0f 00 e7 01 eb c5 e9
       61 -34 -18 -18 0 -1 16 -11 31 15 0 -25 1 -21 -59 -23
0000f0 03 07 b8 10 10 e3 14 1d 20 dc 11 22 17 40 e1 12
       3 7 -72 16 16 -29 20 29 32 -36 17 34 23 64 -31 18

tfl.pseudo_qconst9 i1 [1, 3, 3, 128]
000000 f3 b7 44 81 a2 03 74 20 20 2a 2b f2 e2 d1 af 0e
       -13 -73 68 -127 -94 3 116 32 32 42 43 -14 -30 -47 -81 14
000010 f2 89 8a 31 9d 47 36 03 fb 22 34 ea 60 0c f2 bb
       -14 -119 -118 49 -99 71 54 3 -5 34 52 -22 96 12 -14 -69
000020 d6 ff a4 1f 4d c6 1e 76 7f aa 52 34 2e 05 cc cf
       -42 -1 -92 31 77 -58 30 118 127 -86 82 52 46 5 -52 -49
000030 c2 af 45 d3 d4 30 9c d9 b7 10 e2 21 fc 3b f1 8d
       -62 -81 69 -45 -44 48 -100 -39 -73 16 -30 33 -4 59 -15 -115
000040 94 a5 f5 c3 d6 81 7f 10 81 db 95 5c 91 fd 25 bc
       -108 -91 -11 -61 -42 -127 127 16 -127 -37 -107 92 -111 -3 37 -68
000050 96 04 4a a0 2f 1c ad 7f 81 2a 40 27 b2 47 b9 21
       -106 4 74 -96 47 28 -83 127 -127 42 64 39 -78 71 -71 33
000060 2b 72 eb 7f 30 a0 c4 f7 c2 ab f7 a3 c2 7f 1f 26
       43 114 -21 127 48 -96 -60 -9 -62 -85 -9 -93 -62 127 31 38
000070 2a e9 cb 60 50 1b d0 db d9 d9 ad d6 28 6b 35 04
       42 -23 -53 96 80 27 -48 -37 -39 -39 -83 -42 40 107 53 4
000080 57 ab 49 a0 32 31 e2 c6 e6 2d cc 11 d7 e9 81 7f
       87 -85 73 -96 50 49 -30 -58 -26 45 -52 17 -41 -23 -127 127
000090 2e f1 5d 81 e8 3d 11 a5 00 00 91 42 ce 07 9b 27
       46 -15 93 -127 -24 61 17 -91 0 0 -111 66 -50 7 -101 39
0000a0 63 fb 12 a3 7f a3 6b df f2 15 7f 0d 2c 37 06 b3
       99 -5 18 -93 127 -93 107 -33 -14 21 127 13 44 55 6 -77
0000b0 12 29 27 14 b5 d3 f2 a8 44 cc 33 2d fd c5 a8 7f
       18 41 39 20 -75 -45 -14 -88 68 -52 51 45 -3 -59 -88 127
0000c0 6f ad 81 f0 3f 92 21 f2 79 f9 8a 8b c4 54 ed 64
       111 -83 -127 -16 63 -110 33 -14 121 -7 -118 -117 -60 84 -19 100
0000d0 1a 60 34 1c 7f 04 e1 eb 76 6d 43 f5 30 c8 bd d7
       26 96 52 28 127 4 -31 -21 118 109 67 -11 48 -56 -67 -41
0000e0 37 53 b1 ca 54 64 f6 ba 46 22 d9 0e db 33 ef d1
       55 83 -79 -54 84 100 -10 -70 70 34 -39 14 -37 51 -17 -47
0000f0 38 6a f0 74 b4 33 c1 0f a2 7f 22 6b ed 39 fa 48
       56 106 -16 116 -76 51 -63 15 -94 127 34 107 -19 57 -6 72

tfl.pseudo_qconst11 i1 [128, 1, 1, 128]
000000 d3 16 d5 df c8 b4 e0 ce 1d bd b6 b6 27 1b 2b 53
       -45 22 -43 -33 -56 -76 -32 -50 29 -67 -74 -74 39 27 43 83
000010 16 fb e6 e7 fd 01 a9 34 ca 0b bb 0b db f2 50 1f
       22 -5 -26 -25 -3 1 -87 52 -54 11 -69 11 -37 -14 80 31
000020 5f f6 3e d0 11 09 81 34 24 0c d6 38 0c 18 35 52
       95 -10 62 -48 17 9 -127 52 36 12 -42 56 12 24 53 82
000030 21 16 21 11 1e e1 4e e2 22 0c d3 20 dd ac d4 31
       33 22 33 17 30 -31 78 -30 34 12 -45 32 -35 -84 -44 49
000040 d8 23 c3 14 d8 e7 31 cc 44 40 e7 df 71 4d 1a 0d
       -40 35 -61 20 -40 -25 49 -52 68 64 -25 -33 113 77 26 13
000050 ed dd e9 3d e7 3d 2b 07 cd 32 06 c7 24 d7 0c 1c
       -19 -35 -23 61 -25 61 43 7 -51 50 6 -57 36 -41 12 28
000060 b7 20 e4 06 57 0c cb e5 fd c6 28 0d fb f9 05 49
       -73 32 -28 6 87 12 -53 -27 -3 -58 40 13 -5 -7 5 73
000070 34 1f e2 fa 33 2b 28 df ad df c0 35 0e dc 0f 0d
       52 31 -30 -6 51 43 40 -33 -83 -33 -64 53 14 -36 15 13
000080 53 f1 05 16 22 48 cf ea d8 19 36 09 ef 11 24 c9
       83 -15 5 22 34 72 -49 -22 -40 25 54 9 -17 17 36 -55
000090 25 bb e6 dc 3d 35 0a 1e a8 d5 0e e9 1b e7 25 c1
       37 -69 -26 -36 61 53 10 30 -88 -43 14 -23 27 -25 37 -63
0000a0 d6 c2 c7 dc 24 3b 7f 03 f8 00 bf 2b ee 08 c3 19
       -42 -62 -57 -36 36 59 127 3 -8 0 -65 43 -18 8 -61 25
0000b0 c2 d6 d2 92 e4 0a c4 03 36 f9 dd 1a 6b 88 df 5d
       -62 -42 -46 -110 -28 10 -60 3 54 -7 -35 26 107 -120 -33 93
0000c0 09 51 18 3e 30 d6 eb 20 ef 01 16 f5 c8 a8 42 1a
       9 81 24 62 48 -42 -21 32 -17 1 22 -11 -56 -88 66 26
0000d0 f1 05 ae fb 10 75 a8 d8 fc b0 ed 11 ea bc 35 1f
       -15 5 -82 -5 16 117 -88 -40 -4 -80 -19 17 -22 -68 53 31
0000e0 0f c8 1e ea 54 20 21 32 f8 fe 0e 16 1c b4 1a ee
       15 -56 30 -22 84 32 33 50 -8 -2 14 22 28 -76 26 -18
0000f0 35 08 cf af f8 e9 3e 25 f1 df ff 46 0d 03 f2 f1
       53 8 -49 -81 -8 -23 62 37 -15 -33 -1 70 13 3 -14 -15

tfl.pseudo_qconst13 i1 [1, 3, 3, 128]
000000 e0 6d 7f c6 17 2e df 23 81 22 aa e2 27 f5 a1 20
       -32 109 127 -58 23 46 -33 35 -127 34 -86 -30 39 -11 -95 32
000010 81 ed 7f 7f 7f fb 7d e2 1a 81 b1 09 e8 d6 e1 27
       -127 -19 127 127 127 -5 125 -30 26 -127 -79 9 -24 -42 -31 39
000020 81 be b5 49 18 38 8f 25 ae 77 d7 45 03 83 1e 2d
       -127 -66 -75 73 24 56 -113 37 -82 119 -41 69 3 -125 30 45
000030 74 57 7f 0e a4 03 48 0c 2c 2c 1e bb 5b 10 cb 84
       116 87 127 14 -92 3 72 12 44 44 30 -69 91 16 -53 -124
000040 5c 77 b8 52 e3 da 99 e3 7f f2 5b 3e b7 81 d3 7b
       92 119 -72 82 -29 -38 -103 -29 127 -14 91 62 -73 -127 -45 123
000050 f8 f1 a1 69 bb 16 41 3f 47 f7 92 fb d2 c0 00 0a
       -8 -15 -95 105 -69 22 65 63 71 -9 -110 -5 -46 -64 0 10
000060 be 8d d2 7f a8 81 df 37 35 bd 24 18 38 1d 4f 1a
       -66 -115 -46 127 -88 -127 -33 55 53 -67 36 24 56 29 79 26
000070 00 1a d1 1c ae 2f 7b f6 7f bf 0f db d5 e8 00 51
       0 26 -47 28 -82 47 123 -10 127 -65 15 -37 -43 -24 0 81
000080 07 6a 4b 0c 83 e7 6e da 6c 2e 24 21 a6 35 16 47
       7 106 75 12 -125 -25 110 -38 108 46 36 33 -90 53 22 71
000090 8f 56 4c 43 50 c3 7d 1c 1c 31 2f 18 81 5d e1 c1
       -113 86 76 67 80 -61 125 28 28 49 47 24 -127 93 -31 -63
0000a0 d7 32 be 81 ab 56 64 da f2 fa 16 db 1a e3 eb 06
       -41 50 -66 -127 -85 86 100 -38 -14 -6 22 -37 26 -29 -21 6
0000b0 5e 7f f8 e3 2a 7f a4 ca 44 44 a2 45 ae cb 3c c6
       94 127 -8 -29 42 127 -92 -54 68 68 -94 69 -82 -53 60 -58
0000c0 c6 f7 50 53 e7 49 1e 22 7a 99 fb 8f a4 ae 09 ce
       -58 -9 80 83 -25 73 30 34 122 -103 -5 -113 -92 -82 9 -50
0000d0 7f 2e df 76 2b d8 1b da 45 09 92 b6 81 43 42 cb
       127 46 -33 118 43 -40 27 -38 69 9 -110 -74 -127 67 66 -53
0000e0 bc cc 81 d1 17 43 19 23 06 44 81 2f 35 81 41 63
       -68 -52 -127 -47 23 67 25 35 6 68 -127 47 53 -127 65 99
0000f0 e0 8f e3 98 7f a0 7c 07 bb 76 2c 81 e0 ec 23 97
       -32 -113 -29 -104 127 -96 124 7 -69 118 44 -127 -32 -20 35 -105

tfl.pseudo_qconst15 i1 [128, 1, 1, 128]
000000 ff 29 22 f5 f5 e7 1a 07 42 64 57 2c bf 0f 04 da
       -1 41 34 -11 -11 -25 26 7 66 100 87 44 -65 15 4 -38
000010 37 bc db f9 2a ea ee f9 8a bb 48 dc 04 17 44 de
       55 -68 -37 -7 42 -22 -18 -7 -118 -69 72 -36 4 23 68 -34
000020 27 2d 4d f1 ee 0a 23 c9 ac 02 fa 14 ba 2b e0 d7
       39 45 77 -15 -18 10 35 -55 -84 2 -6 20 -70 43 -32 -41
000030 ec 4c 67 47 17 47 1e e9 1a 0b df c2 1c 2d b9 e7
       -20 76 103 71 23 71 30 -23 26 11 -33 -62 28 45 -71 -25
000040 10 28 05 40 22 18 05 4d 23 2d fb 16 de fd 05 37
       16 40 5 64 34 24 5 77 35 45 -5 22 -34 -3 5 55
000050 1b f8 ff e8 00 4b bc 1c c7 16 06 f5 ce bd 1b 01
       27 -8 -1 -24 0 75 -68 28 -57 22 6 -11 -50 -67 27 1
000060 08 38 e2 0f ef ee d0 37 bb d9 4b 1b 21 31 e7 24
       8 56 -30 15 -17 -18 -48 55 -69 -39 75 27 33 49 -25 36
000070 e6 06 5f 27 26 ef be f6 03 1c 7f f6 27 03 5f 23
       -26 6 95 39 38 -17 -66 -10 3 28 127 -10 39 3 95 35
000080 ce be 9d 23 fa 10 c2 3e c7 f7 23 18 2e e4 1c e2
       -50 -66 -99 35 -6 16 -62 62 -57 -9 35 24 46 -28 28 -30
000090 06 ba 7f d9 45 fe f5 d1 4b 26 24 cf e4 45 cb ab
       6 -70 127 -39 69 -2 -11 -47 75 38 36 -49 -28 69 -53 -85
0000a0 fb e2 0a 1b 07 3e b0 ec 09 39 bd 7d bd d7 02 14
       -5 -30 10 27 7 62 -80 -20 9 57 -67 125 -67 -41 2 20
0000b0 e0 d1 b5 05 c4 61 e6 d6 35 ce 5b c2 38 d7 d5 21
       -32 -47 -75 5 -60 97 -26 -42 53 -50 91 -62 56 -41 -43 33
0000c0 13 b2 cb c5 5b eb 13 ce d2 4c 54 1c 4f 12 52 31
       19 -78 -53 -59 91 -21 19 -50 -46 76 84 28 79 18 82 49
0000d0 0f c3 f5 11 d9 5c d5 ad 44 40 fa 8c 19 15 dc 58
       15 -61 -11 17 -39 92 -43 -83 68 64 -6 -116 25 21 -36 88
0000e0 de 45 59 16 a5 2f b5 da d8 cf 09 39 55 f6 3c f4
       -34 69 89 22 -91 47 -75 -38 -40 -49 9 57 85 -10 60 -12
0000f0 4f 61 e7 12 38 f0 eb f4 11 ba 0e bd c5 45 eb ff
       79 97 -25 18 56 -16 -21 -12 17 -70 14 -67 -59 69 -21 -1

tfl.pseudo_qconst17 i1 [1, 3, 3, 128]
000000 1a cc 6a df e1 24 1d 39 1a 9a 01 61 eb 2d cb 34
       26 -52 106 -33 -31 36 29 57 26 -102 1 97 -21 45 -53 52
000010 f4 a2 4e a2 8b c9 bc bd fa f5 bc 17 df 11 a8 81
       -12 -94 78 -94 -117 -55 -68 -67 -6 -11 -68 23 -33 17 -88 -127
000020 18 10 0a 13 b3 be 7d 8c 1b e9 41 c9 37 4c 24 f1
       24 16 10 19 -77 -66 125 -116 27 -23 65 -55 55 76 36 -15
000030 57 32 c0 a8 19 c5 21 45 90 82 a4 cb 4a 01 0e cf
       87 50 -64 -88 25 -59 33 69 -112 -126 -92 -53 74 1 14 -49
000040 01 03 f4 a6 cc 3d 2f 98 2a 46 7f 50 0d c8 3b a4
       1 3 -12 -90 -52 61 47 -104 42 70 127 80 13 -56 59 -92
000050 89 35 36 7f 81 92 37 1b 33 7f fd 00 81 9f 34 c8
       -119 53 54 127 -127 -110 55 27 51 127 -3 0 -127 -97 52 -56
000060 14 ae 0b 8b c2 93 28 55 ef 22 39 dd 13 ae ae 47
       20 -82 11 -117 -62 -109 40 85 -17 34 57 -35 19 -82 -82 71
000070 db be e9 4c 4c dc cf 89 f8 12 5d 8e 24 07 3c 4d
       -37 -66 -23 76 76 -36 -49 -119 -8 18 93 -114 36 7 60 77
000080 b2 eb 52 ea 18 0e ce d4 61 7f 28 78 34 30 b3 09
       -78 -21 82 -22 24 14 -50 -44 97 127 40 120 52 48 -77 9
000090 b6 f3 fe 01 05 ec f0 13 d8 11 ba 01 3b e0 3b 14
       -74 -13 -2 1 5 -20 -16 19 -40 17 -70 1 59 -32 59 20
0000a0 78 7f 29 c9 b5 7f e2 4b 7f b5 ed d9 f8 33 db 25
       120 127 41 -55 -75 127 -30 75 127 -75 -19 -39 -8 51 -37 37
0000b0 19 1d 93 33 c2 52 7f c0 7f b9 2d c9 81 0f f0 52
       25 29 -109 51 -62 82 127 -64 127 -71 45 -55 -127 15 -16 82
0000c0 1d 1b 9e 41 cb c9 99 81 71 9c 97 19 2d 21 90 33
       29 27 -98 65 -53 -55 -103 -127 113 -100 -105 25 45 33 -112 51
0000d0 96 1e df 96 22 d7 6c a3 f1 17 12 08 2a 06 1b 7a
       -106 30 -33 -106 34 -41 108 -93 -15 23 18 8 42 6 27 122
0000e0 3c 5e 23 75 fb b2 bd 22 49 03 11 e7 8f 9a ae e2
       60 94 35 117 -5 -78 -67 34 73 3 17 -25 -113 -102 -82 -30
0000f0 2a 1a 40 65 fe 0e 5c 19 20 81 67 ea 09 c3 33 7f
       42 26 64 101 -2 14 92 25 32 -127 103 -22 9 -61 51 127

tfl.pseudo_qconst19 i1 [128, 1, 1, 128]
000000 34 da fd 16 2d 00 09 f1 d1 2c ff 23 1c cf 0a 43
       52 -38 -3 22 45 0 9 -15 -47 44 -1 35 28 -49 10 67
000010 02 2a da df 6a a7 f4 3b de 10 4c c4 ea 36 42 12
       2 42 -38 -33 106 -89 -12 59 -34 16 76 -60 -22 54 66 18
000020 2e 31 a9 f3 5a 32 82 2d 09 cd fa 64 e7 f4 b3 ba
       46 49 -87 -13 90 50 -126 45 9 -51 -6 100 -25 -12 -77 -70
000030 c8 29 11 e7 02 17 d7 2c f6 27 fe 0f 44 da 4f 06
       -56 41 17 -25 2 23 -41 44 -10 39 -2 15 68 -38 79 6
000040 f2 b0 1b c5 1b ad fe 00 ee e0 be ff 51 32 32 d5
       -14 -80 27 -59 27 -83 -2 0 -18 -32 -66 -1 81 50 50 -43
000050 69 ee c2 fd bc ea 0c 4d da 59 81 dc fa fa 03 ee
       105 -18 -62 -3 -68 -22 12 77 -38 89 -127 -36 -6 -6 3 -18
000060 3f ee a7 bf 10 bc 60 a9 43 12 e6 f3 53 67 d3 3e
       63 -18 -89 -65 16 -68 96 -87 67 18 -26 -13 83 103 -45 62
000070 c4 fc 44 e6 e8 d9 25 2c 2d 40 01 27 0b 08 e7 e5
       -60 -4 68 -26 -24 -39 37 44 45 64 1 39 11 8 -25 -27
000080 fa 4d 25 e4 0d f9 cd d5 0d 3e 27 13 0e ec 0d e9
       -6 77 37 -28 13 -7 -51 -43 13 62 39 19 14 -20 13 -23
000090 2d e7 ce fc b8 ce d5 d0 32 d4 10 09 cf 34 e5 d8
       45 -25 -50 -4 -72 -50 -43 -48 50 -44 16 9 -49 52 -27 -40
0000a0 0b 07 0f 0e 7f 22 0b 26 10 13 33 0b b9 ff 06 ea
       11 7 15 14 127 34 11 38 16 19 51 11 -71 -1 6 -22
0000b0 f1 2b f9 c1 ec 06 0f 13 3d ce 12 d8 e8 2a 30 04
       -15 43 -7 -63 -20 6 15 19 61 -50 18 -40 -24 42 48 4
0000c0 dc 20 d7 e9 e1 df 08 f9 2a 0f f6 09 12 ec 25 17
       -36 32 -41 -23 -31 -33 8 -7 42 15 -10 9 18 -20 37 23
0000d0 ea 30 fa 09 0d 12 c3 de 25 e2 37 2a 0b 00 48 30
       -22 48 -6 9 13 18 -61 -34 37 -30 55 42 11 0 72 48
0000e0 2b 15 29 1f 5d fc 3b e1 f7 13 c4 e6 0c ed fd 3b
       43 21 41 31 93 -4 59 -31 -9 19 -60 -26 12 -19 -3 59
0000f0 cd e3 d2 0e e1 18 d2 0b 23 02 31 f8 da 10 06 e7
       -51 -29 -46 14 -31 24 -46 11 35 2 49 -8 -38 16 6 -25

tfl.pseudo_qconst21 i1 [1, 3, 3, 128]
000000 1e ea d0 b9 f5 dc f1 f9 04 a9 48 64 0b c8 7f 81
       30 -22 -48 -71 -11 -36 -15 -7 4 -87 72 100 11 -56 127 -127
000010 60 23 a1 8f 3b bc 0e e3 a4 d7 ed 69 44 ee dc 50
       96 35 -95 -113 59 -68 14 -29 -92 -41 -19 105 68 -18 -36 80
000020 57 4e 7f 3c eb 18 d0 17 84 81 56 e5 85 fc 50 39
       87 78 127 60 -21 24 -48 23 -124 -127 86 -27 -123 -4 80 57
000030 63 99 9e 09 71 8d 63 d5 ee f1 f5 0d 24 36 0e 44
       99 -103 -98 9 113 -115 99 -43 -18 -15 -11 13 36 54 14 68
000040 15 ae 24 c3 45 ad 35 ea 6e 2c 97 fa 4a ef ec fd
       21 -82 36 -61 69 -83 53 -22 110 44 -105 -6 74 -17 -20 -3
000050 d9 28 26 fa 21 36 f0 27 81 e1 ee 90 40 16 46 a2
       -39 40 38 -6 33 54 -16 39 -127 -31 -18 -112 64 22 70 -94
000060 c1 10 5a e5 ce fe a6 68 38 26 fa cc ba 23 23 b1
       -63 16 90 -27 -50 -2 -90 104 56 38 -6 -52 -70 35 35 -79
000070 33 c4 48 32 e7 27 7f e3 f7 b5 06 6e e9 0f 0b 3f
       51 -60 72 50 -25 39 127 -29 -9 -75 6 110 -23 15 11 63
000080 1e da 40 c6 59 18 e3 a7 50 24 b3 d3 96 aa 88 e0
       30 -38 64 -58 89 24 -29 -89 80 36 -77 -45 -106 -86 -120 -32
000090 c5 22 5b 83 d8 ca 24 5b 30 32 02 14 b2 9b d3 1f
       -59 34 91 -125 -40 -54 36 91 48 50 2 20 -78 -101 -45 31
0000a0 60 25 cf eb c1 eb be 74 2d 41 b2 fe e7 fe 5e d5
       96 37 -49 -21 -63 -21 -66 116 45 65 -78 -2 -25 -2 94 -43
0000b0 2b 85 49 25 86 02 81 ed 2d f0 d8 0e 3b 06 7f c1
       43 -123 73 37 -122 2 -127 -19 45 -16 -40 14 59 6 127 -63
0000c0 3f ed 28 12 7f 1a 72 7f 59 18 e5 5b d2 6b ba 17
       63 -19 40 18 127 26 114 127 89 24 -27 91 -46 107 -70 23
0000d0 cb 46 c1 d4 00 ef 27 51 2e d6 e7 c8 e0 00 2a 81
       -53 70 -63 -44 0 -17 39 81 46 -42 -25 -56 -32 0 42 -127
0000e0 01 92 24 b9 1c bf 2a 9d a0 7b 7f 7a 16 37 69 0f
       1 -110 36 -71 28 -65 42 -99 -96 123 127 122 22 55 105 15
0000f0 c5 d5 b8 62 4f 8c e4 d6 4b b0 7e 97 88 9a 32 ff
       -59 -43 -72 98 79 -116 -28 -42 75 -80 126 -105 -120 -102 50 -1

tfl.pseudo_qconst23 i1 [128, 1, 1, 64]
000000 0d bb e8 2e e1 b3 fe f1 e0 21 ec db 16 b0 d2 32
       13 -69 -24 46 -31 -77 -2 -15 -32 33 -20 -37 22 -80 -46 50
000010 26 02 d6 2b 13 18 e6 17 54 f9 ee c5 d5 55 ec 02
       38 2 -42 43 19 24 -26 23 84 -7 -18 -59 -43 85 -20 2
000020 e7 aa b7 d9 fd 0a 57 43 11 20 30 c5 a6 07 36 7f
       -25 -86 -73 -39 -3 10 87 67 17 32 48 -59 -90 7 54 127
000030 44 c5 c4 2a c2 3c 06 dd fa e7 26 c6 05 07 f0 06
       68 -59 -60 42 -62 60 6 -35 -6 -25 38 -58 5 7 -16 6
000040 40 49 c7 59 1c c0 bc 13 c5 0c 4a 0a e9 2f 04 2c
       64 73 -57 89 28 -64 -68 19 -59 12 74 10 -23 47 4 44
000050 22 3b 45 05 34 e8 1d c7 f3 e9 81 49 44 01 f4 c2
       34 59 69 5 52 -24 29 -57 -13 -23 -127 73 68 1 -12 -62
000060 05 3f db 01 cd fc c7 16 16 0e e4 ab 0d 9d 02 b2
       5 63 -37 1 -51 -4 -57 22 22 14 -28 -85 13 -99 2 -78
000070 eb 41 0d 1f 3d d4 4c 2f 22 16 fc e5 d3 10 d7 7e
       -21 65 13 31 61 -44 76 47 34 22 -4 -27 -45 16 -41 126
000080 86 ca 5a 0e eb 0c 2c f3 e3 f1 e8 bd 2d c2 f4 15
       -122 -54 90 14 -21 12 44 -13 -29 -15 -24 -67 45 -62 -12 21
000090 47 06 d5 39 03 58 ed 2f 61 70 30 1f d4 26 ba 15
       71 6 -43 57 3 88 -19 47 97 112 48 31 -44 38 -70 21
0000a0 bb bd 52 ea 81 20 d4 3e 3a a4 ef a4 36 fc 20 65
       -69 -67 82 -22 -127 32 -44 62 58 -92 -17 -92 54 -4 32 101
0000b0 26 01 94 e3 fd d5 35 40 f5 14 11 d0 2d 48 c7 b4
       38 1 -108 -29 -3 -43 53 64 -11 20 17 -48 45 72 -57 -76
0000c0 14 cd 17 0e b9 f2 2d 03 16 27 66 de cd 44 42 53
       20 -51 23 14 -71 -14 45 3 22 39 102 -34 -51 68 66 83
0000d0 e3 95 4a ed e3 2f f7 43 0a 32 c5 07 14 24 b7 ae
       -29 -107 74 -19 -29 47 -9 67 10 50 -59 7 20 36 -73 -82
0000e0 10 31 d6 02 1c 0a 2b 35 d1 1d 2d 0f 2a d2 f4 81
       16 49 -42 2 28 10 43 53 -47 29 45 15 42 -46 -12 -127
0000f0 e5 5a dd d1 af 19 9b d9 1d 30 4e b1 42 29 55 b0
       -27 90 -35 -47 -81 25 -101 -39 29 48 78 -79 66 41 85 -80

tfl.pseudo_qconst25 i1 [1, 3, 3, 64]
000000 7f 15 f8 81 64 81 c1 03 81 2a ce 57 81 dc 09 ed
       127 21 -8 -127 100 -127 -63 3 -127 42 -50 87 -127 -36 9 -19
000010 fb f0 bc a6 81 b1 2e 47 5d 88 60 81 81 4a 81 3f
       -5 -16 -68 -90 -127 -79 46 71 93 -120 96 -127 -127 74 -127 63
000020 38 09 43 f9 b9 7f 71 81 14 5e dd f8 29 47 e1 fb
       56 9 67 -7 -71 127 113 -127 20 94 -35 -8 41 71 -31 -5
000030 81 f4 cf 93 cd fe f0 06 81 26 ce 14 69 81 01 4d
       -127 -12 -49 -109 -51 -2 -16 6 -127 38 -50 20 105 -127 1 77
000040 8f 81 ac 3c d6 b6 e8 a7 a8 0c c6 c8 08 8f fc 81
       -113 -127 -84 60 -42 -74 -24 -89 -88 12 -58 -56 8 -113 -4 -127
000050 21 7f 0e ac 44 d0 81 35 29 63 7f fb 2e a4 dd 7f
       33 127 14 -84 68 -48 -127 53 41 99 127 -5 46 -92 -35 127
000060 7f e6 f1 81 8f 3a a5 67 81 55 5d 24 7f e4 02 55
       127 -26 -15 -127 -113 58 -91 103 -127 85 93 36 127 -28 2 85
000070 08 81 ec ee b2 22 d8 dd cf 81 c7 7f de 35 81 81
       8 -127 -20 -18 -78 34 -40 -35 -49 -127 -57 127 -34 53 -127 -127
000080 ba f5 25 3c 2d 02 c9 a5 f1 dc f3 1c e5 c8 12 1e
       -70 -11 37 60 45 2 -55 -91 -15 -36 -13 28 -27 -56 18 30
000090 29 05 48 d7 03 d0 f2 34 28 3f bd e2 e9 1f c7 e9
       41 5 72 -41 3 -48 -14 52 40 63 -67 -30 -23 31 -57 -23
0000a0 40 8f ec c8 dd bd 46 b3 e8 b2 c6 4f 1d 8d 28 ed
       64 -113 -20 -56 -35 -67 70 -77 -24 -78 -58 79 29 -115 40 -19
0000b0 29 a0 cc 68 fc 05 3f 26 1b 3f ed bb ef 3c 2e ee
       41 -96 -52 104 -4 5 63 38 27 63 -19 -69 -17 60 46 -18
0000c0 42 fb 7f d5 7f cd a2 ee 6c ed f4 a0 35 81 7f 54
       66 -5 127 -43 127 -51 -94 -18 108 -19 -12 -96 53 -127 127 84
0000d0 aa f6 81 7f e5 69 a8 dd 81 f0 df 17 06 7f a8 16
       -86 -10 -127 127 -27 105 -88 -35 -127 -16 -33 23 6 127 -88 22
0000e0 31 c6 6b 9d fe 06 81 20 02 15 f5 a1 a5 bb 7f 7e
       49 -58 107 -99 -2 6 -127 32 2 21 -11 -95 -91 -69 127 126
0000f0 ea 8d 7f c6 81 81 07 7f b3 d9 e3 c6 7f a9 83 c4
       -22 -115 127 -58 -127 -127 7 127 -77 -39 -29 -58 127 -87 -125 -60

tfl.pseudo_qconst27 i1 [64, 1, 1, 96]
000000 2e 35 b5 c3 69 1c 21 d6 f8 0f 38 21 00 35 4b cf
       46 53 -75 -61 105 28 33 -42 -8 15 56 33 0 53 75 -49
000010 ff 31 20 21 d4 e7 19 d3 b7 f0 06 b2 b6 01 d7 25
       -1 49 32 33 -44 -25 25 -45 -73 -16 6 -78 -74 1 -41 37
000020 2d 03 f7 ec e8 43 14 eb 7f d9 04 ea d0 27 4d f8
       45 3 -9 -20 -24 67 20 -21 127 -39 4 -22 -48 39 77 -8
000030 da d4 f8 fb 62 1f 19 1b 63 00 54 35 dc d8 e0 ee
       -38 -44 -8 -5 98 31 25 27 99 0 84 53 -36 -40 -32 -18
000040 2b 0d b2 5a b8 e7 23 c9 b5 cc 53 5f c0 a8 12 a9
       43 13 -78 90 -72 -25 35 -55 -75 -52 83 95 -64 -88 18 -87
000050 d8 cd 14 21 f8 9d ca f9 1e 0f cc 2b 07 a1 53 37
       -40 -51 20 33 -8 -99 -54 -7 30 15 -52 43 7 -95 83 55
000060 11 23 d8 fb 0c ff f1 47 aa e9 4c 2a 38 26 17 fa
       17 35 -40 -5 12 -1 -15 71 -86 -23 76 42 56 38 23 -6
000070 43 ad f3 fb 21 fe f2 d3 19 d7 fa f3 fc 14 25 11
       67 -83 -13 -5 33 -2 -14 -45 25 -41 -6 -13 -4 20 37 17
000080 de e0 c5 f9 ea ae d3 cc dd 28 f8 bb 59 f1 ae d2
       -34 -32 -59 -7 -22 -82 -45 -52 -35 40 -8 -69 89 -15 -82 -46
000090 d8 b3 c6 c2 e4 18 f8 e2 3c dd ca 2f e4 2a 12 bf
       -40 -77 -58 -62 -28 24 -8 -30 60 -35 -54 47 -28 42 18 -65
0000a0 18 04 0e cf e4 3f cb fd 21 df fc 0d d6 3c cd e3
       24 4 14 -49 -28 63 -53 -3 33 -33 -4 13 -42 60 -51 -29
0000b0 cf 50 e4 1b f9 ba 0f 22 df 46 50 41 7f c6 4c 1e
       -49 80 -28 27 -7 -70 15 34 -33 70 80 65 127 -58 76 30
0000c0 e6 27 01 23 25 6c b6 36 ff 5f c9 09 a5 5e 02 29
       -26 39 1 35 37 108 -74 54 -1 95 -55 9 -91 94 2 41
0000d0 06 fe e8 38 19 d0 fa 46 f7 c7 dd 83 c2 09 07 ce
       6 -2 -24 56 25 -48 -6 70 -9 -57 -35 -125 -62 9 7 -50
0000e0 d3 fe 02 e5 81 22 e5 c3 13 b0 39 35 d8 e5 35 f2
       -45 -2 2 -27 -127 34 -27 -61 19 -80 57 53 -40 -27 53 -14
0000f0 ec 39 b3 2b ed d7 cf d8 35 34 16 18 70 25 a1 04
       -20 57 -77 43 -19 -41 -49 -40 53 52 22 24 112 37 -95 4

tfl.pseudo_qconst29 i1 [1, 3, 3, 96]
000000 6f 5a d3 c1 81 f5 de 81 b8 27 8b 07 13 10 ae 45
       111 90 -45 -63 -127 -11 -34 -127 -72 39 -117 7 19 16 -82 69
000010 48 b5 38 b5 b9 7f 2f fa de 7f f2 c9 ca ff 75 0f
       72 -75 56 -75 -71 127 47 -6 -34 127 -14 -55 -54 -1 117 15
000020 0f a6 2d 9c bf 47 81 e7 fb 31 cd 7a 81 ae bd 1c
       15 -90 45 -100 -65 71 -127 -25 -5 49 -51 122 -127 -82 -67 28
000030 fc 47 be 7d 41 97 dd 98 c2 81 81 64 d7 29 b3 51
       -4 71 -66 125 65 -105 -35 -104 -62 -127 -127 100 -41 41 -77 81
000040 ed c4 0a 16 9d ac 2a 7f 74 6d 81 0c 72 fd cc 59
       -19 -60 10 22 -99 -84 42 127 116 109 -127 12 114 -3 -52 89
000050 8f fb 81 ee 81 c5 3a 0f c9 f7 7f 76 20 ef 2e 41
       -113 -5 -127 -18 -127 -59 58 15 -55 -9 127 118 32 -17 46 65
000060 01 9b a3 a6 b1 7f c3 90 13 32 ef 16 b3 55 c1 84
       1 -101 -93 -90 -79 127 -61 -112 19 50 -17 22 -77 85 -63 -124
000070 f5 b1 f7 75 ce 37 cb 81 7f f6 5c 9d 14 b0 81 d9
       -11 -79 -9 117 -50 55 -53 -127 127 -10 92 -99 20 -80 -127 -39
000080 b7 c2 ef 2f 06 13 66 0c c0 7f 34 e0 a6 7b e2 be
       -73 -62 -17 47 6 19 102 12 -64 127 52 -32 -90 123 -30 -66
000090 9d a5 c8 2a fe a6 1c c1 38 28 85 62 47 7f 2e d3
       -99 -91 -56 42 -2 -90 28 -63 56 40 -123 98 71 127 46 -45
0000a0 3b 11 d5 35 00 be 81 07 0f 1e a1 47 d4 97 fe 7c
       59 17 -43 53 0 -66 -127 7 15 30 -95 71 -44 -105 -2 124
0000b0 7f 0a 03 04 14 7f 01 a4 39 f2 9d 67 5c 2c df 69
       127 10 3 4 20 127 1 -92 57 -14 -99 103 92 44 -33 105
0000c0 c9 81 7f e2 04 23 e4 3e 05 6d 19 57 81 3b 32 f8
       -55 -127 127 -30 4 35 -28 62 5 109 25 87 -127 59 50 -8
0000d0 9b 0b 7f 7f 11 8d 7f a4 12 a2 df 16 ab 07 c8 52
       -101 11 127 127 17 -115 127 -92 18 -94 -33 22 -85 7 -56 82
0000e0 e5 df 00 33 40 45 1d 2e 2d 42 7f 9c 02 af f5 bf
       -27 -33 0 51 64 69 29 46 45 66 127 -100 2 -81 -11 -65
0000f0 04 4c 33 ea e8 11 d1 7f 46 c2 c8 bf 5a f0 7f aa
       4 76 51 -22 -24 17 -47 127 70 -62 -56 -65 90 -16 127 -86

tfl.pseudo_qconst31 i1 [96, 1, 1, 64]
000000 21 c0 60 fe 1a f3 c7 21 d3 1a 10 7f 22 2b 19 0e
       33 -64 96 -2 26 -13 -57 33 -45 26 16 127 34 43 25 14
000010 61 30 fa 1e 31 cc ef d0 f2 2f 3a fa 2f ab 0b 08
       97 48 -6 30 49 -52 -17 -48 -14 47 58 -6 47 -85 11 8
000020 03 e1 d2 f0 21 1b c6 05 03 d0 bc 02 2b d1 2c 3b
       3 -31 -46 -16 33 27 -58 5 3 -48 -68 2 43 -47 44 59
000030 1c ab b3 2a e8 5a e1 b4 e8 27 1e ea f8 0b 03 07
       28 -85 -77 42 -24 90 -31 -76 -24 39 30 -22 -8 11 3 7
000040 c6 b0 f9 f7 f2 33 27 fd f1 e4 7f d7 d3 05 de 11
       -58 -80 -7 -9 -14 51 39 -3 -15 -28 127 -41 -45 5 -34 17
000050 29 db e3 c0 fd e9 2c e4 dc a5 db 21 15 1f ca 1d
       41 -37 -29 -64 -3 -23 44 -28 -36 -91 -37 33 21 31 -54 29
000060 26 df fe 2d 5d 04 3d 45 00 3c e2 e6 13 1c f9 f9
       38 -33 -2 45 93 4 61 69 0 60 -30 -26 19 28 -7 -7
000070 f2 c6 0b 1c eb ea fe 2e 21 19 d3 de e3 29 d4 10
       -14 -58 11 28 -21 -22 -2 46 33 25 -45 -34 -29 41 -44 16
000080 f7 fa c8 e3 47 01 dc 45 35 07 38 06 24 c9 f3 de
       -9 -6 -56 -29 71 1 -36 69 53 7 56 6 36 -55 -13 -34
000090 b9 02 43 36 28 28 02 19 e5 e9 2c 7f 09 11 14 0a
       -71 2 67 54 40 40 2 25 -27 -23 44 127 9 17 20 10
0000a0 61 e8 54 1b c4 00 f7 1d d7 db 1e da d5 f6 f3 ba
       97 -24 84 27 -60 0 -9 29 -41 -37 30 -38 -43 -10 -13 -70
0000b0 b8 c3 30 28 1a 01 44 0e 28 f6 05 43 ef f7 1f 74
       -72 -61 48 40 26 1 68 14 40 -10 5 67 -17 -9 31 116
0000c0 e1 bc e5 28 aa dd 58 14 81 5f a6 50 9d e5 2f fd
       -31 -68 -27 40 -86 -35 88 20 -127 95 -90 80 -99 -27 47 -3
0000d0 f1 b0 60 a0 46 c4 08 00 ef 4a 0a dd c3 ae dc 3a
       -15 -80 96 -96 70 -60 8 0 -17 74 10 -35 -61 -82 -36 58
0000e0 36 41 39 4b 27 ef dd fa e1 07 f6 41 24 41 27 f0
       54 65 57 75 39 -17 -35 -6 -31 7 -10 65 36 65 39 -16
0000f0 09 f5 38 3c f7 f1 6b 37 2f 03 0d df 22 ed e8 30
       9 -11 56 60 -9 -15 107 55 47 3 13 -33 34 -19 -24 48

tfl.pseudo_qconst33 i1 [1, 3, 3, 64]
000000 81 39 8c 54 a9 d0 e1 7f f0 00 26 78 b3 d3 79 6c
       -127 57 -116 84 -87 -48 -31 127 -16 0 38 120 -77 -45 121 108
000010 0f 66 fa 81 0d cb 7f d8 31 ca 3d 7f 0e 7f 21 e2
       15 102 -6 -127 13 -53 127 -40 49 -54 61 127 14 127 33 -30
000020 7f 81 0f 04 1f eb 3f b3 e7 d1 ef 49 d7 41 81 81
       127 -127 15 4 31 -21 63 -77 -25 -47 -17 73 -41 65 -127 -127
000030 0b dc a9 7f aa 81 1b 9e c7 81 b5 81 4d 39 81 59
       11 -36 -87 127 -86 -127 27 -98 -57 -127 -75 -127 77 57 -127 89
000040 0f 5b cf 2b 81 7f d8 ab 3b 81 a9 88 ec 7f 5b a9
       15 91 -49 43 -127 127 -40 -85 59 -127 -87 -120 -20 127 91 -87
000050 b1 a6 c8 1f de 3f 84 4e 7f b8 81 a8 2c 2b 81 e1
       -79 -90 -56 31 -34 63 -124 78 127 -72 -127 -88 44 43 -127 -31
000060 7b fd 90 32 e1 2d b4 81 7f 44 0b df 04 4a ec 4f
       123 -3 -112 50 -31 45 -76 -127 127 68 11 -33 4 74 -20 79
000070 81 81 01 41 7f 49 fc d5 47 18 a4 38 70 7f 3d 7f
       -127 -127 1 65 127 73 -4 -43 71 24 -92 56 112 127 61 127
000080 5f 7f 5e bf f4 cd de fa e6 67 ae 81 9e 26 d1 03
       95 127 94 -65 -12 -51 -34 -6 -26 103 -82 -127 -98 38 -47 3
000090 7f e6 7f fe cd e0 94 2e bd 81 ac fc a1 d7 ba e2
       127 -26 127 -2 -51 -32 -108 46 -67 -127 -84 -4 -95 -41 -70 -30
0000a0 b2 0c d3 f2 a5 1a e3 ec cb bd 08 48 b9 2f 98 e1
       -78 12 -45 -14 -91 26 -29 -20 -53 -67 8 72 -71 47 -104 -31
0000b0 b6 0e 7f 51 ec 02 78 6c 9a 48 7f 4c 03 e2 4c 1a
       -74 14 127 81 -20 2 120 108 -102 72 127 76 3 -30 76 26
0000c0 e8 fe 0d ff ed 9d ff 7a 81 16 81 cc ce c5 9c c2
       -24 -2 13 -1 -19 -99 -1 122 -127 22 -127 -52 -50 -59 -100 -62
0000d0 38 81 30 8c 21 81 54 a4 91 fd 86 a7 a5 28 34 83
       56 -127 48 -116 33 -127 84 -92 -111 -3 -122 -89 -91 40 52 -125
0000e0 5a 3d 40 ec 81 3a 73 ff e6 5a 17 be 7f bb d5 36
       90 61 64 -20 -127 58 115 -1 -26 90 23 -66 127 -69 -43 54
0000f0 e3 6b c7 0e df c7 91 ae 7f e9 f0 b4 4d f1 f8 b6
       -29 107 -57 14 -33 -57 -111 -82 127 -23 -16 -76 77 -15 -8 -74

tfl.pseudo_qconst35 i1 [64, 1, 1, 80]
000000 05 c4 cd dd 31 e1 0a d5 ec 2f b3 27 0b e2 12 c8
       5 -60 -51 -35 49 -31 10 -43 -20 47 -77 39 11 -30 18 -56
000010 1c e7 2c fd f3 33 1f f4 0e 21 08 ae e0 fe b5 2a
       28 -25 44 -3 -13 51 31 -12 14 33 8 -82 -32 -2 -75 42
000020 c3 fe 19 15 3b 33 01 e7 11 e4 07 c8 bc fb 17 14
       -61 -2 25 21 59 51 1 -25 17 -28 7 -56 -68 -5 23 20
000030 eb 19 ee 5f 27 fe d0 81 24 c7 0f 36 ef f0 58 a5
       -21 25 -18 95 39 -2 -48 -127 36 -57 15 54 -17 -16 88 -91
000040 3f 0d e2 51 fb 1e 09 18 e1 ec e3 ee 1f c7 fc b3
       63 13 -30 81 -5 30 9 24 -31 -20 -29 -18 31 -57 -4 -77
000050 27 14 e9 06 31 73 b4 ad ab e3 f8 db 2f ee d2 e6
       39 20 -23 6 49 115 -76 -83 -85 -29 -8 -37 47 -18 -46 -26
000060 39 ae 4f d1 cb 11 0a 48 70 c0 0b ed 33 e5 6c d6
       57 -82 79 -47 -53 17 10 72 112 -64 11 -19 51 -27 108 -42
000070 c5 22 05 04 e6 2d 58 51 f1 01 81 65 2b d5 d1 d8
       -59 34 5 4 -26 45 88 81 -15 1 -127 101 43 -43 -47 -40
000080 12 ab 40 0d 2e d6 33 33 29 da ee 53 3e 4a 39 35
       18 -85 64 13 46 -42 51 51 41 -38 -18 83 62 74 57 53
000090 9d 11 be 6a 1e 19 ce 64 6a 3d be d5 20 11 46 ee
       -99 17 -66 106 30 25 -50 100 106 61 -66 -43 32 17 70 -18
0000a0 f7 5c 17 d5 c6 42 1a fd 14 0e 0c 07 f0 0c 36 0f
       -9 92 23 -43 -58 66 26 -3 20 14 12 7 -16 12 54 15
0000b0 02 a2 06 b9 2b d7 09 24 16 1a 3f d5 df ec d7 df
       2 -94 6 -71 43 -41 9 36 22 26 63 -43 -33 -20 -41 -33
0000c0 3b e9 81 f1 1e 3d 0a 9a 5a 4a f7 e1 07 2a 23 ec
       59 -23 -127 -15 30 61 10 -102 90 74 -9 -31 7 42 35 -20
0000d0 c5 dd df bc e2 1a 3d 02 c8 38 0f 45 e9 ac 22 23
       -59 -35 -33 -68 -30 26 61 2 -56 56 15 69 -23 -84 34 35
0000e0 0d d0 02 ce 19 c9 d9 c6 0e f4 0e f6 03 f4 cf 01
       13 -48 2 -50 25 -55 -39 -58 14 -12 14 -10 3 -12 -49 1
0000f0 2c 1f e9 02 60 f7 34 ff 2f f7 c5 e9 2a 04 c9 23
       44 31 -23 2 96 -9 52 -1 47 -9 -59 -23 42 4 -55 35

tfl.pseudo_qconst37 i1 [1, 3, 3, 80]
000000 24 f2 b3 83 eb 7f 81 e1 7f 98 c0 b8 e4 f6 fd c9
       36 -14 -77 -125 -21 127 -127 -31 127 -104 -64 -72 -28 -10 -3 -55
000010 49 81 1b 7f c1 7f 7f 31 51 dd d1 cb 05 c1 41 ab
       73 -127 27 127 -63 127 127 49 81 -35 -47 -53 5 -63 65 -85
000020 5a 81 cd 2a 79 7f 6a 17 3d f8 f4 44 81 81 3b 7f
       90 -127 -51 42 121 127 106 23 61 -8 -12 68 -127 -127 59 127
000030 1f f5 c7 81 fa a7 7f 2c 14 81 b4 02 eb 81 4b 03
       31 -11 -57 -127 -6 -89 127 44 20 -127 -76 2 -21 -127 75 3
000040 c4 79 81 b7 12 c3 7f 7f 11 31 d0 17 2f 40 51 f4
       -60 121 -127 -73 18 -61 127 127 17 49 -48 23 47 64 81 -12
000050 ce 7f f4 c6 e7 61 bf 1e 05 d9 81 23 7f ce c0 f9
       -50 127 -12 -58 -25 97 -65 30 5 -39 -127 35 127 -50 -64 -7
000060 7f 6e de 1b 81 58 f7 df 19 81 fe 60 38 1a ed ed
       127 110 -34 27 -127 88 -9 -33 25 -127 -2 96 56 26 -19 -19
000070 33 f2 f5 81 fe 40 81 7f e3 16 d1 d4 42 9a 4b b1
       51 -14 -11 -127 -2 64 -127 127 -29 22 -47 -44 66 -102 75 -79
000080 0f 67 c6 da 81 7f 01 83 58 1f 14 53 81 fe 2d e8
       15 103 -58 -38 -127 127 1 -125 88 31 20 83 -127 -2 45 -24
000090 e2 7f 98 c5 3b 14 48 47 1a fb ff e8 54 fb 63 a0
       -30 127 -104 -59 59 20 72 71 26 -5 -1 -24 84 -5 99 -96
0000a0 28 09 81 fb dd 1d d3 24 df 3b e0 3a 51 f4 13 1a
       40 9 -127 -5 -35 29 -45 36 -33 59 -32 58 81 -12 19 26
0000b0 bc 2b 46 0e aa 26 00 b8 20 dd 2c 5e 22 96 d7 ba
       -68 43 70 14 -86 38 0 -72 32 -35 44 94 34 -106 -41 -70
0000c0 de 14 37 c7 de 92 97 3a 46 54 20 0c 16 ef 27 e2
       -34 20 55 -57 -34 -110 -105 58 70 84 32 12 22 -17 39 -30
0000d0 7f 29 1a 0c f5 35 e3 49 db 29 19 c2 c7 4a e4 38
       127 41 26 12 -11 53 -29 73 -37 41 25 -62 -57 74 -28 56
0000e0 70 fd a3 2c 3f a0 b5 df 8e 0a 56 cd b1 f5 97 7f
       112 -3 -93 44 63 -96 -75 -33 -114 10 86 -51 -79 -11 -105 127
0000f0 18 52 08 02 fe 02 48 ad 40 03 f9 3a ce 81 04 df
       24 82 8 2 -2 2 72 -83 64 3 -7 58 -50 -127 4 -33

tfl.pseudo_qconst39 i1 [80, 1, 1, 48]
000000 d3 21 4d 01 f7 a0 3a 12 31 b3 3a 81 e3 29 d8 e2
       -45 33 77 1 -9 -96 58 18 49 -77 58 -127 -29 41 -40 -30
000010 3e de f6 04 c7 e1 5b 69 03 e4 28 02 c2 99 ae f1
       62 -34 -10 4 -57 -31 91 105 3 -28 40 2 -62 -103 -82 -15
000020 34 1f 2d ca cc 33 f5 f9 0c 25 e2 d2 d5 26 25 b6
       52 31 45 -54 -52 51 -11 -7 12 37 -30 -46 -43 38 37 -74
000030 f4 bb 13 de 1a df 04 30 0d c2 30 7f f7 03 15 f4
       -12 -69 19 -34 26 -33 4 48 13 -62 48 127 -9 3 21 -12
000040 17 2a de e0 f7 f8 2a e8 e7 b7 04 53 d4 1c e3 37
       23 42 -34 -32 -9 -8 42 -24 -25 -73 4 83 -44 28 -29 55
000050 e2 ce 0f ce d0 22 ca d3 24 cd 16 14 1a 2a 1b 13
       -30 -50 15 -50 -48 34 -54 -45 36 -51 22 20 26 42 27 19
000060 1c 81 f5 2e c8 00 b6 d3 39 a1 f0 4b 5f 04 2b 67
       28 -127 -11 46 -56 0 -74 -45 57 -95 -16 75 95 4 43 103
000070 dd fb aa 1c 3e ed 2a 17 a0 e1 d8 0b db 85 10 d4
       -35 -5 -86 28 62 -19 42 23 -96 -31 -40 11 -37 -123 16 -44
000080 13 1e ea af 21 62 ee 8e d1 ec bc f7 09 13 40 f0
       19 30 -22 -81 33 98 -18 -114 -47 -20 -68 -9 9 19 64 -16
000090 1c ae 0d 59 2e 24 1f 50 c6 3c 34 ec 21 ae 69 c5
       28 -82 13 89 46 36 31 80 -58 60 52 -20 33 -82 105 -59
0000a0 76 26 f4 30 3e 57 17 b8 93 f0 7f c3 09 36 d1 35
       118 38 -12 48 62 87 23 -72 -109 -16 127 -61 9 54 -47 53
0000b0 15 ab 93 9e aa a8 dd 1d c7 53 25 38 c7 17 fc d4
       21 -85 -109 -98 -86 -88 -35 29 -57 83 37 56 -57 23 -4 -44
0000c0 2a 56 07 e2 4b f4 c1 fd 41 d5 1b 41 f6 1e 32 f2
       42 86 7 -30 75 -12 -63 -3 65 -43 27 65 -10 30 50 -14
0000d0 f7 d3 e9 a2 69 e9 d7 47 f0 3f 7f 2b 07 00 d3 f9
       -9 -45 -23 -94 105 -23 -41 71 -16 63 127 43 7 0 -45 -7
0000e0 06 9b 4f 06 c3 b1 a7 00 7e ef ff a0 9a ee 03 e7
       6 -101 79 6 -61 -79 -89 0 126 -17 -1 -96 -102 -18 3 -25
0000f0 cb 12 e1 ef 5d 14 12 b9 e1 bb 4a ef df 29 2a 28
       -53 18 -31 -17 93 20 18 -71 -31 -69 74 -17 -33 41 42 40

tfl.pseudo_qconst41 i1 [1, 3, 3, 48]
000000 9b 1a a8 2c cc c7 81 b3 35 dc be 81 db 38 81 10
       -101 26 -88 44 -52 -57 -127 -77 53 -36 -66 -127 -37 56 -127 16
000010 4e 81 7f 7b 15 19 d4 df 51 bc 09 7f 13 32 8d b8
       78 -127 127 123 21 25 -44 -33 81 -68 9 127 19 50 -115 -72
000020 35 5d 7f 8c 35 fd 0f eb 5d 84 d4 7e 3f fa 0b 36
       53 93 127 -116 53 -3 15 -21 93 -124 -44 126 63 -6 11 54
000030 a2 2d e7 81 d9 d4 a1 b2 81 0a 0c 85 d9 46 e1 e3
       -94 45 -25 -127 -39 -44 -95 -78 -127 10 12 -123 -39 70 -31 -29
000040 71 de e2 fc 42 00 8f d1 54 c9 7f d1 0e 59 2d 1a
       113 -34 -30 -4 66 0 -113 -47 84 -55 127 -47 14 89 45 26
000050 52 6d b1 81 aa d3 81 e9 42 fe 20 7f 81 de 0b 57
       82 109 -79 -127 -86 -45 -127 -23 66 -2 32 127 -127 -34 11 87
000060 e6 d6 69 ce dc dc 1d db d9 ab f1 e0 bf 1a 51 ce
       -26 -42 105 -50 -36 -36 29 -37 -39 -85 -15 -32 -65 26 81 -50
000070 43 38 19 eb 16 7f ae 7f 81 12 6a 08 ce 1a ce 58
       67 56 25 -21 22 127 -82 127 -127 18 106 8 -50 26 -50 88
000080 04 30 d4 aa c0 81 bc 9b 32 7f 62 17 be ca 7b d8
       4 48 -44 -86 -64 -127 -68 -101 50 127 98 23 -66 -54 123 -40
000090 36 9a e4 01 9a 76 2c 9d 56 15 e1 a5 0d a1 eb 19
       54 -102 -28 1 -102 118 44 -99 86 21 -31 -91 13 -95 -21 25
0000a0 c8 bb dd 7f 7f 3a ec 4f 4c 7f 8d 57 39 97 7f 74
       -56 -69 -35 127 127 58 -20 79 76 127 -115 87 57 -105 127 116
0000b0 b1 1a 99 1f 81 19 e7 7f 90 e7 7f a7 42 21 fe 46
       -79 26 -103 31 -127 25 -25 127 -112 -25 127 -89 66 33 -2 70
0000c0 dd ad 4b 3d 7f 7f dd 81 b7 d1 05 bf 81 81 77 77
       -35 -83 75 61 127 127 -35 -127 -73 -47 5 -65 -127 -127 119 119
0000d0 82 da e6 d9 4c 2a cc b2 7b 35 a1 15 7f fe 45 6e
       -126 -38 -26 -39 76 42 -52 -78 123 53 -95 21 127 -2 69 110
0000e0 c6 44 e7 d5 ce 00 5c 2d ef c9 6e db ec 8e 7f 2d
       -58 68 -25 -43 -50 0 92 45 -17 -55 110 -37 -20 -114 127 45
0000f0 7f 81 2a 68 16 4c f5 d3 db 8e 81 f1 dc bd e2 63
       127 -127 42 104 22 76 -11 -45 -37 -114 -127 -15 -36 -67 -30 99

tfl.pseudo_qconst43 i1 [48, 1, 1, 16]
000000 09 81 09 fe 3c 77 2f b9 8f fd 8a 21 7b 64 5f c2
       9 -127 9 -2 60 119 47 -71 -113 -3 -118 33 123 100 95 -62
000010 cb db eb 5f 7f b8 1e 40 e5 09 6e d7 d4 bc e1 10
       -53 -37 -21 95 127 -72 30 64 -27 9 110 -41 -44 -68 -31 16
000020 39 c1 0f 0a d8 61 e1 81 08 b0 de 29 07 4f 2d e8
       57 -63 15 10 -40 97 -31 -127 8 -80 -34 41 7 79 45 -24
000030 2d 24 3b fe 1a 7f 49 0b ed a3 a1 b3 60 cc e2 5b
       45 36 59 -2 26 127 73 11 -19 -93 -95 -77 96 -52 -30 91
000040 60 35 88 04 d9 59 b0 21 fc 81 a9 9b 47 02 88 48
       96 53 -120 4 -39 89 -80 33 -4 -127 -87 -101 71 2 -120 72
000050 71 cf f7 dc 22 7f 17 da 8f 08 57 12 16 a4 19 49
       113 -49 -9 -36 34 127 23 -38 -113 8 87 18 22 -92 25 73
000060 ae 5c a3 bd ad d5 0f 29 03 15 f6 7f 10 2b 5f 95
       -82 92 -93 -67 -83 -43 15 41 3 21 -10 127 16 43 95 -107
000070 ad c7 c6 cd c0 c8 1a 29 12 7f a3 e2 ec 2c f7 ec
       -83 -57 -58 -51 -64 -56 26 41 18 127 -93 -30 -20 44 -9 -20
000080 12 ea a0 48 58 3c c4 81 1e f1 c7 cf 68 4c 9f f9
       18 -22 -96 72 88 60 -60 -127 30 -15 -57 -49 104 76 -97 -7
000090 81 1c 05 1e 16 bc 20 5c 2f 4b fa 52 25 e1 d5 ea
       -127 28 5 30 22 -68 32 92 47 75 -6 82 37 -31 -43 -22
0000a0 97 f0 0a c2 ca e9 33 cf c3 bc 81 41 4e 5c fc b9
       -105 -16 10 -62 -54 -23 51 -49 -61 -68 -127 65 78 92 -4 -71
0000b0 28 db e3 b2 7f 6e bb 92 35 27 18 e0 f7 5a 0a 55
       40 -37 -29 -78 127 110 -69 -110 53 39 24 -32 -9 90 10 85
0000c0 7f 43 24 ee 13 93 0e ef 4b 4b ca bd b6 4d 35 83
       127 67 36 -18 19 -109 14 -17 75 75 -54 -67 -74 77 53 -125
0000d0 e7 d7 4e 10 42 0d 81 ef 1b e2 47 33 0a 17 d1 2b
       -25 -41 78 16 66 13 -127 -17 27 -30 71 51 10 23 -47 43
0000e0 12 85 14 07 7f 59 c6 cd b1 e9 2d ef 3f e1 d9 d9
       18 -123 20 7 127 89 -58 -51 -79 -23 45 -17 63 -31 -39 -39
0000f0 a5 33 bd 37 ce 0c c8 67 d2 62 7f 07 26 15 17 37
       -91 51 -67 55 -50 12 -56 103 -46 98 127 7 38 21 23 55

tfl.pseudo_qconst45 i1 [1, 3, 3, 16]
000000 2f e5 d5 7f e5 04 b2 3f fd 64 23 9f 26 04 f6 96
       47 -27 -43 127 -27 4 -78 63 -3 100 35 -97 38 4 -10 -106
000010 5a 08 c0 3c d9 b3 e1 66 2e 56 32 81 ef e6 e2 d0
       90 8 -64 60 -39 -77 -31 102 46 86 50 -127 -17 -26 -30 -48
000020 28 34 cb 32 81 be 1f 33 a9 f9 42 99 2b ed 18 1e
       40 52 -53 50 -127 -66 31 51 -87 -7 66 -103 43 -19 24 30
000030 63 7f 0a 2b 47 b9 f4 46 81 7f 0b 08 ca 0e 8c 0b
       99 127 10 43 71 -71 -12 70 -127 127 11 8 -54 14 -116 11
000040 7f 71 e7 02 bb 81 c4 7f ef 76 23 00 7f 0a 81 d8
       127 113 -25 2 -69 -127 -60 127 -17 118 35 0 127 10 -127 -40
000050 1c 12 b4 18 9e bf b2 67 ee 21 04 23 24 c4 86 1d
       28 18 -76 24 -98 -65 -78 103 -18 33 4 35 36 -60 -122 29
000060 38 2f 7f 40 d1 c9 c0 06 c5 0b 9e e1 9e bf f5 7f
       56 47 127 64 -47 -55 -64 6 -59 11 -98 -31 -98 -65 -11 127
000070 16 fa ad cf 3d a8 82 59 c4 64 81 19 17 81 ac 24
       22 -6 -83 -49 61 -88 -126 89 -60 100 -127 25 23 -127 -84 36
000080 f8 c7 9e 26 34 06 81 46 72 2f be 5c 18 e9 9c c1
       -8 -57 -98 38 52 6 -127 70 114 47 -66 92 24 -23 -100 -63

tfl.pseudo_qconst47 i1 [16, 3, 3, 3]
000000 47 7f f7 23 b2 e5 96 a8 cf c9 13 5a d4 fd 40 d3
       71 127 -9 35 -78 -27 -106 -88 -49 -55 19 90 -44 -3 64 -45
000010 1f b3 05 2d 36 2e d2 8e af 1a 8e fd 21 2a 2c fe
       31 -77 5 45 54 46 -46 -114 -81 26 -114 -3 33 42 44 -2
000020 d2 e8 2c f7 2c 68 7f 3f 5f 58 1f 16 17 36 0d dd
       -46 -24 44 -9 44 104 127 63 95 88 31 22 23 54 13 -35
000030 e4 1f 0d fa cd 27 56 3c 4b a4 90 bd c9 de a4 d7
       -28 31 13 -6 -51 39 86 60 75 -92 -112 -67 -55 -34 -92 -41
000040 0f 9e b5 0c 81 d7 14 eb 47 ea 30 66 66 bb e3 63
       15 -98 -75 12 -127 -41 20 -21 71 -22 48 102 102 -69 -29 99
000050 f8 a2 81 9c f7 19 55 48 3f 53 f7 1a c0 96 f1 01
       -8 -94 -127 -100 -9 25 85 72 63 83 -9 26 -64 -106 -15 1
000060 97 86 fb 3e c7 b0 dd e7 31 91 b4 21 81 cb e6 05
       -105 -122 -5 62 -57 -80 -35 -25 49 -111 -76 33 -127 -53 -26 5
000070 b6 07 e0 af f7 8f bc 08 d7 1f 08 ac dd a9 18 e9
       -74 7 -32 -81 -9 -113 -68 8 -41 31 8 -84 -35 -87 24 -23
000080 12 c9 4b 26 b1 d7 29 26 a4 d4 48 e0 42 63 15 47
       18 -55 75 38 -79 -41 41 38 -92 -44 72 -32 66 99 21 71
000090 b5 f5 9b 81 c4 ba d2 ff e0 5a 5b dd 2b b0 36 c5
       -75 -11 -101 -127 -60 -70 -46 -1 -32 90 91 -35 43 -80 54 -59
0000a0 00 9e 2e e6 8c f2 de e9 4a 78 43 39 89 94 d5 0a
       0 -98 46 -26 -116 -14 -34 -23 74 120 67 57 -119 -108 -43 10
0000b0 25 f2 21 7f af b6 d0 ae 0e 93 1d 01 48 03 f7 34
       37 -14 33 127 -81 -74 -48 -82 14 -109 29 1 72 3 -9 52
0000c0 2b 2a 57 27 33 15 c3 39 0d f6 f2 f6 3a 29 15 d7
       43 42 87 39 51 21 -61 57 13 -10 -14 -10 58 41 21 -41
0000d0 99 a2 29 bc af b6 81 92 cc 11 5e e0 04 3d 03 c2
       -103 -94 41 -68 -81 -74 -127 -110 -52 17 94 -32 4 61 3 -62
0000e0 c2 ce d3 0e 26 1b d4 f5 db b8 b7 ec d3 d0 81 a6
       -62 -50 -45 14 38 27 -44 -11 -37 -72 -73 -20 -45 -48 -127 -90
0000f0 3b dc d4 3c 38 cd 81 9f d8 16 bc df 55 04 73 ab
       59 -36 -44 60 56 -51 -127 -97 -40 22 -68 -33 85 4 115 -85
