Homework 6/train/models/fdmobilenet.tflite (tflite, 176672 bytes, 48 tensors)

arith.constant f4 [8]
000000 08 4f e2 3d 36 2e 00 3e b8 8a 2b 3e 28 19 56 bd
       0.1105023 0.12517628 0.16752136 -0.052270085
000010 6e 36 7c bd 6f 16 1d 3f 78 ee 87 bd 18 3a 2a bd
       -0.061575346 0.61362356 -0.06637281 -0.04155931

arith.constant1 f4 [8, 3, 3, 3]
000000 68 49 ec 3d 2b 40 63 3e 20 fa cf 3e 71 7b 2e bd
       0.11537439 0.22192447 0.40620518 -0.04259819
000010 6f 50 d3 3e f5 7e a1 bd b9 6a f5 bd 8e 82 aa 3d
       0.41272303 -0.07885543 -0.11983246 0.083256826
000020 96 58 83 be 06 a5 a7 bc d7 96 61 be 43 5d 85 3e
       -0.25653523 -0.020464431 -0.22030197 0.26047716
000030 5b 8a 4b 3e 29 05 9a 3e fd 2c 71 be 02 79 61 3e
       0.19876997 0.30082062 -0.23552318 0.22018817
000040 ed 52 dc 3c 32 2a 1b 3e 59 c6 64 3e dd 1d 04 3e
       0.02689501 0.15152815 0.22341289 0.12902017
000050 b7 88 58 bd 62 26 f4 3e 12 0a ee 3d 3b 45 a2 3e
       -0.052864756 0.47685534 0.116230145 0.31693444
000060 0f ec db 3d 94 e2 d4 3e 46 6f 12 3f dd fd ef 3c
       0.10738384 0.41579115 0.5720104 0.029295856
000070 64 91 99 be bb 33 b9 3e 57 c0 dc be 21 8f d0 bd
       -0.29993737 0.3617228 -0.43115494 -0.1018355
000080 8e 48 bd 3d a6 1e 68 be 84 49 e7 bd 74 47 34 be
       0.09242354 -0.22667941 -0.11293319 -0.17605382
000090 ec 5f 71 3f 99 1c 39 3f b8 42 37 3e 0a 4a 19 be
       0.9428699 0.7230926 0.17896545 -0.1496965
0000a0 55 71 1a 3e 61 f3 bc 3e 1f 55 8a bc 44 ed b4 3d
       0.15082295 0.36904433 -0.016886292 0.08834317
0000b0 2c f2 f8 3e 71 62 90 3e 40 a6 d6 3d 41 8c e1 3e
       0.48622262 0.28200105 0.104809284 0.44052318
0000c0 fd 44 cf 3e 00 62 d5 3e 0c eb db 3d a9 04 c4 be
       0.4048232 0.4167633 0.10738191 -0.38284805
0000d0 26 b2 90 3e 86 2d 3f 3e 8d 8d 9a 3e 97 08 d8 bd
       0.28260916 0.1866971 0.3018612 -0.105485134
0000e0 e4 95 09 3f 04 99 c3 3d 12 37 9c 3e 09 5f 91 bd
       0.5374434 0.0955067 0.30510765 -0.07098205
0000f0 6d 7d d1 3e 3c 85 0b 3f ba 27 1f 3f 48 9d 24 3f
       0.40916005 0.54500175 0.6216999 0.6430249
000100 ae e9 e6 3e 7e e7 bc 3e e6 a2 1a be a1 0d d8 3d
       0.45100158 0.36895365 -0.15101203 0.105494745
000110 d8 13 4d 3e 4f 47 d3 bc c4 46 01 3c b0 0f b2 3e
       0.20027101 -0.025790839 0.007890407 0.34777594
000120 a9 26 a8 be d0 73 ed be e2 ef d0 3e de a2 95 3d
       -0.32841995 -0.4637742 0.40808016 0.07306455
000130 74 2b d8 3d e9 4f 23 bf d8 fc 5e 3e cc cc b5 be
       0.10555163 -0.6379381 0.2177614 -0.3550781
000140 89 15 16 be 64 86 fe 3e f6 ca 20 3f 06 04 68 bd
       -0.14656653 0.49711907 0.62809694 -0.056644462
000150 fe 69 07 3f a4 2f 0e 3f 77 09 50 3e 74 0a 25 3e
       0.52896106 0.55541444 0.2031611 0.16117269
000160 94 d7 ee be 20 c9 98 be 85 ea fa 3e 18 9c 41 3e
       -0.46648848 -0.29840946 0.4900705 0.18907201
000170 bb 0f 8c b7 46 06 56 bd 39 a0 fa 3e 41 1f 7e 3e
       -1.6696626e-05 -0.052252077 0.48950365 0.2481661
000180 04 0c 59 3e 3a 1a be bc 50 13 8a 3e 17 f8 77 3e
       0.2119599 -0.023205865 0.2696786 0.24215733
000190 19 4b 6b bd 4f 09 ee be 2b 23 66 be 07 ce fc bc
       -0.057444666 -0.46491477 -0.22474353 -0.03085996
0001a0 0e a1 a3 be 2b 2a 72 be 15 da a1 3e 46 12 bf 3e
       -0.31958812 -0.23648898 0.31611696 0.3731863
0001b0 b8 39 56 be 90 60 43 bf 7f 35 59 bf 10 6f 36 bf
       -0.20920455 -0.7631922 -0.84847254 -0.7126322
0001c0 ec 89 b0 3e df e5 0d bf 3c ec 52 3f 5b 8d af bd
       0.34480226 -0.5542888 0.82391715 -0.08571883
0001d0 da 2b 11 3f 59 d2 4d be c0 8a 1b bf 10 77 54 bf
       0.5670754 -0.20099773 -0.6075859 -0.82994175
0001e0 04 5d b0 bd a8 e7 dd be 3b d4 19 3f 8c 2e 1e 3f
       -0.08611491 -0.43340802 0.60089463 0.61789775
0001f0 88 ee 0c 3f a2 c0 05 3f 9a 71 d9 3c 79 b8 07 bf
       0.5505147 0.5224706 0.026543427 -0.5301586
000200 6a bf 13 3f 38 62 26 3f 59 de 3b 3e 49 1a 30 3f
       0.5771395 0.6499362 0.18346538 0.6879011
000210 b1 32 da be 45 1e 47 3f 29 4f e5 3e c9 cc 13 be
       -0.426168 0.7778056 0.44786957 -0.14433588
000220 e9 e2 11 3f e5 f0 27 3d cd 7a a8 be 02 17 84 bf
       0.5698686 0.04100122 -0.3290619 -1.0319521
000230 88 4b d7 be d1 12 fe bd 8f ed 06 3d 67 cf 83 bf
       -0.42049813 -0.12405933 0.032941397 -1.0297669
000240 9f 19 6b bd c0 5d ab 3e 6a 02 10 3f 63 9f f1 bd
       -0.05739748 0.33469963 0.56253684 -0.11797979
000250 ad 4c 1e bf ee 30 ce be 53 00 86 3d 08 28 42 3e
       -0.6183575 -0.40271705 0.065430306 0.18960583
000260 f1 eb 0a 3f e4 1d 03 be 58 04 ce be 25 88 ae 3d
       0.5426627 -0.12804371 -0.4023769 0.08522061
000270 7c 94 15 bf ce 35 8a bf 8c b6 e9 be 64 67 b8 3e
       -0.58429694 -1.079767 -0.45647085 0.3601638
000280 2e ea 08 bf e3 60 37 3f 26 7b ae 3d 56 d8 71 3e
       -0.5348233 0.7163221 0.085195825 0.23617682
000290 03 28 35 be 72 97 29 3e c5 87 a9 3d be c6 49 3d
       -0.17691045 0.16561678 0.08277849 0.0492618
0002a0 7b a3 b0 3d ce f1 84 bd bc 60 c4 3d f0 90 9a 3e
       0.086249314 -0.06491433 0.09588763 0.30188704
0002b0 c4 b8 9b bd f2 87 07 bb e4 0f fc bc 45 e9 96 3e
       -0.076036006 -0.0020680395 -0.030769296 0.29474846
0002c0 45 20 54 3e d0 f8 dc 3e 32 6b 6f 3e 66 44 08 3f
       0.20715435 0.4315858 0.23380736 0.5322937
0002d0 5b b5 27 3c 05 e3 83 3d 32 0b 1c be 1f a7 69 bd
       0.01023611 0.06439785 -0.15238646 -0.057044145
0002e0 b0 0b 3b 3e b0 fc 42 3d c2 30 82 3e 00 7c a1 3d
       0.18266177 0.047604263 0.25427824 0.07884979
0002f0 44 5a 13 be cf 46 0f 3f 96 89 09 3d f8 2e be 3e
       -0.14389902 0.5596742 0.033578478 0.3714521
000300 ea 11 95 be 50 0f 1a 3e bb 38 a0 3e f9 d9 2e bd
       -0.2911523 0.15044904 0.31293282 -0.042688344
000310 54 2d 48 3e 82 66 8f 3e 7b a9 0c bd 14 4b 0d be
       0.19548541 0.28007895 -0.034341317 -0.13798171
000320 fd 59 00 3e d9 8b 0b be aa 94 48 3d 37 df 15 3d
       0.12534328 -0.13627566 0.048969902 0.036589827
000330 20 c5 8f 3e 46 5f 16 3e c6 e6 b6 3e 36 30 06 be
       0.28080082 0.14684781 0.3572294 -0.13104329
000340 9b c2 03 3e 3b 70 5b 3e bf f0 6f be 68 79 02 3e
       0.12867205 0.21429531 -0.23431681 0.12741625
000350 31 3b 73 3e 96 fb e0 3c ef e5 a1 3e 75 30 ad 3e
       0.23753048 0.027463716 0.31620738 0.33826032

arith.constant8 f4 [1, 3, 3, 8]
000000 88 ee c8 be b6 43 72 be 9e 0b 8f be 8f 78 be 3d
       -0.39244485 -0.23658642 -0.2793855 0.093003385
000010 09 df 8a bd 79 20 c2 bd 28 97 07 be 93 21 59 be
       -0.06780822 -0.0947885 -0.13241255 -0.21204214
000020 99 2a da be ab 47 30 3d 3b cb 97 be c0 29 a6 3d
       -0.42610624 0.043037098 -0.2964724 0.08113432
000030 53 e2 5a be 65 58 b9 be e8 de 5e bd 71 d4 67 3c
       -0.21375398 -0.36200252 -0.0544118 0.014149771
000040 42 51 69 be 66 63 07 3e 36 cd c3 3d 41 e8 e1 bd
       -0.22784904 0.13221511 0.09560625 -0.11030627
000050 63 8a a8 bd 88 d9 b7 be 67 7e c2 3c 49 11 92 3e
       -0.0822952 -0.3590815 0.023741914 0.28528813
000060 66 6f dc 3c c3 63 69 be 7f 7b 14 be 29 b2 b5 bc
       0.026908588 -0.22791962 -0.14500235 -0.02217968
000070 9a d9 11 3e c1 49 04 be 4d 28 19 3e e3 80 f4 bd
       0.14243165 -0.1291876 0.1495678 -0.11938646
000080 5f c3 29 3b a5 c5 48 be 4b bf 95 3e df b3 9c bd
       0.0025903804 -0.19606645 0.29247507 -0.07651495
000090 c5 1a b1 3e 91 ce 61 be 3e 16 c7 3c a5 87 7b 3c
       0.34590736 -0.22051455 0.024302598 0.015352164
0000a0 cf c6 1a 3e 99 60 e5 bd 3b db a5 3e 42 a3 14 be
       0.15114902 -0.11200065 0.32393822 -0.14515403
0000b0 1c d3 85 3e 7d a7 6d be 77 fc 5e be 8e 73 11 3a
       0.26137626 -0.23208423 -0.21775995 0.000554853
0000c0 77 b0 49 3c d1 43 4d 3e f8 c6 29 3e 70 c6 29 3d
       0.012310139 0.20045401 0.16579807 0.04144901
0000d0 f4 99 93 3e bd f5 1e be e1 4a 0a 3e eb 1a b2 bd
       0.28828394 -0.15523429 0.13505127 -0.086965404
0000e0 ce 94 ae 3c 07 e6 af 3e ef 16 6e 3e 1a d6 98 be
       0.02131119 0.34355184 0.23250936 -0.29850847
0000f0 0e 61 9b 3e 81 90 6e be 8c 0b e2 ba 38 36 6f be
       0.30347484 -0.23297311 -0.0017245873 -0.23360527
000100 b7 61 b9 3d 91 d4 65 3e 12 d2 01 3e ce 3f 51 be
       0.09051841 0.22444369 0.12677792 -0.20434496
000110 61 fb 13 3e ad d8 a8 bd db e8 09 3e e6 c2 c0 bd
       0.14451362 -0.082444526 0.13467734 -0.09412174

arith.constant9 f4 [16, 1, 1, 8]
000000 5d 47 39 bf ac 31 3b be 36 1c 5e bd b4 60 02 bf
       -0.72374517 -0.18280667 -0.054226123 -0.5092881
000010 f9 61 f9 be f6 70 a3 3e ba af 0d bf 1d 41 10 bf
       -0.4870756 0.3192212 -0.5534626 -0.56349355
000020 c9 f6 6b be 09 98 1e 3f 8e 76 87 bd c8 89 ce be
       -0.2304336 0.6195074 -0.066144094 -0.40339494
000030 ad 1e 62 3f cd e8 bc 3e da a2 0f 3e b4 21 e5 3e
       0.8832806 0.36896363 0.14026967 0.44752276
000040 b9 f5 12 bf 3d 42 5a 3f b8 4b 4e bf 32 fb e1 3e
       -0.57406193 0.8525732 -0.8058429 0.4413696
000050 3c b2 6b 3b f8 dd 81 3f 8d d7 29 bf d3 a2 a7 3f
       0.003596439 1.0145864 -0.6634453 1.3096565
000060 d1 cb 7e be 5b 98 e0 be 59 85 28 bf d9 4e 1d 3f
       -0.24882437 -0.43866238 -0.6582847 0.61448437
000070 4d ea a5 bd bc e5 74 3e a3 3c 2b 3d e9 af 6c bf
       -0.0810133 0.23915762 0.041805875 -0.9245592
000080 7b 49 36 3f af cc df bc 6c 74 30 3f ce bd aa 3e
       0.7120587 -0.02731928 0.68927646 0.33347934
000090 30 e2 65 3f 4d 9d 11 3e 45 ff 78 be 79 a6 66 3e
       0.8979826 0.14220162 -0.24316128 0.22524442
0000a0 a8 af 45 be 2f 2a 6f bf c9 8f 1f 3f 9d df 0a 3d
       -0.19305289 -0.9342374 0.62328774 0.03390466
0000b0 5c 16 a8 bd 06 80 07 3f 3e 43 82 bf 31 6e 97 3f
       -0.0820739 0.52929723 -1.0176771 1.1830503
0000c0 ae fc 3e bf ea 21 24 be 2b 8a 3c 3f ee 92 73 3d
       -0.7460431 -0.16028562 0.7364833 0.059466295
0000d0 b1 cf 6a 3e 00 47 1c 3e b4 a5 7e be db 75 3c 3f
       0.2293079 0.1526146 -0.24867898 0.73617333
0000e0 ac 56 d0 bd 7f 8f 63 3e 58 99 1a 3f 9d 3e 98 be
       -0.10172781 0.22222708 0.60390234 -0.2973527
0000f0 38 2e 5a 3e ad 23 c4 3e d0 27 12 3e a9 06 75 be
       0.21306694 0.38308468 0.14273 -0.23928322
000100 12 d9 8a be 8c dd 2f be 8a 22 57 bf 08 02 5d be
       -0.27118737 -0.17174357 -0.8403708 -0.21582806
000110 4d 8c 83 bf 38 64 2b 3f eb 67 e0 3e a1 a4 05 3c
       -1.0277191 0.66949797 0.43829283 0.008156926
000120 e2 35 83 3f ad b8 f1 3e eb 68 ce 3d 25 53 41 be
       1.0250819 0.4721121 0.10078605 -0.18879373
000130 97 24 a4 3e f6 13 da be 61 f3 0f 3f e9 60 fb 3e
       0.32059166 -0.42593354 0.5623074 0.49097374
000140 0a cb e3 3d c9 94 1d 3f 90 ef 64 bf c2 ff 20 3f
       0.11122711 0.61555153 -0.89428043 0.62890255
000150 d6 19 25 3f 53 5d 40 3f 7d 3f 3a be 67 57 4a 3f
       0.6449255 0.751424 -0.18188281 0.79039615
000160 34 29 33 be 6d 8f 07 be 2f 40 03 3f 37 21 d1 be
       -0.17496186 -0.13238306 0.5126981 -0.40845653
000170 c9 fa e1 3d 2a 15 36 3f c5 2d 4e be 13 22 23 be
       0.110341616 0.71126044 -0.20134647 -0.15930967
000180 84 ac 2e 3e 5d 83 14 bf 10 c0 11 bf 85 49 61 3f
       0.17057997 -0.58012944 -0.5693369 0.88002807
000190 1e 3f 6c 3f 5d 37 57 bf bf 59 0a bf 09 4b a2 bd
       0.9228381 -0.8406885 -0.5404319 -0.07924468
0001a0 ef 5e da 3f 2e 7d 00 bf 14 80 94 be 25 cb 62 bf
       1.7060221 -0.5019101 -0.29003966 -0.88591224
0001b0 a2 60 e3 be 79 d7 40 40 f3 72 bd 3f 47 1f 03 bf
       -0.44409662 3.0131514 1.4800705 -0.512196
0001c0 9f 11 c3 be a3 2a 3c 3e cc 6c 9d 3e 1a d7 05 bf
       -0.3809938 0.1837564 0.30747068 -0.52281344
0001d0 00 81 46 3e 53 fd ef 3e af 50 d2 be 1d 22 e6 be
       0.19385147 0.4687296 -0.41077182 -0.449479
0001e0 55 72 02 bd 37 77 cd 3f 17 ba 4c 3e 25 ae 9a 3f
       -0.031847317 1.6052006 0.19992863 1.2084395
0001f0 4b 1c 79 bf 87 0e ea 3e 2f bc 65 bf df a7 15 3f
       -0.97308797 0.45714208 -0.8974027 0.58459276

arith.constant10 f4 [1, 3, 3, 16]
000000 1c c6 b6 bb 3d 5c 1c be f9 57 b1 3d 38 c0 58 bd
       -0.0055778157 -0.15269561 0.086593576 -0.05291769
000010 31 18 43 be d8 4b 91 3b 99 bf 52 be 11 b1 28 3e
       -0.19052197 0.00443409 -0.20580901 0.16473795
000020 f0 9e a4 bd 33 c0 5f bd 6f 96 0e be 47 6d 08 3e
       -0.080381274 -0.054626655 -0.13924573 0.13322936
000030 36 de d1 bb 9b 7c 15 be fe d5 56 3e 1e f7 8e be
       -0.0064046634 -0.14598314 0.20980069 -0.2792291
000040 7c f4 09 3e 76 9e ae be c1 48 94 3e cf dc 26 be
       0.1347217 -0.3410527 0.28961757 -0.1629517
000050 ff 01 19 be 16 0f b9 bd 58 e0 fa bd 52 22 54 3e
       -0.14942168 -0.090360805 -0.122498214 0.20716217
000060 1e c6 88 bc 8a 1f c9 be 96 b5 2b 3e e5 5e fb 3d
       -0.016696032 -0.39281875 0.16768488 0.12273959
000070 eb 02 7a be f9 8a 3d be f8 a5 5c 3d 41 42 92 be
       -0.24415176 -0.18510045 0.053869218 -0.28566173
000080 47 aa 6f 3c 8c e4 6e be 01 44 46 3e 00 26 08 bd
       0.014628 -0.23329371 0.19361879 -0.033239365
000090 2b 2d c7 bd e0 00 62 be 96 41 15 bd f6 f9 a4 3d
       -0.09725412 -0.22070646 -0.0364395 0.08055489
0000a0 c9 1d 03 be ca a1 cf be 8f de 01 3e 78 d8 65 3d
       -0.12804331 -0.40553123 0.12682556 0.056114644
0000b0 e4 cb 43 be cc 23 92 bd e6 f6 38 be 25 49 5a be
       -0.19120747 -0.07135734 -0.18062934 -0.21316965
0000c0 c4 7b 80 be 0a 29 9e 3c f6 77 9f 3d 68 ff 99 3e
       -0.25094426 0.019306678 0.077865526 0.30077672
0000d0 ea e0 a3 be 80 85 8e be f8 21 a9 3d 06 a7 c5 bd
       -0.32007533 -0.27836227 0.08258432 -0.09650998
0000e0 b7 ae 1b be 94 2a 0d 3e f4 fb 74 3e f4 14 1d be
       -0.15203367 0.13785774 0.23924237 -0.15340024
0000f0 77 3f 8c bd b4 ee 0b be 07 f5 a1 3e 9a 5a 7d be
       -0.068480425 -0.13665277 0.31632254 -0.24741593
000100 83 b8 01 be 19 9a 23 be c1 b0 73 3e 49 f0 fe 3d
       -0.12668042 -0.15976752 0.23797895 0.124481745
000110 a6 1e 48 3e 3d 37 ee bc f9 cf c2 bd 4c 0d 1a 3e
       0.19542941 -0.029079074 -0.09512324 0.15044135
000120 1e 4f 74 be 55 b1 3a bd cf 0f 16 3e 6b 3c 27 be
       -0.23858306 -0.045579273 0.14654468 -0.16331641
000130 89 22 a1 be 6c 66 41 be ea a0 a8 3d 05 6d b3 bd
       -0.3147166 -0.18886727 0.08233817 -0.08761028
000140 bc 41 61 3d ba cb f9 3d db 93 8e 3d 01 4f 50 be
       0.05499433 0.12197061 0.06961795 -0.20342638
000150 52 45 21 3e 6b 00 7f 3e 1b 51 3f be d7 35 51 be
       0.157491 0.24902503 -0.18683283 -0.20430695
000160 76 5a 3b be 2c ef 22 3e bb e6 c5 3d ae 15 47 bd
       -0.18296227 0.1591155 0.09663149 -0.04860466
000170 c9 e7 99 be 0f c6 e0 bd ee 06 ca 3d 79 57 16 3d
       -0.3005965 -0.10975277 0.09864603 0.036704514
000180 30 5f da 3d 65 db 62 3e 53 81 05 3d 93 19 ad 3d
       0.10662687 0.22154005 0.032594036 0.084521435
000190 b7 12 25 3e 53 59 72 3d 9d 6a 7e 3d 26 18 4b 3d
       0.1612042 0.059167217 0.062113393 0.049583577
0001a0 f8 cd d1 3b 39 91 25 bd 3b 7e f5 3d 97 07 5b be
       0.006402727 -0.0404217 0.11986967 -0.21389614
0001b0 fd ec 0f bd 14 7b 1d be 47 f4 cc 3b c8 53 01 be
       -0.03513812 -0.15378982 0.006254706 -0.12629616
0001c0 59 d9 34 3d 88 48 22 3d 9d 27 54 bd a9 52 14 3e
       0.04415259 0.039619952 -0.05179559 0.14484657
0001d0 04 5d 82 bd 53 df 2d be 21 44 7c 3e e9 87 f4 3d
       -0.063653976 -0.16979723 0.24635364 0.11939985
0001e0 52 a5 ad 3e 5b 17 3f bd eb 21 0a 3e 52 40 73 be
       0.33915192 -0.046653133 0.13489501 -0.23755005
0001f0 f4 04 24 be 19 0e e4 bd 10 24 88 be a9 ac 3f 3d
       -0.16017514 -0.111355014 -0.26590014 0.04679552
000200 82 9d 95 3e 4b be a3 3c 06 81 1a be 26 bc 45 bd
       0.2922173 0.0199882 -0.15088281 -0.048275135
000210 78 94 05 be 84 b8 0c 3d 3c b6 37 3e f9 33 80 be
       -0.13044918 0.034355655 0.1794061 -0.25039652
000220 12 3f d6 3d ab ff 72 bc e3 80 12 3e 6f f8 da 3d
       0.104612485 -0.014831464 0.14306979 0.10691916
000230 35 53 35 be 32 e7 85 bd e8 0c b9 3b f1 b0 da 3b
       -0.17707522 -0.06538238 0.0056472905 0.006673925

arith.constant11 f4 [32, 1, 1, 16]
000000 d0 e4 3b 3d bc 6d ad 3e 82 cb 8e 3f 3c 10 21 3f
       0.04587251 0.33872783 1.1155856 0.62915397
000010 37 a0 d2 bf 3a 1c 57 bf 16 2e c5 be 12 8a 2e bf
       -1.6455144 -0.84027445 -0.38511723 -0.6817943
000020 59 e9 b6 be 1d c0 c5 bc d5 d0 09 3f b7 a7 c0 3e
       -0.35724905 -0.024139458 0.5383428 0.37627956
000030 d3 70 98 3d b0 38 ab be f7 72 00 bf d2 e9 72 3e
       0.074433945 -0.33441687 -0.5017542 0.23722008
000040 5c c5 75 bf b6 bd 92 be 46 19 ab 3d 59 48 13 3f
       -0.9600427 -0.28660363 0.0835443 0.5753227
000050 db f6 79 be 64 06 83 be 27 de 84 3e 9f 9b c2 bd
       -0.24410574 -0.25590813 0.2595074 -0.095023386
000060 01 b2 00 3f f3 bc c8 bf 51 c8 7f 3f f1 52 72 3f
       0.5027161 -1.5682663 0.99915034 0.9465781
000070 7b 96 49 3f eb 40 e4 be d6 8f 22 3f 4a 85 20 be
       0.7874524 -0.44580778 0.63500726 -0.15675846
000080 d4 ab 8d bf 87 54 29 bf c5 64 05 bf a3 22 2f be
       -1.1068063 -0.66144603 -0.5210689 -0.17103057
000090 41 e5 db be 7e 1d e5 3d d2 60 de bf 9d 38 64 bf
       -0.42948344 0.11187266 -1.7373297 -0.89148885
0000a0 8d a4 f8 bf 39 a8 86 3e 6c e7 0c 3f f8 2d 5d bf
       -1.9425217 0.2630022 0.5504062 -0.8639827
0000b0 7d e5 5f bf 7e 39 08 bf f1 6e cb be 98 f9 2c bf
       -0.87459546 -0.53212726 -0.3973308 -0.6756835
0000c0 6f 26 01 3f 6e 85 26 bd 4c f1 6d bf 73 3f 40 bf
       0.5044927 -0.040654592 -0.92946315 -0.75096816
0000d0 94 1f 41 3f 19 de 88 3f 95 39 8e be 41 68 49 be
       0.7543881 1.0692779 -0.27778307 -0.19668676
0000e0 da ca b7 be cd fc 15 bf 74 26 9c be 25 a6 17 be
       -0.3589695 -0.5858887 -0.30498087 -0.14809473
0000f0 2c ea 01 bf 3e 16 fb 3e d7 a5 56 bf f4 bc c0 3e
       -0.5074794 0.49040407 -0.838468 0.3764416
000100 d1 21 79 be 66 50 92 3e 65 0f 03 bf 97 e1 b9 3e
       -0.24329306 0.28576964 -0.51195365 0.36304924
000110 a8 84 69 bf ac f8 02 3f cc 4b 29 3f 1e d8 7f bf
       -0.9121804 0.51160693 0.6613128 -0.99939144
000120 55 f4 1f 3e 8e 0f 3f 3f c8 5b cb be 55 2a eb 3e
       0.15620549 0.7463311 -0.3971846 0.45930734
000130 8b 8a 1a be e1 e3 76 3f 1a d8 28 3f d0 6b 53 3f
       -0.15091912 0.96441466 0.65954745 0.82586384
000140 1d a3 e6 be 87 fa 10 3e dc 27 93 3f 1c 49 2e 3e
       -0.4504632 0.14158069 1.1496539 0.17020077
000150 fb 80 6d bf 55 3b 6b be 18 bf 7e bf 3c 41 2d bf
       -0.92774934 -0.22971852 -0.99510336 -0.67677665
000160 13 a9 a4 bf 34 66 15 be 59 4e 90 bf ed 35 43 be
       -1.2864097 -0.14589769 -1.127391 -0.1906354
000170 b4 fe 8e 3e 31 c1 28 bd d0 86 da 3d df f6 c8 3e
       0.27928698 -0.041199867 0.10670245 0.39250848
000180 0b 47 9d bf c8 49 a1 bd 5f 3c 8e 3c dd 6d de 3e
       -1.2287306 -0.07875401 0.017362772 0.43443194
000190 51 6f 40 3f 3a 74 c3 be f9 a4 99 3e eb b0 31 3f
       0.75169855 -0.3817461 0.30008677 0.6941058
0001a0 f0 44 9a 3f 7e 3e 3d bf 37 4a 10 3f a1 1c 5f bf
       1.2052288 -0.7392348 0.5636324 -0.8715306
0001b0 1c ce 67 bf ac 38 42 3f 16 40 1f 3f 54 44 7e be
       -0.9054887 0.75867724 0.6220716 -0.24830753
0001c0 a2 16 a5 3e 19 de fe 3e 4d 51 ec 3d 2a 11 b0 bd
       0.3224383 0.49778822 0.115389444 -0.08597024
0001d0 ca e9 94 3f a6 bc 18 3c 09 9a dc be 32 2a f2 be
       1.1633847 0.009322321 -0.4308627 -0.47297817
0001e0 cf c8 fb bd 7f 0c 78 3f 83 e9 71 3f e4 09 21 bf
       -0.122941606 0.9689407 0.94496936 -0.62905717
0001f0 d2 f6 ff be 1e 54 49 3e 23 69 5f bf d5 51 9b be
       -0.49992996 0.19660994 -0.872698 -0.3033587
000200 5b 55 88 be 1d ba 03 be 9c 5d c2 bc 90 dd 44 3f
       -0.2662762 -0.12863965 -0.023726277 0.7690058
000210 7c 10 eb bd 22 1f 08 bf 3e 70 fc be e5 79 8f 3e
       -0.114777535 -0.53172505 -0.49304384 0.28022686
000220 19 13 6d bf 2e 5c 92 be 91 fa 14 be 8d 3d 8f 3f
       -0.92607266 -0.28585953 -0.14548708 1.1190659
000230 a0 ec 63 be 89 74 2a 3f b5 48 9f bc 81 3a e8 3e
       -0.22258234 0.6658407 -0.01944385 0.45357135
000240 9f 68 fc be 86 a1 a9 3f 6d c3 83 3f a5 f8 ef bf
       -0.4929857 1.3252418 1.0294014 -1.8747755
000250 25 f4 9f be b9 db 1e bf 27 51 2f 3f 4d 7b 11 3f
       -0.31240955 -0.6205402 0.68483204 0.5682877
000260 60 30 0c 3e ea 19 9d bf 65 84 bf bd 47 94 87 3f
       0.13690329 -1.2273533 -0.09351424 1.0592126
000270 bb c1 8f be 12 a2 a3 bf 17 e0 40 bf 9e 05 1f bf
       -0.28077492 -1.2783835 -0.75341934 -0.62117946
000280 0c 83 90 3d 52 bf 25 bf 64 2c 8b bf d7 4f 02 bf
       0.07056245 -0.64745057 -1.0872922 -0.50903076
000290 3e 82 34 bf 08 e6 bb bc 74 85 76 3d 5f 4a 9a 3f
       -0.70511234 -0.022936836 0.060185865 1.2053946
0002a0 c1 f9 89 bf 6e d2 29 3f fa 02 52 bd a6 c3 08 bf
       -1.0779344 0.66336715 -0.05127237 -0.53423536
0002b0 ef 03 a6 3f 3d cb 01 3e fc 12 13 3e af f1 57 be
       1.296995 0.12675186 0.1436271 -0.21088289
0002c0 a9 68 67 3c 7b 57 38 3c f8 7b 5f bf 5e 78 e3 3e
       0.014124074 0.011251326 -0.87298536 0.4442777
0002d0 4e 17 a7 3f 6e 58 86 3f 94 f5 72 3f 4c 27 b8 be
       1.3053987 1.0495737 0.9490597 -0.3596748
0002e0 f8 af 54 be b7 d3 1a bf fb a3 a8 be b0 b2 bb 3e
       -0.20770252 -0.604793 -0.32937607 0.36659765
0002f0 33 58 36 be 45 be 8a 3d db 4e d5 3e 3c 52 28 3f
       -0.17807083 0.06774572 0.41661724 0.6575048
000300 4c a8 7c 3f 19 41 23 bf 00 5e 09 bf 87 a1 6b bf
       0.986943 -0.63771206 -0.5365906 -0.92043346
000310 f5 b6 f1 be cf 6a 04 3f f7 c6 19 3d 84 1e 85 be
       -0.47209898 0.51725477 0.037543263 -0.25999844
000320 0e 93 92 bf 53 f9 2f bf f1 8e fc be d6 81 fd 3e
       -1.1451128 -0.68739814 -0.49327806 0.4951312
000330 49 6c e3 be 1e d2 4a 3f 87 a2 74 bf ec 70 9e bd
       -0.44418553 0.79226863 -0.955605 -0.07736382
000340 ba 3e d6 3e cc a8 3a bf 60 8b 5f bf 11 e3 fe be
       0.41844732 -0.72913814 -0.87322044 -0.49782613
000350 07 a3 8c 3e 93 fa 7c be 01 e1 44 3f 01 72 09 bf
       0.2746813 -0.24704961 0.7690583 -0.5368958
000360 f8 82 b5 bd f6 41 77 3f e8 a1 29 3f f5 a1 2f bf
       -0.08862871 0.96585023 0.66262674 -0.686065
000370 0b ea 11 be 1c 84 18 bf 7d b1 79 3f 8c 49 ab 3e
       -0.14249437 -0.5957658 0.9753645 0.3345455
000380 57 43 73 bd 34 d1 92 3f ee 8c 48 3f 37 f4 9a be
       -0.059390392 1.1470094 0.7834004 -0.30264446
000390 a8 c9 0e bf b8 aa fb 3e d6 24 2d 3f 29 e6 5f bf
       -0.55776453 0.49153686 0.6763433 -0.8746057
0003a0 f3 cf 16 3f c6 01 56 be 39 52 23 3e 6d c1 01 3f
       0.58911055 -0.20899114 0.15949334 0.5068577
0003b0 07 1d 42 bf 7c 99 93 3e 78 b1 52 be 40 10 2d bf
       -0.7582554 0.28828037 -0.20575511 -0.6760292
0003c0 6c 80 59 3f 41 2e 3b 3f 6b 74 13 3e 1e 81 48 3f
       0.8496158 0.7311745 0.14399879 0.7832202
0003d0 43 c1 67 3f 6d 91 37 bf 60 97 a2 be 3b b5 7d 3f
       0.9052927 -0.7170628 -0.31756115 0.9910466
0003e0 90 3d 9b 3f b2 a6 aa 3f 7a 31 94 3e 54 53 f7 3d
       1.2128162 1.3332121 0.28943998 0.120764405
0003f0 62 fc 93 be 7f 57 65 be b7 30 a0 be 06 4f a2 3c
       -0.2890349 -0.22396658 -0.31287166 0.019813072

arith.constant12 f4 [1, 3, 3, 32]
000000 33 8e 0f 3e 87 a2 93 3b 66 ce 51 be 6d 2b 3d 3d
       0.14019088 0.0045054588 -0.20488891 0.046183992
000010 28 10 25 be 9c 1a 7a be c5 37 90 be bb 46 42 bd
       -0.16119444 -0.24424213 -0.2816755 -0.047430735
000020 e1 df 52 3c 62 fc 2f be 06 90 e0 3d a7 2e 30 be
       0.01287076 -0.1718612 0.1096497 -0.17205296
000030 05 bf 05 bc b0 b4 3f be 8f cd 81 3e 60 b9 18 3c
       -0.008163218 -0.1872127 0.2535214 0.009321541
000040 b2 80 24 be 87 c8 19 3d 0e 42 55 be c7 cb ae 3e
       -0.16064718 0.037544753 -0.20825979 0.34139845
000050 f6 ca df bd d5 d9 cc bc 85 a1 02 3e f6 49 8d bd
       -0.109273836 -0.025006214 0.12756927 -0.068988726
000060 d1 87 03 3e d8 b7 90 bd 16 76 0d 3e b2 4b 1c be
       0.12844779 -0.070663154 0.13814577 -0.1526325
000070 5b d0 42 be 0a e0 7e be 24 7a 65 3c 86 e4 ca bd
       -0.19024794 -0.24890152 0.014006171 -0.09906869
000080 e0 9f f4 bd 46 43 e9 bb de 7e 1b be 82 9a 14 3e
       -0.11944556 -0.0071186153 -0.15185115 0.14512065
000090 ba 86 85 be c0 2b 7d 3e 2f 7b 5a bd 9c 3b d4 bd
       -0.2607935 0.2472372 -0.053340133 -0.10362932
0000a0 e7 0a a6 be 0d c4 79 3e fe a3 3c 3e c2 3d 0b bd
       -0.32430193 0.24391194 0.18421933 -0.033994444
0000b0 9b 87 9b bd 27 27 cf bd e2 33 2c be 84 53 7b bd
       -0.07594224 -0.101148896 -0.16816667 -0.061358944
0000c0 bd eb 4c be 51 12 1a 3c c2 69 a1 3d 83 17 14 be
       -0.20011802 0.009403781 0.078815 -0.14462094
0000d0 57 eb d5 3d a3 8f 2f be b0 a0 51 bd 52 93 2b 3e
       0.10445278 -0.17144637 -0.051178634 0.16755417
0000e0 3c 25 49 3a 62 d7 79 3e 98 b3 82 3e 4d 24 5e be
       0.000767309 0.24398568 0.25527644 -0.21693535
0000f0 c4 46 2c bd a4 47 1a 3e 9a dc 86 3e 57 b6 5f be
       -0.042059675 0.15066391 0.2634018 -0.21846901
000100 ee f7 3c be 35 a1 a6 3c 17 18 25 be 25 a6 1c be
       -0.18453953 0.020340541 -0.16122471 -0.15297754
000110 ec 38 27 b9 6b 33 04 be 17 cf be 3d 59 c2 16 be
       -0.00015947566 -0.1291024 0.09316843 -0.14722575
000120 3b 87 37 be 78 8d b7 bd fa c8 14 be 74 20 d3 3d
       -0.1792268 -0.0896253 -0.14529791 0.10308924
000130 26 64 31 3d 9c b3 0f be 96 97 06 3c bb 27 38 3d
       0.0433084 -0.1403336 0.008214852 0.044959765
000140 cf 09 5d 3c 7b 14 35 be dd 5e 2a bd 42 9b 57 3d
       0.013491108 -0.17683594 -0.041594375 0.0526383
000150 db 47 14 bc cb 75 31 be 6f 75 02 3e 07 89 01 3c
       -0.009050335 -0.1733009 0.1274011 0.007906205
000160 21 8b 36 3e 8f a4 ef 3b 94 61 ec 3d c1 fb 12 be
       0.17826511 0.007313318 0.11542049 -0.14353849
000170 da 33 ef bd b0 c4 1d be bc 3d 5c be 0c 07 7d 3d
       -0.11679812 -0.15407062 -0.21507925 0.0617743
000180 4a 58 cf 3d a0 fb 1e 3e f3 07 8d 3e 0b 44 26 be
       0.10124262 0.15525675 0.27545127 -0.16236894
000190 b2 93 e6 bd a9 d3 35 3e 85 60 fb bd 77 64 06 be
       -0.112586394 0.17756523 -0.12274269 -0.13124262
0001a0 31 e3 64 3e 4e 4b 8e 3e 83 58 1b be 67 81 45 3d
       0.22352292 0.27791828 -0.15170483 0.04821911
0001b0 82 ef 29 3e 1c 31 a9 3d 5c fe 37 be d6 c3 a0 be
       0.16595271 0.0826132 -0.17968124 -0.3139941
0001c0 2e 10 3f 3d c2 2e 18 be 89 ad 36 be 06 1d 78 3d
       0.04664629 -0.14861587 -0.17839636 0.060574554
0001d0 b8 01 84 bd 32 5e b5 bd da 74 b5 be 61 84 dc 3d
       -0.0644564 -0.08855857 -0.35440713 0.10767437
0001e0 2c aa 51 3e fd 17 b9 be b0 d7 00 be 73 0b 2d 3e
       0.20475072 -0.36151114 -0.12582278 0.16898899
0001f0 0c ff a1 bd 30 2f d1 bd d8 39 40 be 1c 73 84 39
       -0.079099745 -0.102140784 -0.18772066 0.00025262765
000200 42 e9 be 3d 57 93 81 3e b5 15 f5 bd 61 76 4d be
       0.09321834 0.25307724 -0.11967031 -0.20064689
000210 53 3a d6 3d 3e 6c 06 bd 08 be 50 3e cb 1c 33 3e
       0.10460343 -0.03281807 0.20384991 0.17491452
000220 da 9e 51 3e 0d 01 33 3d 46 b5 ab 3d ff 0d d9 3d
       0.20470753 0.043702174 0.083841845 0.10598373
000230 d9 5d 1d 3e cd 6a 49 3e da ef 18 bd f5 ac 0f 3e
       0.15367831 0.19669648 -0.037338115 0.14030822
000240 65 33 07 be 79 a0 22 be eb dd 54 3e 22 32 a4 bd
       -0.13203199 -0.15881528 0.2078778 -0.080173746
000250 d7 cc 55 3d b9 4b 48 3e 6a 52 48 3e ed 4a 41 3e
       0.052197304 0.19560136 0.19562688 0.18876238
000260 03 70 1e 3d a2 0b 2b 3e a0 4d 19 be a5 64 ef bd
       0.03868104 0.16703656 -0.14971018 -0.11689118
000270 4c bb c8 bd e6 74 a9 bd 3b d1 3e bd b2 d7 6b be
       -0.09801349 -0.0827425 -0.046586256 -0.230315
000280 f0 54 27 3c e4 7b 05 be 73 06 23 bd a5 a1 41 3e
       0.010213122 -0.13035542 -0.039801072 0.18909319
000290 a6 0b a1 bb 50 9c 30 be 68 84 76 bd 64 53 a9 bc
       -0.0049147187 -0.17247128 -0.060184866 -0.020669647
0002a0 34 23 b2 bc 11 18 3e 3d 86 30 f4 bd d2 d0 1b 3c
       -0.021745302 0.04640967 -0.119233176 0.009510236
0002b0 ca 2a 77 3e 95 79 20 bd 4c 28 38 be 82 7f f6 bd
       0.24137416 -0.03917845 -0.17984122 -0.12036039
0002c0 19 47 44 3d 6f d5 d7 bd 54 d7 49 3d 36 ac 98 bd
       0.047919367 -0.10538756 0.04927762 -0.07454722
0002d0 69 8e 1e be 36 1d ca bd 9f 5b 23 bc 42 26 fb 3b
       -0.15484013 -0.09868853 -0.009970575 0.007664473
0002e0 6b 48 9d 3d d8 54 e7 3a 55 e1 9d 3c 26 f9 ec 3c
       0.07679828 0.0017649187 0.019272486 0.028927397
0002f0 bb bb 3c 3d 8a da 7d 3d 9a 81 2a be 0e ae 8a bd
       0.04607747 0.061975993 -0.16651002 -0.067714795
000300 b3 e9 29 3e b0 76 ae bc cc 07 8b bd ef 07 a5 3d
       0.16593055 -0.021296829 -0.067885965 0.08058154
000310 b1 88 d1 bd 9e 5b 9d 3c 19 0d 1a bd 6a 7d 91 3e
       -0.1023115 0.019208726 -0.037610147 0.28415996
000320 07 fd 0f bd c2 a2 52 bc 2d b4 16 be a4 f8 21 3d
       -0.035153415 -0.012856187 -0.14717169 0.039543763
000330 29 b0 12 bd d3 1d 64 bc 13 62 87 3d 13 54 e6 bc
       -0.03581253 -0.013923126 0.06610503 -0.028116262
000340 de 8b d7 bd db 9e 30 3d a8 b0 64 3d d4 e2 16 3e
       -0.105247244 0.043120246 0.055832535 0.14734966
000350 25 4e e9 bc 68 b7 a8 bd 9e 39 e2 bd cd 22 ab 3d
       -0.028479645 -0.08238107 -0.11046146 0.08356247
000360 45 35 26 3e d3 d1 44 3d 66 f1 1d be 69 9c f3 bd
       0.16231258 0.048051666 -0.15424117 -0.11895067
000370 2e 5a 03 be 01 3f 9a 3d 0b c8 0a 3e 14 56 13 be
       -0.1282737 0.07531548 0.13552873 -0.14388305
000380 47 46 46 bd 13 c9 1d be bd 7a 78 3c e4 24 7c bc
       -0.048406865 -0.15408735 0.015165982 -0.015389655
000390 35 a6 3d bd 4c 47 be 3c 50 86 76 3d 93 b3 4f 3e
       -0.046301086 0.023227356 0.060186684 0.20283346
0003a0 74 1c e1 bd 2e 44 0a 3e 0f 58 37 3e 8b 1f 99 be
       -0.10991755 0.13502571 0.17904685 -0.29906878
0003b0 58 f5 3a 3e 6f f3 af bd 80 0a 2f 3e 89 d1 17 bd
       0.18257654 -0.08591353 0.17093849 -0.037065063
0003c0 cf 3f 7e be 43 9c 6d bd 2f 1c 6b bd c3 a0 ff bd
       -0.24829029 -0.05801035 -0.057399925 -0.12481835
0003d0 0e dd 09 be e3 6d 4e 3d 5e 4d 89 bd 24 a3 5a bd
       -0.13463232 0.050397765 -0.0670421 -0.05337824
0003e0 b3 a9 90 3b 51 34 6a 3d 36 e2 34 3d 09 44 0c be
       0.004414761 0.0571788 0.044161044 -0.13697828
0003f0 57 14 c1 3d 5c 81 55 be 43 dc 1f be 56 27 49 3e
       0.09427708 -0.20850128 -0.15611367 0.19643912

arith.constant13 f4 [1, 3, 3, 32]
000000 77 c4 52 3e 8e 9b 62 3c 33 b9 96 3d 5f 44 c6 bd
       0.20582758 0.013831032 0.07359543 -0.096810095
000010 18 48 48 3e 3c de 0d 3e 26 86 30 3e 4a 69 e8 bd
       0.19558752 0.13854307 0.17238674 -0.11348207
000020 a1 28 89 bd 35 51 54 be f1 37 06 3e 04 d2 c6 3c
       -0.066972025 -0.20734103 0.13107277 0.024270065
000030 98 0d 90 3e 4c 6c 8b 3d 2e bd 56 3e c5 21 68 3c
       0.2813537 0.06807765 0.20970604 0.0141682075
000040 ff f0 92 be ac b5 a4 3d 2f 0a c0 3d 56 86 3d 3d
       -0.2869949 0.08042464 0.09376942 0.04627069
000050 9c 03 10 3d ca 60 27 bd 7a c9 2a 3e 14 c9 fa 3d
       0.035159692 -0.04086379 0.1667842 0.12245384
000060 04 02 68 3e f2 20 9c 3e a9 c6 1c 3e 28 aa a6 bd
       0.22657019 0.30493885 0.15310158 -0.081379235
000070 cb 87 57 be 44 b3 8a 3e f3 5b 26 3e c2 79 01 be
       -0.21047895 0.27089894 0.16246013 -0.12644103
000080 26 4a 0d be 5b b2 7e 3e 65 24 1e 3c 58 dc d0 3d
       -0.13797817 0.24872725 0.009652232 0.10198277
000090 47 40 cf bd 37 0e 8e 3e fc 1f 26 3c 29 1a 44 3e
       -0.10119682 0.2774522 0.010139462 0.19150604
0000a0 81 7b 14 be 39 f6 3a 3e 91 d6 51 bd 0e ad 7a 3e
       -0.14500238 0.18257989 -0.051230017 0.24480078
0000b0 0f 21 69 bd 09 38 3c be 97 3d 90 be 71 b7 77 3e
       -0.056916293 -0.1838075 -0.2817199 0.24191071
0000c0 80 64 6d bd b0 ff ac bd f3 bf 28 bd 81 85 28 3e
       -0.057957172 -0.08447206 -0.041198682 0.16457178
0000d0 b3 c6 c8 bd 8c e6 47 bd 34 33 87 3d c3 bc f6 bd
       -0.09803524 -0.04880385 0.06601563 -0.12047722
0000e0 52 6e f4 3d bd a2 5d 3e ca 73 23 be 8d 81 62 be
       0.119351044 0.21644111 -0.15962139 -0.22119732
0000f0 f8 ce 0e bd 75 95 a9 3b 62 f6 d2 3d 70 31 57 3e
       -0.03486535 0.0051752874 0.103009 0.21014953
000100 ad e8 1b 3e 30 f5 b8 bd 62 a2 4a 3e d9 ff a4 3c
       0.15225478 -0.09031141 0.19788507 0.020141529
000110 04 58 cf 3b 05 4d c5 3d fa f5 1c be 41 9b 08 be
       0.006327631 0.09633831 -0.15328208 -0.13340475
000120 71 9e 2f be 34 62 8a bd a1 72 13 3e 8f 6e b3 bc
       -0.17150284 -0.06757012 0.14399196 -0.021903304
000130 da 36 f9 3d be 75 11 3e 8e 14 27 be bc 3c 34 3e
       0.12168665 0.14205071 -0.16316435 0.17601293
000140 7f 35 4d 3d 37 d6 0c 3e 84 f7 d3 3d be 26 b7 bd
       0.050099846 0.13753591 0.10349944 -0.08942936
000150 aa f0 26 bd b8 bc 60 3e 19 e2 18 3d 1d fb 38 be
       -0.04075686 0.2194699 0.037325 -0.18064542
000160 23 f2 eb 3d 9d 44 90 bc 03 7f 01 3c 2b a5 43 be
       0.11520793 -0.017610842 0.007903817 -0.19105975
000170 be 97 fc 3d de 93 31 3d 6f ce 7c bb d9 a8 18 3e
       0.1233363 0.043353908 -0.0038575192 0.1490816
000180 c6 42 02 be 6b 44 49 be 5e 1a ac bd 6f 57 1b bd
       -0.12720785 -0.19655006 -0.08403467 -0.03792518
000190 e8 77 83 3e d1 dc c3 3c a3 58 38 3e ca 63 38 3e
       0.2567742 0.023909004 0.18002562 0.18006817
0001a0 10 af 34 be 8d 54 3a 3e 28 6c d0 3d c2 d7 6e bd
       -0.17644906 0.18196316 0.10176879 -0.05831123
0001b0 8f d4 32 be ca b6 88 3d 6e 44 e1 3d 9b 41 b0 bd
       -0.17463897 0.06675489 0.1099938 -0.08606263
0001c0 27 10 18 be 77 0c 03 3e 44 58 73 be 8e df 83 bd
       -0.14849912 0.12797724 -0.2376414 -0.06439124
0001d0 76 b5 97 bd bc cb 33 3e 16 2e 4a be 5d 52 be 3d
       -0.07407658 0.17558187 -0.19744143 0.09293053
0001e0 1f 26 61 be f4 6c 8f 3c ec 63 69 bd 76 a7 36 be
       -0.21987198 0.017508008 -0.05698006 -0.17837319
0001f0 be 65 93 3d 32 cf 3a be e3 b8 ee bd 80 87 ec 3d
       0.0719714 -0.18243101 -0.11656358 0.11549282
000200 78 5f b4 3d 16 e9 22 be 7c d9 38 bc d0 2f 65 be
       0.08807272 -0.15909228 -0.011282321 -0.2238152
000210 9c c4 06 bd 8c d4 35 3e c3 95 3a 3e bf 75 23 be
       -0.032902345 0.17756861 0.18221192 -0.15962885
000220 6c f2 16 be db 5a df 3d 2c c3 f4 bd 2b df 3b 3e
       -0.14740914 0.10906001 -0.119512886 0.1834685
000230 e9 79 8c 3d e8 29 b2 3d c2 88 a3 bc 5c 84 87 bd
       0.0685919 0.08699399 -0.019962672 -0.066170424
000240 d4 7e fd bd b7 2d d8 3d e8 f3 2b be c4 29 ab 3d
       -0.12377706 0.105555944 -0.16792262 0.083575755
000250 3a 1f 54 be 2a fc 76 be 9e e8 24 be 7a df 8b bd
       -0.20715037 -0.2411963 -0.16104361 -0.06829734
000260 3f 56 82 3d 17 c9 61 3d 54 2d e1 3d 7a b4 53 3d
       0.063641064 0.055123415 0.10994974 0.051685788
000270 64 a5 f0 3c 83 d4 23 be e4 92 c9 3d 45 43 7d 3e
       0.02937574 -0.15999036 0.0984247 0.24732693
000280 4c 47 c6 3d a8 20 1e 3e 79 f8 76 bd 56 67 eb bd
       0.096815675 0.15442145 -0.060295556 -0.11494319
000290 79 b8 10 be 65 26 94 3d ee 1b f9 bd 9a af 22 3d
       -0.1413287 0.07233886 -0.1216353 0.039718248
0002a0 95 db 47 3e b7 58 87 bd e2 10 35 be 27 ce 2a 3d
       0.19517358 -0.06608718 -0.17682222 0.04170051
0002b0 e9 26 3e 3b 93 8d 2e be be 44 84 3d 17 ae 33 be
       0.0029014891 -0.17046194 0.06458424 -0.17546879
0002c0 da d3 eb bd 56 73 e4 3d 43 5d 56 3d de b0 a0 3d
       -0.11515017 0.11154811 0.052335035 0.07846235
0002d0 34 91 47 be f3 fb 51 3c 93 64 ef 3d 22 2d 48 be
       -0.19488984 0.012816417 0.11689105 -0.19548467
0002e0 b8 f2 47 be 89 67 f4 bc 1c 99 70 3e 1b 10 c0 bd
       -0.19526184 -0.029834526 0.23495907 -0.09378072
0002f0 b4 26 1c 3e 7b 94 0c be 82 4c 21 3e 24 7d d1 3d
       0.15249139 -0.13728516 0.15751842 0.10228947
000300 e7 02 25 be bf cb cc bd 20 f8 41 bd 2c f9 7b be
       -0.16114388 -0.09999799 -0.04735577 -0.2460677
000310 dd 05 01 3d f1 04 bd 3d 69 1b 2c be d6 a7 33 3d
       0.031499732 0.09229458 -0.16807331 0.043861233
000320 c7 8d f1 3c 40 c0 4f bd 60 5b c7 bd a8 98 c5 bd
       0.02948655 -0.050720453 -0.09734225 -0.096482575
000330 e7 b2 cc bd b2 55 63 3e 0a 65 f7 bd 12 df a8 bd
       -0.099950604 0.22200659 -0.120798185 -0.08245672
000340 82 16 1e 3e ef 14 ba bd e1 77 2b be 2f 39 85 bd
       0.15438274 -0.09086024 -0.16744949 -0.065050475
000350 3d d3 2c be 1e 0c 79 3d 9a ab 47 3e 40 4e 70 be
       -0.16877456 0.06080257 0.19499055 -0.2346735
000360 66 c0 ec 3d ad 18 4d 3d f4 75 09 3e 8c 85 14 3e
       0.115601346 0.05007236 0.13423902 0.14504069
000370 ce 69 3d bd 6c af 38 bd 52 5b 4b 3e c5 38 43 3c
       -0.04624348 -0.04508917 0.19859055 0.01191539
000380 ad b1 86 bd b2 31 c8 bd 5c 9c 85 be d7 a5 54 bd
       -0.06576858 -0.09775104 -0.26095855 -0.05191597
000390 41 ac f7 3c 3d af 0b 3d 98 a7 3a 3e 17 a2 16 bd
       0.030233504 0.034102667 0.18227994 -0.036775675
0003a0 67 77 77 3e 44 68 30 bd 8f 2b eb 3d de 09 cf 3d
       0.24166642 -0.043068185 0.114829175 0.10109304
0003b0 f5 bf 32 3e 22 7b 99 3d 79 8b d8 bd 89 81 ac 3d
       0.17456038 0.07494189 -0.10573477 0.08423144
0003c0 c1 fd c0 bc 9b 04 90 be 5b bd 26 bd 24 48 6c be
       -0.0235585 -0.28128514 -0.040707927 -0.23074394
0003d0 a0 b6 69 be 43 71 60 3d 83 01 ac 3b 1b f9 35 3e
       -0.22823572 0.054795515 0.0052492036 0.17770807
0003e0 13 fe d5 bd ad 98 0b 3d 2c 77 3f be f1 d1 5b bd
       -0.104488514 0.03408115 -0.18697804 -0.053667013
0003f0 00 54 90 be 0c 94 ae bb b6 20 fb bd 77 41 d1 bd
       -0.28189087 -0.005327707 -0.122620985 -0.102175646

arith.constant14 f4 [1, 3, 3, 64]
000000 b0 a1 41 3d 31 c5 ab bc 82 af 94 39 d5 5d ef 3d
       0.047273338 -0.020968052 0.00028359523 0.11687819
000010 ca ba bb 3d 99 7f 2c 3d 96 b7 6e bd 83 77 21 be
       0.091664866 0.042113874 -0.05828055 -0.15768246
000020 19 83 c0 3c f6 77 c1 bd 81 15 c5 3d 16 fd a6 3c
       0.023500012 -0.09446709 0.09623242 0.020384353
000030 58 da 33 bb 49 65 99 3e a8 e5 c0 bc 12 bd ee bc
       -0.0027443375 0.29960087 -0.023547009 -0.02914289
000040 a4 7a e0 bd 7e db 50 3e 41 bb 3d be 4b 6f fc bd
       -0.10960892 0.2039623 -0.18528463 -0.12325915
000050 ba 5a 1c 3d f0 a9 15 3e df 86 95 3d 27 c3 c4 3d
       0.03817246 0.14615607 0.07301115 0.09607535
000060 00 67 30 be 9b 3e 69 3c ae 16 21 3e bc d9 ec bd
       -0.17226791 0.014236118 0.15731308 -0.11564967
000070 53 ee 32 be 1e 41 75 be f7 3a 14 3d ff 58 b0 bd
       -0.17473726 -0.23950621 0.036189046 -0.08610725
000080 0c c4 d2 3d 71 9e aa bd de 7f ff 38 ba 7e ae bd
       0.10291299 -0.083310015 0.00012183165 -0.08520265
000090 87 04 47 bd bd 52 50 bd 01 79 2e 3e 90 42 25 3e
       -0.048588302 -0.050860155 0.17038347 0.16138673
0000a0 69 7a fb bc a9 cf 31 be dd 10 9b 39 3b df 8c bd
       -0.030698018 -0.17364372 0.00029576468 -0.06878515
0000b0 ed e6 ef bd ed 68 82 3e 9a ad d8 3d 65 8e 38 3e
       -0.117139675 0.25470677 0.10579987 0.18023069
0000c0 da 62 2d be 43 a6 8f bc 66 0b 0c 3d a1 18 bf 3d
       -0.1693224 -0.017535334 0.034190558 0.093308695
0000d0 d5 30 9f be 34 a6 fe 3d 77 cf 42 be 75 76 8d 3d
       -0.31091943 0.124340445 -0.19024454 0.069073595
0000e0 d5 a1 b3 bd 00 99 af 3c 07 aa 50 3e 9a d6 ab 3d
       -0.087711014 0.02143526 0.2037736 0.083905414
0000f0 1d 4a 2f 3e d7 6e 20 be 2b 5e 6f be 95 42 5f bd
       0.17118116 -0.15667282 -0.23375766 -0.054506857
000100 75 25 51 3e e7 23 6e be 99 a9 71 bd 36 2b 3e be
       0.20424445 -0.23255883 -0.05899963 -0.18571171
000110 b8 67 15 3e aa 63 8b 3d d0 17 5a 3e 13 89 e6 b9
       0.14590347 0.06806119 0.21298146 -0.00043971147
000120 4a fd 30 3e 5d 39 aa 3d 83 6b a9 bb 1a f0 fb 3d
       0.17284122 0.083117224 -0.005170287 0.12301655
000130 0f 5b 35 be f5 6c 83 bd fe 91 48 3e 2a 5c 18 3e
       -0.17710517 -0.06417266 0.19586942 0.14878908
000140 be 2e 38 be 0f 48 55 3d ba a5 c7 bd ca 46 3b 3e
       -0.1798658 0.052070674 -0.09748407 0.18288723
000150 71 5d 52 3e 0b 37 e9 3d 34 23 2c be f8 32 50 bd
       0.20543458 0.11387452 -0.16810304 -0.050829858
000160 01 9f fa 3c 22 5b 0f be 2e 62 c2 3d a9 7e 3c 3e
       0.030593397 -0.13999608 0.094913825 0.18407692
000170 e8 df 6e bd 00 3e 2c 3e 5e f3 1a 3e cc 48 c4 3d
       -0.058319002 0.16820526 0.151319 0.095841974
000180 da b7 ae bd 1e 8d e2 3d 97 1e b0 3d ee 2b 02 3e
       -0.08531161 0.11062072 0.085995845 0.1271207
000190 bc 25 16 be 29 b3 2a 3d d8 f9 97 bd 00 b0 70 3e
       -0.14662832 0.041674767 -0.07420701 0.23504639
0001a0 c0 e6 df bd 04 8a 1a be 85 e9 09 3e 47 68 0c 3d
       -0.10932684 -0.15091711 0.13467987 0.034279134
0001b0 a9 04 a9 3b 89 56 e1 bd 35 35 82 3b b2 cd 0e be
       0.0051580262 -0.110028334 0.003973628 -0.13945654
0001c0 bf 30 87 bd 71 28 1a 3d 4e 6a 21 be 65 22 e7 3d
       -0.066010945 0.037636224 -0.15763208 0.11285857
0001d0 33 d4 8a 3c b6 4c be bc 10 da a3 3d 1a 34 15 be
       0.016946888 -0.023229938 0.080005765 -0.14570656
0001e0 9d 86 7d be 7b da 81 3d a1 0b f5 bb 80 59 8f 3e
       -0.24758382 0.063405 -0.007478193 0.2799797
0001f0 4e 03 99 bd 72 50 25 3c f8 38 2f be ae 85 9b bd
       -0.074713334 0.01008998 -0.17111576 -0.07593857
000200 92 85 96 3d 07 a8 de bc 57 ed 89 3d 78 1a 1e bd
       0.07349695 -0.027179731 0.06734722 -0.03859946
000210 f0 82 6a be ca 44 13 bd bb a5 bb bd 3b 6b 72 bd
       -0.22901511 -0.035954274 -0.0916247 -0.059184294
000220 79 8e 6b bd 8e 17 b5 bc fa b0 4d bc 0f 05 2c be
       -0.05750892 -0.022105958 -0.0125544015 -0.16798805
000230 7a 5b ff 3c eb 1f c1 3d 91 8e 2d be 76 57 f8 bd
       0.03117155 0.09429916 -0.16948916 -0.12126057
000240 1d bc 2e be b7 c2 d3 3b 5f 6f 4c 3d f9 a4 ef 3d
       -0.17063947 0.006462421 0.0499109 0.11701388
000250 b8 73 39 3d be e9 57 be 68 41 1b 3e 40 ee df bc
       0.045276374 -0.2108526 0.15161669 -0.027335286
000260 f8 5d 19 bd 67 7e 25 bd f3 29 c7 3d 31 f0 e4 3c
       -0.03744313 -0.04040375 0.09724798 0.027946563
000270 fd c1 ee 3d a0 b2 00 be b6 e3 e6 3b ae ef 98 3e
       0.11658094 -0.1256814 0.007046188 0.2987036
000280 20 59 c2 3c 7e 6e 12 be 21 f9 5d 3d bc 63 19 3e
       0.023724139 -0.14299962 0.054192666 0.14979452
000290 a1 e2 9d 3d 69 43 0e be bf 8d ec 3c dc b3 61 bd
       0.07709242 -0.13892902 0.028876184 -0.055103168
0002a0 fe 74 84 bd 69 85 76 3d 5d 51 36 3e f5 53 1f 3d
       -0.06467627 0.060185824 0.17804475 0.038898427
0002b0 cc 61 12 3e ac 92 33 3e c8 bd bc bd 8e c3 54 3e
       0.14295119 0.1753642 -0.092158854 0.20777723
0002c0 39 e6 64 bd 40 0d 27 be 1c a7 8a bd e6 65 59 bd
       -0.05588362 -0.16313648 -0.06770155 -0.053075694
0002d0 2b 60 45 3c 83 7f c1 bd b1 8c a1 bd 97 e4 99 bd
       0.012046854 -0.09448149 -0.07888163 -0.07514303
0002e0 ac 81 3f be 5f e6 81 bd 1d 3f 64 3e 07 51 d9 bd
       -0.1870181 -0.06342768 0.22289701 -0.10611158
0002f0 37 0a 5a be 0a 95 0e 3e ae e7 dd 3d 0a 2b 29 3e
       -0.21292959 0.13924041 0.10835205 0.16520324
000300 12 60 05 3c 2a 16 c8 ba 04 38 94 3c 54 f5 e8 bd
       0.008140581 -0.0015265394 0.018093117 -0.113749176
000310 25 03 a6 3d 6c ff 40 3d 8c 5f b0 bd 04 1c 5f bc
       0.081060685 0.04711859 -0.08611974 -0.013617519
000320 fb 4f 49 be f1 ac 09 be 9b c8 0b be 16 7f 10 be
       -0.19659416 -0.13444878 -0.13650744 -0.1411098
000330 0f 6e 38 3d 17 02 2a 3d 41 5a e2 3d e4 2d 43 3b
       0.045026835 0.0415059 0.11052371 0.0029781992
000340 d9 08 fb bd 15 42 92 bd 98 75 a7 bc 5b 31 a4 3c
       -0.12257547 -0.071415104 -0.020441815 0.020043066
000350 d2 00 38 3e 18 5b 9e bb e4 ff 9b bd e5 35 7d 3c
       0.17969063 -0.0048326366 -0.07617167 0.015454744
000360 7f dd 45 3e d2 20 2e 3e bb 06 e2 bd 09 27 ca 3d
       0.19322775 0.17004707 -0.1103644 0.098707266
000370 0b bd 5d 3e d1 32 0a be e7 35 0f be 55 7b 15 3e
       0.21654145 -0.13495947 -0.13985406 0.14597829
000380 07 1f 05 be 58 26 e0 bd 25 d9 0d be 22 33 b9 bd
       -0.13000117 -0.109448135 -0.13852365 -0.09042956
000390 69 59 cc 3d a4 1e 77 3e 29 c8 b2 bc d7 5e 03 be
       0.09977991 0.24132782 -0.02182396 -0.12829147
0003a0 87 e7 d7 bd fe 23 3b 3d 99 1f 3d bd 58 8b 33 be
       -0.10542207 0.04568862 -0.046172712 -0.17533624
0003b0 95 d8 f3 3d 76 6b 72 3d 8d ca 0b bc 0e b1 fd bd
       0.11906544 0.059184514 -0.008532179 -0.12387286
0003c0 49 cd d7 bc a6 ec 1f 3e 97 3d 8d be 1e 0b 3e bd
       -0.026343005 0.15617618 -0.27586052 -0.04639732
0003d0 ed fe ec 3d f0 36 4b be 43 4c 34 3e 85 e7 4a 3d
       0.11572061 -0.19845176 0.17607217 0.0495372
0003e0 38 45 3e 3e 80 7f 66 3d 40 92 fe 3b 81 94 45 bd
       0.18581092 0.056273937 0.007768899 -0.048237327
0003f0 05 9f 27 be 01 7f 41 be 06 7a a0 3d fe ff c9 3d
       -0.16369255 -0.18896104 0.07835774 0.0986328
