Homework 6/train/models/mobilenet_v1.tflite (tflite, 275592 bytes, 56 tensors)

arith.constant f4 [8]
00000000: 06a0 0b3f 5303 7f3d ce49 d13e 2089 3dbc
00000010: cc8e 9bbe 74c5 f33e 8cfe 6a3d 9ff6 723e
0.5454105 0.06225903 0.4087662 -0.011568338 -0.30382383 0.47611582 0.05737166 0.23726891

arith.constant1 f4 [8, 3, 3, 3]
00000000: 4ade 313f 2f86 a2bd 0bf4 aabd 8325 1cbe
00000010: faf4 c93e 922c 27bb 9850 d5be 66ef 063e
00000020: 881b f3bc e2d2 b1be 169f 183e ce41 82be
00000030: 9076 ea3d a8b0 5abf 7376 a3be 058c 30bf
00000040: 6443 adbe f52e 27bf e589 01bf 2af5 d0be
00000050: 39ca 5ebf 8c8b f13e 8b1a 253f d0d1 37be
00000060: 00c1 053e 5e43 223f 39dc 393d 5c29 a23f
00000070: 877b 5e3f 8321 a2be 9029 823d fa92 18bf
00000080: 579e 4d3f 4f11 a3bf 36aa 86bf b1dc 533f
00000090: 7fa1 073f 0140 5ebf dc69 8b3e b5f5 e93d
000000a0: ec08 313f 92d8 993f 61ba 1bbf afa7 d8bf
000000b0: 2672 433e b8e2 983f 8596 0ebf 8d10 ac3f
000000c0: 16c0 ffbe 9c12 673e aebb 2a3f f8d1 63bf
000000d0: 55d5 d2be e55c d7bf b99a 0e3f ed55 0cbf
000000e0: 86ee acbe 9f4c f93e 6570 cbbe 0f00 1bbf
000000f0: d37a bdbe 86b2 b7be a221 febe 0c80 1c3e
00000100: 38cb 833f c09d 7f3f e5c6 73bf c509 adbe
00000110: 9e18 e6be ba84 5ebf a07f 083f dd30 aa3e
00000120: 1133 1c3d 424a 793f 06fe 413f 5330 3cbf
00000130: f61d 4cbf 6f8c 4fbf dc75 25bf 37a8 263e
00000140: 5406 833e 295e 2a3e 4a37 d13e 0922 7c3e
00000150: 7c73 503e 5217 563e 07d8 873c 2b85 863d
00000160: 6afc 15bf 5284 683e 0f12 a73e 3269 74bd
00000170: f4a4 f83e aa54 103f aa6a 553d 9594 c43e
00000180: cb63 a0bd b788 b33c 6ec7 003c 0fc2 943d
00000190: e606 08bf 2268 de3e 411a 04bf 6602 f3be
000001a0: 2b76 b33e 0d54 063f af27 7abe 68be 813c
000001b0: 8ba4 6dbf 8c8a 7c3f a841 b13d e86e 9e3f
000001c0: 4d9b a6bf aa20 d6bf a7ee 043f 45f7 bfbf
000001d0: cf48 babf 9d3d fe3f bc8c 883f ed6f edbe
000001e0: b6b1 cf3f 0c36 413d a10b 423f ec30 77bf
000001f0: c8fd 13be 7d5e a33f 5967 c0bf f34c a2bc
00000200: b137 bd3d 336e 81bf 83d3 743f 17c4 8d3f
00000210: a5ad 98be edeb 983f 8324 2ebd 6318 31be
00000220: ef6d d2be c038 823d c3d3 3ebe 1bbb ac3e
00000230: c17f bf3d df92 79bd 7e45 17be d46c a2be
00000240: 20ad 5d3e a55a bfbe c83b 45bc b250 85be
00000250: 919a 16bf 7927 b73e 3ddb 51be cdb5 f3be
00000260: 2c02 fbbd 9e88 e3bd 66d4 a2bd 86e5 a63e
00000270: 9d10 6a3e 10e6 8c3c b7ee debe 4f01 17bf
00000280: c6b0 91bc d4a9 8abe 9e87 3c3e 2738 fbbd
00000290: 96e1 b0bd e1cc e9bc 4971 7abe 78f9 ed3d
000002a0: a53c 52be 47e6 023d 8d11 963d f459 16be
000002b0: 9b22 cf3e 4bb5 12be 4457 ccbd e73d 883e
000002c0: d410 353e 6ea1 e13c 8c33 3ebd 0a57 8bbe
000002d0: 01f5 3c3e 308e 953e b8fa 36bd c9f6 873e
000002e0: 2df4 663e ef16 913e 40a9 863e 2af9 183e
000002f0: 0da9 273e ec3d 94bd 9c14 14bf 877c 9fbd
00000300: 4217 3abf 19d6 92bd 98b8 423e 41b3 33bf
00000310: a0a5 51bf 135e 5ebf bf32 d13e 09ad d3bd
00000320: bcb8 2b3f b21f 203f a792 873e 7b26 05bf
00000330: 1b7c af3e 94f8 05bf 14eb 6b3e f7b1 d6bd
00000340: 6663 23bf 3032 693f 97c1 c9be 632a b1bc
00000350: b141 753f 7553 213f e352 be3e 136b 0d3f
0.6947981 -0.0793575 -0.08347329 -0.15248685 0.39444715 -0.0025508744 -0.4166305 0.13177261
-0.029676214 -0.34731203 0.14904436 -0.2544083 0.11448395 -0.85425806 -0.31926307 -0.6896365
-0.33840477 -0.65306026 -0.50601035 -0.40812045 -0.8702732 0.47176778 0.64493626 -0.17951131
0.13061905 0.63384044 0.045376036 1.2668872 0.8690724 -0.31666192 0.06355584 -0.5959927
0.8031973 -1.2739657 -1.0520694 0.82758623 0.529808 -0.8681641 0.27229202 0.11423818
0.6915424 1.2019217 -0.60831267 -1.6926173 0.19086513 1.1944189 -0.55698425 1.3442551
-0.49951237 0.22565693 0.66692626 -0.8899226 -0.41178384 -1.6825224 0.5570484 -0.5481861
-0.3377573 0.4869127 -0.39734188 -0.60546964 -0.3700777 -0.3587839 -0.49635035 0.15283221
1.0296392 0.9985008 -0.95225364 -0.33796516 -0.44940656 -0.86921275 0.5331974 0.33240405
0.03813464 0.97378933 0.75778234 -0.73511237 -0.79733217 -0.8107366 -0.64632964 0.16275106
0.25590765 0.16637482 0.40862495 0.24622358 0.20356554 0.20907333 0.016582502 0.065683685
-0.5858828 0.22706726 0.32630965 -0.059670635 0.4856335 0.5637919 0.052103676 0.3839461
-0.07831534 0.021915777 0.007860048 0.07263576 -0.53135526 0.43438822 -0.5160256 -0.47462767
0.35051093 0.52472 -0.244292 0.015837863 -0.928292 0.98648906 0.08655101 1.2377596
-1.3016144 -1.6728718 0.51926655 -1.4997336 -1.455347 1.9862553 1.0667949 -0.46374455
1.6226108 0.047170684 0.75798994 -0.96559024 -0.14452279 1.276321 -1.5031539 -0.019812083
0.09239138 -1.0111755 0.9563524 1.1075467 -0.2981998 1.1946999 -0.04251529 -0.17294459
-0.41099498 0.063584805 -0.18635468 0.337365 0.09350539 -0.060931083 -0.14772603 -0.31723654
0.21648073 -0.37373844 -0.012038179 -0.26038128 -0.588296 0.35772303 -0.20493789 -0.4759964
-0.122562736 -0.11110042 -0.07950668 0.32596987 0.228579 0.017199546 -0.435415 -0.5898637
-0.017784487 -0.27082694 0.18411109 -0.122665696 -0.08636777 -0.028540077 -0.24457277 0.11619848
-0.20530947 0.03195789 0.07327566 -0.14682752 0.4045609 -0.1432697 -0.09977582 0.26609728
0.176822 0.027542796 -0.046435878 -0.27214843 0.18452837 0.29210043 -0.044672698 0.2655547
0.22554083 0.2833781 0.26301003 0.14938799 0.16373082 -0.07238373 -0.5784395 -0.077874236
-0.7269174 -0.07169742 0.1901573 -0.70195395 -0.8189335 -0.86862296 0.4085903 -0.10335738
0.6707876 0.62548363 0.26479074 -0.5201184 0.34274372 -0.52332425 0.23038894 -0.10483163
-0.63823545 0.91092205 -0.3940551 -0.021626657 0.9580336 0.6301797 0.37172613 0.5524151

arith.constant3 f4 [16, 1, 1, 8]
00000000: 8b7a ef3e 6ee0 093f 132c 0e3f 9a88 7fbe
00000010: 52dd dcbd 24f6 07bf 645b 04be 7bd6 35be
00000020: 5efc 4abe 11f6 e13d 8bb6 d03e e68b 563f
00000030: a071 40bf f3bb 0fbf 0668 07bf 9f3a f73e
00000040: 2914 35bf 4a89 fb3e adad 1a3f a751 933e
00000050: 7621 903e a1b5 d23e 777f 1c3e b63a 59bd
00000060: 61c8 123e aef1 8dbe a7b7 24bf a472 cb3e
00000070: 4077 f4be 3c94 aa3e f48b 5dbe d65a fd3e
00000080: fc0b 973e 10b9 f13e 7f22 b93e 4861 3dbe
00000090: 8f99 69be a379 4dbe 9874 34bf 6a73 5bbc
000000a0: be2e a9ba fb62 00bf c7fd d5be 0e04 6e3e
000000b0: 8783 afbe c15a 97be 7990 c2bd 5126 f2be
000000c0: b7c5 b0be d79c 173f e9c5 a1be 0cf3 eb3e
000000d0: efdc bdbe d889 bd3d fac6 2cbf 7602 843e
000000e0: 6626 c2be d409 a03e fd7b 3bbe 01d8 03be
000000f0: 7703 0b3f 94e3 f3be 9066 e23e 304a d9be
00000100: ac55 2b3f 7ca3 ab3e c270 1cbe 3518 133f
00000110: 5da3 eebe 5d5e 783e ffb5 2c3e c5e4 3b3e
00000120: e696 c13d 6ec9 f53c ce07 b73e 70e4 dfbe
00000130: ddb5 083f 61ba 953e 21a6 e63e f2c3 443f
00000140: f282 84bf e38b 493e be45 07be f182 a6be
00000150: 6fc3 58be f32f 323c b7f7 c63e 776f 6cbf
00000160: af84 93be 2c16 91bd 71eb 98be 5523 3a3e
00000170: 083b 743d 69ed b83e 96eb 0a3f 2099 18bf
00000180: 51c7 15be b9f7 d2bd 4316 2b3e f566 2cbf
00000190: 2040 9cbd 7902 943e 2450 b23e c5de a73e
000001a0: ef74 15bf 47b6 ad3e 3acf 573f 79f9 d2be
000001b0: 6c95 f3be 8fa2 12be 3d7d 1f3e bc2f 453e
000001c0: 6e27 f83c f253 42be dfe0 b83e 56cf b8be
000001d0: 01f6 9cbd fb5e 5a3e 03b3 2cbf 6044 fe3e
000001e0: a380 fb3e 1602 2d3f 5685 fc3e 6726 e5bd
000001f0: a656 09bf f4a9 743b 0ce4 9ebe 144a f1bd
0.4677318 0.5385808 0.55536 -0.24954453 -0.10784401 -0.53109956 -0.12925488 -0.17757599
-0.19822833 0.110332616 0.4076427 0.8380722 -0.7517338 -0.5614616 -0.528931 0.48286912
-0.70733887 0.4912818 0.6042126 0.28773233 0.2815053 0.41154197 0.15282999 -0.053034507
0.14334251 -0.2772345 -0.6434273 0.397359 -0.4774723 0.3331622 -0.21635419 0.49483365
0.2950133 0.47211504 0.3615913 -0.18494141 -0.22812484 -0.20065932 -0.7049041 -0.013394216
-0.0012907607 -0.5015103 -0.4179518 0.23243734 -0.34280035 -0.29561427 -0.09500212 -0.47294858
-0.34525844 0.59223694 -0.31596306 0.46083868 -0.3708262 0.09254807 -0.67491114 0.25783128
-0.3791992 0.31257498 -0.18309017 -0.12875368 0.5430216 -0.47634566 0.44218874 -0.42439413
0.669276 0.33523166 -0.15277389 0.5745881 -0.4660901 0.24254747 0.16866301 0.18348987
0.0945261 0.030003276 0.35748142 -0.4372897 0.534025 0.29243758 0.4504862 0.7686149
-1.0352461 0.19682269 -0.13210198 -0.32521775 -0.21168302 0.01087569 0.38860866 -0.9235758
-0.28812167 -0.07084307 -0.29867128 0.1817754 0.05962661 0.3611863 0.54265726 -0.5960865
-0.14626814 -0.103011556 0.16707711 -0.673446 -0.076294184 0.28908136 0.34826767 0.32787147
-0.5838155 0.3392813 0.8430058 -0.41205958 -0.47574937 -0.14319824 0.15575118 0.1925649
0.030292239 -0.18977335 0.36109063 -0.36095685 -0.07664109 0.21325295 -0.6746065 0.4966154
0.4912158 0.6758131 0.49320477 -0.11188965 -0.5364784 0.0037332745 -0.3103336 -0.117817074

arith.constant4 f4 [32, 1, 1, 16]
00000000: 2db7 c2be 5b25 593f 95f8 d33d a635 0c3e
00000010: c44b fabe 37fd 95be 377e 1b3f bbbe 89bd
00000020: cf5b 9f3e 132f d13e 670d d7be 6f5e 203f
00000030: 5945 b23e 19b3 62bf acab 7abe ed2d 1a3f
00000040: afec a5be 8c5f d6be 2828 cdbe 5639 da3d
00000050: ac9a 0d3d 2886 683d b37a bf3e f312 6fbe
00000060: 3c72 12bf 6407 283f c5ec a93e fa4d 9b3c
00000070: 270d c4be 39ed 113e 3df3 893e 24df 0f3e
00000080: 07d0 2c3f 4f86 d1be 8d37 d6be 36b3 16be
00000090: ee08 4c3e 2f99 9cbd 33ef 6f3f 37d6 f0be
000000a0: 0032 0ebf 8a71 073f eb05 abbe 3fce 3cbe
000000b0: 9c35 30bf 7d1d 73bb 281f f13e b98e 2bbf
000000c0: 5c42 edbe dd29 083f 13ab 683e 6cd3 ec3e
000000d0: dc58 c33e 65aa 983e 2c07 a5be 1163 08bf
000000e0: 088b 873c f4ae 2d3d a66a b0bd 8cc2 a23e
000000f0: efbb 3f3e 3c40 f43c 7ab4 413f 3d43 393b
00000100: 6837 093f 2eeb d7be 4f68 903d 8f52 193d
00000110: 4d08 f5be e74c c13d d53f 6d3d e21f 97bd
00000120: 6cf6 013d 9f2e 18bd 3f96 42be 11b9 e13e
00000130: 2680 08be 5a34 a0be 7027 4c3e c508 893e
00000140: a586 bf3e 82f3 18be ad24 1c3e 7211 263e
00000150: 6e4c dcbd d2ce 32be 75a4 b3be e9f2 273e
00000160: 69eb 0fbe 9778 fe3d 7483 433f cf33 2f3e
00000170: 1b2c c83e abf7 6ebe 7c7d bbbc 2ca3 c2be
00000180: 4f61 9c3e 2a61 153f d596 abbd 951b 833e
00000190: 81e0 853e 83c9 0bbe c6e7 7e3e f292 05bf
000001a0: c2ac e1be 56f7 0fbe b2ef 1a3c d1f8 1a3f
000001b0: f142 bb3e 5931 123e 6917 3d3d e4d2 f63e
000001c0: 12cc 18bd 74ad 05bf 9afe d8be 006a 323e
000001d0: 457f db3e 4bc7 003f 59a1 94be 77b4 69be
000001e0: 8370 f6bd 291d 9d3e 9ea0 e2be e4ff 9a3d
000001f0: 9504 793e 5f1d 073f 1e43 3a3f b161 17bf
00000200: 1c03 8c3e b0ed fb3d 8500 3cbe 001b c3bd
00000210: 31ef b7be 46cc f13d 2ea6 0bbf 0010 a13d
00000220: 680c 22bf 03a8 eabe e8a2 9d3e acc2 133d
00000230: e419 1938 6247 a6be d941 2c3d f57b a33e
00000240: 6791 db3e 7edd dcbe ab65 583d aadf 52be
00000250: 5f9c 043f a811 06bf 3393 023f f230 063e
00000260: f935 3d3e 8c6e 843e 8e95 f3bc d79c 153f
00000270: 0027 47be 90c1 0abf 506a 3dbe c6ca e33e
00000280: 5ad7 003e 6cb7 f9be 65f8 0dbf 9c6c ee3e
00000290: a3eb da3e 3649 0b3f 40ba 2d3f e0fd cd3e
000002a0: e9d9 8abe 21a9 a6be 126e b0bd 1925 be3e
000002b0: 845b a23d e6f3 f6bd 2a5f f63e 2eeb 0f3e
000002c0: 7e19 c3be e2e4 c2be e27b 103f bd85 31be
000002d0: ec42 943e 471f 96be f3a8 e23e a47d f13d
000002e0: d039 303d bb0d 1d3e 6476 803e 8e8f 803e
000002f0: 02e0 103f ade3 c53d f289 20be 4361 433d
00000300: 0d17 063e 6af7 e6be a5c2 45be 8a9a 9cbe
00000310: 2482 13be 88f3 9b3e 1923 64be 3900 4cbe
00000320: 6b10 1b3e 858f 89bd f792 e53e 443b 6bbd
00000330: c0f7 0c3e 7d05 9e3c 3922 aa3e b23c 02be
00000340: e12e 0abf 8cac 8bbe 5b94 97be c12c edbe
00000350: 0d24 b2be 884a 0c3f 5a1e 26bf bf22 443c
00000360: cf70 98be f68d 1f3f 88fa 08be 19eb f93b
00000370: 52da 0d3f cdc8 8b3d 7a64 04bf ac96 1ebe
00000380: e4e6 83be bf42 ca3e 8bef 8dbe 8624 253f
00000390: 0a0d 1cbf c56f 00be 1873 793f cd1d f6be
000003a0: 51cd dfbc be20 073f 256b 973d 6db2 103e
000003b0: 26dd 80bf e62d 44bf 4924 523e ac5f 35be
000003c0: 1566 a7be 3a62 1e3e 0f53 563f 3bb6 9dbe
000003d0: f536 b6be ce44 f33d 4ac9 303e bd7d 27be
000003e0: e25a 963e 0016 953e 095a f43d 6b87 923e
000003f0: c635 8cbd 1219 31bf a3fe 3d3e 55e6 9fbd
-0.38030377 0.84822625 0.10350148 0.1369234 -0.4888593 -0.2929475 0.60739464 -0.06725832
0.31124732 0.40856227 -0.42002413 0.62644094 0.34818533 -0.8855453 -0.2447955 0.6022633
-0.32407138 -0.4186977 -0.400697 0.10655467 0.034571335 0.056768566 0.373983 -0.23347072
-0.5720556 0.6563628 0.33188453 0.01895808 -0.38291284 0.1425065 0.2694339 0.14049965
0.67504925 -0.40922782 -0.41839257 -0.14716801 0.19925281 -0.07646405 0.93724364 -0.47038433
-0.55545044 0.5290762 -0.33402953 -0.18438052 -0.688318 -0.0037096434 0.47094083 -0.6701465
-0.4633969 0.5318888 0.2272151 0.46255052 0.38153732 0.298175 -0.32232034 -0.53276163
0.016545787 0.042403176 -0.086140916 0.31789052 0.18724035 0.029815786 0.7566601 0.0028268837
0.5360017 -0.42171615 0.07051145 0.03743225 -0.47857895 0.09438496 0.057922203 -0.07379128
0.031729147 -0.037153836 -0.19002627 0.44086507 -0.13330135 -0.3128994 0.19936919 0.26764503
0.37407413 -0.14936641 0.15248366 0.16217592 -0.10756765 -0.17461708 -0.35086408 0.16401257
-0.14054646 0.124253444 0.76372457 0.17109607 0.3909615 -0.23336665 -0.022886984 -0.38015115
0.3054299 0.58351386 -0.08378378 0.2560698 0.26147845 -0.1365109 0.24893102 -0.52177346
-0.44077116 -0.14059195 0.009456562 0.60535914 0.3657451 0.14276637 0.046164904 0.48207772
-0.03730399 -0.52217793 -0.42381746 0.17423248 0.42870536 0.50304097 -0.29029348 -0.22822748
-0.12033179 0.3068631 -0.44263166 0.075683385 0.24318154 0.5277919 0.7275866 -0.5913344
0.27346122 0.12301195 -0.18359573 -0.09526634 -0.35924676 0.1180654 -0.54550445 0.0786438
-0.6330018 -0.45831308 0.3078835 0.036074325 3.6502155e-05 -0.32476336 0.042054985 0.3193051
0.4288437 -0.43137735 0.052831333 -0.20593134 0.51801103 -0.5237069 0.5100586 0.13104609
0.1847762 0.2586559 -0.0297344 0.58442444 -0.19448471 -0.542016 -0.18497586 0.4449064
0.1258215 -0.48772752 -0.55457145 0.46567237 0.42757902 0.54408586 0.6786232 0.40232754
-0.27119377 -0.3255091 -0.08614744 0.37137678 0.079276115 -0.12058239 0.4811948 0.14054558
-0.38105386 -0.3806525 0.5643903 -0.17336173 0.28957307 -0.29320738 0.44269523 0.11791542
0.043023884 0.15337269 0.25090325 0.25109524 0.5659181 0.09662566 -0.15677622 0.047700178
0.1309473 -0.45110637 -0.19312532 -0.30586654 -0.14405113 0.30459237 -0.22279014 -0.1992196
0.15142982 -0.06716827 0.44838688 -0.057429567 0.13766384 0.019289726 0.33229235 -0.12718466
-0.5397778 -0.2728008 -0.29605374 -0.46323207 -0.3479313 0.54801226 -0.6489006 0.011971175
-0.29773566 0.6232599 -0.1337682 0.007626903 0.55411255 0.06825409 -0.51715815 -0.15487164
-0.25762093 0.39504048 -0.2772182 0.64508855 -0.60957396 -0.12542637 0.97441244 -0.4806961
-0.027319582 0.52784336 0.07393483 0.14130564 -1.0067489 -0.76632535 0.20521654 -0.17712277
-0.3269507 0.15467158 0.8372049 -0.30803093 -0.35588804 0.11878358 0.17264286 -0.16356559
0.29366213 0.29118347 0.11931235 0.2861894 -0.06846194 -0.6917888 0.18554167 -0.07807604

arith.constant5 f4 [1, 3, 3, 8]
00000000: ddd5 87bd 25fd c23c a5c7 60bf c62b 853f
00000010: 110c 273f 39a3 bd3e 15c3 7e3e ccfc 06bf
00000020: ad21 2ebf 93e9 3a3e 9a73 7e3e 4199 e9be
00000030: 2af6 edbe 3084 5bbf 0af1 8abd 207f 1cbf
00000040: adaa bb3e 7386 c43e 7906 8e3f 88b0 6e3f
00000050: 13e0 63bf 44da dbbf f544 0d3f 78e5 6ebf
00000060: 55bc 2bbf 5e73 cfbe 5de5 0e3f a48d 723f
00000070: 9056 293e 15c7 4c3d fe50 e5be e93d 173e
00000080: 1ba2 8dbc 4a10 133f 68e5 06bf 98ab 97bf
00000090: 5366 0c3e ccd2 c13f dd38 ef3e 1272 5e3f
000000a0: 2733 0f3e 9261 d43e 6dd8 9f3f 94e4 a2be
000000b0: 0069 683f 5252 e03f 561b 7d3f 647a 643d
000000c0: ce7a 8b3f e31f 673d 1ed9 79bf b2b2 953e
000000d0: b262 873e aa40 f23f bcfd 53bf c02b eebe
000000e0: f91f da3f ea87 d03e cffb e83e ef12 11bd
000000f0: 620f 013f c14a 3ec0 8afe ce3e d8bb 0f3f
00000100: ab97 e03f 7d7e 49bc 3b71 ff3e 6de2 35bf
00000110: 064a c0be ea41 12c0 ca97 543f ae14 6c3e
-0.06632588 0.02380235 -0.87804633 1.0403984 0.65252787 0.37038592 0.24879105 -0.5272949
-0.68020135 0.18253164 0.24848786 -0.45624736 -0.4647687 -0.8574858 -0.06784256 -0.6113148
0.36653653 0.38383827 1.1095725 0.93238115 -0.89013785 -1.7175984 0.55183345 -0.9331889
-0.67084247 -0.40517706 0.5581873 0.94747376 0.16536927 0.049994547 -0.44788355 0.1476971
-0.017289212 0.5744673 -0.52693796 -1.1849241 0.13710909 1.5142455 0.4672307 0.8689281
0.13984357 0.4148069 1.2487923 -0.31815016 0.9078522 1.7525122 0.98869836 0.055780783
1.0896852 0.056426894 -0.9759692 0.29237896 0.26442486 1.8925984 -0.8280904 -0.46517754
1.7041007 0.40728694 0.45504615 -0.035418447 0.504141 -2.9733126 0.40428573 0.56146
1.7546285 -0.012298224 0.49891075 -0.71048623 -0.37556475 -2.285273 0.8304411 0.23054764

arith.constant6 f4 [1, 3, 3, 16]
00000000: 9682 fa39 5992 8c3e 3147 673e 54d3 183f
00000010: 1b55 f0be 3a2d 82bf 7756 18bf 4bdc a1bd
00000020: 196d eebe 3c76 dc3d 176b 0bbe af4f cd3e
00000030: d2a6 1ebf dc0d 87be 917d 2cbf befa 7c3e
00000040: c4b6 1c3f 547c 173f 47ca 843e 36e3 a3bd
00000050: 94ae 61bf 2465 cebf 8811 f2be e2a9 b8be
00000060: bc66 d8be dd0e c03e 158d 58be c282 8a3f
00000070: a9d3 ec3e 2504 9abe deaa 50bf 9612 193f
00000080: e7c7 7f3e 33d6 c5be f1bd e4bd cf49 c7bf
00000090: 6167 35bf 94b2 a8bf d360 d8bc a964 49be
000000a0: 215d aebd e7f2 d23e 8347 453f 9399 58bf
000000b0: be5a 383f 01a8 cfbe de2e b9bf 07d1 f73e
000000c0: d01c 24bc ef46 fb3e 463f 0e3e fecf 763f
000000d0: 5579 f13e 98a8 5bbd 5b3b 2ebf 6369 12bd
000000e0: f6f0 77be e3c9 eb3d f6e1 5ebe 0da4 4bbf
000000f0: 1357 48bf 7a07 ebbe 2316 04bf 88b5 ce3d
00000100: 81bc f03e d88a 1d3f 1290 c73e 24d7 453f
00000110: 1606 6fbe b62b 233f ec63 48be 0d8b 8dbe
00000120: 7b05 75be 3178 683e eece e23e 548c d53e
00000130: 2923 7cbe cbd8 e8bd 5eda 1dbf 6c29 4b3e
00000140: 6a73 053f 6267 90be 8830 2e3e 77f7 a63c
00000150: ec41 26bf a99f 53bc 80cc 89be 80de d03c
00000160: d7e6 d0be 25e5 b83e 221f 4a3f 6a04 eebd
00000170: 34b0 3e3f 5871 543d f6b7 69be b40e 8e3e
00000180: 2fe8 aabe 2656 11be 55ba 0b3e 97ae 0f3f
00000190: d038 103e 88e8 723f 8cf7 59be 2ce5 11bf
000001a0: dd22 a8be 217f 1cbe 4f7e 3abe 0794 eabe
000001b0: c3d1 6cbe 840a 8abe dea4 b6bc 57ac f43d
000001c0: 6033 13be 390c ecbe 3ed8 793e e37a 373f
000001d0: 0679 32bd 1a43 a23e b2b3 da3d 7b40 15bf
000001e0: b4a7 91be e014 93bd f7eb 1f3f fcd4 c13b
000001f0: 6d3c 86bf 2c46 47be 489f 453f b5f4 b9bd
00000200: 0822 803c 7e8b 08bf d583 043e de09 653e
00000210: 8b68 2bbe b805 063f c4f4 1b3e b178 3d3e
00000220: 229a de3c 8072 1f3e 3a91 863e 5458 4dbf
00000230: 622a f7bd 3a55 62be b8cc 503f e806 583b
0.0004778101 0.27455404 0.22585751 0.5969746 -0.4693993 -1.0170052 -0.59506935 -0.07903346
-0.4656761 0.10764739 -0.1361507 0.40099856 -0.619733 -0.2637776 -0.673791 0.24705026
0.6121638 0.59174085 0.25935575 -0.080023214 -0.8815701 -1.6124616 -0.47279 -0.3606711
-0.4226588 0.3751134 -0.21147569 1.0821154 0.46255234 -0.30081287 -0.8151072 0.59793985
0.249786 -0.38639984 -0.11169041 -1.55694 -0.7086087 -1.3179498 -0.026413357 -0.19667305
-0.08513857 0.41200945 0.77062243 -0.84609336 0.7201346 -0.40557864 -1.4467428 0.48401663
-0.010016635 0.49077556 0.13891324 0.9641112 0.47162881 -0.05362758 -0.6805932 -0.035745036
-0.24213013 0.11513116 -0.21765885 -0.79547197 -0.78257865 -0.45904142 -0.5159628 0.10093218
0.47018817 0.61539984 0.38977104 0.77281404 -0.23342165 0.6373857 -0.19569367 -0.2764515
-0.23927872 0.227021 0.442985 0.41708624 -0.24622788 -0.11369475 -0.61661327 0.1984002
0.5212923 -0.28203875 0.170107 0.020381672 -0.6494434 -0.012916484 -0.26913834 0.025496721
-0.40801117 0.36112323 0.78953755 -0.11621936 0.74487615 0.051865906 -0.22824082 0.27745593
-0.33380267 -0.1419302 0.13645299 0.5612578 0.14084172 0.94886065 -0.21285838 -0.56990314
-0.328391 -0.15282871 -0.18212245 -0.4581606 -0.23126893 -0.26961148 -0.022295412 0.11946934
-0.14375067 -0.46103075 0.24398896 0.71671885 -0.04357245 0.3169182 0.106788054 -0.58301514
-0.2844826 -0.07181716 0.6246943 0.0059152823 -1.048719 -0.19460362 0.7719617 -0.09079877
0.015641227 -0.5333785 0.12940915 0.22367045 -0.16739099 0.52352476 0.1523009 0.18503071
0.027173106 0.15571022 0.26282674 -0.80212903 -0.12068631 -0.22102824 0.81562376 0.00329631

arith.constant7 f4 [1, 3, 3, 32]
00000000: 1a71 0b3f f0d8 d4be b441 cabd 6873 3cbe
00000010: b61f b13e 771c 4f3f 254d 9ebe b25d d33d
00000020: ab26 aabe 9f9a 1dbd b7e1 efbe fd95 3dbf
00000030: 51f9 0abe 55ae 9abe 29fc 173f 755f d9be
00000040: 5d09 7e3e ff23 1a3f c3c4 b7be 439d 733e
00000050: 7bb3 7b3f 9fa7 a2be 2ea1 b7be 48e4 aabe
00000060: e86d 843e 5d96 103e ecdc 093f f8f8 21bf
00000070: 9a34 e13c c510 6cbc d66f 8abf 7625 203f
00000080: a7f2 81bc 68a1 7abe 3e3e 213d 8ed6 fbbe
00000090: cf73 2a3e 247a c9be 6a1f a03e c827 8fbe
000000a0: 4fc5 0bbf 74c6 d7be 434a 83be 0059 cfbe
000000b0: 62b1 b5be d735 67bf 8393 353e 8d32 103d
000000c0: bd33 91be 264f 243f ca2f 103f 3e4d b33b
000000d0: d973 843f 8020 91bd 00ae 18bf 495d 5dbf
000000e0: 084e 3cbe a8af 523d bf9d 1abe 3cf7 29bf
000000f0: f3cf 34bf 1c53 38bf 7021 b7be 92f9 6a3d
00000100: 48af 883e f5ec cebd 5113 f6be 84f5 debe
00000110: f4d5 923e b74f 51be d32c 0cbd a1ff 1cbf
00000120: 4e84 94be 2c46 b7be 890a 333e 757b 313e
00000130: 1340 eebe 0412 2dbe 767f dd3d 2f2b 1d3f
00000140: 5952 773f 9d3d 2b3f 964f 393f 275d a2be
00000150: ac00 503f 4890 b23e 9c36 2bbe f2f4 2cbf
00000160: 1bac b03e 3a6b b13e 29fa 05bf 5423 003f
00000170: da46 94be 49f7 863e ade2 1c3f 937f ae3e
00000180: 2af6 8a3e c34f 29be 273e 5cbf 2595 9d3b
00000190: ce69 e5be 4566 283f 00b2 fdbc 2579 98be
000001a0: 9912 f93e b040 653f 32df 523f 6a8c 92bd
000001b0: 50bd 68bf dabb da3e ba5b aabd 7971 0abf
000001c0: 42bc b0bd 8044 babe fba2 27be b258 6e3e
000001d0: 30cd 193f bab5 4d3e f3d8 53be b36c 253d
000001e0: 065d 983e bc0b 03bf 3372 513f 649c 3b3f
000001f0: eb83 d93e a59e 993e 5613 94be 23c1 94be
00000200: df2e c8be e5a1 333e 1f38 963e a13e debd
00000210: 8e4d ecbe bd44 833e 61bd f5bd 8e48 6dbf
00000220: 5aa3 fb3e a6a2 243f 3a62 703e 8a74 be3d
00000230: d2ed b33f 2b5d 343e e4a1 92bf e508 863e
00000240: 10d2 d2bc b10f 9a3f 42b2 46bf 6e21 4cbf
00000250: af17 073f a4aa e4bd 30f7 edbe ad4a 02bf
00000260: 1383 22bf 3d65 8c3d 4628 cbbd fc63 083e
00000270: 61ae e2bc 890c 90be c869 bbbe 0038 dabd
00000280: 5451 28bf bcfb 863c 23fa 85bf b193 673e
00000290: 0e67 133f 93f9 78be f3ca 153e 4015 34be
000002a0: 0bda 903d 9114 2f3e 76be 6a3e 46d7 91bd
000002b0: 7477 523f f2f3 6bbf c14f 323f 02aa 1f3f
000002c0: 1f13 273f d5b1 c63e a4ed 3abd 53f5 febe
000002d0: 6e26 9f3e e43b 013f d68b aa3d d5b8 2a3e
000002e0: 1a4e 973e 4476 e33e ca0c 3e3b 8e91 38bf
000002f0: e1ef 1fbe 38e7 14be 50fa 33bd a0bd d33e
00000300: f8df 83bc b30a 07bf f5de 22be 4fe6 803e
00000310: 7804 36be 2fd3 44be 6d93 edbe 6c23 78be
00000320: ba19 403f 3ddc 743e 6f79 c2be c392 63bf
00000330: d75c 273f 0afe b5be 0189 583e 9437 d8bc
00000340: b62a 88be a4b4 063e 409b f4be bfaa c7be
00000350: 0030 c1be 6434 e23d c62e 3b3e cad5 7abe
00000360: 5bd6 323e 48db 0ebf 990a 7fbe 04ea acbe
00000370: a538 633d 9145 46bf 7708 8cbf 13fc ae3e
00000380: 6028 2abf ac59 a7bd fa55 ed3e 3668 0d3f
00000390: 02e5 de3e 6e22 2f3e 3b6c 4dbf 4cba ddbe
000003a0: 7708 283f 490d 07bd 1939 3bbf df68 fcbe
000003b0: 809a 933e a07b babe ee6d 5f3c 423c f83d
000003c0: caf6 bebe dbf3 ab3e f10f e13e d081 2dbe
000003d0: e73c 66bf 69cb 063f ee83 fabd 57fc 37bf
000003e0: 8be0 4dbf 833b 0fbe b726 5fbe 9d70 703e
000003f0: ba54 d1be 729b f53d 3f4e 843e 26b8 293f
0.54469454 -0.4157176 -0.09875813 -0.18403399 0.34594506 0.8090281 -0.30918232 0.10320605
-0.33232626 -0.038477536 -0.46851894 -0.7405699 -0.13571669 -0.3021113 0.5936914 -0.4245564
0.2480826 0.60211176 -0.35892305 0.2379046 0.9832074 -0.3176851 -0.35865158 -0.3337729
0.25865102 0.14119859 0.53852725 -0.6327052 0.027490903 -0.014408295 -1.081538 0.6255716
-0.015862776 -0.24475634 0.039366 -0.4918713 0.1664574 -0.39350998 0.31273967 -0.27960038
-0.54597944 -0.42143595 -0.25642595 -0.4049759 -0.35486895 -0.9031653 0.17732053 0.03520446
-0.28359786 0.6418327 0.5632292 0.0054718545 1.0347854 -0.07086277 -0.596405 -0.86470467
-0.18389142 0.05143705 -0.15099238 -0.66392875 -0.70629805 -0.72001815 -0.35767698 0.057366915
0.2669623 -0.1010379 -0.48061612 -0.4354669 0.28678858 -0.20440565 -0.034222435 -0.6132756
-0.2900719 -0.35795724 0.17484488 0.17332251 -0.4653326 -0.16901404 0.10815327 0.6139402
0.9661003 0.6689089 0.72387064 -0.31711695 0.81251025 0.34875703 -0.1672005 -0.67561257
0.34506306 0.3465212 -0.5233484 0.50053906 -0.28960305 0.2636054 0.6128338 0.34081706
0.27140933 -0.16534333 -0.86032337 0.004809039 -0.44807285 0.6578105 -0.030968666 -0.29779926
0.48647 0.8955183 0.8237182 -0.07155688 -0.9091387 0.42721444 -0.08318277 -0.54079396
-0.08629657 -0.36380386 -0.16370766 0.23276022 0.60078716 0.20088854 -0.20688228 0.040386867
0.2975847 -0.5118978 0.8181488 0.7328551 0.42483458 0.3000385 -0.28921002 -0.29053602
-0.3909826 0.17542227 0.29339692 -0.10851789 -0.4615292 0.2563838 -0.11999012 -0.92688835
0.49148065 0.6431068 0.2347497 0.09299572 1.4056952 0.17613666 -1.1455655 0.2617866
-0.025734931 1.2036039 -0.7761575 -0.7973851 0.52770513 -0.111653596 -0.46477652 -0.50895196
-0.63481253 0.06855247 -0.09919791 0.13319391 -0.027671041 -0.28134564 -0.36604142 -0.106552124
-0.65749097 0.016477458 -1.0466961 0.22614934 0.57579124 -0.24313955 0.146282 -0.17586231
0.070728384 0.17097689 0.22924218 -0.07121138 0.8221352 -0.92169106 0.69652945 0.62368786
0.6526355 0.3880755 -0.045636788 -0.49796543 0.31084007 0.5048201 0.08327453 0.1667207
0.29551774 0.44426167 0.0028999322 -0.720971 -0.1561885 -0.14541328 -0.04393989 0.4135561
-0.016098008 -0.527507 -0.15905364 0.25175712 -0.17775142 -0.19221185 -0.4640154 -0.24232262
0.75039256 0.23912139 -0.3798327 -0.88895816 0.6537604 -0.3554538 0.21146013 -0.02639369
-0.26595086 0.13154846 -0.47774696 -0.38997456 -0.37731934 0.11045149 0.18279561 -0.24495617
0.17464583 -0.55803347 -0.24906386 -0.3377229 0.055473942 -0.774499 -1.0940083 0.34176692
-0.6646786 -0.081714004 0.46354657 0.5523714 0.43534094 0.17102978 -0.8024327 -0.43306196
0.65637916 -0.032971654 -0.73134 -0.4929876 0.28828812 -0.36422443 0.013637049 0.12120868
-0.3729766 0.33584484 0.43957475 -0.16944051 -0.8993668 0.5265413 -0.12232195 -0.71869415
-0.8042075 -0.13987546 -0.21792112 0.23480459 -0.40884954 0.119925395 0.25840947 0.66296613

arith.constant8 f4 [1, 3, 3, 32]
00000000: 3c5d 683d f504 bb3e 2377 1b3f 8e33 e0be
00000010: 5ce8 fd3d d521 d2be 7db4 9d3e 0c8b 453f
00000020: cee8 5c3e a069 cfbe aa82 79be d580 913f
00000030: 4ced 333f 1ee1 87bd f828 ff3e 1aef 1ebf
00000040: fe95 083b 047d 32bf 44d6 533f 2e82 c83e
00000050: 2c84 f9be e357 10bf 7afc 79bf 4fcd 3dbe
00000060: 206c f7bc 7645 02bf 13d2 08bf 1736 f3be
00000070: c290 4cbf 7fc8 1c3e 01be c33e 8ed6 dd3e
00000080: 35fe 993e d3ba 44bf f77e 6f3f 7ccc 55be
00000090: d067 c2bc e241 51bf 4cc0 19bf ebbc d43e
000000a0: a672 f5be 3b39 323f c998 97bd d478 b73e
000000b0: 9784 c4be bafe ff3e 7087 b83e 8bce d7be
000000c0: 2ed4 31bf eaf3 77bf 7634 bb3f 4b67 113f
000000d0: 0dac ae3e 9b2b b0bc eb96 1bbf 8954 14bf
000000e0: 78df 1c3f 3f56 07bf a884 6ebf 57ec 30bf
000000f0: dfc5 a7bc 95e1 0e3d e39a c33e bd32 b93f
00000100: 3b80 3fbc 83c3 4fbf 2c01 de3e 1d86 6a3d
00000110: 90c7 4c3e a476 19bf 5862 ac3e 1053 81bd
00000120: 673e 423e 2c9f 813f 3a55 2d3b 0eb2 08bf
00000130: 80d1 ac3e 0343 7e3d e4d6 d93e a543 d8be
00000140: 07c6 ce3d 9960 b6be e3e5 183f fb7e 893e
00000150: c7da 513f 0635 783d b053 5a3e b86d 20bf
00000160: 97f4 d83e 78fb 8ebe a1ca 33bf 6269 aabe
00000170: 7e0f 2cbe 0d56 333b ed29 7cbe 46a5 ff3e
00000180: 3dc9 80bf 7c9d 0ebe 264d afbe ef87 083f
00000190: e19a 113f 13cd f4be a994 1abe dc7f 803e
000001a0: bf8d 14bf feff 9e3d fce0 b2be f0af e4be
000001b0: 988f 27bf f56d 133f 56fa f43e e1f0 a8bf
000001c0: 848e bc3e f779 153f c01f 4fbf 7c63 a13e
000001d0: c7dc 2cbf b9c0 2d3d 508b 0abf eb4b 123d
000001e0: b110 35be 5dda 1c3f 96b1 68bf 381b 96be
000001f0: 40c8 3cbf f9c4 903f 752d af3e 1435 6ebe
00000200: 8b5b 9fbf 05a1 c1be e2f5 383f 5eaf 413f
00000210: 3e7c 943d 622a bc3e 2174 62bf dd9f cd3d
00000220: 4c57 00bd 8994 1e3e 8454 923e 9f0f 33bf
00000230: 0ece 00bf 9dbf 643f f7e2 143f 5922 e53d
00000240: 17fc 8a3e bb28 96be ebf5 8cbd 934f f33e
00000250: f08a 8e3e d4cb ca3e 9fed ebbe 0b4b bebe
00000260: 9351 a53e 1188 493f 5565 55bf 0c8e f6be
00000270: 4264 093d cbf1 aabd 1def 783f 285a babd
00000280: 958b 333f 5eff 0a3c 6f56 743e b188 503f
00000290: 3cc8 06be e664 c6be 4c8f 48bf f9f2 ab3e
000002a0: dc68 023f ac21 99bd 19b6 c53e 1a1a 033e
000002b0: 3f7f c13e a13e 0c3f 5481 4a3e 9396 e23d
000002c0: d9c2 06bf d848 303e 5db8 d23e 07d3 193e
000002d0: bd18 183f c6b5 3d3f 7088 adbe 4ceb eabe
000002e0: 48cf b73e 125f 933e e6a2 cfbe 3f5c aa3e
000002f0: 0222 473e 0c8d 63be 3be3 54bd bfe1 89bf
00000300: 8182 933f 5ee0 0ebe a3d8 80bd 2ce0 1f3f
00000310: 38ca 3a3f 6562 80be 2637 e1be 193a 073e
00000320: 152a e73e db6f 233e 500c e5bd acc8 49bf
00000330: be5a 0dbf cc7c f5be 9de7 843e b044 933f
00000340: f45e ed3e 99f4 46bf 5e1e fa3d ea8c 683d
00000350: 76e6 5dbf 8bc6 8b3e 4af7 0fbd c3c1 f03e
00000360: 1ca4 10be 05f5 193f b0d1 a5bd 96a1 8b3e
00000370: a39a f23e ce1e 7d3e b1c5 f73d e8a4 1a3e
00000380: a859 d33c 97d9 53bf b577 0d3e 88ea 3b3f
00000390: f79b 03be a20c b73e fc98 883e 561c 6ebe
000003a0: c82f 993f c4b8 77be 9396 053f 649e 42be
000003b0: c8d7 ee3d 556a f0be 78e1 723e 16a9 433f
000003c0: 8708 d4be eb79 89bf 2bf4 81bd 8a75 88bb
000003d0: a9cc 19bf fe76 b33e 6ef3 45be d51d 85bd
000003e0: 281b 9e3d fe32 a23e e8dc 46be cd79 5e3d
000003f0: c42c 9a3e 4b82 d5be e80b 2b3e 77a4 afbd
0.05672954 0.3652722 0.60728663 -0.43789333 0.12397835 -0.41041437 0.30801764 0.77165294
0.21573183 -0.40510273 -0.2436625 1.1367441 0.7028396 -0.066347346 0.49835944 -0.6208359
0.0020841355 -0.6972201 0.8274882 0.3916182 -0.48733652 -0.56384104 -0.97650874 -0.1853535
-0.030202925 -0.5088724 -0.5344555 -0.47502205 -0.7990838 0.15310858 0.382309 0.43327755
0.30076757 -0.7684757 0.9355311 -0.20878786 -0.023731142 -0.81741154 -0.60059047 0.41550383
-0.47939032 0.69618577 -0.07402188 0.35834372 -0.38382408 0.49999028 0.3604083 -0.42149767
-0.69464386 -0.9685656 1.4625385 0.5679824 0.3411564 -0.021505168 -0.6077716 -0.5794149
0.61278486 -0.52865976 -0.9317117 -0.69110626 -0.020480094 0.0348831 0.38204107 1.4468609
-0.011688287 -0.811577 0.4336027 0.057256807 0.19998002 -0.59946656 0.3366878 -0.06314671
0.18969117 1.01267 0.0026448504 -0.5339669 0.33753586 0.062075626 0.4254676 -0.4223911
0.100963645 -0.35620573 0.5972578 0.2685469 0.8197445 0.060597442 0.21320987 -0.6266742
0.42374107 -0.2792623 -0.7023106 -0.33283526 -0.16802785 0.0027364523 -0.24625368 0.4993078
-1.0061413 -0.13927263 -0.34238547 0.5333242 0.5687695 -0.4781271 -0.15095772 0.2509755
-0.5802879 0.077636704 -0.34937274 -0.4466548 -0.6545348 0.57589656 0.4784724 -1.319851
0.3682748 0.5838923 -0.8090782 0.31521213 -0.6752438 0.042420123 -0.54118824 0.035716932
-0.17682149 0.61270696 -0.90895975 -0.2931764 -0.7374306 1.1310111 0.34214368 -0.23262435
-1.2449812 -0.3781816 0.7225019 0.75658214 0.0725026 0.36751086 -0.8845845 0.10040257
-0.031333253 0.15486349 0.28580105 -0.6994571 -0.50314415 0.8935488 0.5815882 0.11188192
0.27145454 -0.2932795 -0.06882843 0.47521648 0.27840376 0.39608634 -0.46079728 -0.37166628
0.322888 0.78723246 -0.83357745 -0.48155248 0.03354288 -0.083468996 0.9723986 -0.09099227
0.7013486 0.008483736 0.23861097 0.81458575 -0.13162321 -0.38748854 -0.78343654 0.3358381
0.5094125 -0.074771255 0.38615492 0.12802926 0.37792394 0.54783064 0.19775897 0.11063876
-0.52641064 0.17215288 0.41156283 0.15021907 0.5941275 0.7410549 -0.33893156 -0.45882642
0.3590033 0.2878347 -0.4055397 0.33273503 0.19446567 -0.22221774 -0.051974516 -1.0772017
1.1524202 -0.13952777 -0.0629132 0.62451434 0.7296481 -0.2507507 -0.43987387 0.13205756
0.45149294 0.15960638 -0.11183989 -0.78821826 -0.55216587 -0.47946775 0.25957957 1.1505337
0.46361506 -0.77716976 0.12212823 0.05677501 -0.8667978 0.27299914 -0.035147943 0.47022828
-0.14125103 0.60139495 -0.08096635 0.27271718 0.47383603 0.24718782 0.120982535 0.15101969
0.025799587 -0.8275389 0.13815196 0.7340474 -0.12852465 0.35751826 0.26679218 -0.23252997
1.1967707 -0.24191576 0.52182883 -0.19005734 0.11662251 -0.46956125 0.23718822 0.7642988
-0.41412756 -1.0740331 -0.063453995 -0.0041644024 -0.6007791 0.3505172 -0.19331142 -0.06499831
0.077200234 0.3167953 -0.19420207 0.054315377 0.30112278 -0.41700968 0.1670376 -0.08576291

arith.constant9 f4 [1, 3, 3, 64]
00000000: 6fd8 be3e d7e2 e4bf 6e20 6cbf c360 e53e
00000010: 93b8 b63e cc78 efbd 0410 d0be a2ba 5bbd
00000020: 1ec1 94be c91f 16be 7a7d 9a3e b9f4 7a3f
00000030: a2c4 ed3d 9758 353d 60eb 8ebf b267 4abf
00000040: c5a8 533f d7e6 79be 4e40 8d3f 1bed 3ebe
00000050: 3ec7 983f eff2 c33e e6e7 b4be 30c5 333f
00000060: a32c 2d3e 764d 09bf 7171 a43f 6e75 74bf
00000070: 3297 913d dafc 643f cff3 143f ed1b 6b3e
00000080: 6d82 46bf 6b1b a9be 45c7 7d3e db37 4f3e
00000090: b79a 20bf fce4 ad3e 31e8 0ebf f44a 8f3e
000000a0: 8dec b6be 6d42 dc3e 1074 563f 2415 5c3f
000000b0: 5759 123f 27ba 603f 4371 f7be a03d 21be
000000c0: 82f3 f0be 2881 f6be 876f 40be b1d8 0bbd
000000d0: 8d2b 613e 7f82 3cbf 44a6 4abf aab6 743e
000000e0: 25e9 023f 91e6 4b3f b7e4 e73d fef4 c03e
000000f0: 0d0d 08bf 27a2 2cbd 2d4c 29bf 393c 8abe
00000100: e101 d43e f398 5c3e 631a f73d 326f edbe
00000110: baeb 8e3e d409 913f 1d6d 92bf 142d 893f
00000120: d1e7 d0bd d995 9fbf eadc f2be e17b 323f
00000130: 4073 aa3e e6be 773f ff30 1bbe 8836 0f3d
00000140: 08bd 053e e7e1 7a3f 14f2 863e 964d 56bf
00000150: 11ce 62bf acaf 253f 633a 40be e293 d4be
00000160: c5ae bebf 2fce 0a3f 0ae1 2f3d d045 9e3f
00000170: 18bd 8abe ad15 0fbe 3967 f73e 156e 713f
00000180: 5052 db3e 02f9 95bf 4816 573f cb55 473f
00000190: 3f04 9b3d a5d9 6a3f 43b3 643e e054 8e3e
000001a0: eaf9 fdbd a188 403f c6be edbe 1de0 56bf
000001b0: 627a 57bf 4baa b03e 28a7 2abf 6ad1 153c
000001c0: e927 64bf 18d2 bdbe 40ee 44bf 3e48 443e
000001d0: b085 2ebe a91a 3cbf 13f3 c83e 0705 dcbd
000001e0: 8f9a 1c3d f7a9 d63e fe37 1dbf 5632 ee3e
000001f0: 564e 16be aa4f 60bf 030b d9be 31dc 26bf
00000200: 98d2 a43e a7d5 51bf 5482 60bf d966 f4bd
00000210: 8083 b93e 7685 be3e 88f8 c5be 685f 9a3f
00000220: 8f03 56be f0ab 26bc 1693 cfbe c141 ce3f
00000230: 797b d43c c4de 433f dba7 06bf fb03 cdbd
00000240: 203c a83e d62b 65bf c506 0fbf 480b 9f3e
00000250: fd07 0b3f 9290 06be 566e 58bf cec5 1c3f
00000260: d0cd 6b3f 8f11 a1bf 2eeb cd3e 9732 823e
00000270: 42b1 74bf 9851 af3e f593 023f 7041 b4b7
00000280: f958 c53e 6024 243e d201 0c3f c9bc 873d
00000290: 8953 793f b188 f33e 0f9e 483d 3af5 5e3f
000002a0: 9186 d23d f01b 64be 3946 e03e 2a35 013e
000002b0: d955 b33e 2cb9 153f 9bd7 193f 081f 3e3e
000002c0: 58a4 28bf d4ee 043f 27a3 8dbe 708b 0d3f
000002d0: a839 07bf cd55 833e 22cf 333f 55fe 5cbf
000002e0: d577 f33d a275 973e 80ae 9e3f dbe8 323d
000002f0: 55f3 843e c87a ecbe 2369 b6bd cb7d 50bf
00000300: 622d 243f 71c4 ef3e a93e b1be b4d6 023f
00000310: 793d 333f 17c6 47bf 8e06 16bf fd27 b73b
00000320: d3ff 843f 1809 15bf 7475 583f 3f85 29bf
00000330: 2969 aa3f 2b14 ab3e 6e01 9c3f 2418 9c3f
00000340: c507 933f 9e30 223e f6f0 753f da67 463e
00000350: 6319 8ebf 69ec 793f a43e e8be 87fa b9be
00000360: 1808 6b3d 1e92 25bf a366 643e cfd6 f63e
00000370: d5c7 c13e 2fb2 30bf fc4e 08be 8426 1dbe
00000380: 117f bd3e bef0 b4bd 55df b63d dc21 d3bf
00000390: 01cd b63e 4f73 013f 3f76 ad3f 0c1a cf3e
000003a0: fd11 48bf 8367 843d 9d45 bdbe 8c39 18bf
000003b0: 9be3 10bf e5eb 5abf caa1 5dbf c8f2 1dbf
000003c0: 02ad 0f3e 80a0 8e3e 08b2 493e 3f46 553f
000003d0: e4d8 873f 23fb 5d3f 5fb9 4b3f 6a9e 5e3e
000003e0: b66e 2a3f 62a9 1e3f 8479 003f 2f42 5f3f
000003f0: 4cd8 b03f fdcd 82bf 845f c7be a11f 483f
0.372745 -1.7881726 -0.92236984 0.44800386 0.35687694 -0.11692962 -0.4063722 -0.053644784
-0.29053587 -0.14660563 0.30173856 0.9802967 0.1160977 0.04427394 -1.1165581 -0.79064476
0.82679397 -0.24404465 1.1035249 -0.18645136 1.1935804 0.3827128 -0.35333174 0.7022276
0.16911559 -0.5363382 1.284712 -0.95491683 0.07108916 0.8944832 0.5818452 0.22959872
-0.77542764 -0.3302873 0.24783047 0.20236151 -0.62736076 0.33963764 -0.55823046 0.27986872
-0.3572735 0.4301943 0.8377085 0.8596976 0.5716757 0.87784046 -0.483286 -0.15746164
-0.47060782 -0.48145413 -0.18792544 -0.0341422 0.2198927 -0.7363662 -0.7915995 0.23897806
0.51137 0.7964869 0.11322921 0.37686914 -0.53144914 -0.042146828 -0.6613186 -0.2699907
0.41407683 0.2154272 0.1206558 -0.46373898 0.2791422 1.1331124 -1.1439549 1.0716882
-0.102004655 -1.2467605 -0.4743417 0.69720274 0.33291054 0.9677566 -0.1515541 0.034964114
0.13060391 0.9800095 0.26356566 -0.83712137 -0.8859568 0.6472118 -0.18772273 -0.41519076
-1.4897085 0.5422086 0.042939223 1.2365055 -0.27097392 -0.13973112 0.4832094 0.94308597
0.42836237 -1.1716616 0.84018373 0.77865285 0.07569169 0.9173835 0.22334008 0.2779913
-0.12401183 0.7520848 -0.4643461 -0.8393572 -0.84171116 0.34504923 -0.6666131 0.0091441665
-0.891234 -0.3707435 -0.7692604 0.19168183 -0.17043185 -0.7347818 0.3924795 -0.107431464
0.038233336 0.41926548 -0.6141356 0.46522778 -0.1467832 -0.8762156 -0.42391214 -0.65179735
0.3219192 -0.8196663 -0.87698865 -0.11933679 0.3623314 0.37211198 -0.38666177 1.2060366
-0.20899795 -0.010172829 -0.40541905 1.6113816 0.025937783 0.7651179 -0.5259988 -0.10010525
0.32858372 -0.89520013 -0.55869704 0.31063294 0.54309064 -0.13141087 -0.8454336 0.61239326
0.9211092 -1.2583483 0.4021849 0.25429222 -0.95582974 0.3424194 0.51007015 -2.1488144e-05
0.38544443 0.16029501 0.5469028 0.06627805 0.9739309 0.47565225 0.04897886 0.87092936
0.10279573 -0.22276282 0.43803576 0.12617937 0.35026434 0.58485675 0.6009461 0.18566525
-0.6587577 0.5192692 -0.27663538 0.5529089 -0.5282235 0.25651398 0.70237935 -0.8632558
0.118880905 0.29581934 1.2397003 0.0436791 0.25966898 -0.46187425 -0.08906772 -0.81441945
0.6413175 0.4682956 -0.34618118 0.5110886 0.70015675 -0.78036636 -0.5860375 0.005589484
1.0390571 -0.58217 0.8455422 -0.6621894 1.3313342 0.33413824 1.2187936 1.2194867
1.1486746 0.15838858 0.960708 0.19375554 -1.1101497 0.9762636 -0.4536029 -0.3632395
0.057380766 -0.6467608 0.22304778 0.4821076 0.37847772 -0.69021887 -0.1331138 -0.15346724
0.37011006 -0.088349804 0.08929316 -1.6494708 0.3570328 0.5056657 1.3551711 0.4044956
-0.7815245 0.06465056 -0.36967173 -0.5946281 -0.565973 -0.85516196 -0.86574996 -0.6169858
0.14030841 0.27856827 0.1969682 0.8331031 1.0613065 0.8671133 0.7957973 0.21740118
0.6657518 0.6197721 0.5018542 0.87210363 1.3816009 -1.0219113 -0.3894006 0.7817326

arith.constant10 f4 [1, 3, 3, 64]
00000000: 3844 24bf b976 0a3e 5254 4fbc 851d 0fbf
00000010: 6dee 033f 48f8 09bf 9e38 8bbf a986 4dbf
00000020: 47b0 13bf eaef 653e 2e7e 15bf 2046 54bf
00000030: af17 8cbf 36d3 bdbe 110f 88bf 10f9 95bf
00000040: 5786 9fbf b6d6 483f 7793 99bf be65 5f3e
00000050: 5213 82bf eeef 97be 7266 91bf 4245 40bf
00000060: 92e3 203f cf02 e7be e83e e9bd 14a9 72be
00000070: f113 8e3e 6b8b 12bf a1a9 993d c300 31bf
00000080: 8327 dd3e 9ddb 393f e970 9abe b326 793f
00000090: ec5d 3f3e 3a37 f3be b66b c1be 1da3 803f
000000a0: c72d 9c3f b8b5 95be 79a8 0dbe 381c 05bf
000000b0: a9fb 263f 0268 f93d afbf 3cbf a9be 473f
000000c0: 1743 113f 42c4 afbf a2c1 2abf fef8 22bf
000000d0: c98c 4ebe 2bc3 13bf 3cba a43e a66a 8abf
000000e0: 621c f23e 4718 723d 0625 29bf 66fc 09bf
000000f0: 0b2b 14be eb85 49bf 3e22 24bf c629 28bf
00000100: f5b1 38bf d10d da3e c0d3 98bf e53e 803f
00000110: 4f74 7ebf 6076 92bf aa24 183f 451b f43e
00000120: d89d 5b3f 161e 513f 7b49 45bf 01ab 963e
00000130: 9e8d d2be 370a e4be 7170 20be c404 debb
00000140: 970d 083f ce76 b5be 2ca7 1e3f 8cc9 2a3f
00000150: 6d2e cabe 002d bb3e f305 9abf 5a30 e23d
00000160: ccbb 5e3f bd12 a4be b3c4 343f c5f1 77be
00000170: fb7c c43d f72d 89bc 5f17 5a3f d171 453f
00000180: 8f56 5abd 652d 4d3e ce29 543f 44eb 5bbf
00000190: dd65 193f e394 2abe 45bc 933e 88a5 6bbe
000001a0: 4d4d c63e 7fdb 873f fad7 8a3f 5157 563e
000001b0: 3bdd 093f ecee 193f 5468 65be e275 313f
000001c0: 3d51 76be ebba 06be 88fe e13e 3957 acbe
000001d0: 3e03 863f 01a4 18be 2806 b2be 8585 f33e
000001e0: 2678 c03e f05f e83e 0730 f23c a683 93be
000001f0: 510c 4a3f d31e 3cbf 2bfd 9b3e 2bef 5fbe
00000200: 40aa 383f 2927 8fbf 9aae 21bf 00c7 2a3e
00000210: c7ef dbbe 8123 0e3e c4e2 31be b055 9ebe
00000220: 571f f8bd 70da d23e 423b 263f fc52 b73e
00000230: a589 3b3e a403 21be 8072 4abf c585 313f
00000240: 65e8 d53e 9ca3 253f 1eec 1dbe d010 52bf
00000250: 7180 1b3e 16d1 f33d 24f9 263f 1159 9a3f
00000260: df60 da3e 0fe4 82be 6c5f 93bf 6ede 30bf
00000270: 4802 8b3c c5f3 cf3e bf41 48bf 3309 86bf
00000280: 909c 6ebf 4b24 0cbe 24b7 b33e 95ce 303e
00000290: 7f79 06bf 9185 94be 6851 94be b3a9 cebd
000002a0: 3962 d63e 5855 0cbd bfa8 90be e776 5dbe
000002b0: 06f4 ed3c 23ec 1b3f bcef 05bf dfb6 44bf
000002c0: 7fcd 3a3f 0071 1dbf e984 55bd 5238 8b3c
000002d0: fb0e a43e 076d 4ebe 14c6 b63e 507c b73e
000002e0: ac01 a1bc 11a7 06bf b69c 93be 3f10 9c3c
000002f0: 65e6 933f 5861 e93d 6089 b93e 4896 69be
00000300: b449 583f 62f8 273f 6e77 3dbe 7f25 493f
00000310: faae 6bbf 7e1d 7dbf c098 3cbf 27e6 25bf
00000320: 44cf 47bf dff5 6a3e 3c43 4b3e 72f2 84bf
00000330: ec52 91bf 8ee3 0abc 690c 15bf 0783 0f3f
00000340: cafd 33be 6c51 6e3e 3be9 f43e 8df2 09bf
00000350: 9dd4 4a3f bcab fbbe 7aee eb3d bfd4 2a3f
00000360: e19a 2c3e c75a e2be 979d 233e cc3f 87bd
00000370: c8bf 88bf 2fb2 25bf b14c b33e bd09 3dbf
00000380: c30d 87bf a6e8 9fbe 7987 153f d92a 2c3f
00000390: 5b8e 413f 9084 813f 7832 0b3f 2176 74bf
000003a0: c7f0 c7be 271c ca3e 20de 07bf 2c92 82bf
000003b0: 9bd1 d23e 84fd ee3b e79a cb3d b152 edbe
000003c0: 92dc 94bf 74af 8e3f 2c76 093f f75b d03d
000003d0: 7660 433f fb1c 933f e65d 773f f140 9f3e
000003e0: 6edc 3c3e fe7b afbf 76db a23d 4fbd dd3d
000003f0: 0c62 bb3d 6f4d 3fbf d72a 39be 5b0b 9abf
-0.64166594 0.13521852 -0.012654381 -0.5590442 0.51535684 -0.5389447 -1.0876653 -0.802836
-0.5769085 0.22454801 -0.5839566 -0.829195 -1.0944728 -0.37075204 -1.0629598 -1.1716633
-1.2462872 0.7845262 -1.1998128 0.21816155 -1.0162146 -0.2967524 -1.1359389 -0.7510568
0.62847245 -0.4511933 -0.113889515 -0.2369731 0.2774959 -0.57243985 0.07503057 -0.6914179
0.43194208 0.7260073 -0.3016427 0.97324675 0.18688172 -0.47503072 -0.3777749 1.0049778
1.220147 -0.29240203 -0.13833798 -0.51996183 0.6522775 0.12178041 -0.73729986 0.780253
0.56742996 -1.3731768 -0.6670171 -0.6366118 -0.20170893 -0.5771968 0.32173336 -1.0813797
0.4728728 0.059105184 -0.6607212 -0.53900754 -0.14469545 -0.7871997 -0.6411475 -0.6568874
-0.7214654 0.42588666 -1.1939621 1.0019194 -0.9939622 -1.1442375 0.59430945 0.47677055
0.85787725 0.8168653 -0.7706525 0.2942734 -0.4112367 -0.44539043 -0.15667893 -0.0067754705
0.53145736 -0.35442203 0.61973834 0.66713786 -0.39488545 0.3655777 -1.2033066 0.110443786
0.87005305 -0.32045546 0.7061264 -0.24213322 0.09594151 -0.01674555 0.8519191 0.77126795
-0.053305205 0.20036848 0.8287629 -0.8590586 0.59921056 -0.16658358 0.28854576 -0.23012364
0.3873085 1.061386 1.0847161 0.20931746 0.53853196 0.6013019 -0.2240308 0.693205
-0.24054427 -0.13157241 0.44139504 -0.33660296 1.046974 -0.14906313 -0.34770322 0.47562805
0.37591666 0.45385695 0.029563917 -0.28811377 0.78925043 -0.73484534 0.3046659 -0.21868579
0.7213478 -1.1183826 -0.63157046 0.16677475 -0.42956373 0.13880731 -0.1737166 -0.3092475
-0.121153526 0.4118228 0.6493417 0.358055 0.18314226 -0.15724045 -0.79080963 0.6934474
0.41778865 0.64702773 -0.15422103 -0.82056904 0.15185715 0.11905114 0.6522391 1.2058431
0.42652032 -0.2556462 -1.1513495 -0.690894 0.016968861 0.4061567 -0.7822532 -1.0471557
-0.93207645 -0.1368572 0.35100663 0.17266305 -0.5252914 -0.29008153 -0.28968358 -0.10090961
0.41871813 -0.034261078 -0.28253743 -0.21627389 0.029047024 0.6090719 -0.5231893 -0.7684154
0.7296981 -0.6150055 -0.052128706 0.016994629 0.3204268 -0.20158778 0.35697997 0.3583703
-0.019654118 -0.52598673 -0.28830498 0.019050715 1.1554686 0.1139552 0.3623762 -0.22811234
0.8448746 0.6561338 -0.1850259 0.7857284 -0.9206387 -0.98873127 -0.7367058 -0.6480431
-0.7805064 0.22945355 0.19849867 -1.0386488 -1.1353431 -0.008477105 -0.5822206 0.56059307
-0.17577282 0.23273247 0.4783419 -0.5388573 0.7923067 -0.4915446 0.11520095 0.66730875
0.16855957 -0.44209883 0.15978085 -0.06603965 -1.0683527 -0.6472501 0.35019448 -0.73842984
-1.0551075 -0.31232184 0.5840984 0.6725288 0.7560784 1.011858 0.54373884 -0.9549275
-0.39050886 0.39474604 -0.5307331 -1.0200858 0.4117554 0.007293405 0.09941655 -0.4635215
-1.1629813 1.1147294 0.5369594 0.10173791 0.7631906 1.1493219 0.9662765 0.31104234
0.18443462 -1.3709714 0.07952015 0.108271234 0.0914956 -0.7472753 -0.18082748 -1.2034715

arith.constant11 f4 [256]
00000000: 8450 5ebe 41f1 9d3d a2f3 6e3e 91d1 0ebe
00000010: 16df 633f 90ad 7f3c 835f 143e 4a9b 933e
00000020: 9ce0 4e3d 26e2 d63d 42ab 3b3f 0d51 103e
00000030: cde2 cd3e 5dc1 8cbe 6012 673e aab8 62bf
00000040: aaef c6be c32d 453e d2d2 4a3f 91c6 a5be
00000050: da27 173e 7e42 49bf f954 d3bd 32a0 013f
00000060: d739 34bf 8083 48bd 2c56 923e 9668 b6be
00000070: dea1 88be 4cbb bbbd e827 0dbf 78f5 ad3e
00000080: 60f9 de3c 341c 52be 589a 65bf 1279 963d
00000090: fdd5 a93e 3c29 2d3e 630e 33be 3cc1 20be
000000a0: 9279 51be 5482 633d 7d15 d2be d41a 83be
000000b0: 873b d7be cca3 163f 4d66 7ebe 0259 3d3e
000000c0: 75ae aebe 7434 b5bc 1c47 c1bd 8d49 1abf
000000d0: 261a 0abd 3ad9 9b3e 8634 f0be 4317 033f
000000e0: 75f4 a2bf 365e 88bd ce4d 633e a344 9c3d
000000f0: bf9b b4be 07d4 62bf c2e0 a73d 3c78 0bbf
00000100: ba14 b13e 166c 68be 6d51 ca3e 8046 f13e
00000110: e4fe d5be 37e2 bfbe 13ca 1fbe 256b ab3e
00000120: 8c64 e93e e78b 883e 4a3a 313e 013e dfbe
00000130: 37f8 6f3e de91 9abe c827 c73c d889 cebd
00000140: d264 973e 9211 1cbe 6c0e a03d a821 aebc
00000150: d66d 123e c60e 37bf 3827 283f 6683 88be
00000160: b883 eebc e679 88be 28dc 25be 44a2 003f
00000170: b778 733e 9387 1a3e d155 38be 98f1 bc3d
00000180: 0c09 fbbe ef71 dbbc 37f0 723e f0a2 353e
00000190: f2f3 323f 2252 0dbd ec6d d23e a30f 8f3e
000001a0: 50a4 d5be ee1b 57bd eb70 ef3e b8ae 1b3d
000001b0: f66f 51bf 625f 3bbc 2a72 263e 7999 05bf
000001c0: c0c9 90bd b542 733e 9bb4 28bf e0ad b83e
000001d0: 1a2b a2be 99db b8be bd45 1c3e c96b 85bf
000001e0: cde4 8abe 20b6 78be da35 123e a901 ebbd
000001f0: fa6d 1f3e c859 783c f800 bf3d adfd a9be
00000200: 4506 553e 7845 f9be eaaf 21bd 5ec2 08be
00000210: 900d e2bd a4f0 b9be 6cee a4bd 747b 003e
00000220: 1965 2a3f 4c0d f8bd 2513 ef3c 78ee 1fbf
00000230: 2c99 20bf 0b47 90bd 9176 afbe da74 acbd
00000240: 9692 fbbe 142e b83e 6641 23be 8885 2ebe
00000250: d2fd 4a3e aa02 533e c3a0 39be 15af 27bd
00000260: e42c c1be 2a64 9c3e 9933 583e 8df4 0f3f
00000270: 2fb8 afbe ca22 ed3d 6377 05bf 1b5f 2e3f
00000280: 56bb e6be 8e7c bd3e b292 a7be d2a9 37bf
00000290: 0221 ddbe c580 623d 40a0 893e d45e cb3c
000002a0: 7632 73bd a73e 36be 27fd 12bf 1de1 21bf
000002b0: e336 a2be da29 143e f4ea 8abe aa8b 7ebd
000002c0: 46fc af3d 513a 123e f2ae 273e 755a aabe
000002d0: 3df3 f7bd 961e 213f cc6f b33e 80ab b2be
000002e0: be8e 39bd b318 1fbf 0c5e bf3e 22db 033d
000002f0: 9e78 9dbd 3e19 b13e 82d6 acbe 8a7a ca3c
00000300: 24b7 da3d 2468 a0be 0d07 353f eeef d0be
00000310: 9660 0abe 18fc ddbd c0a0 643f c6cb b23e
00000320: a2fd b0bd 1ef9 893f 9276 8bbe 9518 b1bd
00000330: 8156 003e 2d96 003f dbe2 41be c4dc 2bbe
00000340: 0c2a c0bd 85ae 0a3f c345 c8bd cfc3 66be
00000350: 484e 8c3e d19c 71be c45f f03d 0878 ea3e
00000360: cc30 e43b d6f7 1e3e d83c a73e 32df d63e
00000370: dc24 bbbe bd9c 1f3f f328 84be 2bcc 8fbf
00000380: 0fbd 3f3f b8ba 8c3e 9642 07be 9f57 84bf
00000390: cb90 52bf 57de 25be f2fd 60bf 1bc6 b23d
000003a0: d886 493f dd1c fdbe cdc1 fcbe 56b8 2d3d
000003b0: 91af 383e 0561 a6be 0711 353f 00e1 c639
000003c0: d0f2 babd 70bf 963d 74c1 c8be aeac 57be
000003d0: a093 7bbd 9616 9c3e d452 8c3e 5b2c 85be
000003e0: 55e2 623e c718 fabe c09c 303c 0a08 233f
000003f0: c61b 3fbf 841f c3bd 9ac3 1dbf 2609 213f
-0.21710402 0.07712031 0.23335126 -0.1394713 0.8901228 0.015605345 0.1448956 0.28829414
0.050507173 0.10492353 0.73308194 0.14093418 0.40212098 -0.27491274 0.22565603 -0.88563025
-0.38854724 0.19255738 0.79227936 -0.32378057 0.14761296 -0.78617084 -0.103189416 0.50635064
-0.70400757 -0.048953533 0.2858137 -0.35626668 -0.26685995 -0.091665834 -0.5513902 0.3397634
0.02721852 -0.20518571 -0.89688635 0.07347311 0.33171073 0.16910261 -0.17485957 -0.15698713
-0.20456532 0.055544212 -0.4103202 -0.25606406 -0.42037603 0.58843684 -0.24843712 0.18490985
-0.34117475 -0.022119738 -0.09437391 -0.6026848 -0.033716343 0.30439168 -0.46915072 0.5120737
-1.2730852 -0.06658594 0.22197649 0.07630279 -0.35275075 -0.8860478 0.08197166 -0.5448034
0.34586126 -0.22697482 0.39515248 0.471241 -0.4179603 -0.37477276 -0.15604429 0.33480182
0.45584524 0.26669237 0.17307392 -0.43601993 0.2343453 -0.30189413 0.024310961 -0.10084885
0.29569107 -0.15241078 0.07815251 -0.021256283 0.14299712 -0.7150692 0.65684843 -0.2666275
-0.029115543 -0.266555 -0.16197264 0.502476 0.23776518 0.1509078 -0.18001486 0.09225768
-0.4903034 -0.026787726 0.23724447 0.17737937 0.6990348 -0.034502156 0.4109949 0.27941617
-0.41726923 -0.05251687 0.46765837 0.03800842 -0.81811464 -0.011436315 0.16254488 -0.52187306
-0.07069731 0.23755915 -0.6590058 0.36070156 -0.3167351 -0.3610504 0.15260978 -1.0423518
-0.27127686 -0.24288225 0.14278355 -0.11474926 0.15569296 0.015158124 0.09326357 -0.33201352
0.20803173 -0.48685813 -0.039474405 -0.13355395 -0.11037743 -0.36316407 -0.08053288 0.12547094
0.6656051 -0.12111911 0.029183934 -0.6247325 -0.6273372 -0.070448 -0.34270146 -0.08420725
-0.49135274 0.35972655 -0.15942916 -0.17043126 0.19823387 0.20606485 -0.18127732 -0.040938456
-0.3772956 0.3054517 0.21113433 0.5623253 -0.34320208 0.11578901 -0.52135295 0.6811387
-0.450648 0.3700909 -0.32729107 -0.717435 -0.43189245 0.055298585 0.26880074 0.024825491
-0.059374295 -0.17797337 -0.5741753 -0.6323412 -0.316825 0.1446909 -0.2713238 -0.062144913
0.08593039 0.14280058 0.1637533 -0.33272138 -0.12106941 0.62937295 0.35046232 -0.3489647
-0.045302145 -0.62147063 0.3737644 0.032191403 -0.076890215 0.3458957 -0.33757406 0.024716634
0.106794626 -0.31329453 0.70713884 -0.40808052 -0.13513407 -0.10839099 0.89307785 0.34921092
-0.086421266 1.077915 -0.272389 -0.08647267 0.12532999 0.5022915 -0.18934195 -0.16783434
-0.0938302 0.54172546 -0.09778931 -0.22535633 0.27403474 -0.23594977 0.11737016 0.45794702
0.006963825 0.1552423 0.32663608 0.4196716 -0.3655156 0.6234854 -0.25812492 -1.1234182
0.74897856 0.27486205 -0.13208994 -1.033924 -0.82252187 -0.16198097 -0.8788749 0.08729192
0.7872138 -0.49436083 -0.49366608 0.042412125 0.18035723 -0.32495895 0.70729107 0.0003793314
-0.09128344 0.073607326 -0.39210093 -0.21061966 -0.061420083 0.30485982 0.27406943 -0.26010403
0.22156651 -0.4884703 0.01077956 0.6368414 -0.74651754 -0.095274955 -0.6162659 0.62904584
