Homework 6/train/models/resnet_v1_quant.tflite (tflite, 97208 bytes, 10 tensors)

tfl.pseudo_qconst1 i1 [10, 64]
-72 45 -69 -108 11 34 43 41
21 -84 -23 -39 54 -18 -24 -57
37 6 -19 -75 6 -127 18 -50
-65 52 14 -44 15 -54 28 -11
41 35 36 -41 -40 40 -82 -105
3 -17 -19 -5 47 4 -36 -66
-65 -16 41 -64 46 50 13 19
-31 6 -41 27 1 63 35 -30
40 -39 17 25 24 18 -34 -9
29 36 33 -127 -87 -35 28 17
-51 -67 -28 -31 -70 8 -85 13
35 40 -30 4 30 16 32 -72
34 27 -50 -57 9 -62 19 -39
15 -41 27 36 29 -67 29 14
13 -23 41 34 -78 50 -12 -41
12 11 -65 -76 -44 -73 42 -112
13 53 -15 28 -92 -87 -59 -122
-44 -36 8 26 -58 40 8 -43
46 38 -22 23 -48 -104 11 63
-28 37 -15 33 -72 28 43 2
44 -53 26 50 21 38 -127 50
3 -22 45 37 -9 12 -87 54
-56 -118 -39 44 -44 -111 28 14
16 38 38 -51 37 -3 44 -98
44 -7 73 46 59 -78 36 -40
-87 40 -121 -54 -65 -74 27 25
17 -83 57 41 -74 48 26 9
-101 -41 31 58 28 -58 -27 61
-103 -73 18 38 19 3 43 63
-92 -100 8 15 -43 33 6 -3
-85 -73 -127 -64 -95 29 36 -96
39 -42 -73 21 32 -50 -123 -57
00000000: b82d bb94 0b22 2b29 15ac e9d9 36ee e8c7
00000010: 2506 edb5 0681 12ce bf34 0ed4 0fca 1cf5
00000020: 2923 24d7 d828 ae97 03ef edfb 2f04 dcbe
00000030: bff0 29c0 2e32 0d13 e106 d71b 013f 23e2
00000040: 28d9 1119 1812 def7 1d24 2181 a9dd 1c11
00000050: cdbd e4e1 ba08 ab0d 2328 e204 1e10 20b8
00000060: 221b cec7 09c2 13d9 0fd7 1b24 1dbd 1d0e
00000070: 0de9 2922 b232 f4d7 0c0b bfb4 d4b7 2a90
00000080: 0d35 f11c a4a9 c586 d4dc 081a c628 08d5
00000090: 2e26 ea17 d098 0b3f e425 f121 b81c 2b02
000000a0: 2ccb 1a32 1526 8132 03ea 2d25 f70c a936
000000b0: c88a d92c d491 1c0e 1026 26cd 25fd 2c9e
000000c0: 2cf9 492e 3bb2 24d8 a928 87ca bfb6 1b19
000000d0: 11ad 3929 b630 1a09 9bd7 1f3a 1cc6 e53d
000000e0: 99b7 1226 1303 2b3f a49c 080f d521 06fd
000000f0: abb7 81c0 a11d 24a0 27d6 b715 20ce 85c7

tfl.pseudo_qconst3 i1 [64, 1, 1, 32]
78 38 127 41 17 1 -115 65
46 -27 -102 74 -3 -45 103 51
-23 -15 55 6 -65 97 51 122
31 -93 -20 8 -57 0 34 -75
127 51 -39 -5 -26 2 30 -28
2 -3 56 -10 6 -10 27 -24
43 11 -2 28 34 8 26 -39
-22 48 -3 -24 -5 3 36 -67
99 -64 -5 -29 -100 -13 -53 19
-3 -13 -52 0 -8 -14 -86 -31
-36 -28 -40 -69 -53 -12 11 -31
-113 -49 -29 -23 -38 -97 -32 -127
66 14 18 -14 -39 -13 127 81
33 -15 14 28 -1 -10 44 -13
1 15 79 -33 2 79 -6 27
-14 -42 -35 -21 -58 -41 -35 -74
49 2 -15 -1 -24 25 81 83
27 -32 77 33 2 12 -19 -7
28 35 127 -16 13 45 38 -43
10 -21 -49 12 -20 -45 27 13
-41 28 -83 73 20 -5 -55 3
20 -13 -12 3 7 -5 21 30
-7 -1 127 46 40 -28 70 -61
-30 -79 -49 -9 -47 48 -31 19
127 41 45 23 -30 2 12 -5
0 30 67 17 33 14 122 -13
19 25 -5 78 39 33 40 33
58 65 20 24 10 61 70 51
-41 15 -105 -11 2 -18 -127 47
5 -38 0 -10 9 2 -19 56
-22 1 79 14 -16 -23 46 -50
-65 -65 -46 -47 -28 13 -15 12
00000000: 4e26 7f29 1101 8d41 2ee5 9a4a fdd3 6733
00000010: e9f1 3706 bf61 337a 1fa3 ec08 c700 22b5
00000020: 7f33 d9fb e602 1ee4 02fd 38f6 06f6 1be8
00000030: 2b0b fe1c 2208 1ad9 ea30 fde8 fb03 24bd
00000040: 63c0 fbe3 9cf3 cb13 fdf3 cc00 f8f2 aae1
00000050: dce4 d8bb cbf4 0be1 8fcf e3e9 da9f e081
00000060: 420e 12f2 d9f3 7f51 21f1 0e1c fff6 2cf3
00000070: 010f 4fdf 024f fa1b f2d6 ddeb c6d7 ddb6
00000080: 3102 f1ff e819 5153 1be0 4d21 020c edf9
00000090: 1c23 7ff0 0d2d 26d5 0aeb cf0c ecd3 1b0d
000000a0: d71c ad49 14fb c903 14f3 f403 07fb 151e
000000b0: f9ff 7f2e 28e4 46c3 e2b1 cff7 d130 e113
000000c0: 7f29 2d17 e202 0cfb 001e 4311 210e 7af3
000000d0: 1319 fb4e 2721 2821 3a41 1418 0a3d 4633
000000e0: d70f 97f5 02ee 812f 05da 00f6 0902 ed38
000000f0: ea01 4f0e f0e9 2ece bfbf d2d1 e40d f10c

tfl.pseudo_qconst5 i1 [64, 3, 3, 64]
-18 -10 16 -59 3 -35 -54 -2
96 -18 -14 -1 -12 19 28 -31
-2 21 -50 40 -20 43 -56 -70
-39 13 10 3 37 -4 -92 61
33 -18 40 67 49 -65 72 -69
-24 -14 49 -67 56 -93 -9 -86
-63 -65 39 95 -23 -70 0 -41
31 -14 11 17 -10 29 5 11
-23 11 0 -46 -2 -28 -54 21
106 3 31 19 -13 34 -1 -20
-21 7 -13 34 10 16 -85 -56
-42 12 1 -10 31 -21 -72 34
23 -5 35 72 56 -21 42 -45
-34 -64 28 -89 43 -65 -11 -9
-35 -59 49 83 -9 -93 -16 1
-2 0 -28 11 3 23 23 11
-22 26 -1 -41 10 -47 -56 19
127 -40 18 44 -24 52 -3 -30
-20 -9 -30 54 14 -56 -65 -58
-53 11 19 -9 4 -24 -103 8
-5 -21 67 68 56 -26 37 -40
6 -59 58 -65 71 -69 0 19
4 -68 64 52 9 -104 37 -7
44 18 -83 62 -6 15 36 -17
-13 -22 -23 -80 4 -62 -43 -25
66 -38 34 -3 1 44 30 -32
-10 -14 -61 28 14 16 -75 -54
-48 34 19 23 15 29 -47 71
42 -33 61 78 58 -46 46 -57
-15 -90 57 -59 24 -67 2 -75
-45 -57 75 67 -15 -64 14 -14
16 4 22 35 13 -5 14 7
00000000: eef6 10c5 03dd cafe 60ee f2ff f413 1ce1
00000010: fe15 ce28 ec2b c8ba d90d 0a03 25fc a43d
00000020: 21ee 2843 31bf 48bb e8f2 31bd 38a3 f7aa
00000030: c1bf 275f e9ba 00d7 1ff2 0b11 f61d 050b
00000040: e90b 00d2 fee4 ca15 6a03 1f13 f322 ffec
00000050: eb07 f322 0a10 abc8 d60c 01f6 1feb b822
00000060: 17fb 2348 38eb 2ad3 dec0 1ca7 2bbf f5f7
00000070: ddc5 3153 f7a3 f001 fe00 e40b 0317 170b
00000080: ea1a ffd7 0ad1 c813 7fd8 122c e834 fde2
00000090: ecf7 e236 0ec8 bfc6 cb0b 13f7 04e8 9908
000000a0: fbeb 4344 38e6 25d8 06c5 3abf 47bb 0013
000000b0: 04bc 4034 0998 25f9 2c12 ad3e fa0f 24ef
000000c0: f3ea e9b0 04c2 d5e7 42da 22fd 012c 1ee0
000000d0: f6f2 c31c 0e10 b5ca d022 1317 0f1d d147
000000e0: 2adf 3d4e 3ad2 2ec7 f1a6 39c5 18bd 02b5
000000f0: d3c7 4b43 f1c0 0ef2 1004 1623 0dfb 0e07

tfl.pseudo_qconst7 i1 [64, 3, 3, 32]
-4 -43 0 -35 -56 -24 9 -87
-23 42 46 -43 -72 -11 42 -33
-21 34 -87 -18 59 -49 14 91
35 78 -33 53 2 -55 31 -3
-84 -23 -5 -10 -4 -27 15 -50
8 -27 38 -49 -127 -15 4 3
-19 -1 -50 -54 65 -27 -10 73
30 67 13 32 40 -34 46 58
-36 42 70 0 -10 65 -31 16
-28 25 -10 -10 -57 -82 -3 -22
-17 16 -61 -45 19 -86 4 55
32 54 -1 -5 80 32 21 55
73 -38 2 -40 -25 14 3 -51
2 -38 -7 -8 -24 -3 -58 4
63 -10 -58 -2 20 22 -23 42
69 86 -53 40 11 -38 -26 -43
40 -43 30 -18 12 49 -37 -36
-16 -27 -21 -38 -39 1 -9 -27
37 64 3 -6 55 0 14 5
39 3 -23 38 -1 -29 -1 -5
-15 -1 70 -30 -14 -5 77 -35
-53 2 -6 0 -40 -53 -46 21
55 28 -80 -7 -34 -43 26 42
-11 25 15 -13 71 -1 55 0
110 3 -60 1 -18 -11 -4 40
6 -23 5 -7 -36 -21 -36 -3
-50 66 -17 -92 38 -13 -35 -3
-23 91 55 4 -54 -42 -82 -57
47 37 -55 -15 5 21 -61 35
19 19 22 35 -18 37 -3 -18
-68 52 -29 -20 30 -69 20 -87
-49 78 40 17 28 -14 -80 12
00000000: fcd5 00dd c8e8 09a9 e92a 2ed5 b8f5 2adf
00000010: eb22 a9ee 3bcf 0e5b 234e df35 02c9 1ffd
00000020: ace9 fbf6 fce5 0fce 08e5 26cf 81f1 0403
00000030: edff ceca 41e5 f649 1e43 0d20 28de 2e3a
00000040: dc2a 4600 f641 e110 e419 f6f6 c7ae fdea
00000050: ef10 c3d3 13aa 0437 2036 fffb 5020 1537
00000060: 49da 02d8 e70e 03cd 02da f9f8 e8fd c604
00000070: 3ff6 c6fe 1416 e92a 4556 cb28 0bda e6d5
00000080: 28d5 1eee 0c31 dbdc f0e5 ebda d901 f7e5
00000090: 2540 03fa 3700 0e05 2703 e926 ffe3 fffb
000000a0: f1ff 46e2 f2fb 4ddd cb02 fa00 d8cb d215
000000b0: 371c b0f9 ded5 1a2a f519 0ff3 47ff 3700
000000c0: 6e03 c401 eef5 fc28 06e9 05f9 dceb dcfd
000000d0: ce42 efa4 26f3 ddfd e95b 3704 cad6 aec7
000000e0: 2f25 c9f1 0515 c323 1313 1623 ee25 fdee
000000f0: bc34 e3ec 1ebb 14a9 cf4e 2811 1cf2 b00c

tfl.pseudo_qconst9 i1 [32, 1, 1, 16]
34 90 -13 -47 18 -5 -58 -8
-41 -17 83 127 31 -38 74 75
-61 -9 55 62 -127 -54 -87 20
23 40 7 -15 -35 -67 -53 -35
-13 -114 -67 80 92 -40 41 48
57 -83 -53 -56 -127 -7 26 -28
37 113 -119 -7 -81 -10 -79 -27
-9 -99 22 38 -45 -76 -53 127
14 -83 -105 -105 -43 52 127 -37
-65 -46 -68 3 -9 -90 -72 -120
-121 17 89 -127 27 -54 52 -104
55 -38 19 2 -70 -48 -16 -13
-1 -103 -26 117 46 22 94 -47
41 127 73 -48 46 16 -99 10
-51 -20 -100 -50 69 -21 -52 -67
-1 88 -127 26 18 -10 -58 69
-15 -57 -26 -127 -44 65 -42 -16
-61 -40 -40 -3 -52 -18 -32 -35
-88 -93 -105 -74 4 62 14 29
57 96 -127 -23 -55 -35 26 8
67 17 20 -127 -59 7 72 102
99 -107 -40 -26 -42 3 -54 36
-54 26 -74 -93 -41 -96 -6 -33
-22 12 53 127 -39 3 -3 -57
-61 84 -24 -12 -18 28 -41 -22
-17 -127 -23 -4 87 33 23 -64
75 -71 106 -124 27 -46 -75 32
-39 -127 -124 -63 -42 -30 -57 -65
-67 -43 106 -127 9 6 18 -5
37 -45 -74 57 57 15 40 72
-51 -5 127 -61 -40 -24 40 -78
1 31 16 2 -61 24 17 -29
00000000: 225a f3d1 12fb c6f8 d7ef 537f 1fda 4a4b
00000010: c3f7 373e 81ca a914 1728 07f1 ddbd cbdd
00000020: f38e bd50 5cd8 2930 39ad cbc8 81f9 1ae4
00000030: 2571 89f9 aff6 b1e5 f79d 1626 d3b4 cb7f
00000040: 0ead 9797 d534 7fdb bfd2 bc03 f7a6 b888
00000050: 8711 5981 1bca 3498 37da 1302 bad0 f0f3
00000060: ff99 e675 2e16 5ed1 297f 49d0 2e10 9d0a
00000070: cdec 9cce 45eb ccbd ff58 811a 12f6 c645
00000080: f1c7 e681 d441 d6f0 c3d8 d8fd ccee e0dd
00000090: a8a3 97b6 043e 0e1d 3960 81e9 c9dd 1a08
000000a0: 4311 1481 c507 4866 6395 d8e6 d603 ca24
000000b0: ca1a b6a3 d7a0 fadf ea0c 357f d903 fdc7
000000c0: c354 e8f4 ee1c d7ea ef81 e9fc 5721 17c0
000000d0: 4bb9 6a84 1bd2 b520 d981 84c1 d6e2 c7bf
000000e0: bdd5 6a81 0906 12fb 25d3 b639 390f 2848
000000f0: cdfb 7fc3 d8e8 28b2 011f 1002 c318 11e3

tfl.pseudo_qconst11 i1 [32, 3, 3, 32]
6 5 15 46 51 49 12 -8
-8 61 27 -34 -11 46 12 72
65 5 -20 47 10 -20 17 32
-43 44 -29 -11 -6 -9 -8 74
4 -29 26 13 18 5 48 4
-11 61 10 -9 5 39 5 15
14 -11 -17 38 25 35 24 -18
-44 14 -28 -6 19 -27 68 57
25 -34 -11 28 39 -31 20 -17
-14 30 -25 39 0 -23 -6 12
-14 -31 -2 27 51 27 26 -20
13 51 -14 -33 0 -14 59 9
8 -30 -8 3 -4 11 -27 48
19 -25 18 -16 -1 7 1 35
2 46 14 -32 5 -34 3 9
30 19 56 -28 9 -3 -24 -3
-33 -20 -14 6 1 -1 -37 12
12 13 -9 31 20 -14 -9 -19
9 22 -14 -18 -1 37 9 -13
13 1 47 23 -25 2 28 -19
-66 -6 -4 1 -31 -24 -2 43
15 -1 -1 11 39 -17 -5 -40
5 0 -1 29 17 1 -17 -51
77 -11 -18 -26 -9 -1 24 -26
35 -127 -9 -32 12 92 -4 74
51 -13 56 -22 -14 -41 13 -37
-71 -6 74 -95 -29 -57 -35 -14
-34 0 48 -15 -44 -35 -103 -28
-14 -69 47 16 11 14 41 -5
27 -7 2 11 -6 -12 11 -1
-50 -63 41 -38 -39 -6 -25 -24
-3 8 17 -7 11 -25 -49 -12
00000000: 0605 0f2e 3331 0cf8 f83d 1bde f52e 0c48
00000010: 4105 ec2f 0aec 1120 d52c e3f5 faf7 f84a
00000020: 04e3 1a0d 1205 3004 f53d 0af7 0527 050f
00000030: 0ef5 ef26 1923 18ee d40e e4fa 13e5 4439
00000040: 19de f51c 27e1 14ef f21e e727 00e9 fa0c
00000050: f2e1 fe1b 331b 1aec 0d33 f2df 00f2 3b09
00000060: 08e2 f803 fc0b e530 13e7 12f0 ff07 0123
00000070: 022e 0ee0 05de 0309 1e13 38e4 09fd e8fd
00000080: dfec f206 01ff db0c 0c0d f71f 14f2 f7ed
00000090: 0916 f2ee ff25 09f3 0d01 2f17 e702 1ced
000000a0: befa fc01 e1e8 fe2b 0fff ff0b 27ef fbd8
000000b0: 0500 ff1d 1101 efcd 4df5 eee6 f7ff 18e6
000000c0: 2381 f7e0 0c5c fc4a 33f3 38ea f2d7 0ddb
000000d0: b9fa 4aa1 e3c7 ddf2 de00 30f1 d4dd 99e4
000000e0: f2bb 2f10 0b0e 29fb 1bf9 020b faf4 0bff
000000f0: cec1 29da d9fa e7e8 fd08 11f9 0be7 cff4

tfl.pseudo_qconst13 i1 [32, 3, 3, 16]
-38 -32 34 -66 43 -40 11 41
10 -52 -53 -53 -88 -19 23 -40
-39 -1 13 -85 63 -30 -4 4
43 -15 8 -7 -30 -22 -7 -9
-60 -20 -3 -84 -7 -22 55 11
45 -82 3 42 -8 -18 -39 -41
-29 -46 35 -3 28 39 27 -47
17 -36 -32 -63 -15 -2 -33 46
1 -13 7 -6 3 -24 56 -29
44 -33 -15 -11 -44 7 -38 -16
-32 -2 13 -95 29 -21 81 -46
17 -100 -14 68 -36 -13 -58 -36
-37 17 42 117 -20 -11 54 64
25 19 -23 -37 -25 19 42 12
-9 45 2 89 -11 -12 20 5
66 5 -63 51 -43 27 16 21
-57 37 -66 -46 42 -8 -10 -27
24 -127 -18 59 1 6 -28 64
35 19 62 14 3 21 -52 61
29 -43 -35 -3 42 17 -9 36
78 -69 32 53 -54 43 -77 -35
-9 -109 -54 -17 -59 1 54 38
0 -60 24 30 -45 33 -89 -52
-28 1 13 -20 -45 -6 -22 1
49 2 19 -94 15 -4 -8 -38
45 3 26 -32 35 -15 -26 15
-3 -61 40 -30 38 32 -15 -38
-33 -53 -26 0 -17 18 -16 -52
-49 -35 24 1 -23 38 -56 -81
40 -20 15 -7 -22 -62 -5 -47
30 -26 22 -71 -62 -32 -25 102
40 106 25 33 87 52 -127 33
00000000: dae0 22be 2bd8 0b29 0acc cbcb a8ed 17d8
00000010: d9ff 0dab 3fe2 fc04 2bf1 08f9 e2ea f9f7
00000020: c4ec fdac f9ea 370b 2dae 032a f8ee d9d7
00000030: e3d2 23fd 1c27 1bd1 11dc e0c1 f1fe df2e
00000040: 01f3 07fa 03e8 38e3 2cdf f1f5 d407 daf0
00000050: e0fe 0da1 1deb 51d2 119c f244 dcf3 c6dc
00000060: db11 2a75 ecf5 3640 1913 e9db e713 2a0c
00000070: f72d 0259 f5f4 1405 4205 c133 d51b 1015
00000080: c725 bed2 2af8 f6e5 1881 ee3b 0106 e440
00000090: 2313 3e0e 0315 cc3d 1dd5 ddfd 2a11 f724
000000a0: 4ebb 2035 ca2b b3dd f793 caef c501 3626
000000b0: 00c4 181e d321 a7cc e401 0dec d3fa ea01
000000c0: 3102 13a2 0ffc f8da 2d03 1ae0 23f1 e60f
000000d0: fdc3 28e2 2620 f1da dfcb e600 ef12 f0cc
000000e0: cfdd 1801 e926 c8af 28ec 0ff9 eac2 fbd1
000000f0: 1ee6 16b9 c2e0 e766 286a 1921 5734 8121

tfl.pseudo_qconst15 i1 [16, 3, 3, 16]
32 14 -56 67 17 -22 89 20
-102 25 -14 -19 -62 60 6 -14
13 -69 6 8 -39 -80 66 30
-47 50 -33 21 -13 2 27 -29
99 -34 6 -52 -4 26 52 26
64 66 -24 38 -83 -67 -38 92
-11 29 7 11 7 -41 -33 -22
-52 -4 -42 48 -31 53 -54 27
-7 21 -25 11 12 -63 -17 -24
-127 0 33 -59 16 -98 -76 34
65 29 20 -78 46 14 -37 -33
28 -48 -2 -26 5 -114 -32 -12
-20 -60 -9 73 -2 -23 -67 -73
-47 -4 45 -59 27 36 -37 -16
38 -2 -12 40 12 54 -99 -58
-66 11 -27 -41 96 -27 18 66
67 -20 11 -11 56 27 -96 -54
-5 -86 12 -19 -40 -126 -12 50
-63 56 -33 -81 -43 -1 -45 24
47 3 -38 50 2 4 -55 42
-14 16 -18 -36 -103 71 42 25
-39 -28 -7 24 -96 13 64 -34
-50 -25 -36 -70 -44 13 -38 112
-13 -1 -20 53 -122 2 36 59
-44 -2 23 7 64 -61 -39 -3
-45 43 16 18 21 -36 1 31
30 -32 1 49 2 -86 0 30
4 25 12 -22 -59 15 1 32
7 4 -89 49 -30 -59 31 11
-33 33 -49 -8 -90 -10 -88 73
-18 -24 94 88 -72 -44 -87 -39
-98 11 -24 -26 127 24 -30 -93
00000000: 200e c843 11ea 5914 9a19 f2ed c23c 06f2
00000010: 0dbb 0608 d9b0 421e d132 df15 f302 1be3
00000020: 63de 06cc fc1a 341a 4042 e826 adbd da5c
00000030: f51d 070b 07d7 dfea ccfc d630 e135 ca1b
00000040: f915 e70b 0cc1 efe8 8100 21c5 109e b422
00000050: 411d 14b2 2e0e dbdf 1cd0 fee6 058e e0f4
00000060: ecc4 f749 fee9 bdb7 d1fc 2dc5 1b24 dbf0
00000070: 26fe f428 0c36 9dc6 be0b e5d7 60e5 1242
00000080: 43ec 0bf5 381b a0ca fbaa 0ced d882 f432
00000090: c138 dfaf d5ff d318 2f03 da32 0204 c92a
000000a0: f210 eedc 9947 2a19 d9e4 f918 a00d 40de
000000b0: cee7 dcba d40d da70 f3ff ec35 8602 243b
000000c0: d4fe 1707 40c3 d9fd d32b 1012 15dc 011f
000000d0: 1ee0 0131 02aa 001e 0419 0cea c50f 0120
000000e0: 0704 a731 e2c5 1f0b df21 cff8 a6f6 a849
000000f0: eee8 5e58 b8d4 a9d9 9e0b e8e6 7f18 e2a3

tfl.pseudo_qconst17 i1 [16, 3, 3, 16]
-54 -34 -51 109 -118 8 59 44
-126 -45 -55 -7 26 -3 -7 -60
-81 0 0 -11 -44 8 -1 33
-38 -26 -103 -22 53 -54 23 -21
4 26 -81 35 -45 53 17 80
-44 -127 7 31 85 -111 -37 31
79 32 -19 -123 57 -15 3 26
-3 15 -4 -30 51 26 56 24
3 40 -10 -68 -29 61 19 -17
-22 18 -37 -21 39 -89 -48 -11
34 8 36 5 -27 40 38 29
-3 -12 -26 11 49 -107 -33 74
100 56 62 -40 42 -68 -6 6
-24 -57 -13 -4 12 0 44 -7
33 -1 71 96 -10 -20 -32 -4
16 71 -19 -6 -15 7 -18 -48
19 70 -43 81 3 -66 25 -9
72 82 -47 44 -3 24 69 -24
9 -11 85 42 -3 -5 9 3
1 43 -110 0 -3 -117 -8 8
-67 -16 42 61 -19 -9 -2 0
-7 10 -104 -2 -1 29 -47 -5
40 -3 52 -19 -48 0 6 5
40 6 -95 -12 9 19 -2 -6
-45 -28 12 -15 14 -5 11 -5
61 5 74 10 8 42 72 -4
-9 25 64 -56 16 13 1 -6
55 40 -22 -17 -7 -61 85 8
-54 68 -17 -18 -36 34 -13 7
78 33 93 -5 13 -58 -6 -9
-17 -48 -29 -16 -8 14 -1 6
30 19 95 32 14 95 37 79
00000000: cade cd6d 8a08 3b2c 82d3 c9f9 1afd f9c4
00000010: af00 00f5 d408 ff21 dae6 99ea 35ca 17eb
00000020: 041a af23 d335 1150 d481 071f 5591 db1f
00000030: 4f20 ed85 39f1 031a fd0f fce2 331a 3818
00000040: 0328 f6bc e33d 13ef ea12 dbeb 27a7 d0f5
00000050: 2208 2405 e528 261d fdf4 e60b 3195 df4a
00000060: 6438 3ed8 2abc fa06 e8c7 f3fc 0c00 2cf9
00000070: 21ff 4760 f6ec e0fc 1047 edfa f107 eed0
00000080: 1346 d551 03be 19f7 4852 d12c fd18 45e8
00000090: 09f5 552a fdfb 0903 012b 9200 fd8b f808
000000a0: bdf0 2a3d edf7 fe00 f90a 98fe ff1d d1fb
000000b0: 28fd 34ed d000 0605 2806 a1f4 0913 fefa
000000c0: d3e4 0cf1 0efb 0bfb 3d05 4a0a 082a 48fc
000000d0: f719 40c8 100d 01fa 3728 eaef f9c3 5508
000000e0: ca44 efee dc22 f307 4e21 5dfb 0dc6 faf7
000000f0: efd0 e3f0 f80e ff06 1e13 5f20 0e5f 254f

tfl.pseudo_qconst19 i1 [16, 3, 3, 3]
13 88 127 14 -52 -85 -56 -100
-95 -16 107 45 29 -19 -28 14
83 -86 -67 94 -17 41 -41 -3
-46 59 45 11 118 57 7 127
108 58 -76 -8 -98 126 -23 12
-12 -41 21 77 -4 -37 44 88
54 54 21 94 113 26 43 -73
41 29 -127 13 -8 37 -36 -38
-3 -14 38 26 54 67 -33 51
55 116 42 4 7 -6 -43 19
15 -75 -50 -32 -92 -93 76 -58
-83 -97 -74 -56 12 8 -41 -7
-15 -71 88 69 57 91 -4 39
-34 40 127 -9 107 31 127 -61
-20 2 -41 -35 -34 29 -70 32
-66 0 19 -6 -122 -9 20 -46
66 63 -13 -55 -63 -32 -50 61
25 40 76 66 -113 -124 18 -24
-2 -40 69 48 -118 -127 35 47
-84 -108 -65 -5 -88 25 36 20
101 51 -16 -5 -107 -11 -111 -33
43 127 3 44 -73 20 -46 -44
-79 -32 78 39 85 36 -14 14
-90 -65 19 -88 -122 -14 -51 18
-26 -33 -24 -56 -59 -59 127 -28
-86 -9 -9 -10 1 -4 -3 6
-15 56 -19 -66 -44 -69 7 -31
68 -23 123 -8 4 -32 -127 -19
-95 46 50 88 52 101 -55 17
87 -37 -10 -32 46 -39 -102 -45
56 58 -47 46 -33 -27 -123 -34
9 -3 -6 24 -31 -64 21 63
00000000: 0d58 7f0e ccab c89c a1f0 6b2d 1ded e40e
00000010: 53aa bd5e ef29 d7fd d23b 2d0b 7639 077f
00000020: 6c3a b4f8 9e7e e90c f4d7 154d fcdb 2c58
00000030: 3636 155e 711a 2bb7 291d 810d f825 dcda
00000040: fdf2 261a 3643 df33 3774 2a04 07fa d513
00000050: 0fb5 cee0 a4a3 4cc6 ad9f b6c8 0c08 d7f9
00000060: f1b9 5845 395b fc27 de28 7ff7 6b1f 7fc3
00000070: ec02 d7dd de1d ba20 be00 13fa 86f7 14d2
00000080: 423f f3c9 c1e0 ce3d 1928 4c42 8f84 12e8
00000090: fed8 4530 8a81 232f ac94 bffb a819 2414
000000a0: 6533 f0fb 95f5 91df 2b7f 032c b714 d2d4
000000b0: b1e0 4e27 5524 f20e a6bf 13a8 86f2 cd12
000000c0: e6df e8c8 c5c5 7fe4 aaf7 f7f6 01fc fd06
000000d0: f138 edbe d4bb 07e1 44e9 7bf8 04e0 81ed
000000e0: a12e 3258 3465 c911 57db f6e0 2ed9 9ad3
000000f0: 383a d12e dfe5 85de 09fd fa18 e1c0 153f
