Homework 6/train/models/resnet_v1.tflite (tflite, 95856 bytes, 20 tensors)

arith.constant f4 [16]
00000000: e8c5 95bd bf00 9fbe 96f5 03bf 7a6a 0c3f
00000010: 08c1 d23e 040c b83e 5c51 e33e 3341 9a3e
00000020: b6dd b0be cab1 07be b43e 1fbe 6a46 d03e
00000030: 2d7d cb3e 9812 28be bbde 113e a08f 183f
-0.07313138 -0.31055257 -0.5154661 0.5484997 0.41162896 0.35946667 0.4439801 0.30127868
-0.34544152 -0.13251415 -0.15551263 0.40678722 0.3974394 -0.16413343 0.14245121 0.59594154

arith.constant1 f4 [16, 3, 3, 3]
00000000: 7f62 413e 36e0 a53f b5b5 ef3f 095c 4e3e
00000010: 0271 42bf bfe8 a0bf bcae 53bf 274c bcbf
00000020: 9233 b3bf a84d 78be f192 c93f a023 2b3f
00000030: d883 de3e a234 8cbe c9ad d6be 85f5 583e
00000040: 301f 9d3f 7cca a2bf 8dd2 7dbf fbba b13f
00000050: c700 82be 3fa2 1a3f 36b1 1bbf df58 39bd
00000060: 82d7 2dbf d95c 5e3f 9cf8 2a3f d316 0a3d
00000070: a8a3 b53e 1522 2f3e 5217 af3c 8bd0 c23e
00000080: 7628 a63e 62ad 313e 5c94 6abe 3183 cbbc
00000090: abf4 95be 846b c13e 030b 8ebd b37c 123d
000000a0: 601c 17bd f3d1 f9bd be27 803d 7144 6c3e
000000b0: 5637 46bc 52d2 e5bd 74f1 063e f651 873e
000000c0: 14cb 253e 862f 253e 8ba6 823d d256 903e
000000d0: 9ec6 ad3e 86a2 9e3d 11bb fe3e 3b2b 59bf
000000e0: 06d8 f33e 3f93 ae3e 54d0 bcbf 2f93 1a3e
000000f0: 6ffa c0bd 93cc dc3e ef55 d5be 2555 e0be
00000100: 0fe7 25bd c92a 24be 8da3 e43e 2a98 9b3e
00000110: e87f 203f 769a 483f ef71 c2be ee16 183f
00000120: 344f 223f e023 ad3f 0f6b f73e 3f83 2a3d
00000130: ae4b 9e3d eb63 8ebd a368 00bf 900b 633e
00000140: 95c0 2c3e 8205 34bf a398 efbe c440 98be
00000150: a307 5ebf d89b 60bf 2a4e 363f 19ce 0cbf
00000160: c49f 47bf d512 69bf 7608 33bf 2a71 06bf
00000170: e689 e63d 7a2d 923d ea7e c4be 7046 8bbd
00000180: 6a27 10be 94bc 2abf e5b9 533f b262 263f
00000190: 3f3a 083f 799d 5a3f 5eb2 0ebd 2c80 ba3e
000001a0: 8e92 a4be d980 be3e dcd7 983f 213a aebd
000001b0: 4fd7 853f dfcb 983e 9ad5 9e3f f879 17bf
000001c0: acf9 46be 7133 b73c 49ee ccbe 919b aebe
000001d0: 465f a8be 00dd 8f3e a8b3 2ebf 4f69 a23e
000001e0: d6a5 24bf 782e 883b 2d21 3b3e 7d04 6ebd
000001f0: 8709 99bf 5f99 b8bd a63f 493e 3c97 e4be
00000200: 0d60 253f f209 1d3f d535 05be d6bb 0abf
00000210: 3120 1dbf ebd8 9dbe af09 f8be 91bf 793f
00000220: 4df0 ca3e e119 233f 8497 9b3f c5b3 853f
00000230: c83c e6bf f741 fbbf 8cdf 903e 6347 bfbe
00000240: e676 11bd bd70 24bf 986c 8b3f d431 433f
00000250: a549 efbf 012e 01c0 a966 0c3f 4f19 3e3f
00000260: 5ae6 aabf 1077 dbbf d2e3 83bf 5bf6 99bd
00000270: 7b6e b3bf 033c c83e 1c99 123f fd06 a23e
00000280: acdf cc3f 3073 4e3f 63be 0ebe 6453 2fbd
00000290: c2bf 70bf a049 cabd dd84 78bf faf6 94be
000002a0: 3421 c23e 4238 8e3f a671 c93c 950c c73e
000002b0: 9640 24bf ba4e 353e 6c2f cfbe 0833 c3be
000002c0: fb84 31bf 1302 90be b02d 2e3f da4e b03e
000002d0: a71b 3e3f ef42 a33e 2175 fabd 3c00 fa3d
000002e0: 5fd1 48bf c224 11bf de9a 273e 0291 44bf
000002f0: 7734 88bf 3c45 b8bd 5306 adbe 1306 f63d
00000300: 82dd 30be d3c6 5dbe c683 23be e49d bfbe
00000310: 8d8d c7be 134b cabe 3b0d 583f 25db 3fbe
00000320: 9c57 12bf 90ec 6bbd e73b 71bd c155 81bd
00000330: 4802 ea3b b735 d1bc a760 b6bc ba7e 193d
00000340: 2e30 cdbd a15f be3e 3131 02be c959 e1be
00000350: c408 94be af4e ebbe 333b 403d a987 54be
00000360: 1301 543f 0f86 8ebe a703 c03f b552 c6bd
00000370: 8668 363d 167b c6be 10fd c5bf bb4d 6abe
00000380: 9496 94bf 9a03 103f 323a 1b3f 9df8 883f
00000390: e69f 203f f727 9e3f a0d6 2bbf 96b8 523e
000003a0: 4b8d 873f 6c01 e5be 270d f3bd dcf5 c5be
000003b0: d8ab 103f 64aa f2be 9b84 9fbf ff8d 0bbf
000003c0: dd7e 2f3f 70cd 353f c486 11bf 40be c73e
000003d0: 26f7 8dbe e420 69be 3917 85bf e5db 94be
000003e0: ee8b 9e3d fe4f f1bc 390f 53bd 53c6 4e3e
000003f0: 7da4 87be 9056 0abf db00 383e 7b6e 073f
0.1888523 1.2959049 1.8727328 0.20152296 -0.75953686 -1.2571028 -0.826885 -1.471074
-1.4000113 -0.24248374 1.5747968 0.66851234 0.43459964 -0.27383906 -0.41929463 0.21187408
1.2275143 -1.2718043 -0.991494 1.3885187 -0.25391218 0.6040382 -0.6081728 -0.04525077
-0.67906964 0.86860424 0.667856 0.033713173 0.35476422 0.17102845 0.021373425 0.3804973
0.32452744 0.17351297 -0.22908157 -0.02484283 -0.2928823 0.3777734 -0.06935694 0.035763454
-0.036892295 -0.12198248 0.0625758 0.23072983 -0.012098154 -0.11221756 0.13178045 0.2642972
0.1619075 0.1613141 0.06379422 0.2819124 0.33940595 0.07745843 0.49752095 -0.8483159
0.4762575 0.34096715 -1.4751077 0.15095209 -0.094227664 0.43124828 -0.41667125 -0.4381496
-0.040503558 -0.16031946 0.4465603 0.3038953 0.6269517 0.7836069 -0.3797755 0.5940999
0.63402104 1.3526573 0.48323867 0.041629072 0.077292785 -0.069526516 -0.5015966 0.2217238
0.16870339 -0.70320904 -0.4679614 -0.29736912 -0.867304 -0.877378 0.7121302 -0.5500198
-0.7797816 -0.9104436 -0.69934785 -0.52516425 0.11256771 0.0713758 -0.38378078 -0.06800544
-0.14077535 -0.66694 0.8270553 0.6499435 0.53213876 0.85396534 -0.034838073 0.36425912
-0.32143062 0.37207678 1.1940875 -0.08507181 1.0456332 0.2984304 1.2408936 -0.59170485
-0.1943118 0.022363396 -0.40025547 -0.34103063 -0.32885188 0.28098297 -0.68242884 0.3172097
-0.64315546 0.00415593 0.18274374 -0.05810975 -1.1956033 -0.09013628 0.19653186 -0.44646633
0.64599687 0.613433 -0.13008817 -0.54192865 -0.61377245 -0.30829558 -0.48444888 0.9755793
0.3963646 0.63711363 1.2155614 1.0445486 -1.7987299 -1.9629506 0.28295553 -0.3735915
-0.03551378 -0.64234525 1.0892515 0.76247907 -1.869435 -2.0184329 0.54844147 0.7425737
-1.3351548 -1.714571 -1.03039 -0.07517692 -1.4018091 0.39108285 0.57264876 0.31645957
1.6005759 0.8064451 -0.13939814 -0.042804137 -0.940426 -0.09877324 -0.97077733 -0.29094678
0.37915957 1.1110919 0.024590325 0.38876787 -0.6416105 0.17705813 -0.40465868 -0.3812487
-0.6934354 -0.28126583 0.68038464 0.3443516 0.74260944 0.31887004 -0.12229372 0.12207076
-0.78444475 -0.5669671 0.16367671 -0.76783764 -1.0641011 -0.089975804 -0.33793887 0.12012877
-0.17271999 -0.21657877 -0.15968236 -0.37425148 -0.38975182 -0.39510402 0.8439519 -0.18735941
-0.5716493 -0.05759865 -0.058895018 -0.063151844 0.007141385 -0.025538309 -0.022262884 0.03747437
-0.10018955 0.37182334 -0.12714078 -0.44013813 -0.28912938 -0.45958468 0.046931457 -0.20754875
0.8281414 -0.27836654 1.5001115 -0.09683744 0.044533275 -0.38765782 -1.5467854 -0.22881214
-1.1608453 0.56255496 0.60635674 1.0700871 0.62743986 1.2355946 -0.67124367 0.20578226
1.0589994 -0.44727647 -0.11867743 -0.38664138 0.5651221 -0.47395623 -1.2462343 -0.54513544
0.68552953 0.710166 -0.5684626 0.39012337 -0.27727622 -0.22766453 -1.0397712 -0.29074016
0.07741533 -0.029457089 -0.05152819 0.20192842 -0.26492682 -0.54038334 0.17969076 0.52902955

arith.constant5 f4 [10, 64]
00000000: 83e7 4cbf 4776 fe3e ba07 42bf b827 99bf
00000010: 1cad ee3d 44ba be3e 2334 f23e fd35 e53e
00000020: f09a 6e3e a3d6 6cbf d250 80be 9a5e dabe
00000030: defd 193f 814a 47be 195a 89be 5399 21bf
00000040: 27b3 cf3e bad0 7f3d e745 58be 5ce2 54bf
00000050: db20 923d 43a8 b3bf 1527 493e b297 0cbf
00000060: 3ccf 37bf 5a22 133f a2db 1a3e c4a8 fbbe
00000070: f1a7 2d3e ee53 18bf c963 9c3e 30aa eebd
00000080: 1e97 e83e 5526 c73e 2464 cb3e cad3 e8be
00000090: 62ce e1be cf8d e33e 92b6 66bf e364 94bf
000000a0: 74e0 e23c 472f 3dbe 57b4 59be d14d 78bd
000000b0: adbb 053f b610 2b3d f307 cbbe 20e9 3bbf
000000c0: a78b 37bf b454 30be b4a8 e83e 6358 36bf
000000d0: 2146 023f a5e6 0d3f 1404 113e 6804 583e
000000e0: 9329 adbe 2579 863d a668 e5be 32a1 983e
000000f0: a024 ff3b 7c30 313f ee39 c33e b53e a9be
00000100: be39 ef3e b3ca e9be 8ef7 473e d5e3 983e
00000110: 872c 8e3e 7ba4 5e3e 88cc cbbe bc01 d4bd
00000120: 9ba2 ad3e 9a89 d93e d842 c93e d746 bfbf
00000130: b609 83bf b378 d4be 5997 a63e 1385 473e
00000140: f5f0 1abf 788f 4abf 2931 aabe e558 babe
00000150: 3e2c 53bf ed6a c03d 6d73 80bf 77a8 183e
00000160: 5572 d43e 8ee5 f13e 48b9 b6be 0016 573d
00000170: 4021 b23e 4143 443e 17c8 c03e 7e4b 59bf
00000180: 507b cc3e d9ed a33e 7b1a 16bf ec5a 2bbf
00000190: 8bfa cc3d 75dc 3bbf f4b3 663e a0f0 edbe
000001a0: bd98 323e 594d f7be bec0 a03e 1b04 d83e
000001b0: cf94 ad3e d7c4 4abf 8162 ae3e 0eef 263e
000001c0: daeb 1e3e 6d84 8abe fa06 f93e 6dc8 cf3e
000001d0: bb02 6bbf 1389 153f 646e 12be 3f4d f7be
000001e0: b0ca 113e 57ee 003e 51f8 42bf f69a 63bf
000001f0: a952 05bf 53ce 5bbf ea58 fc3e d91a a9bf
00000200: 1792 e63d d8cf e93e c367 04be d0a3 773e
00000210: 4195 49bf 4933 3fbf 7e00 03bf 0df6 85bf
00000220: fce2 c2be 0c10 9ebe 86dc 893d d2b6 643e
00000230: a0f7 ffbe dc0d b23e afc4 943d f7fe bebe
00000240: 5d4f c93e 5c55 a53e 2dc7 42be 45c1 4c3e
00000250: fd75 d4be cd2f 65bf 89f9 c23d 1c65 0a3f
00000260: 6f69 78be 290c a23e 2a37 05be 4092 923e
00000270: 79a3 1fbf c38c 783e ba18 bf3e eb6a 7d3c
00000280: 8f0a c13e f6e4 e9be dabd 633e f868 da3e
00000290: 7332 3b3e 847b a73e 27e3 8bbf 2a93 dc3e
000002a0: 60a3 d63c e5d1 41be eb2d c73e eb9b a23e
000002b0: 87ea 9ebd 82d5 db3d 6da7 40bf f2d6 ed3e
000002c0: 2987 f7be fa7a 82bf b101 abbe 5c56 c13e
000002d0: 0474 c0be 71a6 74bf 2062 783e 13e2 f53d
000002e0: eb22 103e bbb1 a53e 735d a93e 29bd e2be
000002f0: 9779 a43e 5749 b7bc 96e8 bf3e 30ef 57bf
00000300: 07a6 ca3e d11a 82bd 920c 263f b2d5 cf3e
00000310: b79d 073f 1cba 31bf 928b a63e c8e0 b6be
00000320: d9da 45bf 61e0 b53e e9aa 89bf 0b90 f6be
00000330: cf33 14bf d8da 27bf 518a 773e ffc4 683e
00000340: cfb0 1c3e 8865 3dbf c2b5 023f ff57 ba3e
00000350: cca7 28bf ab67 d93e fff9 6f3e e77a a33d
00000360: 7b15 67bf c106 bcbe b462 8d3e 0173 033f
00000370: e922 7b3e 375f 03bf 3863 79be fa0b 0c3f
00000380: 13aa 6bbf 0af8 25bf 6c07 283e ef3d ab3e
00000390: 45a6 2c3e 7406 c93c 9394 c63e d437 0f3f
000003a0: c6e4 51bf 35c5 64bf d865 913d 218e 0c3e
000003b0: 537a c6be 648e 953e 72c8 613d 7780 d4bc
000003c0: bd07 43bf 0cab 27bf bdf6 90bf 81e0 11bf
000003d0: 8404 59bf 4a43 853e 7b49 a23e c4dd 5abf
000003e0: 1041 b13e c05a c0be 5b2d 26bf 6439 3b3e
000003f0: ef46 903e 798c e5be 3f66 8cbf 7a46 02bf
-0.8004076 0.49699613 -0.7579304 -1.1965246 0.11654112 0.37251484 0.47305402 0.44767752
0.23301291 -0.9251501 -0.2506166 -0.426503 0.60152996 -0.19462015 -0.26826552 -0.6312458
0.4056637 0.062454917 -0.21120416 -0.83157897 0.07135173 -1.4035724 0.19643815 -0.5491897
-0.7180059 0.5747429 0.15122846 -0.49152195 0.16958596 -0.59503067 0.3054488 -0.116535544
0.45427793 0.38896433 0.3972484 -0.45474082 -0.4410277 0.4444413 -0.9012233 -1.1593288
0.027694918 -0.18475066 -0.212602 -0.060621087 0.52239496 0.041763984 -0.39654502 -0.73402596
-0.7169747 -0.17219812 0.4544121 -0.7122862 0.5088826 0.5543006 0.14161712 0.21095431
-0.3382078 0.06566075 -0.44806403 0.29810482 0.0077863485 0.69214606 0.38130134 -0.33055654
0.4672374 -0.4566246 0.19528028 0.29861322 0.27768347 0.21742432 -0.39804482 -0.10351893
0.3391312 0.42487794 0.3930881 -1.4943494 -1.0237339 -0.41498336 0.32537344 0.19484358
-0.6052392 -0.79125166 -0.3324063 -0.36395946 -0.82489383 0.093953945 -1.0035225 0.14908014
0.41493478 0.4724545 -0.35688233 0.052511215 0.34790993 0.1916628 0.37652656 -0.84880817
0.3993783 0.320174 -0.58634156 -0.6693561 0.10008725 -0.73383266 0.22529584 -0.46472645
0.17441078 -0.483012 0.3139705 0.42190632 0.33902594 -0.79206604 0.34059528 0.1630213
0.15519658 -0.27054158 0.48638135 0.405826 -0.9180104 0.58412284 -0.14299923 -0.48301122
0.14237475 0.1259092 -0.7616015 -0.88908327 -0.52079254 -0.858617 0.49286586 -1.3211318
0.11258333 0.45666385 -0.12930207 0.24183583 -0.7874337 -0.7468763 -0.51172626 -1.0465714
-0.380638 -0.30871618 0.06731515 0.22335365 -0.4999361 0.347762 0.07264077 -0.37303898
0.39318362 0.32291687 -0.19021292 0.19995601 -0.41496268 -0.89526063 0.09520251 0.5406053
-0.2425897 0.31649902 -0.13009325 0.28627205 -0.62358814 0.24272446 0.37323552 0.015467386
0.37703368 -0.45682496 0.22240391 0.4265821 0.18280964 0.32711422 -1.0928696 0.43081027
0.02620095 -0.18927725 0.3890222 0.3175958 -0.07759576 0.10734083 -0.7525547 0.46453053
-0.48345307 -1.019378 -0.33399728 0.377612 -0.37588513 -0.9556647 0.24256182 0.12006011
0.1407582 0.3236216 0.3307911 -0.44284943 0.32124016 -0.022373838 0.37482136 -0.84349346
0.39579794 -0.06352771 0.6486293 0.40592724 0.5297503 -0.69424605 0.3252836 -0.3571837
-0.7728706 0.3552275 -1.0755283 -0.4815677 -0.57891554 -0.65568304 0.24173857 0.22731398
0.15301822 -0.7398305 0.5105859 0.3639526 -0.6588104 0.42461905 0.2343521 0.07982426
-0.9026715 -0.36723903 0.27614367 0.5134736 0.24525036 -0.5131716 -0.24354255 0.54705775
-0.9205639 -0.648316 0.16409081 0.3344569 0.16860302 0.02453921 0.38785228 0.5594456
-0.81989706 -0.89363414 0.07099503 0.13726093 -0.387652 0.29210198 0.0551228 -0.025940163
-0.7618368 -0.6549537 -1.1325299 -0.5698319 -0.84772515 0.260279 0.31696686 -0.8549464
0.3461995 -0.37569237 -0.64912957 0.18283612 0.28179118 -0.44833735 -1.0968703 -0.5088879

arith.constant6 f4 [32, 1, 1, 16]
00000000: efeb a33d 3e26 593e e033 f4bc 334b e2bd
00000010: a162 2f3d 07be 3abc cec3 0cbe 200c 95bc
00000020: cabf c4bd ee49 21bd 607f 483e bb35 993e
00000030: 2bbb 973d b082 b6bd 6167 333e a0f9 333e
00000040: d22f 18be e308 aabc 07bc 073e 4433 193e
00000050: bb03 9ebe ca69 07be 74fa 57be c19d 443d
00000060: 7a3d 653d aa37 c63d 7371 943c d78d 14bd
00000070: cac3 afbd d77e 25be 8fc9 02be 0bf9 adbd
00000080: da79 25bd b1b7 b2be 8441 53be 6318 7c3e
00000090: f4c7 903e 9c18 fabd 2223 023e 2beb 173e
000000a0: 8ff9 323e b9a0 82be 297b 26be 7364 2fbe
000000b0: 147d c7be a542 bcbc dd42 a03d c7b5 afbd
000000c0: 754d b83d 2377 8c3e d06c 94be 1355 92bc
000000d0: 6a5b 49be 4d93 c7bc 77eb 43be ed0d 87bd
000000e0: 44ee aebc 2b23 76be e762 5d3d 0d95 be3d
000000f0: 9c65 e0bd cd46 3cbe db3c 03be af34 9e3e
00000100: f7b5 de3c 3e23 2abe 6234 58be cf1b 58be
00000110: 4d59 b0bd df9f d53d 98bf 823e f09a 99bd
00000120: 492a 05be 9c66 bfbd aa3a 0bbe aadb df3b
00000130: 6ece 91bc ffc5 38be adc6 14be f44f 77be
00000140: 2bdd c1be a591 533d 627a 8e3e 80ca cabe
00000150: 769c af3d 3199 2bbe 00c9 243e 728e a5be
00000160: ed90 2e3e 08c7 f2bd 888e 6c3d 0713 c33b
00000170: 4dce 5fbe 0bc6 19be 3094 48bd 32ea 22bd
00000180: 885b caba 67d3 8fbe 4704 8fbd 1fcb a23e
00000190: a4ec 003e e986 793d 6f16 833e 6323 04be
000001a0: b340 e43d b8a7 b03e 5516 4b3e 28ee 04be
000001b0: 0891 fd3d 5797 2e3d e802 8abe 4d57 d83c
000001c0: f070 40be 16d6 92bd 980f bbbe ca32 3bbe
000001d0: c832 813e 383a 9ebd f3e4 41be 0781 7abe
000001e0: 2717 a3bb f208 a53e 2460 edbe d964 c43d
000001f0: e618 843d 17ba 12bd 1970 5abe a8b7 813e
00000200: 68b7 fabc 9df6 efbd 1584 55bd 4989 84be
00000210: 16df b6bd d9af 083e 1554 aebd 659e 09bd
00000220: fba4 ffbd a808 a5bd 1832 a7bd 337c abbb
00000230: ffc2 d8bd 02f8 16bd e31c 86bd 7966 92bd
00000240: 5351 9fbe 72de a7be 879b bdbe 4042 86be
00000250: 2503 683c 745a 613e c4c5 4e3d 10b7 d13d
00000260: 08f5 4e3e 6330 ad3e 86fd e5be 4f34 a3bd
00000270: c177 45be 3099 fabd bc8d b93d d6fb ee3c
00000280: d588 1b3e 1d3e 1c3d cd82 373d 97d3 93be
00000290: cccc 09be 8d45 793c af78 263e 4e76 6e3e
000002a0: 565d 653e ebcc 79be d96f bbbd 622d 75bd
000002b0: f4c9 c3bd 3d92 f53b 8d3e fbbd 1d3e a63d
000002c0: fc05 08be 7a4b 833d 327e 3abe f852 69be
000002d0: 26fb cbbd b6ff 71be d868 80bc 836e a5bd
000002e0: ffe6 61bd d584 fa3c aecf 053e 9fa3 9f3e
000002f0: 2c11 c4bd 5b31 063c 6514 0cbc 4ba9 0fbe
00000300: 43ce 2abe 8573 6a3e 7773 85bd faca 01bd
00000310: 1cb5 43bd a965 9d3d 6d8f e6bd 276e 78bd
00000320: 5e4b 3abd 981e b1be 834c 7dbd d98a 45bc
00000330: e6c0 723e 89a2 b73d 8205 7e3d 2f2e 31be
00000340: c98d 133e 2ff1 0abe e4a8 4f3e 084a 74be
00000350: 304f 573d ed61 b3bd f42f 14be 7cc2 783d
00000360: fcd4 9abd aa4a 79be 97e2 73be ce92 f5bd
00000370: bdf1 a5bd db76 6dbd 15e2 ddbd fb86 00be
00000380: 7474 16be 25dd c2bd 2925 6f3e 7fa8 8fbe
00000390: cadf a63c 7e56 653c eec2 243d 51b1 41bc
000003a0: 06f3 a53d e4e4 cabd 3b7f 27be 9425 003e
000003b0: 847e 013e 894d 093d 7474 b43d cadb 233e
000003c0: 2e27 2dbe f88e 8bbc 9d90 d63e 31de 4ebe
000003d0: d81a 06be 0102 a4bd e0f9 063e 05ed 83be
000003e0: 5e69 1e3b c3b9 d13d a466 5c3d dead c93b
000003f0: 5414 4ebe c3fc a43d 58dd 633d 6b78 c6bd
0.08003985 0.21205994 -0.029809892 -0.11049499 0.04281867 -0.011397845 -0.13746569 -0.018194258
-0.09606893 -0.039377145 0.1957984 0.29923806 0.07408746 -0.089116454 0.17519905 0.17575693
-0.14861992 -0.02075619 0.1325532 0.14960963 -0.3086222 -0.13223949 -0.21091634 0.04800201
0.05596683 0.09678586 0.018120503 -0.03626808 -0.08582266 -0.16161667 -0.12772201 -0.08494767
-0.04039941 -0.3490577 -0.20630461 0.24618678 0.28277552 -0.12211725 0.12708715 0.14835803
0.17478012 -0.25513247 -0.1625792 -0.17128162 -0.38962615 -0.022980997 0.07825253 -0.08579593
0.08999149 0.27434644 -0.28989267 -0.017862832 -0.19663778 -0.02436223 -0.19132791 -0.06594453
-0.021353848 -0.24036853 0.0540494 0.09305773 -0.109568805 -0.18386383 -0.12816183 0.3089957
0.027186377 -0.16615006 -0.21113732 -0.21104358 -0.08610783 0.104308836 0.255368 -0.07500255
-0.13004412 -0.09345743 -0.13596597 0.006831606 -0.017798629 -0.1804428 -0.14528914 -0.24151593
-0.3786405 0.05165257 0.27827746 -0.3960762 0.085747644 -0.16757657 0.160923 -0.3233524
0.17047472 -0.118543684 0.057753116 0.005953196 -0.21856041 -0.15016954 -0.048969448 -0.039774127
-0.0015438655 -0.28090975 -0.06983238 0.31795594 0.12590271 0.060919676 0.25603053 -0.12904124
0.11145153 0.3450296 0.19832738 -0.12981474 0.12381178 0.042624798 -0.26955342 0.026408816
-0.18793082 -0.0716974 -0.36535335 -0.18281093 0.25234056 -0.07725948 -0.18934993 -0.24463283
-0.004977125 0.32233387 -0.46362412 0.09589548 0.064500615 -0.035822 -0.21331824 0.2533543
-0.030605033 -0.117169596 -0.052127916 -0.2588599 -0.08929269 0.1334833 -0.08512131 -0.033598322
-0.124826394 -0.08058292 -0.081638515 -0.0052333116 -0.105840676 -0.036857612 -0.065484785 -0.07148451
-0.31116733 -0.327869 -0.3703272 -0.2622242 0.014160906 0.22007161 0.050481573 0.102399945
0.2021066 0.3382598 -0.44919986 -0.079689614 -0.19283964 -0.122362494 0.09060237 0.02917282
0.15188916 0.038145173 0.044802476 -0.28872368 -0.1345703 0.015214336 0.16256975 0.23287317
0.22398886 -0.24394576 -0.091521926 -0.059857734 -0.09560004 0.0074942396 -0.1226779 0.08117316
-0.13283533 0.064108804 -0.18212202 -0.22785556 -0.09960012 -0.23632702 -0.015674993 -0.08077719
-0.055151936 0.030580917 0.13067505 0.3117952 -0.09573588 0.008190478 -0.008549784 -0.14029424
-0.16680245 0.2289563 -0.06516164 -0.031687714 -0.04778014 0.07685406 -0.11257825 -0.060651924
-0.045482032 -0.34593654 -0.061840545 -0.01205703 0.23706397 0.08966548 0.06201697 -0.17302774
0.14409555 -0.13568567 0.2027927 -0.23856366 0.052565753 -0.08758912 -0.14471418 0.06073235
-0.07560155 -0.24344888 -0.23816906 -0.119908914 -0.081027485 -0.057974678 -0.10834137 -0.12551491
-0.14692861 -0.09514836 0.23354019 -0.2805824 0.020370383 0.013997672 0.040224962 -0.011822061
0.08102994 -0.09906939 -0.16357128 0.12514335 0.12645918 0.03352121 0.08811274 0.16001812
-0.16909477 -0.017035946 0.41907206 -0.20201947 -0.13096178 -0.08008195 0.13181257 -0.2576677
0.002417169 0.10240509 0.053808823 0.00615476 -0.20124942 0.08056023 0.05563101 -0.09690937

arith.constant7 f4 [64]
00000000: bb37 0c3f c496 7ebf da85 8abf 7759 7cbf
00000010: 5c14 abbd 5e3e 4a3e 7532 54bf 3fa0 943e
00000020: 264b 13be 2a16 7e3e 9df5 bbbf f293 28bf
00000030: 79f3 90be 73f2 36bf 828f a83d e194 343f
00000040: 7043 463e 5966 02c0 621a 7cbf 6ff4 c7be
00000050: 8358 6fbf bcae ca3e 179e 05c0 23d1 9fbf
00000060: c88b 363e 789b d2be e982 2ebf c9a6 71bf
00000070: c221 183f 66a3 75bf 9354 fc3e 5fd8 dbbd
00000080: ca53 0f3d ca3c e43d 4369 39bf 82a6 74bf
00000090: a64f d0be 5ee5 233e a4ff 573f b6ea 4cbf
000000a0: a6e2 e1bf 3c1d 53bf 2095 e8be 1d75 8dbe
000000b0: cfbf 423e 4170 06c0 2a7e 273f 0bc0 98be
000000c0: c8ad c3bf 1407 c5be 2dfb 8f3f 17d5 f6bf
000000d0: be1f 44bf 1724 2f3f c057 283e 190b ad3e
000000e0: 9635 51bf 4497 91be 149a 01c0 4a27 eabe
000000f0: f3ab 64bf e939 3dbf cdd8 8d3e 00cc 31bf
0.5477254 -0.994488 -1.0822098 -0.9857401 -0.083534926 0.19750354 -0.8288949 0.29028508
-0.14384136 0.24813142 -1.468433 -0.65850747 -0.28310755 -0.714637 0.08230497 0.7053967
0.19361663 -2.0374968 -0.98477757 -0.39053676 -0.93494433 0.39586437 -2.087774 -1.2485698
0.1782676 -0.41134238 -0.68168503 -0.9439512 0.5942651 -0.9595245 0.49283275 -0.10734629
0.034992017 0.11144407 -0.7242624 -0.9556657 -0.40685767 0.16005465 0.8437445 -0.8004564
-1.7647293 -0.82466483 -0.45426273 -0.27628413 0.19018482 -2.1006014 0.65426886 -0.29834017
-1.5287409 -0.38481963 1.1248528 -1.928378 -0.76610935 0.68414444 0.16439724 0.3379753
-0.8172239 -0.2843572 -2.0250292 -0.457331 -0.89324874 -0.7391649 0.27704468 -0.69451904

arith.constant8 f4 [64]
00000000: cba6 19bf 11ad 0e3e d1c6 0c3f 0892 d83e
00000010: f7f6 3b3e eeb5 113f 5649 fcbe 89b2 6ebe
00000020: cecb 0dbf 980a 1a3e b0cc 603e 854f 403f
00000030: 2ad8 1abd fe04 8f3e 75ee 893e ab64 a83d
00000040: 9918 083e ea6e a43e b4b8 623e faaa 2a3f
00000050: 35d6 803c 8828 a93e 39a7 1f3e af98 abbe
00000060: 6d20 70be d8e9 253e 6d83 9cbe 9aee d73e
00000070: 9f87 3d3e 9c0b 2c3d c887 f63b 3fe7 503e
00000080: bd43 e03d 2956 c23d b9b3 bd3e d65c b9be
00000090: cb4c a9bd ddc0 3fbf 897e c9be 4e4a 093f
000000a0: 02fa 013f a237 d03d fb0a 913e 0621 f63e
000000b0: 2e9d 01bf 95ab 58bd 58dc 823b 9bca ffbd
000000c0: c1b3 93bb a925 8f3e 05bd 53be b12c 41bf
000000d0: a970 bc3e 8c88 aebe 74e8 9bbe 8a93 133f
000000e0: e09e acbd e62b 333e e74c 633e 0c2b 8c3e
000000f0: 4529 ae3e 951c 613e fc97 543e 8290 773d
-0.6002013 0.13933207 0.5499087 0.42298913 0.18355928 0.5691823 -0.492747 -0.23310293
-0.55389106 0.15043104 0.21953082 0.7512134 -0.037803806 0.27933496 0.2693974 0.08222326
0.13290633 0.3211587 0.22140771 0.6666714 0.015727142 0.33038735 0.15591134 -0.33514926
-0.2344987 0.16202486 -0.3056902 0.42174226 0.18508767 0.04200326 0.0075235106 0.20400713
0.1095042 0.0948909 0.3705118 -0.3620364 -0.082666 -0.7490366 -0.3935435 0.53629005
0.50772107 0.10166861 0.2832869 0.4807207 -0.5063046 -0.05289801 0.003993552 -0.12489816
-0.0045075123 0.2795842 -0.20677574 -0.7545882 0.36804703 -0.34088552 -0.30450785 0.57647
-0.084287405 0.17497215 0.22197305 0.27376592 0.3401586 0.2198356 0.20761102 0.060440548

arith.constant9 f4 [32]
00000000: cd43 fcbb e129 c4be 0053 883c 8d70 06be
00000010: 84b1 5c3f 5580 463f 584d 2f3e 2dca d43e
00000020: c062 aabd 8391 82be 2d85 91be caee 983b
00000030: f2c0 88be 32b8 503f 9de0 1a3f 48a8 d63e
00000040: 85de b0be 3ec0 e33d cecb e5bd 8eaa 41bf
00000050: 3fcf 20bf 04ce 86bf 3242 9b3d f4fe 313f
00000060: 3d55 e53e ee25 c0bb e700 0e3e f693 f3be
00000070: a24c 493e 3b1c 9a3d ebfa 973e 02c1 b6bd
-0.007698512 -0.383132 0.01664114 -0.13128872 0.8620837 0.7753957 0.17119348 0.41560498
-0.08319616 -0.25501642 -0.28421918 0.0046671377 -0.26709706 0.8153106 0.6049898 0.41925263
-0.3454477 0.11120652 -0.11220513 -0.7565087 -0.6281623 -1.0531621 0.07580985 0.6952965
0.44791594 -0.0058638966 0.13867532 -0.47573823 0.1965814 0.07524916 0.29683623 -0.08923532

arith.constant10 f4 [32]
00000000: 3b73 c83e 0d84 903f fa07 dc3f 483a b93b
00000010: dc33 f1bd 409b 573f c8b2 963e b6bf 3e3f
00000020: 99f4 763e af11 863f da4c 303d 1598 c0be
00000030: add2 e0bc 869b 3cbf 58e5 eb3e 9efa 5abf
00000040: 6ddf 14be 952c eb3e 955f fc3e 9fae 38bd
00000050: 40d2 7cbd eaf5 3c3f 8dd9 d53f 5a42 7a3f
00000060: 7c0c 453f 8843 80bf 7198 503f 47c4 273e
00000070: d773 1fbf a2fd f9be 40dc 233f 7eb2 f93f
0.39150414 1.1290299 1.7189934 0.0056526996 -0.117774695 0.8422127 0.29433274 0.7451128
0.24116744 1.0474147 0.04304204 -0.3761603 -0.027444208 -0.7367481 0.46073413 -0.8553866
-0.14538355 0.4593245 0.49291673 -0.045088407 -0.061723948 0.73812735 1.6707016 0.97757494
0.76972175 -1.0020609 0.8148261 0.16383468 -0.6228613 -0.4882632 0.6400795 1.9507596

arith.constant11 f4 [16]
00000000: e562 1f3f 4248 473f 3fef 8d3e d25b cebd
00000010: 1bfd 18be f2d0 443f 3589 923d 6e0b 90be
00000020: e204 eb3f 1670 983e 6e09 0cbf b014 c2bd
00000030: 3648 22be 2837 083e f26e e83d 6576 5abf
0.62260276 0.7784463 0.27721593 -0.10076107 -0.14940302 0.76881325 0.071550764 -0.2813372
1.8360865 0.29773015 -0.5470189 -0.09476602 -0.15847859 0.1330229 0.11349286 -0.85336906

arith.constant12 f4 [16]
00000000: 61f6 953e f9c2 10bf f9eb 79bf b450 893f
00000010: 74b7 07be 507d 08bf 8c11 6fbe 5ba8 cebe
00000020: cd68 89bf d0d6 34bd 5812 b23e b7bd 673f
00000030: 6283 ee3e 9336 87be 582e 793f 422a 063f
0.29289535 -0.56547505 -0.9762569 1.0727754 -0.13253576 -0.5331621 -0.23346537 -0.4036282
-1.0735108 -0.044150174 0.3477962 0.90523857 0.46584612 -0.26408824 0.9733634 0.5240823

arith.constant13 f4 [10]
00000000: 10ca f93d f7d0 1e3e bf4e 6a3c 35d3 2abc
00000010: 9cb0 a0bd 9490 acbc 6623 acbd 2d39 913c
00000020: 40af 0bbb 25f8 90bd
0.121967435 0.15509401 0.014301001 -0.010426332 -0.078461856 -0.021065034 -0.08405189 0.017727459
-0.0021314174 -0.0707858

arith.constant14 f4 [64]
00000000: e6ad 02bc 8a27 9ebd 83ef 86bd 52cb e43d
00000010: b70c 8abd 9cd2 b13b 0945 a3bc 896f 0e3d
00000020: b70a e4bc 83f3 363c de99 b8bc ec07 57bd
00000030: 243b 0fbd 4c0a 5dbd ed3d e73b 7b0c 1e3c
00000040: 5107 78bd f469 8fbd 34b0 ecbd fa2f 62bd
00000050: 08f0 54bd 3d24 27bd 588d d53d b1d3 9bbd
00000060: efdc 3fbd 695d 9bbd 5998 cebd 06f2 efbc
00000070: 5ef4 25bd 227c c4bd 491a 163d 723b a0bd
00000080: 52fd 263a 5417 91bd 70a2 d1bc c573 c6bd
00000090: faad 763d b781 2bbd fb13 053c c1a6 cbbd
000000a0: e811 eebd ffc6 59bd dedf 8c3c 7935 a53c
000000b0: f526 e2bc 62b9 b43d 60a4 bbbd b5eb afbd
000000c0: e17c 03be 5e71 58bd 2ad7 f83c 6009 88bd
000000d0: 832b 2ebd 08f5 56bd 3c8c 663d a448 b0bd
000000e0: 1534 04bd 198b 0abd a776 d0bd e773 c93c
000000f0: 74c9 41bc 754d 0abe 3e89 963c 0a00 75bd
-0.007976031 -0.07722385 -0.06588652 0.11171593 -0.067407064 0.005426718 -0.01993038 0.034774337
-0.02783714 0.011166456 -0.022534307 -0.05249779 -0.03496851 -0.053964898 0.0070569427 0.00964653
-0.060553852 -0.07002631 -0.115570456 -0.055221535 -0.051986724 -0.040806044 0.1042735 -0.07608736
-0.046841558 -0.07586176 -0.10087652 -0.02929021 -0.04051625 -0.09593989 0.03664616 -0.07823838
0.0006370145 -0.070845276 -0.025590152 -0.0969005 0.06022451 -0.041871753 0.0081224395 -0.09943915
-0.11624509 -0.053168293 0.017196592 0.0201671 -0.027606467 0.088244215 -0.091622114 -0.085898794
-0.12840606 -0.05284249 0.030376036 -0.06642413 -0.042521965 -0.052479774 0.05628608 -0.08607605
-0.03227623 -0.03382406 -0.10178881 0.0245914 -0.011827815 -0.1350611 0.018375989 -0.05981449

arith.constant15 f4 [32]
00000000: a564 96bd 3291 14be a962 1dbe 176e 32be
00000010: a000 02bc a614 4ebd 07c9 0ebe 94e1 0fbe
00000020: e3dc 24be 49e8 22be fe92 15be 5457 fbbd
00000030: faf8 28be f307 40be 8a16 c0bd 980f 13be
00000040: 57e2 c0bd ea10 1abe fd4b a9bd 61b3 cebd
00000050: 7595 28be e03d 1cbe 0fdd 54be 060c f3bd
00000060: a018 f1bd 8a6b 20be af40 acbd 2e3e d9bd
00000070: f6c5 e9bd 736d dcbd e619 18be 2aad c1bd
-0.07343415 -0.14508513 -0.15369667 -0.17424808 -0.007934719 -0.05031266 -0.13943873 -0.14050895
-0.16099887 -0.15908922 -0.14606854 -0.12272516 -0.16501227 -0.18753032 -0.09379299 -0.14361417
-0.09418171 -0.15045515 -0.08266447 -0.100928076 -0.16463263 -0.15257978 -0.20787452 -0.11867528
-0.11772275 -0.15666023 -0.08410775 -0.10607563 -0.11414711 -0.10763063 -0.1485363 -0.094568565

tfl.pseudo_qconst i1 [64, 1, 1, 32]
00000000: 4e26 7f29 1101 8d41 2ee5 9a4a fdd3 6733
00000010: e9f1 3706 bf61 337a 1fa3 ec08 c700 22b5
00000020: 7f33 d9fb e602 1ee4 02fd 38f6 06f6 1be8
00000030: 2b0b fe1c 2208 1ad9 ea30 fde8 fb03 24bd
00000040: 63c0 fbe3 9cf3 cb13 fdf3 cc00 f8f2 aae1
00000050: dce4 d8bb cbf4 0be1 8fcf e3e9 da9f e081
00000060: 420e 12f2 d9f3 7f51 21f1 0e1c fff6 2cf3
00000070: 010f 4fdf 024f fa1b f2d6 ddeb c6d7 ddb6
00000080: 3102 f1ff e819 5153 1be0 4d21 020c edf9
00000090: 1c23 7ff0 0d2d 26d5 0aeb cf0c ecd3 1b0d
000000a0: d71c ad49 14fb c903 14f3 f403 07fb 151e
000000b0: f9ff 7f2e 28e4 46c3 e2b1 cff7 d130 e113
000000c0: 7f29 2d17 e202 0cfb 001e 4311 210e 7af3
000000d0: 1319 fb4e 2721 2821 3a41 1418 0a3d 4633
000000e0: d70f 97f5 02ee 812f 05da 00f6 0902 ed38
000000f0: ea01 4f0e f0e9 2ece bfbf d2d1 e40d f10c
78 38 127 41 17 1 -115 65
46 -27 -102 74 -3 -45 103 51
-23 -15 55 6 -65 97 51 122
31 -93 -20 8 -57 0 34 -75
127 51 -39 -5 -26 2 30 -28
2 -3 56 -10 6 -10 27 -24
43 11 -2 28 34 8 26 -39
-22 48 -3 -24 -5 3 36 -67
99 -64 -5 -29 -100 -13 -53 19
-3 -13 -52 0 -8 -14 -86 -31
-36 -28 -40 -69 -53 -12 11 -31
-113 -49 -29 -23 -38 -97 -32 -127
66 14 18 -14 -39 -13 127 81
33 -15 14 28 -1 -10 44 -13
1 15 79 -33 2 79 -6 27
-14 -42 -35 -21 -58 -41 -35 -74
49 2 -15 -1 -24 25 81 83
27 -32 77 33 2 12 -19 -7
28 35 127 -16 13 45 38 -43
10 -21 -49 12 -20 -45 27 13
-41 28 -83 73 20 -5 -55 3
20 -13 -12 3 7 -5 21 30
-7 -1 127 46 40 -28 70 -61
-30 -79 -49 -9 -47 48 -31 19
127 41 45 23 -30 2 12 -5
0 30 67 17 33 14 122 -13
19 25 -5 78 39 33 40 33
58 65 20 24 10 61 70 51
-41 15 -105 -11 2 -18 -127 47
5 -38 0 -10 9 2 -19 56
-22 1 79 14 -16 -23 46 -50
-65 -65 -46 -47 -28 13 -15 12

tfl.pseudo_qconst1 i1 [64, 3, 3, 64]
00000000: eef6 10c5 03dd cafe 60ee f2ff f413 1ce1
00000010: fe15 ce28 ec2b c8ba d90d 0a03 25fc a43d
00000020: 21ee 2843 31bf 48bb e8f2 31bd 38a3 f7aa
00000030: c1bf 275f e9ba 00d7 1ff2 0b11 f61d 050b
00000040: e90b 00d2 fee4 ca15 6a03 1f13 f322 ffec
00000050: eb07 f322 0a10 abc8 d60c 01f6 1feb b822
00000060: 17fb 2348 38eb 2ad3 dec0 1ca7 2bbf f5f7
00000070: ddc5 3153 f7a3 f001 fe00 e40b 0317 170b
00000080: ea1a ffd7 0ad1 c813 7fd8 122c e834 fde2
00000090: ecf7 e236 0ec8 bfc6 cb0b 13f7 04e8 9908
000000a0: fbeb 4344 38e6 25d8 06c5 3abf 47bb 0013
000000b0: 04bc 4034 0998 25f9 2c12 ad3e fa0f 24ef
000000c0: f3ea e9b0 04c2 d5e7 42da 22fd 012c 1ee0
000000d0: f6f2 c31c 0e10 b5ca d022 1317 0f1d d147
000000e0: 2adf 3d4e 3ad2 2ec7 f1a6 39c5 18bd 02b5
000000f0: d3c7 4b43 f1c0 0ef2 1004 1623 0dfb 0e07
-18 -10 16 -59 3 -35 -54 -2
96 -18 -14 -1 -12 19 28 -31
-2 21 -50 40 -20 43 -56 -70
-39 13 10 3 37 -4 -92 61
33 -18 40 67 49 -65 72 -69
-24 -14 49 -67 56 -93 -9 -86
-63 -65 39 95 -23 -70 0 -41
31 -14 11 17 -10 29 5 11
-23 11 0 -46 -2 -28 -54 21
106 3 31 19 -13 34 -1 -20
-21 7 -13 34 10 16 -85 -56
-42 12 1 -10 31 -21 -72 34
23 -5 35 72 56 -21 42 -45
-34 -64 28 -89 43 -65 -11 -9
-35 -59 49 83 -9 -93 -16 1
-2 0 -28 11 3 23 23 11
-22 26 -1 -41 10 -47 -56 19
127 -40 18 44 -24 52 -3 -30
-20 -9 -30 54 14 -56 -65 -58
-53 11 19 -9 4 -24 -103 8
-5 -21 67 68 56 -26 37 -40
6 -59 58 -65 71 -69 0 19
4 -68 64 52 9 -104 37 -7
44 18 -83 62 -6 15 36 -17
-13 -22 -23 -80 4 -62 -43 -25
66 -38 34 -3 1 44 30 -32
-10 -14 -61 28 14 16 -75 -54
-48 34 19 23 15 29 -47 71
42 -33 61 78 58 -46 46 -57
-15 -90 57 -59 24 -67 2 -75
-45 -57 75 67 -15 -64 14 -14
16 4 22 35 13 -5 14 7

tfl.pseudo_qconst2 i1 [64, 3, 3, 32]
00000000: fcd5 00dd c8e8 09a9 e92a 2ed5 b8f5 2adf
00000010: eb22 a9ee 3bcf 0e5b 234e df35 02c9 1ffd
00000020: ace9 fbf6 fce5 0fce 08e5 26cf 81f1 0403
00000030: edff ceca 41e5 f649 1e43 0d20 28de 2e3a
00000040: dc2a 4600 f641 e110 e419 f6f6 c7ae fdea
00000050: ef10 c3d3 13aa 0437 2036 fffb 5020 1537
00000060: 49da 02d8 e70e 03cd 02da f9f8 e8fd c604
00000070: 3ff6 c6fe 1416 e92a 4556 cb28 0bda e6d5
00000080: 28d5 1eee 0c31 dbdc f0e5 ebda d901 f7e5
00000090: 2540 03fa 3700 0e05 2703 e926 ffe3 fffb
000000a0: f1ff 46e2 f2fb 4ddd cb02 fa00 d8cb d215
000000b0: 371c b0f9 ded5 1a2a f519 0ff3 47ff 3700
000000c0: 6e03 c401 eef5 fc28 06e9 05f9 dceb dcfd
000000d0: ce42 efa4 26f3 ddfd e95b 3704 cad6 aec7
000000e0: 2f25 c9f1 0515 c323 1313 1623 ee25 fdee
000000f0: bc34 e3ec 1ebb 14a9 cf4e 2811 1cf2 b00c
-4 -43 0 -35 -56 -24 9 -87
-23 42 46 -43 -72 -11 42 -33
-21 34 -87 -18 59 -49 14 91
35 78 -33 53 2 -55 31 -3
-84 -23 -5 -10 -4 -27 15 -50
8 -27 38 -49 -127 -15 4 3
-19 -1 -50 -54 65 -27 -10 73
30 67 13 32 40 -34 46 58
-36 42 70 0 -10 65 -31 16
-28 25 -10 -10 -57 -82 -3 -22
-17 16 -61 -45 19 -86 4 55
32 54 -1 -5 80 32 21 55
73 -38 2 -40 -25 14 3 -51
2 -38 -7 -8 -24 -3 -58 4
63 -10 -58 -2 20 22 -23 42
69 86 -53 40 11 -38 -26 -43
40 -43 30 -18 12 49 -37 -36
-16 -27 -21 -38 -39 1 -9 -27
37 64 3 -6 55 0 14 5
39 3 -23 38 -1 -29 -1 -5
-15 -1 70 -30 -14 -5 77 -35
-53 2 -6 0 -40 -53 -46 21
55 28 -80 -7 -34 -43 26 42
-11 25 15 -13 71 -1 55 0
110 3 -60 1 -18 -11 -4 40
6 -23 5 -7 -36 -21 -36 -3
-50 66 -17 -92 38 -13 -35 -3
-23 91 55 4 -54 -42 -82 -57
47 37 -55 -15 5 21 -61 35
19 19 22 35 -18 37 -3 -18
-68 52 -29 -20 30 -69 20 -87
-49 78 40 17 28 -14 -80 12

tfl.pseudo_qconst3 i1 [32, 3, 3, 32]
00000000: 0605 0f2e 3331 0cf8 f83d 1bde f52e 0c48
00000010: 4105 ec2f 0aec 1120 d52c e3f5 faf7 f84a
00000020: 04e3 1a0d 1205 3004 f53d 0af7 0527 050f
00000030: 0ef5 ef26 1923 18ee d40e e4fa 13e5 4439
00000040: 19de f51c 27e1 14ef f21e e727 00e9 fa0c
00000050: f2e1 fe1b 331b 1aec 0d33 f2df 00f2 3b09
00000060: 08e2 f803 fc0b e530 13e7 12f0 ff07 0123
00000070: 022e 0ee0 05de 0309 1e13 38e4 09fd e8fd
00000080: dfec f206 01ff db0c 0c0d f71f 14f2 f7ed
00000090: 0916 f2ee ff25 09f3 0d01 2f17 e702 1ced
000000a0: befa fc01 e1e8 fe2b 0fff ff0b 27ef fbd8
000000b0: 0500 ff1d 1101 efcd 4df5 eee6 f7ff 18e6
000000c0: 2381 f7e0 0c5c fc4a 33f3 38ea f2d7 0ddb
000000d0: b9fa 4aa1 e3c7 ddf2 de00 30f1 d4dd 99e4
000000e0: f2bb 2f10 0b0e 29fb 1bf9 020b faf4 0bff
000000f0: cec1 29da d9fa e7e8 fd08 11f9 0be7 cff4
6 5 15 46 51 49 12 -8
-8 61 27 -34 -11 46 12 72
65 5 -20 47 10 -20 17 32
-43 44 -29 -11 -6 -9 -8 74
4 -29 26 13 18 5 48 4
-11 61 10 -9 5 39 5 15
14 -11 -17 38 25 35 24 -18
-44 14 -28 -6 19 -27 68 57
25 -34 -11 28 39 -31 20 -17
-14 30 -25 39 0 -23 -6 12
-14 -31 -2 27 51 27 26 -20
13 51 -14 -33 0 -14 59 9
8 -30 -8 3 -4 11 -27 48
19 -25 18 -16 -1 7 1 35
2 46 14 -32 5 -34 3 9
30 19 56 -28 9 -3 -24 -3
-33 -20 -14 6 1 -1 -37 12
12 13 -9 31 20 -14 -9 -19
9 22 -14 -18 -1 37 9 -13
13 1 47 23 -25 2 28 -19
-66 -6 -4 1 -31 -24 -2 43
15 -1 -1 11 39 -17 -5 -40
5 0 -1 29 17 1 -17 -51
77 -11 -18 -26 -9 -1 24 -26
35 -127 -9 -32 12 92 -4 74
51 -13 56 -22 -14 -41 13 -37
-71 -6 74 -95 -29 -57 -35 -14
-34 0 48 -15 -44 -35 -103 -28
-14 -69 47 16 11 14 41 -5
27 -7 2 11 -6 -12 11 -1
-50 -63 41 -38 -39 -6 -25 -24
-3 8 17 -7 11 -25 -49 -12

tfl.pseudo_qconst4 i1 [32, 3, 3, 16]
00000000: dae0 22be 2bd8 0b29 0acc cbcb a8ed 17d8
00000010: d9ff 0dab 3fe2 fc04 2bf1 08f9 e2ea f9f7
00000020: c4ec fdac f9ea 370b 2dae 032a f8ee d9d7
00000030: e3d2 23fd 1c27 1bd1 11dc e0c1 f1fe df2e
00000040: 01f3 07fa 03e8 38e3 2cdf f1f5 d407 daf0
00000050: e0fe 0da1 1deb 51d2 119c f244 dcf3 c6dc
00000060: db11 2a75 ecf5 3640 1913 e9db e713 2a0c
00000070: f72d 0259 f5f4 1405 4205 c133 d51b 1015
00000080: c725 bed2 2af8 f6e5 1881 ee3b 0106 e440
00000090: 2313 3e0e 0315 cc3d 1dd5 ddfd 2a11 f724
000000a0: 4ebb 2035 ca2b b3dd f793 caef c501 3626
000000b0: 00c4 181e d321 a7cc e401 0dec d3fa ea01
000000c0: 3102 13a2 0ffc f8da 2d03 1ae0 23f1 e60f
000000d0: fdc3 28e2 2620 f1da dfcb e600 ef12 f0cc
000000e0: cfdd 1801 e926 c8af 28ec 0ff9 eac2 fbd1
000000f0: 1ee6 16b9 c2e0 e766 286a 1921 5734 8121
-38 -32 34 -66 43 -40 11 41
10 -52 -53 -53 -88 -19 23 -40
-39 -1 13 -85 63 -30 -4 4
43 -15 8 -7 -30 -22 -7 -9
-60 -20 -3 -84 -7 -22 55 11
45 -82 3 42 -8 -18 -39 -41
-29 -46 35 -3 28 39 27 -47
17 -36 -32 -63 -15 -2 -33 46
1 -13 7 -6 3 -24 56 -29
44 -33 -15 -11 -44 7 -38 -16
-32 -2 13 -95 29 -21 81 -46
17 -100 -14 68 -36 -13 -58 -36
-37 17 42 117 -20 -11 54 64
25 19 -23 -37 -25 19 42 12
-9 45 2 89 -11 -12 20 5
66 5 -63 51 -43 27 16 21
-57 37 -66 -46 42 -8 -10 -27
24 -127 -18 59 1 6 -28 64
35 19 62 14 3 21 -52 61
29 -43 -35 -3 42 17 -9 36
78 -69 32 53 -54 43 -77 -35
-9 -109 -54 -17 -59 1 54 38
0 -60 24 30 -45 33 -89 -52
-28 1 13 -20 -45 -6 -22 1
49 2 19 -94 15 -4 -8 -38
45 3 26 -32 35 -15 -26 15
-3 -61 40 -30 38 32 -15 -38
-33 -53 -26 0 -17 18 -16 -52
-49 -35 24 1 -23 38 -56 -81
40 -20 15 -7 -22 -62 -5 -47
30 -26 22 -71 -62 -32 -25 102
40 106 25 33 87 52 -127 33

tfl.pseudo_qconst5 i1 [16, 3, 3, 16]
00000000: 200e c843 11ea 5914 9a19 f2ed c23c 06f2
00000010: 0dbb 0608 d9b0 421e d132 df15 f302 1be3
00000020: 63de 06cc fc1a 341a 4042 e826 adbd da5c
00000030: f51d 070b 07d7 dfea ccfc d630 e135 ca1b
00000040: f915 e70b 0cc1 efe8 8100 21c5 109e b422
00000050: 411d 14b2 2e0e dbdf 1cd0 fee6 058e e0f4
00000060: ecc4 f749 fee9 bdb7 d1fc 2dc5 1b24 dbf0
00000070: 26fe f428 0c36 9dc6 be0b e5d7 60e5 1242
00000080: 43ec 0bf5 381b a0ca fbaa 0ced d882 f432
00000090: c138 dfaf d5ff d318 2f03 da32 0204 c92a
000000a0: f210 eedc 9947 2a19 d9e4 f918 a00d 40de
000000b0: cee7 dcba d40d da70 f3ff ec35 8602 243b
000000c0: d4fe 1707 40c3 d9fd d32b 1012 15dc 011f
000000d0: 1ee0 0131 02aa 001e 0419 0cea c50f 0120
000000e0: 0704 a731 e2c5 1f0b df21 cff8 a6f6 a849
000000f0: eee8 5e58 b8d4 a9d9 9e0b e8e6 7f18 e2a3
32 14 -56 67 17 -22 89 20
-102 25 -14 -19 -62 60 6 -14
13 -69 6 8 -39 -80 66 30
-47 50 -33 21 -13 2 27 -29
99 -34 6 -52 -4 26 52 26
64 66 -24 38 -83 -67 -38 92
-11 29 7 11 7 -41 -33 -22
-52 -4 -42 48 -31 53 -54 27
-7 21 -25 11 12 -63 -17 -24
-127 0 33 -59 16 -98 -76 34
65 29 20 -78 46 14 -37 -33
28 -48 -2 -26 5 -114 -32 -12
-20 -60 -9 73 -2 -23 -67 -73
-47 -4 45 -59 27 36 -37 -16
38 -2 -12 40 12 54 -99 -58
-66 11 -27 -41 96 -27 18 66
67 -20 11 -11 56 27 -96 -54
-5 -86 12 -19 -40 -126 -12 50
-63 56 -33 -81 -43 -1 -45 24
47 3 -38 50 2 4 -55 42
-14 16 -18 -36 -103 71 42 25
-39 -28 -7 24 -96 13 64 -34
-50 -25 -36 -70 -44 13 -38 112
-13 -1 -20 53 -122 2 36 59
-44 -2 23 7 64 -61 -39 -3
-45 43 16 18 21 -36 1 31
30 -32 1 49 2 -86 0 30
4 25 12 -22 -59 15 1 32
7 4 -89 49 -30 -59 31 11
-33 33 -49 -8 -90 -10 -88 73
-18 -24 94 88 -72 -44 -87 -39
-98 11 -24 -26 127 24 -30 -93

tfl.pseudo_qconst6 i1 [16, 3, 3, 16]
00000000: cade cd6d 8a08 3b2c 82d3 c9f9 1afd f9c4
00000010: af00 00f5 d408 ff21 dae6 99ea 35ca 17eb
00000020: 041a af23 d335 1150 d481 071f 5591 db1f
00000030: 4f20 ed85 39f1 031a fd0f fce2 331a 3818
00000040: 0328 f6bc e33d 13ef ea12 dbeb 27a7 d0f5
00000050: 2208 2405 e528 261d fdf4 e60b 3195 df4a
00000060: 6438 3ed8 2abc fa06 e8c7 f3fc 0c00 2cf9
00000070: 21ff 4760 f6ec e0fc 1047 edfa f107 eed0
00000080: 1346 d551 03be 19f7 4852 d12c fd18 45e8
00000090: 09f5 552a fdfb 0903 012b 9200 fd8b f808
000000a0: bdf0 2a3d edf7 fe00 f90a 98fe ff1d d1fb
000000b0: 28fd 34ed d000 0605 2806 a1f4 0913 fefa
000000c0: d3e4 0cf1 0efb 0bfb 3d05 4a0a 082a 48fc
000000d0: f719 40c8 100d 01fa 3728 eaef f9c3 5508
000000e0: ca44 efee dc22 f307 4e21 5dfb 0dc6 faf7
000000f0: efd0 e3f0 f80e ff06 1e13 5f20 0e5f 254f
-54 -34 -51 109 -118 8 59 44
-126 -45 -55 -7 26 -3 -7 -60
-81 0 0 -11 -44 8 -1 33
-38 -26 -103 -22 53 -54 23 -21
4 26 -81 35 -45 53 17 80
-44 -127 7 31 85 -111 -37 31
79 32 -19 -123 57 -15 3 26
-3 15 -4 -30 51 26 56 24
3 40 -10 -68 -29 61 19 -17
-22 18 -37 -21 39 -89 -48 -11
34 8 36 5 -27 40 38 29
-3 -12 -26 11 49 -107 -33 74
100 56 62 -40 42 -68 -6 6
-24 -57 -13 -4 12 0 44 -7
33 -1 71 96 -10 -20 -32 -4
16 71 -19 -6 -15 7 -18 -48
19 70 -43 81 3 -66 25 -9
72 82 -47 44 -3 24 69 -24
9 -11 85 42 -3 -5 9 3
1 43 -110 0 -3 -117 -8 8
-67 -16 42 61 -19 -9 -2 0
-7 10 -104 -2 -1 29 -47 -5
40 -3 52 -19 -48 0 6 5
40 6 -95 -12 9 19 -2 -6
-45 -28 12 -15 14 -5 11 -5
61 5 74 10 8 42 72 -4
-9 25 64 -56 16 13 1 -6
55 40 -22 -17 -7 -61 85 8
-54 68 -17 -18 -36 34 -13 7
78 33 93 -5 13 -58 -6 -9
-17 -48 -29 -16 -8 14 -1 6
30 19 95 32 14 95 37 79
