Homework 6/train/models/squeezenet_v11.tflite (tflite, 788104 bytes, 52 tensors)

arith.constant f4 [64]
-0.04127784 -0.020073734 -0.0052815746 -0.020442976 -0.011852287 0.026974464 0.04609641 -0.025276916
0.0115071945 0.04055583 -0.006388582 -0.010406952 -0.003997801 0.062346734 0.04982164 0.029008979
0.0048616584 -0.013304135 0.04814356 0.017299155 0.0063175173 -0.028433051 -0.013595204 -9.731021e-05
0.033186384 -0.017533043 0.0 -0.013324728 -0.050729465 -0.059899274 -0.049015697 -0.019786218
0.0041905805 0.011543237 0.012423249 0.024132324 -0.04190682 -0.0053842748 0.010421948 0.018344598
-0.032365378 -0.0062188953 0.02324903 -0.018959178 -0.0034469324 0.0047312016 -0.0016694352 0.03704821
0.013614411 0.003895685 0.033993144 -0.011473713 -0.023759017 0.0054374337 0.03450655 -0.015850078
-0.0075875386 -0.0068758214 -0.027668158 -0.023051137 -0.02383904 -0.1110429 -0.037982937 0.02177949
00000000: f412 29bd ac71 a4bc 0f11 adbb 0778 a7bc
00000010: 1830 42bc 8df9 dc3c 97cf 3c3d 8911 cfbc
00000020: ac88 3c3c df1d 263d 4f57 d1bb ec81 2abc
00000030: fcff 82bb 4a5f 7f3d c711 4c3d 3da4 ed3c
00000040: 8c4e 9f3b 96f9 59bc 2e32 453d f5b6 8d3c
00000050: 2d03 cf3b 6eec e8bc 6bbe 5ebc 0513 ccb8
00000060: 72ee 073d 75a1 8fbc 0000 0000 f64f 5abc
00000070: b3c9 4fbd f158 75bd afc4 48bd b516 a2bc
00000080: 2351 893b d81f 3d3c e28a 4b3c 27b1 c53c
00000090: 7ca6 2bbd 926e b0bb d1c0 2a3c 6947 963c
000000a0: 8f91 04bd e0c7 cbbb c074 be3c 4750 9bbc
000000b0: eee5 61bb 3208 9b3b f3d0 daba ddbf 173d
000000c0: fa0e 5f3c c04e 7f3b 653c 0b3d 3efc 3bbc
000000d0: 45a2 c2bc 802c b23b bd56 0d3d 06d8 81bc
000000e0: e3a0 f8bb 924e e1bb 55a8 e2bc bdd5 bcbc
000000f0: 174a c3bc 766a e3bd ff93 1bbd e76a b23c

arith.constant2 f4 [10]
0.054628193 0.08395835 0.15620941 0.07416689 -0.011686709 -0.017414434 0.108024165 0.17708418
0.13194951 0.09306248
00000000: d0c1 5f3d 5bf2 ab3d 5cf5 1f3e cfe4 973d
00000010: 9c79 3fbc b7a8 8ebc c63b dd3d 8e55 353e
00000020: c61d 073e 8b97 be3d

arith.constant3 f4 [256]
0.10838227 0.0033003304 0.13887894 0.12521084 0.09688573 0.09869616 -0.00555092 0.10902081
0.08957715 0.06619483 0.033363786 -0.040138416 0.045465507 0.006897409 -0.012228881 -0.0022082098
-0.046908822 -0.004961083 -0.005125784 0.025759151 0.04697867 -0.04561023 -0.036222216 0.02933414
-0.006145193 -0.013629055 -0.10108503 0.06623164 0.03919431 0.13939041 0.028919214 -0.037522294
-0.033230584 -0.093822375 0.056152698 -0.05170494 0.011962267 -0.028802818 0.059733167 -0.02892757
-0.032827333 0.046994932 -0.001549095 0.06429015 -0.097265854 -0.046634365 0.13028601 0.1371332
0.10441912 0.06781071 0.14245626 0.07103174 -0.019262996 0.08394321 -0.01408291 0.104125455
0.0622661 0.067775294 -0.03490563 -0.020207347 0.043522038 0.07480229 0.13053364 0.108293585
0.07991055 0.02297733 0.048378624 -0.0056039607 -0.010956593 -0.018494086 -0.03201206 -0.009673076
0.06984021 0.12045278 0.026171127 -0.02019403 -0.02927653 -0.075692646 -0.009133741 -0.069093995
0.0053041247 0.03302854 -0.03249473 -0.05050831 -0.018459799 0.062471952 0.051522512 -0.04811591
-0.029504139 0.040299915 0.042931315 -0.02918209 -0.083825625 0.06408928 0.11312858 -0.0019248155
-0.008361812 0.093482085 -0.0056021814 -0.102431886 0.020531343 0.0890582 0.0038656034 0.11088655
-0.010126388 -0.039835356 0.10442588 0.074814595 -0.017605206 0.056063198 0.006257973 -0.046246745
-0.0061092097 -0.043720953 0.12223649 0.08090034 0.011893763 -0.014107187 -0.01725246 0.0051890197
0.04021158 -0.013982622 0.05027248 0.111335695 -0.03454832 -0.055887826 0.09415494 -0.0051553836
0.13705754 -0.03494088 0.0496667 -0.026599228 -0.038609803 -0.03275506 0.0549556 0.0062263682
-0.018503984 -0.10572246 -0.019305369 -0.017911227 0.09621265 0.0866999 0.09092362 0.008743409
0.089317486 0.074255645 -0.011088115 -0.06987583 -0.020708483 0.09029834 -0.08154633 -0.010484214
-0.09801367 -0.05950559 0.08902755 0.0019234292 0.11815098 -0.011067072 0.012680685 -0.0850557
0.1543815 -0.040062007 0.056833245 0.065505825 -0.08012956 0.01899961 0.08173885 0.07455785
-0.06397365 -0.019419152 -0.026223619 0.08158196 0.0745787 -0.0103544295 -0.020430839 -0.007242608
-0.11050243 -0.0029652778 -0.008627961 0.0327853 -0.056857362 0.02471925 -0.050067663 0.08247574
0.108367294 0.09074064 0.12811035 0.033701926 0.0846772 -0.015290404 0.025417823 0.09899063
-0.113402106 0.07476766 0.07534331 -0.02666814 0.12992455 -0.09984756 -0.031937815 0.05254773
0.08855497 0.10736592 0.06353684 0.0883482 0.1148577 0.051142097 0.07536006 0.025633007
-0.017958181 -0.011754534 0.08405243 0.079662345 0.09987847 0.067916796 -0.007061779 -0.011937774
-0.02715263 0.024108723 0.074200556 0.007541499 0.07550599 0.045334574 -0.037635073 -0.026554817
0.14627635 0.01980625 0.0390315 0.023812748 -0.007357133 -0.016270816 0.066469684 -0.084275104
-0.0058114273 0.06658953 0.06518696 0.09312026 -0.0060974327 0.113704056 0.13468762 0.062933184
-0.008918028 -0.0428954 0.17132075 -0.037501585 0.02943912 0.10412589 0.027111378 0.10563673
-0.021228243 -0.022192158 0.12254793 0.11825657 0.07790855 -0.103305764 -0.037706215 -0.007983671
00000000: 86f7 dd3d 5b4a 583b 4836 0e3e 4537 003e
00000010: 076c c63d 3621 ca3d 7ee4 b5bb 4d46 df3d
00000020: 3a74 b73d 2891 873d 77a8 083d 2e68 24bd
00000030: 0a3a 3a3d a903 e23b a55b 48bc 9db7 10bb
00000040: 7723 40bd 9590 a2bb 31f6 a7bb db04 d33c
00000050: b56c 403d cbd1 3abd bf5d 14bd 264e f03c
00000060: 9d5d c9bb 664c 5fbc ab05 cfbd 74a4 873d
00000070: 368a 203d 5cbc 0e3e fde7 ec3c fab0 19bd
00000080: cb1c 08bd f225 c0bd 5f00 663d 8fc8 53bd
00000090: 62fd 433c e3f3 ebbc c4aa 743d 83f9 ecbc
000000a0: f475 06bd c27d 403d 010b cbba 8eaa 833d
000000b0: 5233 c7bd ad03 3fbd b269 053e a56c 0c3e
000000c0: b1d9 d53d 57e0 8a3d 0ee0 113e 1779 913d
000000d0: 6ecd 9dbc 6bea ab3d 01bc 66bc ba3f d53d
000000e0: bd0a 7f3d c6cd 8a3d 35f9 0ebd e189 a5bc
000000f0: 2a44 323d f131 993d 9caa 053e 07c9 dd3d
00000100: 24a8 a33d f43a bc3c aa28 463d 6ea1 b7bb
00000110: 4883 33bc e980 97bc 141f 03bd d27b 1ebc
00000120: 6208 8f3d f2af f63d d564 d63c f36d a5bc
00000130: 55d5 efbc bf04 9bbd b0a5 15bc 2781 8dbd
00000140: 39ce ad3b ef48 073d 3219 05bd cde1 4ebd
00000150: 0139 97bc 97e2 7f3d 4509 533d 3015 45bd
00000160: aab2 f1bc 8611 253d bfd8 2f3d 470f efbc
00000170: c5ac abbd 3e41 833d f5af e73d 174a fcba
00000180: fbff 08bc 8973 bf3d 8192 b7bb cfc7 d1bd
00000190: 5931 a83c 2564 b63d 1056 7d3b 7d18 e33d
000001a0: 26e9 25bc 662a 23bd 3cdd d53d 6538 993d
000001b0: cb38 90bc 86a2 653d af0f cd3b 3a6d 3dbd
000001c0: c42f c8bb be14 33bd 2057 fa3d 14af a53d
000001d0: 0fde 423c d521 67bc 0855 8dbc a708 aa3b
000001e0: e6b4 243d 5e17 65bc 84ea 4d3d f803 e43d
000001f0: 8a82 0dbd a2ea 64bd 4ed4 c03d 7eee a8bb
00000200: d058 0c3e 2b1e 0fbd 4f6f 4b3d a0e6 d9bc
00000210: 5025 1ebd 2b2a 06bd 2019 613d 9006 cc3b
00000220: ab95 97bc 0485 d8bd 4b26 9ebc 91ba 92bc
00000230: 230b c53d b88f b13d 2a36 ba3d 8440 0f3c
00000240: 16ec b63d 5813 983d edaa 35bc 0f1b 8fbd
00000250: d6a4 a9bc 56ee b83d c301 a7bd fbc5 2bbc
00000260: 64bb c8bd 22bc 73bd 1354 b63d 931b fc3a
00000270: 24f9 f13d aa52 35bc a6c2 4f3c af31 aebd
00000280: 2f16 1e3e 0f18 24bd fac9 683d eb27 863d
00000290: f71a a4bd 12a5 9b3c b366 a73d c9b1 983d
000002a0: 9e04 83bd ea14 9fbc ead2 d6bc 7114 a73d
000002b0: b8bc 983d a0a5 29bc 935e a7bc 6653 edbb
000002c0: 194f e2bd 1b55 42bb 4b5c 0dbc e149 063d
000002d0: 44e3 68bd 0680 ca3c c013 4dbd 0ae9 a83d
000002e0: acef dd3d 3bd6 b93d 5c2f 033e 080b 0a3d
000002f0: 3d6b ad3d 9a84 7abc 0a39 d03c 99bb ca3d
00000300: 5d3f e8bd c91f 993d 984d 9a3d 2577 dabc
00000310: f10a 053e e17c ccbd 3ad1 02bd 4a3c 573d
00000320: 4f5c b53d aae2 db3d 9a1f 823d e7ef b43d
00000330: 843a eb3d 607a 513d 6056 9a3d 50fc d13c
00000340: 091d 93bc 1796 40bc ae23 ac3d 0326 a33d
00000350: 158d cc3d f617 8b3d 7f66 e7bb a796 43bc
00000360: 316f debc a87f c53c 76f6 973d ae1e f73b
00000370: e2a2 9a3d bfb0 393d 3c27 1abd 7d89 d9bc
00000380: 78c9 153e b840 a23c 7fdf 1f3d f412 c33c
00000390: 1b14 f1bb 604a 85bc 4221 883d 6d98 acbd
000003a0: c96d bebb 1760 883d be80 853d d6b5 be3d
000003b0: f9cc c7bb acdd e83d 8deb 093e 1de3 803d
000003c0: ec1c 12bc 16b3 2fbd b56e 2f3e 439b 19bd
000003d0: 4f2a f13c f43f d53d ae18 de3c 1258 d83d
000003e0: dae6 adbc 54cc b5bc 69fa fa3d 8030 f23d
000003f0: 858e 9f3d f991 d3bd d571 1abd f1cd 02bc

arith.constant4 f4 [256]
0.0617217 0.020041218 -0.14029545 -0.01814931 0.10400666 0.05028821 0.014316533 0.07613
0.07375322 0.021080174 0.10340393 0.073254794 0.059092443 0.07309777 -0.017395724 -0.087866314
0.035735756 0.0605855 0.06850588 0.09814926 -0.01945384 0.03976252 0.02786094 0.009586809
0.03480481 0.019311044 0.08089419 -0.12364907 0.08625729 0.035449862 -0.0036774224 0.087859035
0.13848539 -0.02914677 -0.013675786 -0.025646504 0.065783076 0.052148603 0.08705163 0.035996996
-0.007913312 0.05494462 0.046756558 -0.022456735 0.0049184444 -0.1742998 0.08266868 -0.039057285
0.029786188 0.09188903 0.041467376 0.015218039 0.051387653 -0.0864958 -0.051455252 0.02979262
0.028821489 -0.020182444 0.094232485 -0.07109198 0.07067364 0.09952218 -0.061091147 0.05657037
0.06424356 0.13200745 0.09838456 0.06560582 0.03057995 0.09627486 0.014441481 -0.05768386
-0.043741547 -0.039636023 0.050219577 0.12705632 0.054358236 0.073314816 -0.040010773 -0.031510405
0.06764479 0.023263052 0.032888975 0.015288491 0.097105235 0.12319479 0.095538616 0.11378094
0.08276637 0.018702973 0.11689319 0.06602712 0.11413896 -0.017976858 0.07896507 -0.024957385
0.022951202 0.09418298 0.0085206395 -0.053685363 0.073839776 0.0649288 0.056112852 -0.022563865
0.055632256 0.054214317 0.024012517 0.04332215 0.048580695 -0.036722656 0.02141705 0.11159778
0.09020193 0.015611243 0.06991633 0.033188906 -0.026934564 -0.016617525 0.13068582 0.08763243
0.04597486 0.04387012 -0.025964797 0.037749056 -0.06257835 0.06191099 0.14097266 -0.06385234
-0.026305484 0.049680345 0.06844707 0.08877649 0.07076968 -0.0358512 0.060893163 0.058500286
0.056216657 0.08905866 -0.117681056 -0.052802034 -0.028803151 0.08412965 0.094798364 0.011874593
0.0046753194 0.055045318 0.011383253 0.06029796 -0.024557805 0.111714445 0.107870296 0.09748144
0.03007755 0.046657182 0.056652363 -0.04923448 -0.088815786 0.0465986 0.03197861 0.094405144
-0.02416603 -0.023468172 0.08251307 -0.0050611407 0.11959074 0.019387113 -0.01330111 0.07910273
0.03249827 0.13836446 0.010796969 -0.048615817 -0.09676367 0.028814528 0.034955222 0.035653867
0.012570185 -0.010576301 0.044368133 0.016038429 -0.044022806 0.06458374 0.020137103 0.11295395
0.15359627 0.010211947 0.082108386 -0.03009564 0.0043392815 -0.059071403 0.090475574 -0.05200509
-0.029299287 -0.020133063 -0.020351203 0.03510288 -0.023020793 0.15522596 -0.01653602 0.08318588
-0.035407268 0.022554955 0.058130737 -0.039704725 0.1351078 -0.011173851 -0.019261282 0.084671326
0.012857524 0.05932072 -0.010964465 0.0031023608 0.06548696 0.11536499 0.06491793 0.019280806
0.061815236 0.085370064 -0.021238798 0.08828444 0.08445082 0.010252299 0.07170185 -0.082528226
-0.0028437655 0.17708883 0.013426576 0.076494224 -0.05156452 -0.0078077614 0.0024983652 0.016431658
0.043933168 -0.0110105295 0.05320837 -0.0005558453 -0.023898982 0.036232673 -0.025054982 0.07904945
-0.059513003 0.07447092 0.07989442 0.013405833 -0.049310885 0.0854739 0.0963862 0.10767407
0.09537488 -0.021609312 0.15812173 0.044418953 0.10775867 -0.021544753 -0.005850525 0.01764631
00000000: e5cf 7c3d 7b2d a43c 9ca9 0fbe ddad 94bc
00000010: 7201 d53d 03fb 4d3d e48f 6a3c 0cea 9b3d
00000020: ee0b 973d 54b0 ac3c 71c5 d33d 9c06 963d
00000030: eb0a 723d 49b4 953d 7a81 8ebc 41f3 b3bd
00000040: a85f 123d 8028 783d d04c 8c3d 7b02 c93d
00000050: a95d 9fbc 06de 223d a03c e43c fe11 1d3c
00000060: 7d8f 0e3d 3232 9e3c daab a53d b93b fdbd
00000070: a9a7 b03d e033 113d e900 71bb 70ef b33d
00000080: 1dcf 0d3e 35c5 eebc 6710 60bc 9e18 d2bc
00000090: 47b9 863d c699 553d 2048 b23d 9671 133d
000000a0: d6a6 01bc 9c0d 613d ce83 3f3d 30f7 b7bc
000000b0: e72a a13b a67b 32be 324e a93d 88fa 1fbd
000000c0: 2a02 f43c 5130 bc3d b2d9 293d 1555 793c
000000d0: dc7b 523d b624 b1bd bec2 52bd a70f f43c
000000e0: 0b1b ec3c a755 a5bc f6fc c03d ac98 91bd
000000f0: 57bd 903d 49d2 cb3d b63a 7abd 55b6 673d
00000100: 2192 833d f62c 073e d87d c93d 585c 863d
00000110: ce82 fa3c c12b c53d f69b 6c3c e945 6cbd
00000120: 562a 33bd 6259 22bd 0bb3 4d3d 0d1b 023e
00000130: bea6 5e3d 1426 963d 56e2 23bd 0e11 01bd
00000140: 5a89 8a3d 2892 be3c 97b6 063d 947c 7a3c
00000150: 1cdf c63d 8d4d fc3d c0a9 c33d fb05 e93d
00000160: 6a81 a93d fa36 993c b265 ef3d 3a39 873d
00000170: b0c1 e93d 3444 93bc 70b8 a13d 6e73 ccbc
00000180: 2904 bc3c 02e3 c03d 279a 0b3c 2fe5 5bbd
00000190: 4f39 973d 64f9 843d 97d6 653d dbd7 b8bc
000001a0: a6de 633d d50f 5e3d e6b5 c43c 9172 313d
000001b0: 8dfc 463d 7f6a 16bd cf72 af3c 608d e43d
000001c0: cabb b83d 4dc6 7f3c 4b30 8f3d 17f1 073d
000001d0: e0a5 dcbc 7a21 88bc 81d2 053e a278 b33d
000001e0: 2350 3c3d 28b1 333d 20b4 d4bc c19e 1a3d
000001f0: 1429 80bd 6196 7d3d 235b 103e 04c5 82bd
00000200: 997e d7bc 9e7d 4b3d fa2d 8c3d 73d0 b53d
00000210: b2ef 903d b5d8 12bd 1c6b 793d ff9d 6f3d
00000220: 7043 663d 6364 b63d c402 f1bd f246 58bd
00000230: 96f4 ebbc 2a4c ac3d a525 c23d a78d 423c
00000240: 6c33 993b 3377 613d d380 3a3c fefa 763d
00000250: 732d c9bc 8bca e43d 1aeb dc3d 59a4 c73d
00000260: 3265 f63c 9a1b 3f3d 4f0c 683d 18aa 49bd
00000270: 0de5 b5bd 2cde 3e3d 01fc 023d 7c57 c13d
00000280: d7f7 c5bc 5340 c0bc 9dfc a83d edd7 a5bb
00000290: fdeb f43d b9d1 9e3c e6ec 59bc 9d00 a23d
000002a0: e81c 053d 6aaf 0d3e c5e5 303c 6121 47bd
000002b0: 082c c6bd 720c ec3c 352d 0f3d ca09 123d
000002c0: 2df3 4d3c 3948 2dbc 5cbb 353d 0663 833c
000002d0: 4251 34bd 7b44 843d 91f6 a43c 6754 e73d
000002e0: 5748 1d3e 0350 273c 7128 a83d 228b f6bc
000002f0: 8830 8e3b dbf4 71bd 424b b93d 4a03 55bd
00000300: 0f05 f0bc 18ee a4bc 91b7 a6bc 0ac8 0f3d
00000310: 1a96 bcbc 8ef3 1e3e 8c76 87bc 5c5d aa3d
00000320: 3607 11bd 2bc5 b83c 7f1a 6e3d 6ca1 22bd
00000330: b359 0a3e 8712 37bc d6c9 9dbc 2968 ad3d
00000340: 5da8 523c 49fa 723d 4da4 33bc fa50 4b3b
00000350: 071e 863d 7b44 ec3d b1f3 843d c8f2 9d3c
00000360: f931 7d3d 80d6 ae3d fdfc adbc 79ce b43d
00000370: 8df4 ac3d 42f9 273c 6bd8 923d 8f04 a9bd
00000380: 785e 3abb c656 353e 24fb 5b3c 01a9 9c3d
00000390: 5135 53bd 40d8 ffbb 9dbb 233b af9b 863c
000003a0: 44f3 333d 8265 34bc 05f1 593d 26b6 11ba
000003b0: ccc7 c3bc b668 143d 1b40 cdbc aee4 a13d
000003c0: e8c3 73bd 3684 983d b09f a33d 24a4 5b3c
000003d0: 36fa 49bd f10c af3d 2166 c53d 3984 dc3d
000003e0: e853 c33d 0306 b1bc aaea 213e a6f0 353d
000003f0: 94b0 dc3d 9f7e b0bc c3b5 bfbb ff8e 903c

arith.constant5 f4 [64]
-0.03283617 -0.007367361 -0.005146411 0.035522796 0.05999296 0.08046674 0.10998518 0.03025853
-0.0074683963 0.10992498 0.062365178 -0.013552081 -0.005589267 -0.0037294505 0.06653995 0.016960347
-0.020866364 0.028400235 0.054844763 -0.01741794 0.055083606 -0.027099017 -0.010533032 0.088840835
0.010636723 0.03511787 0.05769147 -0.021221712 -0.0140291285 0.0109890355 -0.018760806 0.03150417
0.049405664 0.11164183 0.038262717 -0.03593625 0.013243942 -0.009877875 0.09287813 0.06382527
0.024096113 0.022428893 0.026295051 -0.014123772 0.10017338 0.04369654 0.0264723 -0.032537535
-0.013864611 -0.01681442 0.044085287 -0.043124415 -0.007294384 0.096040376 -0.030470561 -0.017389663
-0.0029419686 -0.010083827 0.0593415 0.0041820467 0.011728718 -0.024733165 -0.006099028 -0.013037359
00000000: 387f 06bd e769 f1bb 39a3 a8bb 5a80 113d
00000010: 2ebb 753d bfcb a43d e93f e13d bde0 f73c
00000020: 73b9 f4bb 5920 e13d a172 7f3d 8c09 5ebc
00000030: 2b26 b7bb cc69 74bb 1946 883d 6df0 8a3c
00000040: f0ef aabc 9ca7 e83c e7a4 603d 11b0 8ebc
00000050: 599f 613d c2fe ddbc bd92 2cbc 2ff2 b53d
00000060: a645 2e3c c1d7 0f3d e44d 6c3d 28d9 adbc
00000070: 6eda 65bc 5b0b 343c 43b0 99bc 840a 013d
00000080: 985d 4a3d 79a4 e43d 5eb9 1c3d e431 13bd
00000090: 1efd 583c d0d6 21bc e436 be3d d3b6 823d
000000a0: 3665 c53c ccbc b73c b868 d73c 6567 67bc
000000b0: b327 cd3d 25fb 323d 70dc d83c 1446 05bd
000000c0: 6528 63bc 65be 89bc c692 343d 3aa3 30bd
000000d0: ba05 efbb d1b0 c43d 669d f9bc c474 8ebc
000000e0: 0bce 40bb a336 25bc 1310 733d 8d09 893b
000000f0: cf29 403c 359d cabc 5bda c7bb a69a 55bc

arith.constant6 f4 [256]
0.0059271553 0.084097154 0.0027218258 -0.039809342 -0.029166564 -0.01114896 -0.0393819 -0.06723908
0.04938814 -0.033115346 0.014548394 -0.021131793 -0.030780219 0.016344165 0.00511684 0.040117096
0.059900057 -0.06804179 -0.020925378 -0.09952262 0.036962572 0.0011869139 -0.031184886 0.006228402
-0.08344534 -0.010474047 -0.01937652 -0.070621796 -0.030148346 -0.017020976 0.027705293 -0.019452903
0.114235245 0.031405002 -0.027735118 0.044652205 -0.13812731 -0.03283167 -0.031100648 0.020317284
-0.088621475 -0.018191457 0.035359286 -0.039891604 -0.032135725 -0.057000175 -0.013198642 -0.057498954
-0.026759341 0.044449538 0.057345618 -0.008390244 -0.034783486 -0.0070809205 -0.056505036 0.008453402
-0.0796244 -0.07548577 -0.0060337787 -0.015030578 -0.063833304 0.006805422 0.08978702 -0.007850535
-0.047454767 -0.06859174 0.05194599 0.039356038 0.012773097 0.0099570025 -0.04275567 -0.024058385
-0.002935452 -0.020887543 -0.009923188 -0.064123355 -0.038181495 -0.011397862 -0.011749478 -0.0068022925
0.05060483 -0.0101157045 0.073881075 -0.038426764 -0.009193121 0.027286012 -0.020599598 -0.0052778698
-0.050887935 -0.010621398 0.060343724 -0.018726775 0.012417966 -0.06401323 -0.0033768362 -0.035857026
-0.046059072 0.051847976 -0.03365223 0.042335704 0.0049622487 -0.0056166844 -0.02994867 0.035496697
-0.041394025 -0.021627966 -0.014444517 -0.035946958 -0.119048335 -0.009832678 -0.02504287 -0.00727147
0.050479475 -0.02101276 0.082065806 -0.0055425786 0.040348526 0.04388552 0.032809842 0.07788048
-0.023620179 -0.027353179 -0.021158509 -0.063390136 -0.0017595344 -0.03896101 -0.0051065427 -0.010462837
0.014564301 -0.049954716 -0.053199727 -0.08473484 -0.039020874 -0.08123595 0.0020618325 -0.077067345
-0.08052122 0.0089165475 -0.011542045 -0.01537907 0.051748954 -0.032006316 0.006382103 0.049936634
-0.04312061 -0.017397348 -0.028239582 -0.049897473 -0.027765786 -0.0041520996 -0.016289108 -0.043935455
-0.005442891 -0.015107433 -0.0043098517 0.06038084 -0.024633938 -0.077297375 -0.031930093 0.037241396
-0.13180476 -0.09634619 -0.030587314 0.008144179 -0.06948835 0.009072073 0.009397707 -0.06968227
-0.0399262 0.10193546 -0.025233502 -0.017585814 -0.036197826 -0.012580515 0.0024366393 0.08014779
-0.017469453 -0.025820855 -0.065952726 -0.007649237 0.0030795508 -0.04479513 -0.029419918 0.005087395
0.06236846 -0.034511913 0.032429196 0.033910792 -0.057753477 0.038595058 -0.005171463 -0.021243053
0.009553905 -0.020345194 0.009647716 -0.01935887 0.040884838 -0.017613187 -0.013635761 -0.015109505
-0.010755887 -0.0060383277 -0.031419568 -0.019890942 -0.041107815 0.03980007 0.04273239 -0.038552422
-0.013953491 -0.072965235 0.060557906 -0.0057622422 -0.030803401 -0.10742658 -0.09080785 -0.018473305
-0.011104202 -0.03799836 -0.022891907 -0.0038237094 0.008454588 -0.013028012 -0.09909399 -0.0409478
0.0047915517 -0.02450566 -0.028376486 -0.016120732 -0.011590348 -0.027810646 -0.013637786 -0.018340245
-0.009108041 -0.063550726 -0.015804509 -0.018774856 -0.13117671 -0.031883024 -0.0314528 -0.04500301
-0.07636308 -0.04341607 -0.036548324 0.026116425 -0.05932084 -0.0020563249 -0.007700312 -0.07859873
0.0075258412 0.009169002 -0.0237845 -0.060283713 -0.038206458 -0.013573399 -0.0574411 -0.009110529
00000000: 9538 c23b 213b ac3d a960 323b 1f0f 23bd
00000010: b8ee eebc 21aa 36bc ea4e 21bd a5b4 89bd
00000020: 384b 4a3d f5a3 07bd 635c 6e3c 951c adbc
00000030: cc26 fcbc 33e4 853c 2aab a73b d351 243d
00000040: c359 753d 7e59 8bbd b36b abbc 84d2 cbbd
00000050: 1166 173d 3992 9b3a 7277 ffbc 9f17 cc3b
00000060: 64e5 aabd 569b 2bbc 82bb 9ebc 29a2 90bd
00000070: aaf9 f6bc 936f 8bbc 36f6 e23c b25b 9fbc
00000080: 2bf4 e93d 88a2 003d c234 e3bc 3be5 363d
00000090: 3f71 0dbe 807a 06bd c9c6 febc 6f70 a63c
000000a0: 2d7f b5bd 4006 95bc e6d4 103d 6165 23bd
000000b0: c0a0 03bd 0479 69bd 1e3f 58bc 0684 6bbd
000000c0: 6836 dbbc b810 363d 3de3 6a3d 3c77 09bc
000000d0: 2179 0ebd 1107 e8bb d371 67bd 2380 0a3c
000000e0: 1e12 a3bd 4998 9abd 01b7 c5bb d042 76bc
000000f0: 09bb 82bd 0400 df3b 42e2 b73d 889f 00bc
00000100: ee5f 42bd d479 8cbd 52c5 543d cc33 213d
00000110: 4046 513c b222 233c 9220 2fbd 1716 c5bc
00000120: b660 40bb 5a1c abbc de94 22bc 1b53 83bd
00000130: 3364 1cbd 19be 3abc e280 40bc c4e5 debb
00000140: 0347 4f3d 57bc 25bc f64e 973d 6265 1dbd
00000150: bf9e 16bc ea86 df3c 7dc0 a8bc fbf1 acbb
00000160: de6f 50bd 5f05 2ebc fb2a 773d e568 99bc
00000170: b974 4b3c 5e19 83bd e94d 5dbb d1de 12bd
00000180: 70a8 3cbd 8b5e 543d ecd6 09bd 3468 2d3d
00000190: 5c9a a23b 2a0c b8bb ea56 f5bc fc64 113d
000001a0: c88c 29bd 222d b1bc b2a8 6cbc 1e3d 13bd
000001b0: 9dcf f3bd 3e19 21bc b426 cdbc 8345 eebb
000001c0: 91c3 4e3d f422 acbc 1e12 a83d 859e b5bb
000001d0: 7f44 253d 4ec1 333d 9d63 063d cd7f 9f3d
000001e0: 1b7f c1bc c613 e0bc 9c54 adbc b0d2 81bd
000001f0: 2da0 e6ba 9495 1fbd c954 a7bb 526c 2bbc
00000200: 1b9f 6e3c 519d 4cbd f5e7 59bd 7689 adbd
00000210: 5ad4 1fbd 095f a6bd cf1f 073b 7cd5 9dbd
00000220: 4fe8 a4bd b616 123c d81a 3dbc 7ff8 7bbc
00000230: b6f6 533d 0e19 03bd f620 d13b 5b8a 4c3d
00000240: 3d9f 30bd e284 8ebc b256 e7bc 4b61 4cbd
00000250: 1375 e3bc 560e 88bb bc70 85bc aaf5 33bd
00000260: 475a b2bb 2b85 77bc a839 8dbb e651 773d
00000270: 1dcd c9bc 164e 9ebd 21c9 02bd 6f8a 183d
00000280: d4f7 06be 2751 c5bd 3f92 fabc 2a6f 053c
00000290: e84f 8ebd 08a3 143c d7f8 193c 94b5 8ebd
000002a0: a889 23bd 8ac3 d03d 7db6 cebc 2010 90bc
000002b0: 2c44 14bd 811e 4ebc 06b0 1f3b 8624 a43d
000002c0: 191c 8fbc 4286 d3bc 3912 87bd 73a6 fabb
000002d0: 4ad2 493b 197b 37bd 0a02 f1bc 2ab4 a63b
000002e0: 1276 7f3d 5d5c 0dbd 7ad4 043d 0be6 0a3d
000002f0: e98e 6cbd da15 1e3d 6075 a9bb e905 aebc
00000300: fb87 1c3c f7aa a6bc 7411 1e3c 7e96 9ebc
00000310: dc76 273d 8849 90bc 8768 5fbc db8d 77bc
00000320: 7639 30bc 2add c5bb ceb1 00bd 54f2 a2bc
00000330: ab60 28bd 6605 233d 2908 2f3d 25e9 1dbd
00000340: 2f9d 64bc cc6e 95bd 910b 783d 31d1 bcbb
00000350: 6a57 fcbc 7702 dcbd 77f9 b9bd 5455 97bc
00000360: 66ee 35bc 2ba4 1bbd cf87 bbbc 3397 7abb
00000370: 1d85 0a3c 7173 55bc caf1 cabd e1b8 27bd
00000380: 7302 9d3b 18c0 c8bc ce75 e8bc a00f 84bc
00000390: 71e5 3dbc 27d3 e3bc 0571 5fbc 483e 96bc
000003a0: e539 15bc e226 82bd 7578 81bc bacd 99bc
000003b0: 3053 06be c697 02bd a7d4 00bd 1455 38bd
000003c0: 3f64 9cbd 0dd5 31bd b2b3 15bd 1df2 d53c
000003d0: 69fa 72bd 68c3 06bb e652 fcbb 5ff8 a0bd
000003e0: 559b f63b 9539 163c b6d7 c2bc 0eec 76bd
000003f0: 607e 1cbd f662 5ebc 5c47 6bbd 5444 15bc

arith.constant7 f4 [256]
-0.06529948 0.070159376 -0.010400673 -0.018071838 0.03980647 0.018318705 0.010957598 -0.015546985
0.07267048 -0.023056976 -0.07330491 -0.040360957 -0.044409443 -0.03314206 -0.024372019 -0.046969045
-0.043992482 -0.055799037 0.013398037 0.024290033 -0.035477098 -0.045297273 -0.015399857 0.005555833
0.037648793 0.021412076 0.0220671 0.07519578 0.027058592 -0.085220136 0.06174783 0.011551596
-0.017487993 0.04866681 -0.005065253 -0.028456468 -0.07639228 -0.014492698 -0.028184617 0.04486862
0.06728615 -0.046412706 -0.098869085 -0.005799155 -0.066657394 0.0064431936 -0.114855334 0.016430262
-0.03413915 -0.0121336095 -0.07477614 0.017027495 -0.026172169 -0.041657984 0.054308444 -0.0051490474
0.030937528 -0.03640821 0.012562243 -0.012803648 0.026448332 -0.025048729 0.05010084 0.059494257
-0.10919793 0.004991194 0.014532558 0.01003216 -0.079959735 0.033441536 -0.015860379 0.0863569
0.022564527 -0.08157728 -0.02695555 -0.07368555 0.049748328 -0.039861113 0.027618228 -0.045198437
0.016086569 -0.008512413 -0.050005037 0.027352948 0.008118096 0.029336702 0.055295166 -0.10126163
-0.040601917 -0.046068743 -0.044333596 -0.0120606 -0.057643123 0.023184415 -0.08330037 0.031214133
-0.04760104 0.018626817 0.018294021 0.03519646 -0.02097114 -0.056495238 -0.10173581 0.0531166
0.08436152 0.032184176 -0.028316664 0.024274178 0.0279869 -0.017734073 0.016934937 0.112811126
-0.04441179 0.023221202 -0.010390533 -0.07481884 -0.036884647 -0.01632821 0.028060826 0.072065465
0.043383308 0.037447948 -0.019714106 -0.11376054 -0.02853614 0.050221533 -0.03024886 -0.14849333
0.0352471 0.03944304 0.055711005 0.027259484 -0.054082897 0.06932346 0.010507216 0.057803486
0.011774119 0.00400591 -0.0720698 0.0068181045 -0.036732864 -0.061080385 0.08785164 -0.00031876465
0.08081645 0.040383577 -0.044952523 0.09954297 -0.02874039 0.08370457 0.021386456 0.030760512
-0.05620733 -0.038040128 0.017589496 0.041393932 0.042416163 0.07175568 0.055876378 0.076683566
-0.024808276 -0.10376106 0.016525531 0.0074628005 -0.0036626856 0.06442798 0.050995633 0.036177117
0.056425005 -0.073222585 0.06407574 -0.04841436 -0.05607425 -0.07826954 0.0027318294 -0.0024323084
-0.034306552 -0.037619967 -0.009796112 0.068824485 0.023749745 0.04617071 0.0067151347 0.06772546
0.054356012 -0.04708083 0.045015708 -0.072135046 0.00545359 0.087110884 -0.014949772 0.06569982
0.0093188435 -0.04592098 0.03749193 -0.03921989 -0.028099727 -0.011628545 0.0072660916 -0.008287044
0.034271996 0.050933514 -0.080965295 -0.054731086 -0.018608741 -0.11029353 -0.13929492 0.011834329
-0.02307165 -0.021080136 -0.028977728 -0.09844882 0.043692347 0.0065643704 0.02131947 -0.034623552
-0.03304368 0.02936462 0.03710899 0.055812694 -0.029726015 0.040996145 -0.03552001 -0.027035274
0.10156059 -0.02953455 -0.030334366 -0.0033494628 -0.055622194 -0.050726175 0.06799168 -0.02813919
0.007993019 0.012066341 0.048757367 0.03273703 0.018664856 0.041520573 -0.15519838 -0.010589398
0.005058675 0.08175975 0.062125206 0.026139444 0.04672152 0.011218149 0.09438093 -0.020382682
-0.010769196 -0.09635264 -0.046222508 0.0030328908 -0.034789424 0.040761344 -0.007397264 -0.08211731
00000000: bcbb 85bd b8af 8f3d 9667 2abc 640b 94bc
00000010: 1c0c 233d 1c11 963c 7f87 333c c8b8 7ebc
00000020: 43d4 943d fce1 bcbc e220 96bd 8851 25bd
00000030: ade6 35bd f8bf 07bd d4a7 c7bc 9d62 40bd
00000040: 7631 34bd 888d 64bd 7183 5b3c e4fb c63c
00000050: 6f50 11bd a289 39bd af4f 7cbc b50d b63b
00000060: 9f35 1a3d 6168 af3c 10c6 b43c 3f00 9a3d
00000070: fba9 dd3c e587 aebd 4beb 7c3d e842 3d3c
00000080: fb42 8fbc d956 473d 6cfa a5bb 8a1d e9bc
00000090: 8e73 9cbd c872 6dbc 6de3 e6bc 28c8 373d
000000a0: 52cd 893d 401b 3ebd e07b cabd d706 bebb
000000b0: ac83 88bd 6d21 d33b 4639 ebbd c298 863c
000000c0: 7ed5 0bbd 0ccc 46bc 3c24 99bd 3f7d 8b3c
000000d0: 0467 d6bc 90a1 2abd 8872 5e3d 57b9 a8bb
000000e0: b370 fd3c c620 15bd ded1 4d3c 64c6 51bc
000000f0: 2caa d83c fe32 cdbc 8a36 4d3d 40b0 733d
00000100: 2aa3 dfbd 2b8d a33b f719 6e3c ee5d 243c
00000110: eec1 a3bd fef9 083d a0ed 81bc e3db b03d
00000120: 3ed9 b83c fd11 a7bd e3d1 dcbc 73e8 96bd
00000130: e7c4 4b3d 6845 23bd 9f3f e23c ff21 39bd
00000140: fbc7 833c a677 0bbc 15d2 4cbd 4a13 e03c
00000150: c301 053c 8653 f03c 2f7d 623d 4262 cfbd
00000160: 324e 26bd 94b2 3cbd 2597 35bd d399 45bc
00000170: 321b 6cbd 3eed bd3c 6299 aabd c8b4 ff3c
00000180: 4ff9 42bd 4497 983c 58dd 953c 2a2a 103d
00000190: abcb abbc 8d67 67bd dd5a d0bd cb90 593d
000001a0: bcc5 ac3d 8ed3 033d 59f8 e7bc a4da c63c
000001b0: c944 e53c 0c47 91bc 23bb 8a3c 8509 e73d
000001c0: 23e9 35bd 643a be3c 0e3d 2abc 9f3a 99bd
000001d0: 5b14 17bd bdc2 85bc d1df e53c 0f97 933d
000001e0: b2b2 313d 0563 193d 7a7f a1bc 49fb e8bd
000001f0: a0c4 e9bc 18b5 4d3d 75cc f7bc a30e 18be
00000200: 435f 103d 068f 213d 3931 643d 484f df3c
00000210: 0786 5dbd 75f9 8d3d 7526 2c3c 59c3 6c3d
00000220: 3ce8 403c 0244 833b 5599 93bd 686a df3b
00000230: 3375 16bd 6d2f 7abd 90eb b33d de1f a7b9
00000240: 1883 a53d 4069 253d 2320 38bd 2fdd cb3d
00000250: f770 ebbc 4d6d ab3d a632 af3c 78fd fb3c
00000260: a839 66bd f7cf 1bbd d917 903c af8c 293d
00000270: 92bc 2d3d a4f4 923d a1de 643d 460c 9d3d
00000280: ba3a cbbc ae80 d4bd 8d60 873c 828a f43b
00000290: ab09 70bb d1f2 833d cce0 503d 752e 143d
000002a0: e81d 673d b9f5 95bd 243a 833d 234e 46bd
000002b0: 1dae 65bd c84b a0bd 7e08 333b 5d67 1fbb
000002c0: 0785 0cbd 6517 1abd df7f 20bc daf3 8c3d
000002d0: d38e c23c 801d 3d3d a20a dc3b a5b3 8a3d
000002e0: 69a4 5e3d d4d7 40bd 6462 383d 8abb 93bd
000002f0: 07b4 b23b 3167 b23d e3ef 74bc a18d 863d
00000300: 10ae 183c a317 3cbd 2391 193d 09a5 20bd
00000310: 6631 e6bc a785 3ebc 6518 ee3b 62c6 07bc
00000320: cb60 0c3d a99f 503d 22d1 a5bd b42d 60bd
00000330: 5c71 98bc 93e1 e1bd 54a3 0ebe c6e4 413c
00000340: c200 bdbc 40b0 acbc b362 edbc 899f c9bd
00000350: bff6 323d ee19 d73b 2ba6 ae3c 6dd1 0dbd
00000360: cf58 07bd 128e f03c 99ff 173d da9b 643d
00000370: f983 f3bc 93eb 273d 6e7d 11bd 1479 ddbc
00000380: 00ff cf3d 71f2 f1bc c77f f8bc a982 5bbb
00000390: 19d4 63bd 40c6 4fbd 393f 8b3d 2984 e6bc
000003a0: 27f5 023c e7b1 453c ceb5 473d 4417 063d
000003b0: 0ae7 983c 7a11 2a3d 53ec 1ebe 287f 2dbc
000003c0: 3ec3 a53b a871 a73d 0077 7e3d 6322 d63c
000003d0: 115f 3f3d 54cc 373c ca4a c13d 95f9 a6bc
000003e0: 4871 30bc 8854 c5bd d053 3dbd 77c3 463b
000003f0: 5b7f 0ebd 5ef5 263d bf64 f2bb 1f2d a8bd

arith.constant8 f4 [64]
-0.046374675 0.038795803 0.032782137 -0.019446317 -0.030173335 -0.00868737 0.0053232573 -0.054498486
0.0038637065 -0.023285858 0.031131137 -0.026350351 -0.004366541 -0.045308076 0.121989466 -0.009099852
-0.01354649 0.0060248743 -0.040204495 0.041468654 0.022811756 0.08035932 -0.018416358 0.040320236
-0.038522992 0.024994832 0.013597068 -0.012354124 0.078541555 0.016543336 0.051335234 0.05067881
-0.05815065 -0.004682628 -0.019512253 0.0570008 -0.026252791 -0.002371564 -0.030604249 0.058184948
0.020807058 -0.024512509 0.0061730375 -0.0058561936 -0.021260764 -0.02464832 -0.011204579 -0.053372443
-0.041433364 -0.020627359 -0.0029565198 -0.051631916 0.0037984592 0.02465826 -0.011315094 -0.034773704
-0.06624709 -0.014853911 -0.017489944 0.023653455 0.029505856 -0.03469312 -0.0054939026 0.023095828
00000000: 5ff3 3dbd 59e8 1e3d 9046 063d e24d 9fbc
00000010: 122e f7bc 7955 0ebc b86e ae3b ce39 5fbd
00000020: 3d36 7d3b fcc1 bebc ba06 ff3c b1dc d7bc
00000030: 3315 8fbb f694 39bd 9dd5 f93d 8c17 15bc
00000040: 19f2 5dbc 4f6c c53b 78ad 24bd 09db 293d
00000050: b8df ba3c 6d93 a43d e7dd 96bc d526 253d
00000060: 49ca 1dbd f6c1 cc3c 3dc6 5e3c f468 4abc
00000070: 65da a03d e485 873c e544 523d 9594 4f3d
00000080: 602f 6ebd bb70 99bb 29d8 9fbc ac79 693d
00000090: 1810 d7bc 3e6c 1bbb c3b5 fabc 5753 6e3d
000000a0: 9073 aa3c 75ce c8bc 3147 ca3b 50e5 bfbb
000000b0: 0e2b aebc 46eb c9bc 6993 37bc 109d 5abd
000000c0: 08b6 29bd b5fa a8bc 2cc2 41bb fd7b 53bd
000000d0: 92ef 783b 1f00 ca3c f262 39bc df6e 0ebd
000000e0: 8eac 87bd d15d 73bc 1247 8fbc e4c4 c13c
000000f0: 44b6 f13c 5f1a 0ebd 3206 b4bb 7633 bd3c

arith.constant9 f4 [192]
-0.014216591 -0.11471517 -0.042465407 -0.010690552 -0.14708845 -0.017806308 -0.017139794 -0.024122884
0.0077166 -0.06711189 -0.03988474 -0.051412407 -0.087599106 -0.037525874 -0.058576137 -0.034087934
-0.010531431 -0.026420275 -0.031953588 -0.044845313 -0.014651716 -0.05381569 -0.058141947 -0.044071943
-0.025403721 -0.025990123 -0.039927613 0.025975732 -0.07230843 0.0076334346 -0.06996297 -0.012539649
-0.030100254 -0.04488911 0.006086541 0.052973524 -0.016696472 -0.047967657 -0.0075049708 -0.01934518
-0.08796013 -0.06139031 -0.04713902 -0.04948132 -0.029760035 -0.054030925 -0.03214869 -0.055434413
-0.022977643 -0.04269508 -0.07579535 -0.0108071985 -0.068016276 -0.06374672 -0.062191114 -0.025911944
-0.012636831 -0.08969864 -0.046356034 -0.03349636 -0.030055303 -0.01717999 -0.05207518 -0.06871394
-0.06988947 -0.14862299 -0.044658627 -0.024915038 -0.0077005285 -0.013482487 -0.032025866 -0.049625527
-0.055096187 0.02370204 -0.05504474 -0.018948046 -0.10737391 0.022634927 -0.035164293 -0.03912905
-0.064167015 -0.023781652 -0.016702063 -0.020565985 -0.028428487 -0.021155013 0.0027213902 -0.022548217
-0.09458788 -0.09532175 -0.011000271 -0.0150592765 -0.045464512 -0.036564086 -0.053413715 -0.026041131
-0.038059946 -0.0330554 -0.030182948 -0.04687183 -0.034702048 -0.03925893 -0.027046941 -0.030618792
-0.04379138 -0.0016102168 -0.035912633 0.0008199518 -0.004029229 -0.07293207 -0.01023138 -0.0247465
-0.05469448 -0.05183974 -0.005960727 -0.08316063 -0.042074986 -0.07763046 -0.04967749 -0.031483278
-0.07010685 -0.028632559 -0.053029332 -0.10095967 0.03926587 -0.03658122 -0.0010278241 -0.03362523
-0.028202558 -0.055365227 -0.0027657086 0.0245142 -0.083840206 -0.036316864 -0.03342828 0.03260922
0.01669881 -0.01679041 -0.025795907 -0.02344549 -0.052205008 -0.020164462 -0.016912015 -0.037661947
-0.045568176 -0.05570702 -0.0719055 -0.016786968 -0.0046886476 -0.049584568 -0.048991773 -0.05506179
-0.06993755 -0.03924572 0.0050164573 -0.056921657 -0.0007789001 -0.03457823 -0.0044864602 -0.0938192
0.044862602 0.013793179 -0.047780678 -0.032043096 0.0119816335 0.012013655 -0.024242759 -0.039468706
0.0048626172 -0.061136924 -0.014123102 -0.027325705 0.040031765 0.0050081513 0.021719074 -0.056684263
-0.05053307 -0.070421 -0.036908112 -0.043687627 -0.019925302 -0.027739 -0.029019741 0.020408615
-0.03334845 0.028855331 -0.051982444 -0.054417696 -0.030902509 0.021693638 -0.06426018 -0.057422042
00000000: b4ec 68bc c9ef eabd 35f0 2dbd 6d27 2fbc
00000010: 5b9e 16be 89de 91bc c168 8cbc 5b9d c5bc
00000020: 88db fc3b f571 89bd 2e5e 23bd d195 52bd
00000030: 2967 b3bd bbb4 19bd 88ed 6fbd ca9f 0bbd
00000040: 068c 2cbc 556f d8bc c4e1 02bd b8af 37bd
00000050: c00d 70bc d76d 5cbd 4026 6ebd c884 34bd
00000060: 771b d0bc 3de9 d4bc 238b 23bd 0fcb d43c
00000070: 7116 94bd e421 fa3b bf48 8fbd 1a73 4dbc
00000080: cf94 f6bc a5dd 37bd 9b71 c73b c4fa 583d
00000090: 0ac7 88bc bc79 44bd 42ec f5bb c879 9ebc
000000a0: 7124 b4bd 6874 7bbd d814 41bd edac 4abd
000000b0: 51cb f3bc 884f 5dbd 58ae 03bd 320f 63bd
000000c0: 9c3b bcbc 09e1 2ebd 983a 9bbd ad10 31bc
000000d0: 1e4c 8bbd a48d 82bd 1cbc 7ebd 4945 d4bc
000000e0: b60a 4fbc ecb3 b7bd d3df 3dbd 7b33 09bd
000000f0: 8a36 f6bc 0dbd 8cbc c94c 55bd e5b9 8cbd
00000100: 3622 8fbd a030 18be f7eb 36bd 9f1a ccbc
00000110: b754 fcbb a6e5 5cbc 8e2d 03bd 2344 4bbd
00000120: 8aac 61bd c82a c23c 9876 61bd ef38 9bbc
00000130: dae6 dbbd e26c b93c 6f08 10bd c845 20bd
00000140: ff69 83bd bdd1 c2bc c4d2 88bc ff79 a8bc
00000150: dce2 e8bc 474d adbc 5a59 323b 0ab7 b8bc
00000160: 4ab7 c1bd 0d38 c3bd 7b3a 34bc 2fbb 76bc
00000170: ff38 3abd 39c4 15bd 57c8 5abd 3654 d5bc
00000180: bfe4 1bbd 1965 07bd 3b42 f7bc adfc 3fbd
00000190: bc23 0ebd f9cd 20bd 8c91 ddbc 43d4 fabc
000001a0: 975e 33bd e90d d3ba 2019 13bd 09f2 563a
000001b0: 9f07 84bb 695d 95bd 85a1 27bc 2cb9 cabc
000001c0: 5207 60bd e855 54bd 3452 c3bb 1f50 aabd
000001d0: d256 2cbd b8fc 9ebd a07a 4bbd 9cf4 00bd
000001e0: 2e94 8fbd d48e eabc 4935 59bd f2c3 cebd
000001f0: 40d5 203d 30d6 15bd 0eb8 86ba 9cba 09bd
00000200: 0d09 e7bc a6c6 62bd e440 35bb 01d2 c83c
00000210: 6ab4 abbd fec0 14bd 18ec 08bd 3f91 053d
00000220: f1cb 883c 0b8c 89bc f051 d3bc c210 c0bc
00000230: ebd4 55bd f12f a5bc 118b 8abc 6a43 1abd
00000240: b2a5 3abd 0b2d 64bd 3143 93bd d384 89bc
00000250: 3aa3 99bb 3019 4bbd 99ab 48bd 7988 61bd
00000260: 6b3b 8fbd 1fc0 20bd 1861 a43b af26 69bd
00000270: 1a2f 4cba e7a1 0dbd 2803 93bb 4824 c0bd
00000280: d9c1 373d c9fc 613c acb5 43bd 9f3f 03bd
00000290: 9d4e 443c ecd4 443c c098 c6bc f0a9 21bd
000002a0: 9756 9f3b b66a 7abd 9564 67bc 28da dfbc
000002b0: 59f8 233d 6b1b a43b 33ec b13c c22d 68bd
000002c0: c4fb 4ebd e338 90bd f62c 17bd ccf1 32bd
000002d0: 633a a3bc e63c e3bc cfba edbc f82f a73c
000002e0: 6298 08bd 0462 ec3c 8beb 54bd 17e5 5ebd
000002f0: 4227 fdbc dbb6 b13c d79a 83bd 6033 6bbd

arith.constant10 f4 [192]
0.00775772 -0.059836853 0.0009082427 -0.039206672 -0.045333818 -0.04853041 -0.054379154 -0.013174768
0.0016360679 0.07789825 -0.04578674 -0.009606523 -0.08108075 -0.036088955 -0.034516934 -0.10330166
-0.021937903 0.034116488 0.027800659 -0.08813354 -0.0246648 0.02757528 -0.08053385 -0.073569655
-0.03627948 0.009694699 0.0037676566 -0.025721507 0.029253326 -0.12990506 -0.058546577 0.06794781
-0.10427861 -0.060011674 0.035913266 -0.040263563 -0.044230975 0.0063952007 0.052575797 -0.011294519
-0.00084458635 -0.087993674 -0.06145996 -0.06752981 -0.05595498 -0.031326514 0.010695407 -0.0015142534
-0.06856055 -0.03798281 -0.027144302 0.01764493 -0.026848815 0.03200135 0.024733618 -0.0016736465
-0.05793466 -0.048509922 0.05880653 -0.10903481 0.025971962 -0.007011807 0.0021509011 0.04985809
-0.006197034 0.024965748 -0.01373807 -0.07768105 -0.14671312 -0.07710557 0.03873358 0.020397028
-0.05607036 0.020779053 -0.03955716 -0.05757345 -0.078582555 0.003633897 -0.019324442 0.0020425774
-0.034823265 0.0035615917 -0.012348851 0.06091163 -0.019775402 0.050845202 0.039577127 -0.0436501
-0.0724505 -0.080440745 0.07041588 -0.012294261 -0.028680734 -0.051182803 0.034851212 -0.02133694
-0.03539181 -0.028777245 -0.07577885 -0.023541437 -0.1443607 0.0030565104 0.05868316 -0.009044371
0.07367921 -0.019060155 -0.04626344 0.019374417 -0.016840676 -0.0963509 -0.09203837 -0.082297586
6.859453e-05 -0.10295408 -0.06880459 -0.029803557 -0.0461435 -0.063507214 -0.060619704 -0.09001245
0.045956116 -0.10644522 0.025626453 -0.016588226 -0.0007182977 -0.0022956808 0.012867313 -0.04237527
0.016846454 -0.030580685 -0.08230294 -0.04440143 -0.04857153 -0.014427306 0.019637326 -0.09583898
0.04151131 -0.04848568 -0.10940198 0.038209707 0.005661709 -0.029390447 -0.012763244 -0.0646479
0.012381987 -0.073700845 -0.027862644 -0.059271414 -0.015679877 -0.032697998 0.010435081 0.0055425595
-0.13587056 0.03033919 -0.04639054 0.029329782 -0.0746187 -0.025651406 -0.02981036 -0.019307619
-0.0601052 0.036336377 -0.014311865 -0.060185432 0.00325018 0.025128217 0.013112857 0.025737727
-0.041610852 0.0108927805 0.07129877 0.0019558973 0.0100187855 -0.111873716 -0.0120087955 0.009916101
0.0031061866 -0.022402769 -0.020796254 -0.039076567 0.011165523 -0.032422725 -0.03139728 -0.04195778
0.047699694 0.009350316 -0.1442663 -0.049562342 -0.052548774 -0.018649051 -0.04862308 0.022982378
00000000: 7934 fe3b 7d17 75bd 2317 6e3a 2d97 20bd
00000010: f4af 39bd d3c7 46bd adbc 5ebd fbda 57bc
00000020: 5471 d63a 1e89 9f3d e08a 3bbd ae64 1dbc
00000030: aa0d a6bd 03d2 13bd a161 0dbd d28f d3bd
00000040: 1eb7 b3bc bbbd 0b3d 35be e33c 5b7f b4bd
00000050: d60d cabc 8ee5 e13c eeee a4bd b0ab 96bd
00000060: cb99 14bd 84d6 1e3c caea 763b e9b5 d2bc
00000070: aca4 ef3c d505 05be 89ce 6fbd 3928 8b3d
00000080: 0690 d5bd cdce 75bd ca19 133d 68eb 24bd
00000090: 8a2b 35bd d58e d13b b859 573d a50c 39bc
000000a0: 3b67 5dba 0736 b4bd 70bd 7bbd 124d 8abd
000000b0: 0d31 65bd 3b50 00bd ca3b 2f3c ea79 c6ba
000000c0: 7969 8cbd dd93 1bbd ba5d debc 1a8c 903c
000000d0: 0cf2 dbbc d913 033d 289e ca3c 425e dbba
000000e0: e54c 6dbd 57b2 46bd 1edf 703d a44d dfbd
000000f0: 27c3 d43c 4dc3 e5bb 22f6 0c3b ff37 4c3d
00000100: 7d10 cbbb f884 cc3c a415 61bc 3e17 9fbd
00000110: f73b 16be 86e9 9dbd 1aa7 1e3d ab17 a73c
00000120: 09aa 65bd d538 aa3c b006 22bd 23d2 6bbd
00000130: e4ef a0bd ad26 6e3b 4b4e 9ebc c3dc 053b
00000140: d7a2 0ebd 9869 693b d652 4abc 797e 793d
00000150: 0600 a2bc 0f43 503d a01b 223d 72ca 32bd
00000160: ee60 94bd 1ebe a4bd 3336 903d de6d 49bc
00000170: dcf3 eabc 0fa5 51bd 25c0 0e3d ceca aebc
00000180: 01f7 10bd 42be ebbc f131 9bbd f9d9 c0bc
00000190: 4bd3 13be bc4f 483b c15d 703d d72e 14bc
000001a0: 20e5 963d 0b24 9cbc bc7e 3dbd 19b7 9e3c
000001b0: 75f5 89bc 9f53 c5bd 9d7e bcbd a38b a8bd
000001c0: 68da 8f38 97d9 d2bd 6ce9 8cbd 9726 f4bc
000001d0: f700 3dbd 1210 82bd 5e4c 78bd 7358 b8bd
000001e0: 7b3c 3c3d f4ff d9bd 91ee d13c 08e4 87bc
000001f0: 254c 3cba 2273 16bb 6cd1 523c b191 2dbd
00000200: 9301 8a3c 5884 fabc 728e a8bd 46de 35bd
00000210: f1f2 46bd 8260 6cbc 75de a03c 3a47 c4bd
00000220: c307 2a3d ec98 46bd 250e e0bd c881 1c3d
00000230: db85 b93b 3cc4 f0bc ed1c 51bc 1e66 84bd
00000240: d1dd 4a3c 78f0 96bd 3340 e4bc 95c6 72bd
00000250: 1673 80bc 56ee 05bd e7f7 2a3c 5c9e b53b
00000260: a721 0bbe e589 f83c 0204 3ebd 0345 f03c
00000270: b0d1 98bd e622 d2bc db34 f4bc 032b 9ebc
00000280: df30 76bd 74d5 143d 507c 6abc 0085 76bd
00000290: f900 553b b1d9 cd3c 4fd7 563c edd7 d23c
000002a0: 2470 2abd a277 323c 1705 923d 832e 003b
000002b0: d525 243c 0c1e e5bd 8ac0 44bc 2477 223c
000002c0: 2a91 4b3b 0386 b7bc e85c aabc c00e 20bd
000002d0: 99ef 363c b1cd 04bd 6f9a 00bd ecdb 2bbd
000002e0: c160 433d 1132 193c 8cba 13be e201 4bbd
000002f0: 623d 57bd e5c5 98bc ff28 47bd 8a45 bc3c

arith.constant11 f4 [48]
-0.014717112 -0.023857962 -0.057834003 -0.006396208 -0.014439139 0.03464346 -0.018680431 -0.021861034
-0.0118082315 -0.048214182 -0.044327993 -0.07113972 -0.017065326 -0.0016768419 -0.05302623 0.024376923
-0.005159539 -0.04053283 -0.0042068176 -0.03580729 -0.042984698 -0.0024468997 0.023183359 0.020342235
-0.117681615 0.025258487 -0.040383767 0.0074283793 0.012912866 0.013913315 -0.025800241 -0.011232394
-0.0047386666 0.04292219 0.015006496 -0.022802178 -0.027911434 -0.00011673485 -0.028998343 -0.046673473
0.018040175 0.010831278 -0.039433945 0.0027825339 -0.027145047 -0.034895796 -0.0037984962 -0.06991005
00000000: 0b20 71bc c671 c3bc 59e3 6cbd 4897 d1bb
00000010: 2392 6cbc 4de6 0d3d b407 99bc e915 b3bc
00000020: 5077 41bc 3c7c 45bd 4591 35bd b4b1 91bd
00000030: 95cc 8bbc 7ac9 dbba 0832 59bd 1db2 c73c
00000040: 5a11 a9bb c105 26bd 58d9 89bb aaaa 12bd
00000050: b910 30bd 2a5c 20bb 07eb bd3c c2a4 a63c
00000060: 0f03 f1bd e3ea ce3c 7369 25bd c369 f33b
00000070: 7c90 533c acf4 633c 075b d3bc 1308 38bc
00000080: d146 9bbb 2ecf 2f3d cedd 753c a2cb babc
00000090: 85a6 e4bc 8ccf f4b8 ef8d edbc af2c 3fbd
000000a0: fdc8 933c ac75 313c 7d85 21bd 2c5b 363b
000000b0: 4a5f debc e5ee 0ebd 31f0 78bb 002d 8fbd

arith.constant12 f4 [192]
-0.04090734 0.011023512 -0.040054962 -0.05343892 -0.035585225 -0.042503156 -0.009717901 -0.06418884
-0.018396497 -0.034183517 -0.021068325 -0.03907305 -0.0314006 -0.03241516 0.04349877 -0.052369718
-0.03644055 0.04356613 -0.020394504 -0.019406097 -0.034517903 -0.031943083 -0.06257659 0.012493385
-0.034979824 0.001545806 -0.050354123 -0.08019087 -0.023629228 -0.022791503 -0.040992685 -0.06263809
-0.010020781 -0.052173983 -0.03596254 -0.037182827 -0.04477763 -0.025967006 -0.060866445 -0.042610876
-0.052494165 -0.06996183 -0.02385797 -0.019162258 -0.012739376 -0.033877213 -0.006903028 -0.0521163
-0.034089137 0.0055481815 -0.049894784 -0.027071811 -0.030975768 -0.048701636 -0.02230674 -0.053190254
0.03137241 -0.026153682 -0.03255165 -0.02147547 -0.049675055 -0.023556553 0.0028806133 0.0041464274
-0.05523348 0.010701491 -0.05155146 -0.021852853 -0.06381701 -0.007540145 -0.045008995 -0.01431681
-0.009958896 -0.012995589 -0.00974487 -0.017978877 0.029231792 -0.019107189 -0.032654323 -0.03854845
-0.026720451 -0.044323415 0.00796284 -0.08409161 -0.00039053513 -0.03962144 -0.017765053 -0.040722914
-0.0653599 -0.02414419 -0.015258613 0.007258074 0.012568144 -0.02595603 -0.004447983 -0.027958306
-0.06075611 -0.034008835 -0.026662158 -0.014772503 -0.009297567 0.026169758 -0.084315315 -0.0074680042
-0.0363477 -0.03658412 -0.055890262 -0.007857648 -0.05291235 -0.012434972 -0.0151082445 -0.019738946
-0.035929363 -0.03832976 -0.032202575 -0.031581197 -0.025017621 -0.0462093 0.0017615089 -0.041722618
-0.036199234 -0.026764028 -0.026203237 -0.04490904 -0.06724861 -0.021280212 0.045177065 -0.026835449
-0.03894914 -0.040025182 0.028249681 0.0 0.0053470526 -0.032815777 0.017052678 -0.017382182
-0.020188896 -0.04852344 -0.029476278 0.006318487 -0.010390879 -0.057753675 -0.026057892 -0.0110888
-0.057803087 0.046244822 -0.029747441 -0.0559498 -0.04304282 0.003937621 0.029028147 0.03152595
-0.021080377 -0.09104678 -0.062145848 -0.012336536 -0.026750436 0.05030612 -0.0011117728 -0.023324061
-0.029063445 0.011643204 -0.05133459 -0.019200573 -0.029518472 -0.0338774 -0.03185022 -0.039631587
-0.04097733 -0.036354907 -0.03119463 -0.023491977 -0.025160607 -0.061265543 0.024864838 -0.029989058
-0.047037426 -0.031509027 -0.050536063 -0.012759653 -0.015333157 -0.04484134 -0.035042904 -0.027776275
-0.017843649 -0.015129432 -0.03038074 -0.008154253 0.05437416 -0.013142339 -0.02329047 -0.022622947
00000000: 748e 27bd f69b 343c ac10 24bd c5e2 5abd
00000010: d0c1 11bd ca17 2ebd d537 1fbc 7075 83bd
00000020: 40b4 96bc 0404 0cbd 7b97 acbc 100b 20bd
00000030: ea9d 00bd c2c5 04bd c42b 323d a181 56bd
00000040: b042 15bd 6672 323d 6012 a7bc 89f9 9ebc
00000050: a562 0dbd c0d6 02bd 2828 80bd 0eb1 4c3c
00000060: 0147 0fbd a49c ca3a 2040 4ebd 1c3b a4bd
00000070: 1592 c1bc 3fb5 babc f2e7 27bd 6648 80bd
00000080: 342e 24bc 63b4 55bd 754d 13bd 054d 18bd
00000090: c068 37bd c2b8 d4bc 184f 79bd be88 2ebd
000000a0: 1f04 57bd 2648 8fbd ca71 c3bc 2bfa 9cbc
000000b0: d1b8 50bc d5c2 0abd cc32 e2bb e777 55bd
000000c0: 0da1 0bbd 85cd b53b 795e 4cbd b4c5 ddbc
000000d0: e5c0 fdbc 5e7b 47bd a0bc b6bc 06de 59bd
000000e0: 5b80 003d 3f40 d6bc e154 05bd 53ed afbc
000000f0: 1278 4bbd acf9 c0bc acc8 3c3b c1de 873b
00000100: 803c 62bd 4e55 2f3c a027 53bd c104 b3bc
00000110: 7eb2 82bd 5213 f7bb 5a5b 38bd 0e91 6abc
00000120: a32a 23bc 73eb 54bc f2a8 1fbc 7048 93bc
00000130: 8377 ef3c ae86 9cbc 8ac0 05bd fbe4 1dbd
00000140: d9e4 dabc 788c 35bd 9276 023c 3938 acbd
00000150: bdc0 ccb9 174a 22bd 0488 91bc 12cd 26bd
00000160: 69db 85bd 09ca c5bc 43ff 79bc 23d5 ed3b
00000170: 9eea 4d3c bda1 d4bc 63c0 91bb d108 e5bc
00000180: 66db 78bd d94c 0bbd 996a dabc 5e08 72bc
00000190: d354 18bc f661 d63c 82ad acbd 29b6 f4bb
000001a0: 53e1 14bd 3bd9 15bd 30ed 64bd 5dbd 00bc
000001b0: 9fba 58bd 0ebc 4bbc 9288 77bc 92b3 a1bc
000001c0: ab2a 13bd abff 1cbd d9e6 03bd 495b 01bd
000001d0: c1f1 ccbc f745 3dbd 6ee2 e63a 56e5 2abd
000001e0: a645 14bd 3c40 dbbc 2ca8 d6bc 8bf2 37bd
000001f0: a4b9 89bd d753 aebc 960b 393d 04d6 dbbc
00000200: 2289 1fbd 72f1 23bd e06b e73c 0000 0000
00000210: 5436 af3b d669 06bd 0fb2 8b3c 1465 8ebc
00000220: 2f63 a5bc 84c0 46bd 3c78 f1bc 500b cf3b
00000230: 813e 2abc 1e8f 6cbd 5c77 d5bc ccad 35bc
00000240: eec2 6cbd 366b 3d3d e8b0 f3bc 9e2b 65bd
00000250: ab4d 30bd 2907 813b 70cc ed3c 5b21 013d
00000260: c1b0 acbc bc76 babd a58c 7ebd 2f1f 4abc
00000270: bb23 dbbc ca0d 4e3d e8b8 91ba 1a12 bfbc
00000280: 7616 eebc 23c3 3e3c 3844 52bd 854a 9dbc
00000290: b9d0 f1bc 07c3 0abd 6075 02bd bb54 22bd
000002a0: d8d7 27bd e2e8 14bd e18b ffbc 3f72 c0bc
000002b0: 9e1d cebc 94f1 7abd 58b1 cb3c 9dab f5bc
000002c0: 51aa 40bd 9c0f 01bd e7fe 4ebd dd0d 51bc
000002d0: ec37 7bbc 8eab 37bd 2689 0fbd 128b e3bc
000002e0: d82c 92bc 70e1 77bc 08e1 f8bc 6a99 05bc
000002f0: 70b7 5e3d f752 57bc a8cb bebc c253 b9bc
