Homework 6/train/models/squeezenet_v11_quant.tflite (tflite, 825880 bytes, 26 tensors)

tfl.pseudo_qconst1 i1 [10, 1, 1, 512]
0	0xf2	-14
1	0x17	23
2	0xf8	-8
3	0x02	2
4	0xf7	-9
5	0x16	22
6	0x0d	13
7	0xd7	-41
8	0x00	0
9	0x0f	15
10	0xe5	-27
11	0x12	18
12	0xdc	-36
13	0x15	21
14	0xf6	-10
15	0xf5	-11
16	0xf5	-11
17	0x08	8
18	0x02	2
19	0xfe	-2
20	0x03	3
21	0x04	4
22	0x15	21
23	0xf9	-7
24	0xf9	-7
25	0xef	-17
26	0xf5	-11
27	0xb5	-75
28	0x03	3
29	0xe3	-29
30	0xf5	-11
31	0x08	8
32	0x0d	13
33	0x0f	15
34	0xf5	-11
35	0xfc	-4
36	0x0a	10
37	0xfc	-4
38	0xdb	-37
39	0x16	22
40	0xf1	-15
41	0x12	18
42	0x0f	15
43	0xe9	-23
44	0x0f	15
45	0x07	7
46	0xf4	-12
47	0x00	0
48	0xf0	-16
49	0x05	5
50	0x04	4
51	0x00	0
52	0x0c	12
53	0xf0	-16
54	0xfc	-4
55	0xf4	-12
56	0x12	18
57	0xf8	-8
58	0xbb	-69
59	0xec	-20
60	0xf8	-8
61	0xf8	-8
62	0xf9	-7
63	0xe6	-26
64	0xda	-38
65	0xef	-17
66	0x1a	26
67	0x19	25
68	0xf6	-10
69	0xd2	-46
70	0x08	8
71	0xfe	-2
72	0xd3	-45
73	0xf5	-11
74	0xf1	-15
75	0xf2	-14
76	0xf4	-12
77	0xfd	-3
78	0x11	17
79	0x03	3
80	0xfc	-4
81	0x08	8
82	0x0a	10
83	0xf8	-8
84	0x15	21
85	0xc6	-58
86	0x17	23
87	0x28	40
88	0xf9	-7
89	0xfa	-6
90	0xf0	-16
91	0xd9	-39
92	0xf0	-16
93	0xe6	-26
94	0x0f	15
95	0xe6	-26
96	0xf4	-12
97	0x09	9
98	0xf9	-7
99	0xd4	-44
100	0xc3	-61
101	0x0d	13
102	0xfb	-5
103	0xf4	-12
104	0x03	3
105	0x00	0
106	0xfa	-6
107	0xea	-22
108	0xea	-22
109	0x11	17
110	0x0f	15
111	0x12	18
112	0x10	16
113	0xf1	-15
114	0xd4	-44
115	0x00	0
116	0xeb	-21
117	0x18	24
118	0xff	-1
119	0x0c	12
120	0xda	-38
121	0xec	-20
122	0x14	20
123	0x0b	11
124	0x04	4
125	0xe2	-30
126	0xdc	-36
127	0xe2	-30
128	0xe7	-25
129	0x0d	13
130	0x16	22
131	0x07	7
132	0xd5	-43
133	0xb8	-72
134	0xfd	-3
135	0x04	4
136	0x10	16
137	0xe5	-27
138	0xdc	-36
139	0x09	9
140	0xd3	-45
141	0x06	6
142	0xaf	-81
143	0x0e	14
144	0x01	1
145	0xe3	-29
146	0xe4	-28
147	0x04	4
148	0x08	8
149	0xeb	-21
150	0x0f	15
151	0x03	3
152	0xce	-50
153	0xef	-17
154	0xed	-19
155	0xf8	-8
156	0x0e	14
157	0xfb	-5
158	0xfc	-4
159	0xbe	-66
160	0x1c	28
161	0xc9	-55
162	0xff	-1
163	0x03	3
164	0xc5	-59
165	0x02	2
166	0xe2	-30
167	0xc6	-58
168	0xf5	-11
169	0xee	-18
170	0xee	-18
171	0xe1	-31
172	0xef	-17
173	0x09	9
174	0xfc	-4
175	0x17	23
176	0xb6	-74
177	0xdc	-36
178	0xff	-1
179	0x09	9
180	0x0d	13
181	0x0c	12
182	0xea	-22
183	0xf3	-13
184	0x17	23
185	0x13	19
186	0x0c	12
187	0xfe	-2
188	0xfd	-3
189	0xe7	-25
190	0x12	18
191	0x07	7
192	0x0d	13
193	0xe3	-29
194	0xfd	-3
195	0x08	8
196	0x0a	10
197	0x21	33
198	0xfa	-6
199	0xbf	-65
200	0xfd	-3
201	0x03	3
202	0x24	36
203	0xfe	-2
204	0x29	41
205	0x0e	14
206	0xd2	-46
207	0xdf	-33
208	0xfd	-3
209	0xff	-1
210	0xfe	-2
211	0xf7	-9
212	0x08	8
213	0xe8	-24
214	0xfc	-4
215	0xce	-50
216	0xe8	-24
217	0xb7	-73
218	0xd4	-44
219	0x17	23
220	0xf0	-16
221	0x0c	12
222	0x0d	13
223	0xfd	-3
224	0x0e	14
225	0xbc	-68
226	0xfd	-3
227	0x01	1
228	0xec	-20
229	0xfc	-4
230	0x1c	28
231	0xf8	-8
232	0x10	16
233	0xeb	-21
234	0xe1	-31
235	0xd3	-45
236	0x02	2
237	0x0a	10
238	0xfc	-4
239	0xf6	-10
240	0x01	1
241	0xff	-1
242	0x0b	11
243	0xe8	-24
244	0xcb	-53
245	0x10	16
246	0xaf	-81
247	0x0e	14
248	0xe5	-27
249	0xf0	-16
250	0x05	5
251	0x0d	13
252	0xf2	-14
253	0x04	4
254	0xd3	-45
255	0xe9	-23

tfl.pseudo_qconst3 i1 [256, 3, 3, 64]
0	0xf8	-8
1	0xea	-22
2	0x2c	44
3	0xdc	-36
4	0xee	-18
5	0xf6	-10
6	0xe8	-24
7	0x0d	13
8	0xee	-18
9	0x1d	29
10	0x06	6
11	0x06	6
12	0x19	25
13	0x05	5
14	0xef	-17
15	0xf7	-9
16	0x02	2
17	0xf5	-11
18	0xf5	-11
19	0xe9	-23
20	0xda	-38
21	0x2a	42
22	0x28	40
23	0x12	18
24	0x29	41
25	0x0d	13
26	0x15	21
27	0x27	39
28	0x29	41
29	0x07	7
30	0xf5	-11
31	0xf7	-9
32	0xd6	-42
33	0x05	5
34	0xf4	-12
35	0x04	4
36	0xf8	-8
37	0x21	33
38	0xf8	-8
39	0xe6	-26
40	0x1e	30
41	0xdf	-33
42	0xf0	-16
43	0xf6	-10
44	0xe5	-27
45	0xef	-17
46	0xf8	-8
47	0x06	6
48	0xe4	-28
49	0x13	19
50	0xd8	-40
51	0x23	35
52	0xf4	-12
53	0x19	25
54	0x18	24
55	0x25	37
56	0x24	36
57	0xf3	-13
58	0x26	38
59	0x2e	46
60	0x11	17
61	0x0f	15
62	0x27	39
63	0xda	-38
64	0x2d	45
65	0xe4	-28
66	0xd7	-41
67	0xdb	-37
68	0x2c	44
69	0xdf	-33
70	0xd3	-45
71	0xf6	-10
72	0xf0	-16
73	0x0f	15
74	0x1e	30
75	0x2c	44
76	0x16	22
77	0xd8	-40
78	0xf1	-15
79	0x11	17
80	0x1b	27
81	0x1c	28
82	0x2a	42
83	0x20	32
84	0xf2	-14
85	0x24	36
86	0x1f	31
87	0xe1	-31
88	0xe2	-30
89	0xe0	-32
90	0xdc	-36
91	0x14	20
92	0xf7	-9
93	0x25	37
94	0x23	35
95	0xf4	-12
96	0xec	-20
97	0x20	32
98	0x16	22
99	0xdf	-33
100	0xf7	-9
101	0xe6	-26
102	0x21	33
103	0x2c	44
104	0xf9	-7
105	0x2c	44
106	0xec	-20
107	0xd4	-44
108	0x04	4
109	0x27	39
110	0x2d	45
111	0xd5	-43
112	0xde	-34
113	0xf5	-11
114	0x24	36
115	0xf7	-9
116	0xe1	-31
117	0x16	22
118	0xee	-18
119	0x10	16
120	0x2a	42
121	0x25	37
122	0xe0	-32
123	0x12	18
124	0xec	-20
125	0xda	-38
126	0x03	3
127	0x1d	29
128	0x1b	27
129	0xdc	-36
130	0x16	22
131	0x1a	26
132	0xe3	-29
133	0x28	40
134	0x18	24
135	0x28	40
136	0xfa	-6
137	0x2c	44
138	0xde	-34
139	0xfd	-3
140	0xf6	-10
141	0x08	8
142	0x0a	10
143	0x10	16
144	0xf4	-12
145	0x09	9
146	0xe0	-32
147	0x0e	14
148	0xf4	-12
149	0x03	3
150	0xf2	-14
151	0xf8	-8
152	0x02	2
153	0xdf	-33
154	0xd2	-46
155	0x0f	15
156	0x04	4
157	0xda	-38
158	0x25	37
159	0xe7	-25
160	0xf4	-12
161	0x1d	29
162	0x27	39
163	0x0f	15
164	0x2b	43
165	0x02	2
166	0xe5	-27
167	0xdb	-37
168	0x16	22
169	0xe3	-29
170	0xdf	-33
171	0x19	25
172	0x22	34
173	0x00	0
174	0xf7	-9
175	0x1e	30
176	0x1d	29
177	0xe2	-30
178	0x2b	43
179	0x23	35
180	0x29	41
181	0x0a	10
182	0x03	3
183	0xdc	-36
184	0xd4	-44
185	0x1a	26
186	0xd8	-40
187	0xe7	-25
188	0x2c	44
189	0xed	-19
190	0xe8	-24
191	0xf9	-7
192	0x11	17
193	0x24	36
194	0x16	22
195	0x1f	31
196	0xf0	-16
197	0xe6	-26
198	0x11	17
199	0xfe	-2
200	0x27	39
201	0xe9	-23
202	0xfe	-2
203	0xf1	-15
204	0xf1	-15
205	0x23	35
206	0x10	16
207	0x29	41
208	0x15	21
209	0x09	9
210	0x02	2
211	0x09	9
212	0x14	20
213	0xea	-22
214	0x11	17
215	0x1b	27
216	0x2c	44
217	0x0e	14
218	0x2c	44
219	0x13	19
220	0x2d	45
221	0x1d	29
222	0xf7	-9
223	0x0b	11
224	0xda	-38
225	0xfd	-3
226	0x19	25
227	0x19	25
228	0x18	24
229	0xd3	-45
230	0xdf	-33
231	0x07	7
232	0x16	22
233	0xf6	-10
234	0x09	9
235	0xde	-34
236	0xf9	-7
237	0xdd	-35
238	0xef	-17
239	0xe1	-31
240	0x1b	27
241	0x09	9
242	0x05	5
243	0x21	33
244	0xde	-34
245	0x09	9
246	0x1e	30
247	0x20	32
248	0xd6	-42
249	0x05	5
250	0xe7	-25
251	0x06	6
252	0xd9	-39
253	0x03	3
254	0x0b	11
255	0x01	1

tfl.pseudo_qconst5 i1 [256, 1, 1, 64]
0	0x0d	13
1	0xb7	-73
2	0x31	49
3	0x24	36
4	0xe1	-31
5	0xfe	-2
6	0xe3	-29
7	0x1c	28
8	0x4b	75
9	0xe4	-28
10	0x68	104
11	0x09	9
12	0xa5	-91
13	0xdb	-37
14	0x05	5
15	0x1f	31
16	0x0d	13
17	0x08	8
18	0x5c	92
19	0x47	71
20	0x7f	127
21	0xdd	-35
22	0x0b	11
23	0xe0	-32
24	0xfb	-5
25	0xaa	-86
26	0x7d	125
27	0x3d	61
28	0x20	32
29	0x21	33
30	0xb4	-76
31	0x46	70
32	0xaa	-86
33	0x39	57
34	0x22	34
35	0xba	-70
36	0xdc	-36
37	0x15	21
38	0x8d	-115
39	0xe8	-24
40	0xfa	-6
41	0x51	81
42	0x2a	42
43	0xac	-84
44	0xf7	-9
45	0xc9	-55
46	0xc9	-55
47	0x35	53
48	0x1a	26
49	0x42	66
50	0xdd	-35
51	0xf6	-10
52	0xaf	-81
53	0xb9	-71
54	0xf5	-11
55	0x20	32
56	0x2d	45
57	0xca	-54
58	0x01	1
59	0x47	71
60	0xd8	-40
61	0x5c	92
62	0x25	37
63	0xfd	-3
64	0xe0	-32
65	0x32	50
66	0xe6	-26
67	0xed	-19
68	0x86	-122
69	0xe7	-25
70	0xc7	-57
71	0xd2	-46
72	0x20	32
73	0xfd	-3
74	0xd2	-46
75	0xd5	-43
76	0x51	81
77	0x2e	46
78	0xcb	-53
79	0x16	22
80	0x0d	13
81	0x81	-127
82	0x06	6
83	0x0c	12
84	0xbf	-65
85	0xa8	-88
86	0x24	36
87	0x20	32
88	0x08	8
89	0xdb	-37
90	0xad	-83
91	0x0b	11
92	0xd2	-46
93	0x07	7
94	0x3d	61
95	0xe9	-23
96	0xd5	-43
97	0x37	55
98	0xc4	-60
99	0x34	52
100	0xc5	-59
101	0xf1	-15
102	0xa1	-95
103	0x11	17
104	0xcf	-49
105	0x09	9
106	0x07	7
107	0xcc	-52
108	0x33	51
109	0xaf	-81
110	0x4e	78
111	0xfa	-6
112	0xf1	-15
113	0x38	56
114	0xc7	-57
115	0xfd	-3
116	0xd8	-40
117	0xad	-83
118	0x35	53
119	0xec	-20
120	0xd7	-41
121	0x33	51
122	0xa3	-93
123	0x09	9
124	0xcd	-51
125	0x11	17
126	0x26	38
127	0x15	21
128	0xab	-85
129	0xea	-22
130	0xb3	-77
131	0xd4	-44
132	0x3f	63
133	0xd8	-40
134	0x0c	12
135	0x27	39
136	0xb0	-80
137	0x13	19
138	0x35	53
139	0x36	54
140	0x41	65
141	0xea	-22
142	0x6e	110
143	0xf0	-16
144	0xb4	-76
145	0x43	67
146	0x29	41
147	0x81	-127
148	0xe9	-23
149	0x1e	30
150	0x1c	28
151	0xff	-1
152	0xf3	-13
153	0xac	-84
154	0xe6	-26
155	0xf0	-16
156	0xf3	-13
157	0xcb	-53
158	0xb1	-79
159	0x43	67
160	0xa0	-96
161	0x38	56
162	0xcd	-51
163	0xcb	-53
164	0x23	35
165	0x0d	13
166	0xcd	-51
167	0x1d	29
168	0xfd	-3
169	0xd8	-40
170	0x91	-111
171	0xae	-82
172	0xf1	-15
173	0x2f	47
174	0x1b	27
175	0xab	-85
176	0xc0	-64
177	0xc6	-58
178	0x09	9
179	0xbe	-66
180	0xf0	-16
181	0xd2	-46
182	0xe0	-32
183	0x37	55
184	0xb1	-79
185	0x0b	11
186	0xec	-20
187	0xe6	-26
188	0x45	69
189	0xf0	-16
190	0x48	72
191	0xdd	-35
192	0xd6	-42
193	0x3e	62
194	0x32	50
195	0x6a	106
196	0xe3	-29
197	0x29	41
198	0x2e	46
199	0x75	117
200	0xd3	-45
201	0xe9	-23
202	0xe8	-24
203	0x48	72
204	0x2c	44
205	0xb1	-79
206	0xb5	-75
207	0x00	0
208	0x5a	90
209	0x53	83
210	0xa3	-93
211	0xd9	-39
212	0x06	6
213	0xeb	-21
214	0xc0	-64
215	0xe0	-32
216	0x33	51
217	0xe1	-31
218	0xcb	-53
219	0x3d	61
220	0x21	33
221	0xd4	-44
222	0x1d	29
223	0x7f	127
224	0x51	81
225	0xc7	-57
226	0x0d	13
227	0xbe	-66
228	0x51	81
229	0xfb	-5
230	0x1f	31
231	0x4a	74
232	0x39	57
233	0x17	23
234	0xcf	-49
235	0xeb	-21
236	0x21	33
237	0x3f	63
238	0xd7	-41
239	0x30	48
240	0xc7	-57
241	0x2d	45
242	0xcb	-53
243	0x42	66
244	0xf6	-10
245	0xa8	-88
246	0x33	51
247	0xc3	-61
248	0x04	4
249	0xe3	-29
250	0x96	-106
251	0x65	101
252	0x5d	93
253	0x00	0
254	0xaf	-81
255	0x0f	15

tfl.pseudo_qconst7 i1 [64, 1, 1, 512]
0	0xda	-38
1	0xdf	-33
2	0xf0	-16
3	0x48	72
4	0xe6	-26
5	0xd5	-43
6	0x81	-127
7	0xcd	-51
8	0x18	24
9	0x19	25
10	0xeb	-21
11	0xf1	-15
12	0x3b	59
13	0xd8	-40
14	0x46	70
15	0x44	68
16	0x30	48
17	0xbc	-68
18	0xf0	-16
19	0xab	-85
20	0xd2	-46
21	0x0a	10
22	0xc9	-55
23	0xd5	-43
24	0xa3	-93
25	0x06	6
26	0x15	21
27	0x94	-108
28	0x04	4
29	0xb5	-75
30	0x22	34
31	0xb7	-73
32	0xbd	-67
33	0x85	-123
34	0xde	-34
35	0x44	68
36	0xb3	-77
37	0x3d	61
38	0xe8	-24
39	0x09	9
40	0x38	56
41	0x17	23
42	0x4a	74
43	0xc1	-63
44	0x3d	61
45	0xd1	-47
46	0x0e	14
47	0x34	52
48	0x0d	13
49	0x39	57
50	0x37	55
51	0x10	16
52	0x42	66
53	0xfd	-3
54	0x8c	-116
55	0x01	1
56	0xc0	-64
57	0xfd	-3
58	0xaa	-86
59	0xb2	-78
60	0x2d	45
61	0x54	84
62	0xf4	-12
63	0xba	-70
64	0x41	65
65	0x06	6
66	0x9e	-98
67	0xb1	-79
68	0xaf	-81
69	0xc4	-60
70	0x3f	63
71	0xdd	-35
72	0x28	40
73	0xd8	-40
74	0xb0	-80
75	0x2e	46
76	0xfd	-3
77	0x47	71
78	0x11	17
79	0xb9	-71
80	0xc3	-61
81	0xd6	-42
82	0xae	-82
83	0xe7	-25
84	0x01	1
85	0xb5	-75
86	0xa9	-87
87	0xde	-34
88	0xf8	-8
89	0x04	4
90	0xca	-54
91	0xb4	-76
92	0xbf	-65
93	0x2d	45
94	0xd6	-42
95	0xab	-85
96	0xab	-85
97	0xbf	-65
98	0xe3	-29
99	0xbd	-67
100	0x06	6
101	0x8a	-118
102	0x1b	27
103	0xa1	-95
104	0xea	-22
105	0x2a	42
106	0x21	33
107	0x04	4
108	0xec	-20
109	0xf3	-13
110	0xc2	-62
111	0x9d	-99
112	0xb1	-79
113	0x2a	42
114	0x57	87
115	0x28	40
116	0x01	1
117	0xe3	-29
118	0x33	51
119	0xdb	-37
120	0x8b	-117
121	0x37	55
122	0x4e	78
123	0x4a	74
124	0x01	1
125	0x27	39
126	0xb0	-80
127	0x14	20
128	0xf3	-13
129	0x9e	-98
130	0x2a	42
131	0x3a	58
132	0x02	2
133	0xff	-1
134	0xef	-17
135	0x05	5
136	0xdd	-35
137	0x42	66
138	0x2c	44
139	0x20	32
140	0x35	53
141	0x45	69
142	0x0d	13
143	0x09	9
144	0x20	32
145	0x10	16
146	0x4a	74
147	0xd1	-47
148	0xed	-19
149	0xbb	-69
150	0xef	-17
151	0x9d	-99
152	0x15	21
153	0xe7	-25
154	0xfc	-4
155	0xd7	-41
156	0x37	55
157	0x0e	14
158	0x22	34
159	0x99	-103
160	0xbf	-65
161	0xbc	-68
162	0x09	9
163	0x13	19
164	0xed	-19
165	0x3b	59
166	0xc0	-64
167	0x0c	12
168	0x44	68
169	0x2d	45
170	0xd6	-42
171	0xc1	-63
172	0x58	88
173	0x3f	63
174	0x88	-120
175	0x88	-120
176	0xc4	-60
177	0xd1	-47
178	0x0e	14
179	0xb7	-73
180	0xa2	-94
181	0xdd	-35
182	0xdb	-37
183	0xbd	-67
184	0xf7	-9
185	0x95	-107
186	0xbc	-68
187	0x42	66
188	0xd7	-41
189	0xca	-54
190	0xa8	-88
191	0xd8	-40
192	0xb7	-73
193	0xae	-82
194	0xba	-70
195	0xed	-19
196	0xcb	-53
197	0xc5	-59
198	0xa2	-94
199	0x08	8
200	0xfc	-4
201	0xbc	-68
202	0xe8	-24
203	0x06	6
204	0xd3	-45
205	0x48	72
206	0xcb	-53
207	0xa8	-88
208	0x54	84
209	0x2c	44
210	0xb6	-74
211	0xbe	-66
212	0x04	4
213	0x32	50
214	0xe8	-24
215	0x28	40
216	0xc8	-56
217	0x20	32
218	0x39	57
219	0x43	67
220	0x3b	59
221	0xe7	-25
222	0xf8	-8
223	0xd8	-40
224	0x17	23
225	0xae	-82
226	0x43	67
227	0xaa	-86
228	0xfc	-4
229	0x10	16
230	0xf8	-8
231	0xc3	-61
232	0xb6	-74
233	0xe1	-31
234	0xe6	-26
235	0xf5	-11
236	0xfe	-2
237	0x93	-109
238	0xe6	-26
239	0xcf	-49
240	0x1b	27
241	0xbd	-67
242	0xd8	-40
243	0xb9	-71
244	0x0a	10
245	0x2a	42
246	0xae	-82
247	0x15	21
248	0x05	5
249	0x0f	15
250	0xe3	-29
251	0xb2	-78
252	0x45	69
253	0x06	6
254	0x9e	-98
255	0xca	-54

tfl.pseudo_qconst9 i1 [256, 3, 3, 64]
0	0xe9	-23
1	0x14	20
2	0x05	5
3	0x1b	27
4	0xf7	-9
5	0xdf	-33
6	0xe8	-24
7	0x1d	29
8	0x20	32
9	0x0b	11
10	0xe1	-31
11	0x1e	30
12	0x18	24
13	0xe9	-23
14	0x0c	12
15	0x24	36
16	0x0e	14
17	0xf2	-14
18	0x22	34
19	0x17	23
20	0xf7	-9
21	0x09	9
22	0xfd	-3
23	0xe6	-26
24	0x05	5
25	0xe5	-27
26	0x0e	14
27	0xff	-1
28	0x0b	11
29	0xea	-22
30	0xde	-34
31	0x1e	30
32	0x05	5
33	0x15	21
34	0xdf	-33
35	0xe2	-30
36	0x25	37
37	0xe9	-23
38	0x12	18
39	0xf1	-15
40	0xdc	-36
41	0xe9	-23
42	0x1a	26
43	0x0f	15
44	0xe6	-26
45	0x16	22
46	0x1d	29
47	0x1c	28
48	0xef	-17
49	0x10	16
50	0x1b	27
51	0x02	2
52	0x05	5
53	0xea	-22
54	0x1a	26
55	0x00	0
56	0x1a	26
57	0x0e	14
58	0xe7	-25
59	0xf6	-10
60	0x0d	13
61	0xe8	-24
62	0xdc	-36
63	0xdf	-33
64	0xf8	-8
65	0x23	35
66	0xf0	-16
67	0x03	3
68	0xdb	-37
69	0x18	24
70	0x20	32
71	0xf8	-8
72	0x07	7
73	0xfd	-3
74	0x17	23
75	0x09	9
76	0xf9	-7
77	0x1c	28
78	0xe2	-30
79	0x11	17
80	0xdb	-37
81	0x14	20
82	0x0c	12
83	0xf0	-16
84	0xfa	-6
85	0x16	22
86	0xeb	-21
87	0x06	6
88	0xe6	-26
89	0xe4	-28
90	0xee	-18
91	0x1b	27
92	0x1f	31
93	0x0a	10
94	0xdc	-36
95	0xe4	-28
96	0x0d	13
97	0xf3	-13
98	0xfa	-6
99	0xdf	-33
100	0xf2	-14
101	0xf8	-8
102	0x0c	12
103	0xee	-18
104	0x07	7
105	0xf0	-16
106	0x00	0
107	0xf7	-9
108	0x05	5
109	0x23	35
110	0xf1	-15
111	0x0a	10
112	0xf2	-14
113	0xf2	-14
114	0xe8	-24
115	0xe2	-30
116	0x04	4
117	0xfc	-4
118	0xdd	-35
119	0xfd	-3
120	0x0d	13
121	0xe4	-28
122	0xf1	-15
123	0xe3	-29
124	0x09	9
125	0xe4	-28
126	0xea	-22
127	0x1b	27
128	0xfe	-2
129	0x08	8
130	0x1a	26
131	0xec	-20
132	0x17	23
133	0x20	32
134	0x1a	26
135	0xe0	-32
136	0xf7	-9
137	0xf6	-10
138	0x1b	27
139	0xf5	-11
140	0x06	6
141	0xfb	-5
142	0xf8	-8
143	0xf4	-12
144	0x0e	14
145	0xfc	-4
146	0xe3	-29
147	0xda	-38
148	0x0c	12
149	0xe9	-23
150	0x00	0
151	0xe1	-31
152	0xfa	-6
153	0x04	4
154	0xdb	-37
155	0xf9	-7
156	0xdf	-33
157	0xde	-34
158	0xdd	-35
159	0xea	-22
160	0xf3	-13
161	0xdb	-37
162	0xe9	-23
163	0x22	34
164	0xec	-20
165	0xdf	-33
166	0xda	-38
167	0x22	34
168	0xf9	-7
169	0x07	7
170	0x26	38
171	0x08	8
172	0x0c	12
173	0x15	21
174	0xe6	-26
175	0x11	17
176	0x20	32
177	0xec	-20
178	0xf4	-12
179	0xf0	-16
180	0x14	20
181	0x1f	31
182	0x17	23
183	0xf1	-15
184	0xeb	-21
185	0x1c	28
186	0xe0	-32
187	0xf4	-12
188	0xec	-20
189	0xfc	-4
190	0x00	0
191	0xf4	-12
192	0xde	-34
193	0x16	22
194	0xdf	-33
195	0x1c	28
196	0x17	23
197	0x01	1
198	0xeb	-21
199	0x1e	30
200	0x0f	15
201	0xe3	-29
202	0xe8	-24
203	0x19	25
204	0x1c	28
205	0x06	6
206	0xf4	-12
207	0xf7	-9
208	0x10	16
209	0x04	4
210	0x12	18
211	0x07	7
212	0xf7	-9
213	0xe3	-29
214	0x09	9
215	0x1c	28
216	0x1e	30
217	0xf5	-11
218	0xef	-17
219	0xf1	-15
220	0xdb	-37
221	0xea	-22
222	0xe1	-31
223	0xff	-1
224	0xfb	-5
225	0x1c	28
226	0x22	34
227	0xe4	-28
228	0xdf	-33
229	0x06	6
230	0x06	6
231	0x24	36
232	0xdd	-35
233	0x07	7
234	0xe9	-23
235	0x09	9
236	0x22	34
237	0x1f	31
238	0xf1	-15
239	0xea	-22
240	0xec	-20
241	0x11	17
242	0xfb	-5
243	0xfb	-5
244	0x13	19
245	0x05	5
246	0x10	16
247	0xed	-19
248	0x09	9
249	0xeb	-21
250	0x10	16
251	0xe5	-27
252	0xee	-18
253	0xf4	-12
254	0x23	35
255	0xfd	-3

tfl.pseudo_qconst11 i1 [256, 1, 1, 64]
0	0x36	54
1	0x99	-103
2	0x04	4
3	0x05	5
4	0x0e	14
5	0xd7	-41
6	0x14	20
7	0xb9	-71
8	0x0a	10
9	0x99	-103
10	0xc7	-57
11	0x96	-106
12	0xc0	-64
13	0x9a	-102
14	0xfc	-4
15	0x26	38
16	0x22	34
17	0xca	-54
18	0x3f	63
19	0x85	-123
20	0xc2	-62
21	0x16	22
22	0xf4	-12
23	0x2f	47
24	0xe2	-30
25	0xe8	-24
26	0xab	-85
27	0xe3	-29
28	0xde	-34
29	0xfa	-6
30	0x1a	26
31	0x31	49
32	0x09	9
33	0x83	-125
34	0xbf	-65
35	0x10	16
36	0x1c	28
37	0x1e	30
38	0xfd	-3
39	0xca	-54
40	0xa5	-91
41	0x61	97
42	0x03	3
43	0x1d	29
44	0xc0	-64
45	0xa3	-93
46	0xd2	-46
47	0xe5	-27
48	0xce	-50
49	0x3a	58
50	0x11	17
51	0x19	25
52	0xff	-1
53	0xfc	-4
54	0x48	72
55	0xb0	-80
56	0xaf	-81
57	0x9e	-98
58	0xfa	-6
59	0xf0	-16
60	0x1a	26
61	0x81	-127
62	0x47	71
63	0xb3	-77
64	0x1a	26
65	0x01	1
66	0x93	-109
67	0x0e	14
68	0x35	53
69	0xf3	-13
70	0x2c	44
71	0x01	1
72	0x1e	30
73	0x15	21
74	0xf6	-10
75	0x91	-111
76	0xcb	-53
77	0xd1	-47
78	0x96	-106
79	0x1c	28
80	0xf1	-15
81	0xe0	-32
82	0xe5	-27
83	0xda	-38
84	0x2f	47
85	0x8a	-118
86	0xf6	-10
87	0xe6	-26
88	0xcf	-49
89	0xfd	-3
90	0x15	21
91	0x37	55
92	0x74	116
93	0xac	-84
94	0xf2	-14
95	0x81	-127
96	0xd8	-40
97	0xb5	-75
98	0xe9	-23
99	0x0c	12
100	0xe4	-28
101	0x0b	11
102	0x2a	42
103	0xf2	-14
104	0xd2	-46
105	0x13	19
106	0xb3	-77
107	0xcf	-49
108	0xe3	-29
109	0xeb	-21
110	0x20	32
111	0xd9	-39
112	0xf5	-11
113	0x34	52
114	0x0c	12
115	0x4d	77
116	0x9e	-98
117	0xd2	-46
118	0x2b	43
119	0x09	9
120	0x1b	27
121	0xcb	-53
122	0xd7	-41
123	0x3c	60
124	0x26	38
125	0xf8	-8
126	0x09	9
127	0xf3	-13
128	0x2b	43
129	0xff	-1
130	0x42	66
131	0x4c	76
132	0x35	53
133	0xdb	-37
134	0x11	17
135	0x50	80
136	0xf8	-8
137	0xc2	-62
138	0xb5	-75
139	0x25	37
140	0x39	57
141	0x25	37
142	0x17	23
143	0xed	-19
144	0x34	52
145	0x42	66
146	0x08	8
147	0xfe	-2
148	0xa4	-92
149	0xf5	-11
150	0x34	52
151	0xc8	-56
152	0xbe	-66
153	0xc2	-62
154	0x8b	-117
155	0x29	41
156	0xb1	-79
157	0x49	73
158	0xb2	-78
159	0x3d	61
160	0x3a	58
161	0x07	7
162	0xe4	-28
163	0xcd	-51
164	0x0c	12
165	0x01	1
166	0xb3	-77
167	0xa5	-91
168	0x00	0
169	0x3f	63
170	0x81	-127
171	0xf4	-12
172	0x1e	30
173	0x13	19
174	0x1f	31
175	0xe9	-23
176	0xdb	-37
177	0xf2	-14
178	0xf8	-8
179	0xed	-19
180	0xf0	-16
181	0xd5	-43
182	0xd9	-39
183	0xdf	-33
184	0xc6	-58
185	0x22	34
186	0x1e	30
187	0xd4	-44
188	0xaa	-86
189	0xf3	-13
190	0xea	-22
191	0xef	-17
192	0x4f	79
193	0x25	37
194	0x3d	61
195	0xd6	-42
196	0xba	-70
197	0xd1	-47
198	0x06	6
199	0xf8	-8
200	0xc7	-57
201	0xb0	-80
202	0x26	38
203	0x98	-104
204	0x64	100
205	0xeb	-21
206	0x83	-125
207	0x59	89
208	0x19	25
209	0x0b	11
210	0x43	67
211	0xeb	-21
212	0x2c	44
213	0x81	-127
214	0xbd	-67
215	0x01	1
216	0x2c	44
217	0x87	-121
218	0xd4	-44
219	0xfc	-4
220	0x5c	92
221	0x26	38
222	0x37	55
223	0xf0	-16
224	0xeb	-21
225	0xcc	-52
226	0x1c	28
227	0xd3	-45
228	0x9b	-101
229	0x1b	27
230	0x61	97
231	0x12	18
232	0x5e	94
233	0x14	20
234	0xbd	-67
235	0x17	23
236	0x87	-121
237	0xe5	-27
238	0x16	22
239	0xc4	-60
240	0xb9	-71
241	0xc7	-57
242	0x17	23
243	0x14	20
244	0xc1	-63
245	0x3b	59
246	0x09	9
247	0xc6	-58
248	0xcf	-49
249	0xf1	-15
250	0xd2	-46
251	0x98	-104
252	0xf9	-7
253	0xac	-84
254	0x2e	46
255	0x52	82

tfl.pseudo_qconst13 i1 [64, 1, 1, 384]
0	0xc7	-57
1	0x24	36
2	0x94	-108
3	0x81	-127
4	0x2b	43
5	0x9e	-98
6	0x48	72
7	0x1f	31
8	0x2f	47
9	0xff	-1
10	0x18	24
11	0x9c	-100
12	0xc5	-59
13	0x52	82
14	0x1a	26
15	0x49	73
16	0x93	-109
17	0xae	-82
18	0xbf	-65
19	0xec	-20
20	0x19	25
21	0x98	-104
22	0x39	57
23	0xa7	-89
24	0xd5	-43
25	0xe9	-23
26	0xaf	-81
27	0xe8	-24
28	0x3a	58
29	0x04	4
30	0xf5	-11
31	0xb3	-77
32	0x47	71
33	0xc0	-64
34	0xf0	-16
35	0xf2	-14
36	0xda	-38
37	0xd7	-41
38	0x9c	-100
39	0x95	-107
40	0xfb	-5
41	0x35	53
42	0xcc	-52
43	0x2f	47
44	0xbe	-66
45	0xfb	-5
46	0x01	1
47	0xd9	-39
48	0x28	40
49	0x51	81
50	0xdb	-37
51	0x22	34
52	0x3f	63
53	0xcf	-49
54	0xed	-19
55	0xd7	-41
56	0xf7	-9
57	0x9f	-97
58	0xc2	-62
59	0x19	25
60	0xf1	-15
61	0x1b	27
62	0x26	38
63	0x3d	61
64	0xb2	-78
65	0x09	9
66	0x3a	58
67	0xd4	-44
68	0xb2	-78
69	0x62	98
70	0x95	-107
71	0x8a	-118
72	0x99	-103
73	0x20	32
74	0x16	22
75	0x13	19
76	0xd7	-41
77	0xf0	-16
78	0xe3	-29
79	0x3c	60
80	0x3f	63
81	0xb0	-80
82	0x9a	-102
83	0x1e	30
84	0xc3	-61
85	0xe3	-29
86	0x9e	-98
87	0xe5	-27
88	0xb0	-80
89	0xa8	-88
90	0xd6	-42
91	0xba	-70
92	0x09	9
93	0xe5	-27
94	0xf3	-13
95	0xc9	-55
96	0x38	56
97	0xe1	-31
98	0xa7	-89
99	0xb5	-75
100	0x10	16
101	0xf4	-12
102	0xdf	-33
103	0xcc	-52
104	0xcc	-52
105	0xd1	-47
106	0x9c	-100
107	0xf1	-15
108	0x16	22
109	0x32	50
110	0xbd	-67
111	0xd3	-45
112	0xc8	-56
113	0x31	49
114	0x4e	78
115	0xda	-38
116	0x94	-108
117	0x35	53
118	0x31	49
119	0xaa	-86
120	0xf4	-12
121	0x58	88
122	0x11	17
123	0x28	40
124	0x0a	10
125	0x0e	14
126	0x9f	-97
127	0xba	-70
128	0xdc	-36
129	0xd8	-40
130	0x28	40
131	0x3f	63
132	0xea	-22
133	0x20	32
134	0x9f	-97
135	0xa2	-94
136	0xe8	-24
137	0x0e	14
138	0x4c	76
139	0xed	-19
140	0xa6	-90
141	0xeb	-21
142	0xef	-17
143	0x1a	26
144	0x44	68
145	0xf7	-9
146	0xa9	-87
147	0x04	4
148	0x20	32
149	0x5c	92
150	0x1c	28
151	0x39	57
152	0x42	66
153	0x1a	26
154	0x53	83
155	0xe5	-27
156	0xd3	-45
157	0x5a	90
158	0xe7	-25
159	0xbe	-66
160	0xce	-50
161	0xf3	-13
162	0x4a	74
163	0x47	71
164	0x2e	46
165	0xf3	-13
166	0xde	-34
167	0xab	-85
168	0x30	48
169	0x39	57
170	0xcd	-51
171	0x04	4
172	0x9a	-102
173	0xb5	-75
174	0x24	36
175	0xbb	-69
176	0xcb	-53
177	0x46	70
178	0x53	83
179	0x99	-103
180	0x4d	77
181	0xc5	-59
182	0xe0	-32
183	0xdb	-37
184	0xcc	-52
185	0xff	-1
186	0x26	38
187	0x08	8
188	0xf1	-15
189	0x51	81
190	0xc9	-55
191	0x9f	-97
192	0xe9	-23
193	0xde	-34
194	0x3f	63
195	0xe9	-23
196	0xf5	-11
197	0x0e	14
198	0xe7	-25
199	0x55	85
200	0xa2	-94
201	0xe4	-28
202	0xcb	-53
203	0xb7	-73
204	0x37	55
205	0x04	4
206	0x18	24
207	0x05	5
208	0x13	19
209	0x40	64
210	0x34	52
211	0xce	-50
212	0xbb	-69
213	0x29	41
214	0x28	40
215	0xac	-84
216	0xed	-19
217	0xc5	-59
218	0x5e	94
219	0xe3	-29
220	0x18	24
221	0xc2	-62
222	0xc6	-58
223	0xf6	-10
224	0x5c	92
225	0x41	65
226	0x31	49
227	0x9e	-98
228	0xd2	-46
229	0xc7	-57
230	0x3f	63
231	0xb0	-80
232	0xc9	-55
233	0xd3	-45
234	0x0f	15
235	0x35	53
236	0x22	34
237	0xb8	-72
238	0xe8	-24
239	0x0e	14
240	0x3d	61
241	0x14	20
242	0xcd	-51
243	0x40	64
244	0xd0	-48
245	0x0a	10
246	0x23	35
247	0xd4	-44
248	0x33	51
249	0xcf	-49
250	0x9f	-97
251	0xb5	-75
252	0x38	56
253	0x42	66
254	0x5f	95
255	0xb0	-80

tfl.pseudo_qconst15 i1 [192, 3, 3, 48]
0	0xac	-84
1	0x24	36
2	0x13	19
3	0x69	105
4	0xa9	-87
5	0xc3	-61
6	0x22	34
7	0x32	50
8	0xb9	-71
9	0x37	55
10	0xe3	-29
11	0xf8	-8
12	0x10	16
13	0xa3	-93
14	0x26	38
15	0x59	89
16	0x39	57
17	0x41	65
18	0x36	54
19	0x9e	-98
20	0xd8	-40
21	0xdc	-36
22	0x9c	-100
23	0x40	64
24	0xd6	-42
25	0x61	97
26	0x55	85
27	0xb1	-79
28	0xec	-20
29	0x03	3
30	0x0f	15
31	0xc2	-62
32	0x2d	45
33	0x52	82
34	0x44	68
35	0x44	68
36	0xf7	-9
37	0x6a	106
38	0x19	25
39	0x23	35
40	0xda	-38
41	0xb1	-79
42	0x0e	14
43	0xd0	-48
44	0x03	3
45	0xfb	-5
46	0xc4	-60
47	0xc1	-63
48	0x09	9
49	0x66	102
50	0xcd	-51
51	0x37	55
52	0x35	53
53	0xc7	-57
54	0x4d	77
55	0x35	53
56	0x63	99
57	0xec	-20
58	0xfd	-3
59	0xc1	-63
60	0x45	69
61	0xa9	-87
62	0xdf	-33
63	0x57	87
64	0x28	40
65	0xf1	-15
66	0xdb	-37
67	0xa5	-91
68	0x5f	95
69	0x27	39
70	0xb9	-71
71	0x66	102
72	0x2d	45
73	0x45	69
74	0x09	9
75	0xf9	-7
76	0xa2	-94
77	0x34	52
78	0x1b	27
79	0xfd	-3
80	0x52	82
81	0xfe	-2
82	0xea	-22
83	0x04	4
84	0x59	89
85	0xae	-82
86	0x1e	30
87	0x4f	79
88	0xe0	-32
89	0x0a	10
90	0xe8	-24
91	0xb7	-73
92	0x62	98
93	0xdd	-35
94	0x50	80
95	0xbe	-66
96	0x30	48
97	0x59	89
98	0xea	-22
99	0xf9	-7
100	0x5f	95
101	0x60	96
102	0x1d	29
103	0xe4	-28
104	0x99	-103
105	0x2c	44
106	0x3c	60
107	0xe7	-25
108	0x24	36
109	0xe2	-30
110	0x2c	44
111	0x11	17
112	0x95	-107
113	0x33	51
114	0xc3	-61
115	0x57	87
116	0xd2	-46
117	0xec	-20
118	0xd7	-41
119	0xc5	-59
120	0xe6	-26
121	0x5b	91
122	0x38	56
123	0x39	57
124	0x40	64
125	0xd0	-48
126	0x31	49
127	0xd0	-48
128	0x30	48
129	0x03	3
130	0x05	5
131	0xb1	-79
132	0xf6	-10
133	0x59	89
134	0xba	-70
135	0x67	103
136	0x19	25
137	0x61	97
138	0x0b	11
139	0xc4	-60
140	0x9f	-97
141	0x5a	90
142	0xb0	-80
143	0xf4	-12
144	0xaf	-81
145	0x21	33
146	0x06	6
147	0xcc	-52
148	0xda	-38
149	0x1d	29
150	0x3d	61
151	0x60	96
152	0xed	-19
153	0xb9	-71
154	0xb1	-79
155	0xf3	-13
156	0xe9	-23
157	0xcf	-49
158	0xba	-70
159	0x9b	-101
160	0xb6	-74
161	0x22	34
162	0xc6	-58
163	0xc3	-61
164	0x5c	92
165	0x53	83
166	0xcc	-52
167	0x3e	62
168	0xc4	-60
169	0x68	104
170	0xb9	-71
171	0x46	70
172	0xea	-22
173	0xba	-70
174	0x2b	43
175	0x22	34
176	0x32	50
177	0x91	-111
178	0x40	64
179	0x33	51
180	0x40	64
181	0x99	-103
182	0x11	17
183	0xcf	-49
184	0x22	34
185	0x33	51
186	0x95	-107
187	0xef	-17
188	0x9b	-101
189	0xa2	-94
190	0x51	81
191	0x1f	31
192	0x37	55
193	0xe3	-29
194	0x52	82
195	0x45	69
196	0xda	-38
197	0xdf	-33
198	0x52	82
199	0x1f	31
200	0x31	49
201	0x40	64
202	0xc5	-59
203	0x26	38
204	0x30	48
205	0xa7	-89
206	0x51	81
207	0xf4	-12
208	0x35	53
209	0x03	3
210	0x9b	-101
211	0xa9	-87
212	0xb6	-74
213	0xae	-82
214	0xbd	-67
215	0x94	-108
216	0xc4	-60
217	0xc1	-63
218	0xd8	-40
219	0xb2	-78
220	0x4f	79
221	0x9a	-102
222	0xb0	-80
223	0xba	-70
224	0x62	98
225	0xe4	-28
226	0x07	7
227	0x2a	42
228	0x24	36
229	0x49	73
230	0x98	-104
231	0x03	3
232	0xf4	-12
233	0x19	25
234	0xcc	-52
235	0x9d	-99
236	0xc0	-64
237	0xf3	-13
238	0x81	-127
239	0x12	18
240	0xc1	-63
241	0x6a	106
242	0x3a	58
243	0x41	65
244	0x97	-105
245	0x21	33
246	0x53	83
247	0xcc	-52
248	0xf1	-15
249	0xc9	-55
250	0xc5	-59
251	0x16	22
252	0xef	-17
253	0xd6	-42
254	0x94	-108
255	0xf1	-15

tfl.pseudo_qconst17 i1 [192, 1, 1, 48]
0	0xbb	-69
1	0x12	18
2	0xd4	-44
3	0xd5	-43
4	0x1b	27
5	0xdb	-37
6	0xec	-20
7	0xce	-50
8	0x2b	43
9	0xfc	-4
10	0xee	-18
11	0xd3	-45
12	0xd1	-47
13	0xc7	-57
14	0x10	16
15	0x6c	108
16	0xe8	-24
17	0x27	39
18	0x32	50
19	0xc3	-61
20	0x0f	15
21	0x12	18
22	0xdc	-36
23	0xf9	-7
24	0xd4	-44
25	0x97	-105
26	0xd9	-39
27	0x29	41
28	0xe8	-24
29	0xb8	-72
30	0x23	35
31	0xbb	-69
32	0xdd	-35
33	0xb1	-79
34	0xcf	-49
35	0xda	-38
36	0xf3	-13
37	0xd6	-42
38	0x81	-127
39	0xd6	-42
40	0xdf	-33
41	0x3c	60
42	0xfc	-4
43	0xb3	-77
44	0xf3	-13
45	0x3c	60
46	0xac	-84
47	0x00	0
48	0xb2	-78
49	0xb4	-76
50	0xe9	-23
51	0xb4	-76
52	0x41	65
53	0x99	-103
54	0x41	65
55	0x0c	12
56	0x17	23
57	0x24	36
58	0x04	4
59	0xf2	-14
60	0xe5	-27
61	0xd0	-48
62	0xf9	-7
63	0x00	0
64	0x9c	-100
65	0xf9	-7
66	0xd9	-39
67	0xe2	-30
68	0xc7	-57
69	0x12	18
70	0xb8	-72
71	0x4b	75
72	0xd8	-40
73	0xdd	-35
74	0x02	2
75	0x3e	62
76	0xe8	-24
77	0xcf	-49
78	0x3d	61
79	0xe4	-28
80	0xa3	-93
81	0x83	-125
82	0x81	-127
83	0x19	25
84	0xae	-82
85	0x34	52
86	0xf2	-14
87	0xe7	-25
88	0xfc	-4
89	0xa4	-92
90	0x23	35
91	0xc6	-58
92	0xe8	-24
93	0xfa	-6
94	0xe9	-23
95	0x37	55
96	0x57	87
97	0xfd	-3
98	0x6d	109
99	0x65	101
100	0x81	-127
101	0xfe	-2
102	0xeb	-21
103	0x3b	59
104	0x00	0
105	0x0a	10
106	0x2f	47
107	0x1d	29
108	0xde	-34
109	0xbf	-65
110	0x55	85
111	0x2b	43
112	0x42	66
113	0x07	7
114	0x2d	45
115	0xc5	-59
116	0x1e	30
117	0xfa	-6
118	0xc8	-56
119	0x51	81
120	0x20	32
121	0x64	100
122	0xfc	-4
123	0x7a	122
124	0x42	66
125	0xe1	-31
126	0x59	89
127	0x3b	59
128	0xe6	-26
129	0xe5	-27
130	0xf9	-7
131	0x01	1
132	0xf2	-14
133	0x9b	-101
134	0x51	81
135	0x4c	76
136	0x26	38
137	0x37	55
138	0xe2	-30
139	0x11	17
140	0xc0	-64
141	0xe0	-32
142	0x12	18
143	0x1f	31
144	0xe3	-29
145	0x36	54
146	0x17	23
147	0xf8	-8
148	0x2f	47
149	0xc6	-58
150	0xf4	-12
151	0x3e	62
152	0xcb	-53
153	0xee	-18
154	0x48	72
155	0xfc	-4
156	0xfa	-6
157	0xe7	-25
158	0x12	18
159	0x81	-127
160	0x02	2
161	0x04	4
162	0x41	65
163	0xc4	-60
164	0x0e	14
165	0xe7	-25
166	0xdc	-36
167	0x9f	-97
168	0x13	19
169	0xf8	-8
170	0xdf	-33
171	0xea	-22
172	0xb9	-71
173	0xd0	-48
174	0xc0	-64
175	0x2a	42
176	0x04	4
177	0xfb	-5
178	0x21	33
179	0xeb	-21
180	0xb2	-78
181	0xf0	-16
182	0x19	25
183	0x0e	14
184	0x18	24
185	0xfa	-6
186	0xd4	-44
187	0xd7	-41
188	0xe9	-23
189	0xfd	-3
190	0x13	19
191	0x50	80
192	0xef	-17
193	0xbe	-66
194	0xab	-85
195	0x88	-120
196	0xeb	-21
197	0xe6	-26
198	0x6b	107
199	0xa0	-96
200	0xd2	-46
201	0xd6	-42
202	0xae	-82
203	0xa4	-92
204	0xac	-84
205	0x29	41
206	0x10	16
207	0xc8	-56
208	0xb6	-74
209	0xdc	-36
210	0xde	-34
211	0x92	-110
212	0xbc	-68
213	0xe3	-29
214	0x42	66
215	0xf9	-7
216	0xae	-82
217	0x1e	30
218	0x87	-121
219	0xcf	-49
220	0x28	40
221	0xb4	-76
222	0x08	8
223	0xc1	-63
224	0x4c	76
225	0x22	34
226	0xac	-84
227	0x9b	-101
228	0xb8	-72
229	0x14	20
230	0x4c	76
231	0xab	-85
232	0xa5	-91
233	0x81	-127
234	0x12	18
235	0x97	-105
236	0xdd	-35
237	0x65	101
238	0xc5	-59
239	0xf9	-7
240	0xcd	-51
241	0xf3	-13
242	0x36	54
243	0xc0	-64
244	0xfc	-4
245	0xc4	-60
246	0xaf	-81
247	0x2c	44
248	0x1c	28
249	0x0d	13
250	0xc5	-59
251	0xc0	-64
252	0x28	40
253	0xca	-54
254	0x11	17
255	0xee	-18

tfl.pseudo_qconst19 i1 [48, 1, 1, 384]
0	0x20	32
1	0xf1	-15
2	0x27	39
3	0x1b	27
4	0xea	-22
5	0xef	-17
6	0xef	-17
7	0xff	-1
8	0x18	24
9	0xd1	-47
10	0xef	-17
11	0xe1	-31
12	0xf0	-16
13	0x27	39
14	0x04	4
15	0x06	6
16	0x3c	60
17	0xe7	-25
18	0x2f	47
19	0xc9	-55
20	0x0d	13
21	0x17	23
22	0xd7	-41
23	0xe9	-23
24	0x00	0
25	0xa4	-92
26	0xf4	-12
27	0xd5	-43
28	0xe5	-27
29	0xfc	-4
30	0xd9	-39
31	0xec	-20
32	0xfd	-3
33	0x08	8
34	0xf1	-15
35	0x0d	13
36	0x0f	15
37	0xba	-70
38	0xf1	-15
39	0x26	38
40	0x0f	15
41	0xf3	-13
42	0x11	17
43	0x18	24
44	0xe2	-30
45	0xc7	-57
46	0xdf	-33
47	0x18	24
48	0x05	5
49	0xd0	-48
50	0xfe	-2
51	0x30	48
52	0xd9	-39
53	0x00	0
54	0xf9	-7
55	0xf3	-13
56	0xf1	-15
57	0xde	-34
58	0xda	-38
59	0xe3	-29
60	0xff	-1
61	0x11	17
62	0xdd	-35
63	0xef	-17
64	0x36	54
65	0x35	53
66	0x0b	11
67	0xf0	-16
68	0x25	37
69	0x0a	10
70	0xdf	-33
71	0x05	5
72	0xf4	-12
73	0x19	25
74	0x1c	28
75	0x07	7
76	0xd5	-43
77	0xfc	-4
78	0x0f	15
79	0xfd	-3
80	0x21	33
81	0x0d	13
82	0xff	-1
83	0xfb	-5
84	0xed	-19
85	0xea	-22
86	0x11	17
87	0x01	1
88	0x2c	44
89	0x07	7
90	0xf9	-7
91	0x54	84
92	0xee	-18
93	0xe1	-31
94	0xe3	-29
95	0x02	2
96	0xf6	-10
97	0x17	23
98	0xd5	-43
99	0xd0	-48
100	0x16	22
101	0x1c	28
102	0xda	-38
103	0x1c	28
104	0x35	53
105	0xfa	-6
106	0xf6	-10
107	0xe2	-30
108	0xbb	-69
109	0xc8	-56
110	0xcc	-52
111	0x0b	11
112	0x2e	46
113	0xbf	-65
114	0xfc	-4
115	0x1c	28
116	0x1f	31
117	0x26	38
118	0x13	19
119	0xf7	-9
120	0xd7	-41
121	0xeb	-21
122	0xee	-18
123	0xf6	-10
124	0xea	-22
125	0x01	1
126	0xea	-22
127	0xc2	-62
128	0xc4	-60
129	0xe8	-24
130	0xe5	-27
131	0xe1	-31
132	0xd5	-43
133	0x0c	12
134	0x1f	31
135	0xe1	-31
136	0xfc	-4
137	0x16	22
138	0xcf	-49
139	0xd9	-39
140	0xe0	-32
141	0x28	40
142	0xcf	-49
143	0x17	23
144	0xfb	-5
145	0x00	0
146	0x0c	12
147	0xf5	-11
148	0xcd	-51
149	0xed	-19
150	0xf6	-10
151	0x34	52
152	0x1e	30
153	0x00	0
154	0xd0	-48
155	0x0c	12
156	0xe5	-27
157	0x20	32
158	0xde	-34
159	0x07	7
160	0x1b	27
161	0xe5	-27
162	0x0e	14
163	0x19	25
164	0xe8	-24
165	0x19	25
166	0x28	40
167	0x81	-127
168	0x20	32
169	0x17	23
170	0xd9	-39
171	0xe5	-27
172	0xed	-19
173	0x00	0
174	0xe9	-23
175	0xff	-1
176	0x16	22
177	0x0f	15
178	0x12	18
179	0x20	32
180	0xdb	-37
181	0x15	21
182	0x35	53
183	0x17	23
184	0xfb	-5
185	0xe6	-26
186	0xf3	-13
187	0xde	-34
188	0xdd	-35
189	0xfb	-5
190	0xe0	-32
191	0xf2	-14
192	0x19	25
193	0x14	20
194	0xdf	-33
195	0xf6	-10
196	0xdf	-33
197	0xf3	-13
198	0x0e	14
199	0xf5	-11
200	0xdf	-33
201	0xd3	-45
202	0xf3	-13
203	0x0a	10
204	0xff	-1
205	0x24	36
206	0xf1	-15
207	0x14	20
208	0x00	0
209	0x00	0
210	0x04	4
211	0x21	33
212	0xee	-18
213	0xd6	-42
214	0xf4	-12
215	0xf8	-8
216	0xdc	-36
217	0xe2	-30
218	0xe1	-31
219	0xe6	-26
220	0x0d	13
221	0x06	6
222	0xde	-34
223	0xe2	-30
224	0xea	-22
225	0xcc	-52
226	0xec	-20
227	0x0d	13
228	0x21	33
229	0xe3	-29
230	0x1d	29
231	0x12	18
232	0xfc	-4
233	0xfe	-2
234	0xf8	-8
235	0xd0	-48
236	0x0d	13
237	0x22	34
238	0xf9	-7
239	0x1c	28
240	0x04	4
241	0x10	16
242	0xf6	-10
243	0x0b	11
244	0xfc	-4
245	0xe3	-29
246	0xe5	-27
247	0x05	5
248	0x23	35
249	0xe0	-32
250	0x00	0
251	0x17	23
252	0x0b	11
253	0x04	4
254	0x24	36
255	0xf1	-15

tfl.pseudo_qconst21 i1 [192, 3, 3, 48]
0	0x27	39
1	0x22	34
2	0x07	7
3	0xcf	-49
4	0x00	0
5	0x2f	47
6	0x1a	26
7	0x06	6
8	0xfb	-5
9	0xfe	-2
10	0xe1	-31
11	0xf9	-7
12	0x05	5
13	0x31	49
14	0xe9	-23
15	0xff	-1
16	0x02	2
17	0x17	23
18	0x2a	42
19	0x18	24
20	0xf5	-11
21	0xe0	-32
22	0x00	0
23	0xef	-17
24	0xfc	-4
25	0xda	-38
26	0x1c	28
27	0x03	3
28	0xcf	-49
29	0x2e	46
30	0x24	36
31	0x1b	27
32	0x01	1
33	0x24	36
34	0x15	21
35	0xd8	-40
36	0xd3	-45
37	0x1c	28
38	0x2d	45
39	0x02	2
40	0x29	41
41	0xe2	-30
42	0xec	-20
43	0x02	2
44	0x21	33
45	0xee	-18
46	0xd5	-43
47	0xd2	-46
48	0x07	7
49	0xf6	-10
50	0x09	9
51	0xeb	-21
52	0x27	39
53	0xe3	-29
54	0x0b	11
55	0xf3	-13
56	0x0e	14
57	0xd7	-41
58	0xf1	-15
59	0xfd	-3
60	0xd8	-40
61	0xdf	-33
62	0x2e	46
63	0x2f	47
64	0x04	4
65	0xd7	-41
66	0x1a	26
67	0x08	8
68	0xe3	-29
69	0xf9	-7
70	0x2b	43
71	0xdf	-33
72	0xe5	-27
73	0x31	49
74	0x25	37
75	0xe3	-29
76	0xeb	-21
77	0xd8	-40
78	0xd6	-42
79	0xd2	-46
80	0xd7	-41
81	0xfa	-6
82	0x30	48
83	0x0e	14
84	0xde	-34
85	0xd2	-46
86	0x31	49
87	0x04	4
88	0x15	21
89	0x1e	30
90	0xd9	-39
91	0xed	-19
92	0x19	25
93	0x09	9
94	0xce	-50
95	0x00	0
96	0xe5	-27
97	0xdb	-37
98	0x18	24
99	0xec	-20
100	0xd8	-40
101	0x28	40
102	0xe5	-27
103	0x04	4
104	0x27	39
105	0xe1	-31
106	0xeb	-21
107	0x26	38
108	0xf9	-7
109	0x27	39
110	0xd8	-40
111	0xd6	-42
112	0x0d	13
113	0x20	32
114	0x15	21
115	0xfc	-4
116	0x25	37
117	0x25	37
118	0xdb	-37
119	0xf6	-10
120	0x26	38
121	0x0c	12
122	0x1e	30
123	0x08	8
124	0xfd	-3
125	0x27	39
126	0x12	18
127	0xff	-1
128	0xde	-34
129	0xf3	-13
130	0xff	-1
131	0xf9	-7
132	0xd6	-42
133	0x20	32
134	0xdc	-36
135	0xf8	-8
136	0xef	-17
137	0x09	9
138	0x31	49
139	0xed	-19
140	0xfc	-4
141	0xe0	-32
142	0x2d	45
143	0xe2	-30
144	0x0a	10
145	0xd7	-41
146	0x30	48
147	0x0b	11
148	0x2e	46
149	0x2d	45
150	0xe6	-26
151	0x14	20
152	0x32	50
153	0xf7	-9
154	0xd9	-39
155	0x1e	30
156	0xe1	-31
157	0x15	21
158	0x06	6
159	0xef	-17
160	0xf3	-13
161	0x2a	42
162	0x0e	14
163	0x31	49
164	0x26	38
165	0xf9	-7
166	0xf9	-7
167	0x08	8
168	0xde	-34
169	0xe7	-25
170	0x31	49
171	0x24	36
172	0x2f	47
173	0x0b	11
174	0xd7	-41
175	0x0c	12
176	0x29	41
177	0xe5	-27
178	0x0a	10
179	0xf2	-14
180	0x1e	30
181	0x1a	26
182	0x07	7
183	0x13	19
184	0xe5	-27
185	0xe4	-28
186	0xff	-1
187	0xfe	-2
188	0xe5	-27
189	0xe4	-28
190	0x06	6
191	0x0d	13
192	0x64	100
193	0xe0	-32
194	0xd9	-39
195	0x1d	29
196	0xfd	-3
197	0xbc	-68
198	0x0e	14
199	0x08	8
200	0xef	-17
201	0xd3	-45
202	0xdd	-35
203	0xf4	-12
204	0xc9	-55
205	0x15	21
206	0x4b	75
207	0x12	18
208	0xec	-20
209	0x15	21
210	0x0e	14
211	0x3a	58
212	0xc8	-56
213	0xde	-34
214	0x00	0
215	0x05	5
216	0x05	5
217	0x2e	46
218	0xd9	-39
219	0xcd	-51
220	0xd1	-47
221	0x08	8
222	0xdc	-36
223	0xce	-50
224	0x9e	-98
225	0xf8	-8
226	0xea	-22
227	0xdf	-33
228	0xec	-20
229	0x81	-127
230	0xee	-18
231	0x35	53
232	0xbe	-66
233	0x0c	12
234	0x3d	61
235	0xfd	-3
236	0x26	38
237	0x16	22
238	0x31	49
239	0xfb	-5
240	0xdd	-35
241	0x02	2
242	0x15	21
243	0xcf	-49
244	0x14	20
245	0x1b	27
246	0xd2	-46
247	0xd1	-47
248	0xd6	-42
249	0xf3	-13
250	0x30	48
251	0x04	4
252	0xe8	-24
253	0xdc	-36
254	0x1f	31
255	0xfd	-3

tfl.pseudo_qconst23 i1 [192, 1, 1, 48]
0	0x59	89
1	0xa2	-94
2	0x5c	92
3	0x4a	74
4	0xab	-85
5	0x38	56
6	0x48	72
7	0xf7	-9
8	0x0d	13
9	0x0c	12
10	0x39	57
11	0x87	-121
12	0x56	86
13	0xbd	-67
14	0xc7	-57
15	0x67	103
16	0xb1	-79
17	0x0a	10
18	0x90	-112
19	0xfb	-5
20	0x53	83
21	0xf6	-10
22	0x4c	76
23	0xe9	-23
24	0x13	19
25	0x84	-124
26	0x59	89
27	0xd6	-42
28	0xa5	-91
29	0x3f	63
30	0xf6	-10
31	0x10	16
32	0xd9	-39
33	0x02	2
34	0x19	25
35	0x81	-127
36	0xc0	-64
37	0xb4	-76
38	0x98	-104
39	0x33	51
40	0x1d	29
41	0x11	17
42	0xaa	-86
43	0xb3	-77
44	0x7f	127
45	0xfc	-4
46	0x26	38
47	0x6f	111
48	0xd8	-40
49	0x34	52
50	0xe9	-23
51	0x06	6
52	0x0d	13
53	0x81	-127
54	0xfe	-2
55	0xd7	-41
56	0x44	68
57	0x0c	12
58	0xda	-38
59	0xa6	-90
60	0x5f	95
61	0x8d	-115
62	0x2a	42
63	0xff	-1
64	0x92	-110
65	0x9e	-98
66	0x9a	-102
67	0x0b	11
68	0xa0	-96
69	0x1e	30
70	0xa6	-90
71	0xeb	-21
72	0x0f	15
73	0x9d	-99
74	0xc1	-63
75	0x24	36
76	0x9d	-99
77	0x03	3
78	0x0a	10
79	0xe7	-25
80	0xd7	-41
81	0xbb	-69
82	0xb2	-78
83	0x56	86
84	0x50	80
85	0x10	16
86	0x1e	30
87	0xb8	-72
88	0x3a	58
89	0xb7	-73
90	0x09	9
91	0xd5	-43
92	0x97	-105
93	0xc8	-56
94	0xcb	-53
95	0xf5	-11
96	0xff	-1
97	0x9b	-101
98	0xef	-17
99	0x1a	26
100	0x28	40
101	0x99	-103
102	0xd6	-42
103	0xcc	-52
104	0x1d	29
105	0xea	-22
106	0x92	-110
107	0x7f	127
108	0x3f	63
109	0x21	33
110	0xd0	-48
111	0xd7	-41
112	0xd9	-39
113	0x41	65
114	0xd4	-44
115	0xd2	-46
116	0xf9	-7
117	0x9c	-100
118	0xf0	-16
119	0xb2	-78
120	0x04	4
121	0xc6	-58
122	0xb6	-74
123	0x75	117
124	0xb4	-76
125	0xbb	-69
126	0x43	67
127	0x60	96
128	0xa8	-88
129	0xfd	-3
130	0x2e	46
131	0x40	64
132	0x3d	61
133	0x23	35
134	0x27	39
135	0xf6	-10
136	0xca	-54
137	0x43	67
138	0xe3	-29
139	0xd1	-47
140	0x05	5
141	0x60	96
142	0xcf	-49
143	0x58	88
144	0x32	50
145	0x81	-127
146	0xf3	-13
147	0x32	50
148	0xe2	-30
149	0x21	33
150	0xc1	-63
151	0x25	37
152	0xc6	-58
153	0xa6	-90
154	0x02	2
155	0x14	20
156	0x81	-127
157	0xb1	-79
158	0x29	41
159	0x2f	47
160	0xf3	-13
161	0xa5	-91
162	0x24	36
163	0x5f	95
164	0xd0	-48
165	0x43	67
166	0xb5	-75
167	0x27	39
168	0x96	-106
169	0xf0	-16
170	0x03	3
171	0x21	33
172	0xe3	-29
173	0xd9	-39
174	0xa5	-91
175	0xa7	-89
176	0xb9	-71
177	0xcb	-53
178	0x53	83
179	0xd5	-43
180	0xf7	-9
181	0xb9	-71
182	0xb9	-71
183	0x2d	45
184	0x4b	75
185	0xe6	-26
186	0x4b	75
187	0xf5	-11
188	0xd4	-44
189	0xce	-50
190	0x57	87
191	0x70	112
192	0x1e	30
193	0xeb	-21
194	0xd0	-48
195	0xed	-19
196	0xba	-70
197	0xb1	-79
198	0x0e	14
199	0xd3	-45
200	0x35	53
201	0x18	24
202	0xc5	-59
203	0xcd	-51
204	0xc7	-57
205	0x39	57
206	0x3c	60
207	0x78	120
208	0x04	4
209	0xf8	-8
210	0x11	17
211	0x35	53
212	0x2d	45
213	0xb8	-72
214	0xc6	-58
215	0x19	25
216	0x19	25
217	0x81	-127
218	0xce	-50
219	0xc0	-64
220	0x1b	27
221	0x39	57
222	0x3d	61
223	0xfe	-2
224	0x23	35
225	0x55	85
226	0x0b	11
227	0x3f	63
228	0x45	69
229	0x33	51
230	0x34	52
231	0x39	57
232	0xf4	-12
233	0x05	5
234	0xc3	-61
235	0xf9	-7
236	0x9b	-101
237	0xd8	-40
238	0x2a	42
239	0x6d	109
240	0xbb	-69
241	0x6f	111
242	0x30	48
243	0x89	-119
244	0xc1	-63
245	0x21	33
246	0x44	68
247	0xda	-38
248	0x0b	11
249	0xfb	-5
250	0xc0	-64
251	0x16	22
252	0x63	99
253	0x1a	26
254	0xf2	-14
255	0x77	119

tfl.pseudo_qconst25 i1 [48, 1, 1, 256]
0	0xa3	-93
1	0x43	67
2	0x22	34
3	0x8b	-117
4	0xc1	-63
5	0x1c	28
6	0x3e	62
7	0xab	-85
8	0xab	-85
9	0x2f	47
10	0x22	34
11	0xc5	-59
12	0x9a	-102
13	0x50	80
14	0xbe	-66
15	0x0b	11
16	0x05	5
17	0x9b	-101
18	0xda	-38
19	0xd6	-42
20	0x3e	62
21	0x1f	31
22	0x17	23
23	0xba	-70
24	0xf8	-8
25	0x21	33
26	0xdf	-33
27	0x95	-107
28	0xad	-83
29	0x22	34
30	0x38	56
31	0xc4	-60
32	0xcf	-49
33	0xee	-18
34	0xa7	-89
35	0xea	-22
36	0xad	-83
37	0xc8	-56
38	0x24	36
39	0xa9	-87
40	0xf5	-11
41	0xf1	-15
42	0x12	18
43	0x93	-109
44	0x8c	-116
45	0x9e	-98
46	0xf8	-8
47	0xa9	-87
48	0x96	-106
49	0xad	-83
50	0xcb	-53
51	0x3f	63
52	0xeb	-21
53	0x2b	43
54	0x20	32
55	0x49	73
56	0xec	-20
57	0xfe	-2
58	0xee	-18
59	0xeb	-21
60	0xad	-83
61	0x50	80
62	0xcc	-52
63	0xcf	-49
64	0x1b	27
65	0x14	20
66	0x2f	47
67	0xec	-20
68	0x3e	62
69	0x0d	13
70	0x8f	-113
71	0xde	-34
72	0xde	-34
73	0xd7	-41
74	0x05	5
75	0xc9	-55
76	0x96	-106
77	0xf3	-13
78	0x11	17
79	0xc8	-56
80	0xa9	-87
81	0xef	-17
82	0x17	23
83	0x8f	-113
84	0x38	56
85	0xc5	-59
86	0xd5	-43
87	0x91	-111
88	0x0c	12
89	0x22	34
90	0x4d	77
91	0xcc	-52
92	0x99	-103
93	0x2d	45
94	0xdd	-35
95	0x96	-106
96	0x0e	14
97	0x23	35
98	0xde	-34
99	0xce	-50
100	0x48	72
101	0x29	41
102	0xc2	-62
103	0x00	0
104	0x04	4
105	0x9d	-99
106	0xd7	-41
107	0x02	2
108	0xd3	-45
109	0x1f	31
110	0xc3	-61
111	0x43	67
112	0xaf	-81
113	0xbd	-67
114	0x2d	45
115	0x15	21
116	0xa1	-95
117	0x43	67
118	0xb0	-80
119	0xb8	-72
120	0xce	-50
121	0xf3	-13
122	0xed	-19
123	0xd0	-48
124	0xd7	-41
125	0xb7	-73
126	0xe3	-29
127	0x45	69
128	0xf2	-14
129	0x38	56
130	0xf2	-14
131	0x1a	26
132	0xd3	-45
133	0xa2	-94
134	0xd5	-43
135	0x3c	60
136	0x13	19
137	0xb9	-71
138	0xb1	-79
139	0x32	50
140	0xf6	-10
141	0xab	-85
142	0xdf	-33
143	0xc0	-64
144	0xa1	-95
145	0x9b	-101
146	0x2b	43
147	0x08	8
148	0x01	1
149	0x3c	60
150	0x04	4
151	0x81	-127
152	0xf4	-12
153	0x4a	74
154	0x01	1
155	0xf1	-15
156	0xae	-82
157	0xbc	-68
158	0xd0	-48
159	0x53	83
160	0x10	16
161	0x16	22
162	0x5f	95
163	0x98	-104
164	0x40	64
165	0x2f	47
166	0x34	52
167	0x08	8
168	0xfb	-5
169	0x61	97
170	0xf0	-16
171	0xc8	-56
172	0xd1	-47
173	0x45	69
174	0xa4	-92
175	0x04	4
176	0xd0	-48
177	0xa7	-89
178	0x3d	61
179	0x33	51
180	0xcd	-51
181	0xe9	-23
182	0xe2	-30
183	0xda	-38
184	0xf0	-16
185	0x99	-103
186	0xb3	-77
187	0xde	-34
188	0x1c	28
189	0x86	-122
190	0xeb	-21
191	0x03	3
192	0x34	52
193	0xe1	-31
194	0xb6	-74
195	0xcc	-52
196	0x4e	78
197	0x30	48
198	0xda	-38
199	0xb2	-78
200	0x23	35
201	0xa7	-89
202	0x8d	-115
203	0xf4	-12
204	0xc9	-55
205	0xc2	-62
206	0x24	36
207	0xe5	-27
208	0xa9	-87
209	0x19	25
210	0xee	-18
211	0x28	40
212	0xd2	-46
213	0x65	101
214	0xbe	-66
215	0x2f	47
216	0xea	-22
217	0x0e	14
218	0x09	9
219	0xc4	-60
220	0x31	49
221	0x31	49
222	0x0c	12
223	0xf8	-8
224	0x14	20
225	0xa4	-92
226	0xab	-85
227	0xfa	-6
228	0x15	21
229	0x40	64
230	0xac	-84
231	0x5d	93
232	0xda	-38
233	0x29	41
234	0x2b	43
235	0xf8	-8
236	0xf8	-8
237	0x01	1
238	0xdc	-36
239	0x37	55
240	0xd0	-48
241	0x2c	44
242	0x26	38
243	0x20	32
244	0xc0	-64
245	0x4c	76
246	0x6a	106
247	0xe0	-32
248	0x18	24
249	0xc1	-63
250	0xd7	-41
251	0xfb	-5
252	0x28	40
253	0x89	-119
254	0x0e	14
255	0xc1	-63

tfl.pseudo_qconst27 i1 [128, 3, 3, 32]
0	0x1c	28
1	0x07	7
2	0x1d	29
3	0x98	-104
4	0x0a	10
5	0xe1	-31
6	0x04	4
7	0x2f	47
8	0xed	-19
9	0xd7	-41
10	0xdf	-33
11	0xac	-84
12	0x2b	43
13	0xdf	-33
14	0xe8	-24
15	0xfb	-5
16	0xb9	-71
17	0xa3	-93
18	0x0c	12
19	0x25	37
20	0xb1	-79
21	0xe2	-30
22	0x31	49
23	0xd2	-46
24	0xe0	-32
25	0xf3	-13
26	0xa4	-92
27	0xd4	-44
28	0x11	17
29	0xd6	-42
30	0xfc	-4
31	0x81	-127
32	0x09	9
33	0xc3	-61
34	0x1d	29
35	0x12	18
36	0xee	-18
37	0x1d	29
38	0x91	-111
39	0xd6	-42
40	0x27	39
41	0xb8	-72
42	0xd4	-44
43	0xbf	-65
44	0x0b	11
45	0x06	6
46	0x17	23
47	0x26	38
48	0xba	-70
49	0x06	6
50	0x00	0
51	0xc8	-56
52	0xf6	-10
53	0xda	-38
54	0xf2	-14
55	0xd8	-40
56	0xd8	-40
57	0xf2	-14
58	0x85	-123
59	0xde	-34
60	0x09	9
61	0x01	1
62	0x1c	28
63	0xb8	-72
64	0xec	-20
65	0xbd	-67
66	0xec	-20
67	0xe9	-23
68	0xb1	-79
69	0xf9	-7
70	0xb0	-80
71	0x0a	10
72	0x04	4
73	0xa9	-87
74	0xfa	-6
75	0xbe	-66
76	0xe9	-23
77	0xe4	-28
78	0x1e	30
79	0xce	-50
80	0xad	-83
81	0xd0	-48
82	0xeb	-21
83	0x01	1
84	0xe2	-30
85	0xb7	-73
86	0x15	21
87	0xdb	-37
88	0xb1	-79
89	0x0e	14
90	0xda	-38
91	0xec	-20
92	0xe7	-25
93	0xdb	-37
94	0xfc	-4
95	0xb3	-77
96	0x00	0
97	0xe5	-27
98	0x06	6
99	0x0d	13
100	0xae	-82
101	0x27	39
102	0x02	2
103	0xbc	-68
104	0x22	34
105	0x2b	43
106	0x0d	13
107	0xce	-50
108	0xee	-18
109	0x17	23
110	0xe9	-23
111	0xf7	-9
112	0x35	53
113	0xf8	-8
114	0xc8	-56
115	0x37	55
116	0xfa	-6
117	0x15	21
118	0xf6	-10
119	0xdc	-36
120	0x2a	42
121	0x16	22
122	0x08	8
123	0x07	7
124	0xec	-20
125	0xbb	-69
126	0x3e	62
127	0x6b	107
128	0xe2	-30
129	0xf3	-13
130	0xfc	-4
131	0xe9	-23
132	0xd9	-39
133	0x20	32
134	0x05	5
135	0xd1	-47
136	0x0b	11
137	0xd5	-43
138	0xf7	-9
139	0xfb	-5
140	0xe5	-27
141	0xe3	-29
142	0x30	48
143	0x18	24
144	0xb8	-72
145	0xff	-1
146	0xce	-50
147	0xea	-22
148	0xf3	-13
149	0x18	24
150	0x19	25
151	0xf2	-14
152	0xf0	-16
153	0x0a	10
154	0xb9	-71
155	0xf8	-8
156	0xfc	-4
157	0xca	-54
158	0xee	-18
159	0xf6	-10
160	0x06	6
161	0xe8	-24
162	0xe2	-30
163	0xee	-18
164	0x10	16
165	0xc3	-61
166	0xad	-83
167	0x01	1
168	0xe6	-26
169	0xf1	-15
170	0xcd	-51
171	0x12	18
172	0xe3	-29
173	0x1c	28
174	0xec	-20
175	0xc9	-55
176	0x0a	10
177	0x05	5
178	0xf2	-14
179	0xa4	-92
180	0xd5	-43
181	0xe9	-23
182	0xfe	-2
183	0x0c	12
184	0xc6	-58
185	0xef	-17
186	0x01	1
187	0xee	-18
188	0x10	16
189	0x1c	28
190	0x24	36
191	0xf2	-14
192	0x06	6
193	0xed	-19
194	0xfc	-4
195	0xe9	-23
196	0x0c	12
197	0xe5	-27
198	0x38	56
199	0xd0	-48
200	0xd4	-44
201	0x29	41
202	0xd6	-42
203	0x18	24
204	0xe0	-32
205	0x1b	27
206	0x15	21
207	0xb2	-78
208	0x1b	27
209	0xfb	-5
210	0xce	-50
211	0x17	23
212	0x0a	10
213	0x02	2
214	0x3d	61
215	0xc8	-56
216	0x1c	28
217	0x28	40
218	0xf0	-16
219	0xe7	-25
220	0xf2	-14
221	0xfe	-2
222	0xd9	-39
223	0x93	-109
224	0xce	-50
225	0x29	41
226	0x3e	62
227	0xd1	-47
228	0xf4	-12
229	0xff	-1
230	0x0d	13
231	0x22	34
232	0xf1	-15
233	0x20	32
234	0xdb	-37
235	0x21	33
236	0x1c	28
237	0xf4	-12
238	0x0b	11
239	0xea	-22
240	0x08	8
241	0xfb	-5
242	0xfc	-4
243	0xd4	-44
244	0x21	33
245	0xfa	-6
246	0x0e	14
247	0xfc	-4
248	0xfe	-2
249	0xec	-20
250	0xff	-1
251	0xef	-17
252	0x13	19
253	0xde	-34
254	0xf6	-10
255	0xfd	-3

tfl.pseudo_qconst29 i1 [128, 1, 1, 32]
0	0x26	38
1	0x31	49
2	0xe2	-30
3	0x40	64
4	0x51	81
5	0xd2	-46
6	0xe9	-23
7	0x03	3
8	0x20	32
9	0xaf	-81
10	0x2d	45
11	0xd8	-40
12	0x0b	11
13	0x36	54
14	0x2c	44
15	0xc4	-60
16	0x1f	31
17	0x08	8
18	0xe2	-30
19	0x20	32
20	0xc5	-59
21	0x3f	63
22	0xd0	-48
23	0xa7	-89
24	0x81	-127
25	0xf9	-7
26	0xca	-54
27	0x33	51
28	0x18	24
29	0x26	38
30	0xc4	-60
31	0x01	1
32	0x0b	11
33	0x38	56
34	0x81	-127
35	0xda	-38
36	0x18	24
37	0x8c	-116
38	0x32	50
39	0x25	37
40	0x0d	13
41	0x0f	15
42	0x97	-105
43	0xca	-54
44	0xfc	-4
45	0x1d	29
46	0x42	66
47	0xde	-34
48	0x61	97
49	0xa4	-92
50	0x23	35
51	0x2b	43
52	0x20	32
53	0xc3	-61
54	0x25	37
55	0xb1	-79
56	0xf6	-10
57	0x28	40
58	0x15	21
59	0x21	33
60	0x11	17
61	0x21	33
62	0xcb	-53
63	0x8a	-118
64	0x9a	-102
65	0x50	80
66	0xe6	-26
67	0xbe	-66
68	0xfd	-3
69	0x10	16
70	0x3c	60
71	0x14	20
72	0xd6	-42
73	0x40	64
74	0x81	-127
75	0x34	52
76	0x99	-103
77	0x34	52
78	0x0d	13
79	0x8a	-118
80	0x22	34
81	0x08	8
82	0x60	96
83	0xb0	-80
84	0x27	39
85	0xff	-1
86	0x2f	47
87	0xb9	-71
88	0x14	20
89	0x10	16
90	0x14	20
91	0xa8	-88
92	0xa7	-89
93	0xcc	-52
94	0xc5	-59
95	0xb0	-80
96	0xa6	-90
97	0xf4	-12
98	0x81	-127
99	0xf5	-11
100	0x39	57
101	0xa6	-90
102	0x1c	28
103	0x25	37
104	0xd0	-48
105	0x1d	29
106	0xfa	-6
107	0xfb	-5
108	0xf1	-15
109	0x41	65
110	0x3e	62
111	0xd3	-45
112	0x0d	13
113	0x39	57
114	0x1f	31
115	0x51	81
116	0xbe	-66
117	0xd3	-45
118	0xff	-1
119	0x2f	47
120	0xef	-17
121	0xb1	-79
122	0xeb	-21
123	0xb6	-74
124	0x2a	42
125	0x24	36
126	0x51	81
127	0xb9	-71
128	0xf6	-10
129	0x81	-127
130	0xd6	-42
131	0x1d	29
132	0x50	80
133	0xbf	-65
134	0xfa	-6
135	0xd5	-43
136	0xde	-34
137	0x35	53
138	0x3c	60
139	0x89	-119
140	0x41	65
141	0x2e	46
142	0xd0	-48
143	0x01	1
144	0xf1	-15
145	0x10	16
146	0x6b	107
147	0xf6	-10
148	0xca	-54
149	0x30	48
150	0xae	-82
151	0x96	-106
152	0xce	-50
153	0xd4	-44
154	0xf2	-14
155	0x16	22
156	0xf5	-11
157	0x34	52
158	0x17	23
159	0xdc	-36
160	0xc1	-63
161	0x90	-112
162	0xbf	-65
163	0xac	-84
164	0x0e	14
165	0xb9	-71
166	0x24	36
167	0xfa	-6
168	0x9a	-102
169	0x26	38
170	0x81	-127
171	0x25	37
172	0x29	41
173	0xd8	-40
174	0xf9	-7
175	0xad	-83
176	0x2a	42
177	0xfd	-3
178	0x0a	10
179	0x9d	-99
180	0xb9	-71
181	0x1a	26
182	0xcb	-53
183	0x3b	59
184	0x0c	12
185	0x3b	59
186	0xeb	-21
187	0x29	41
188	0xf2	-14
189	0xcd	-51
190	0xc8	-56
191	0x11	17
192	0x9d	-99
193	0x2c	44
194	0xe9	-23
195	0xea	-22
196	0xce	-50
197	0x04	4
198	0x23	35
199	0x09	9
200	0x9b	-101
201	0xb2	-78
202	0xae	-82
203	0xe5	-27
204	0x35	53
205	0xdb	-37
206	0xeb	-21
207	0xeb	-21
208	0x26	38
209	0x08	8
210	0xfd	-3
211	0xee	-18
212	0xdf	-33
213	0x15	21
214	0xfb	-5
215	0x81	-127
216	0xd7	-41
217	0x1e	30
218	0xdc	-36
219	0xd8	-40
220	0x04	4
221	0xe3	-29
222	0x0f	15
223	0xe4	-28
224	0x15	21
225	0x44	68
226	0xaf	-81
227	0x81	-127
228	0x0f	15
229	0x4a	74
230	0xda	-38
231	0x32	50
232	0x2c	44
233	0x09	9
234	0x32	50
235	0x5d	93
236	0x12	18
237	0xba	-70
238	0x1f	31
239	0x3c	60
240	0xca	-54
241	0xbd	-67
242	0x1f	31
243	0xc4	-60
244	0x85	-123
245	0x93	-109
246	0xca	-54
247	0x41	65
248	0xc2	-62
249	0x34	52
250	0x91	-111
251	0x83	-125
252	0xf4	-12
253	0xdc	-36
254	0x3a	58
255	0x08	8

tfl.pseudo_qconst31 i1 [32, 1, 1, 256]
0	0x27	39
1	0xfc	-4
2	0x17	23
3	0xe4	-28
4	0x1a	26
5	0x33	51
6	0xbf	-65
7	0x28	40
8	0xbb	-69
9	0xed	-19
10	0x2b	43
11	0xe6	-26
12	0x81	-127
13	0xe6	-26
14	0x15	21
15	0x00	0
16	0x1f	31
17	0xdf	-33
18	0xa3	-93
19	0x1b	27
20	0xfc	-4
21	0xc3	-61
22	0x1d	29
23	0x1b	27
24	0x2c	44
25	0x06	6
26	0x2b	43
27	0xd7	-41
28	0x0a	10
29	0x47	71
30	0x25	37
31	0x10	16
32	0x18	24
33	0xdd	-35
34	0xeb	-21
35	0x25	37
36	0x44	68
37	0xef	-17
38	0xb4	-76
39	0xe6	-26
40	0xd9	-39
41	0xf7	-9
42	0x27	39
43	0xd8	-40
44	0x09	9
45	0x0a	10
46	0xbe	-66
47	0xbb	-69
48	0x1f	31
49	0xd4	-44
50	0x31	49
51	0xf9	-7
52	0x11	17
53	0xdf	-33
54	0xe1	-31
55	0x03	3
56	0xf8	-8
57	0xee	-18
58	0xd9	-39
59	0xed	-19
60	0xcf	-49
61	0xf0	-16
62	0xf1	-15
63	0xe5	-27
64	0x19	25
65	0xe9	-23
66	0xdd	-35
67	0xcc	-52
68	0xfc	-4
69	0x05	5
70	0x31	49
71	0xf8	-8
72	0x00	0
73	0xee	-18
74	0x12	18
75	0xe3	-29
76	0x5d	93
77	0xd0	-48
78	0x46	70
79	0xe2	-30
80	0xf4	-12
81	0x0c	12
82	0xf2	-14
83	0x0d	13
84	0xa7	-89
85	0x34	52
86	0x14	20
87	0xd9	-39
88	0xbf	-65
89	0x17	23
90	0x40	64
91	0xf8	-8
92	0xff	-1
93	0xff	-1
94	0xf2	-14
95	0x1c	28
96	0x4a	74
97	0xd4	-44
98	0x17	23
99	0x0a	10
100	0x3d	61
101	0xf7	-9
102	0xe1	-31
103	0xeb	-21
104	0xdc	-36
105	0x3d	61
106	0xb3	-77
107	0xf5	-11
108	0xdd	-35
109	0x0b	11
110	0xe7	-25
111	0x24	36
112	0xd6	-42
113	0x1c	28
114	0x4b	75
115	0xde	-34
116	0x03	3
117	0x12	18
118	0xce	-50
119	0x25	37
120	0x07	7
121	0x3e	62
122	0x31	49
123	0x17	23
124	0x1d	29
125	0x30	48
126	0xe6	-26
127	0xc1	-63
128	0x89	-119
129	0x0b	11
130	0x19	25
131	0xd8	-40
132	0xdf	-33
133	0xfd	-3
134	0xee	-18
135	0xed	-19
136	0x2d	45
137	0xee	-18
138	0xfe	-2
139	0xc7	-57
140	0xbd	-67
141	0xff	-1
142	0x36	54
143	0xae	-82
144	0xd6	-42
145	0x2b	43
146	0x1a	26
147	0x28	40
148	0xf6	-10
149	0xd5	-43
150	0xe5	-27
151	0xe6	-26
152	0xef	-17
153	0x25	37
154	0xdb	-37
155	0xcc	-52
156	0xf5	-11
157	0xe8	-24
158	0x12	18
159	0xe7	-25
160	0x4d	77
161	0xfa	-6
162	0x13	19
163	0x9d	-99
164	0x04	4
165	0xec	-20
166	0x39	57
167	0x14	20
168	0xe9	-23
169	0xd2	-46
170	0xee	-18
171	0xc6	-58
172	0xbc	-68
173	0x15	21
174	0xe7	-25
175	0x07	7
176	0x09	9
177	0xae	-82
178	0x29	41
179	0xd1	-47
180	0x14	20
181	0x40	64
182	0xfb	-5
183	0x6d	109
184	0xa5	-91
185	0xc5	-59
186	0xb0	-80
187	0xcf	-49
188	0xf4	-12
189	0xd8	-40
190	0x01	1
191	0xd9	-39
192	0x26	38
193	0x1f	31
194	0xac	-84
195	0x21	33
196	0xee	-18
197	0x6d	109
198	0x76	118
199	0xfe	-2
200	0xfc	-4
201	0x53	83
202	0x0a	10
203	0x3d	61
204	0x9f	-97
205	0xf0	-16
206	0x07	7
207	0xb5	-75
208	0x10	16
209	0xc0	-64
210	0x07	7
211	0x0b	11
212	0x27	39
213	0x94	-108
214	0xf7	-9
215	0x21	33
216	0xde	-34
217	0x32	50
218	0x5c	92
219	0xf3	-13
220	0x98	-104
221	0x49	73
222	0xdc	-36
223	0xe2	-30
224	0xa4	-92
225	0xcb	-53
226	0x16	22
227	0x1b	27
228	0xc9	-55
229	0x20	32
230	0xf0	-16
231	0x24	36
232	0x2a	42
233	0x02	2
234	0xd8	-40
235	0xbd	-67
236	0xc5	-59
237	0xea	-22
238	0x43	67
239	0x04	4
240	0xbe	-66
241	0x05	5
242	0xc8	-56
243	0xf6	-10
244	0xbd	-67
245	0xfb	-5
246	0x2f	47
247	0xd9	-39
248	0x08	8
249	0x24	36
250	0x2c	44
251	0x03	3
252	0xac	-84
253	0xe3	-29
254	0xdf	-33
255	0xce	-50
