Homework 6/train/models/st_fdmobilenet_v1.tflite (tflite, 199512 bytes, 48 tensors)

arith.constant f4 [16]
000000 f1 bb 0b 3f f2 48 24 be 23 63 7b 3e 19 25 cb 3e
       0.5458365 -0.16043451 0.24549536 0.3967674
000010 f9 15 fc 3e 13 96 1c 3f 4e 42 67 3e 0f c3 a5 3e
       0.49235514 0.61166495 0.22583887 0.3237538
000020 bf ce a5 3e 62 41 67 be 3c 98 92 bd 59 90 bb be
       0.32384297 -0.22583535 -0.07157943 -0.36633566
000030 5a 16 b7 be 22 6a 08 3f 6a 5e f8 be cb 6c 09 3f
       -0.3575924 0.53286946 -0.48509532 0.5368163

arith.constant1 f4 [16, 3, 3, 3]
000000 6b c3 27 3f 93 da 96 3f 48 1c af bd 41 62 a4 3e
       0.6553256 1.1785454 -0.08550316 0.32106212
000010 e7 51 38 bf b8 71 7e be b2 a5 7c bf 08 96 51 bf
       -0.71999973 -0.24848068 -0.9869033 -0.81869555
000020 9f 82 ea be 43 40 03 bf 25 6c 30 3e b8 e2 54 3f
       -0.4580278 -0.5126993 0.17228754 0.83158445
000030 b1 60 d1 be 13 5f e8 bc 31 e1 17 3f 1e 41 d5 be
       -0.40894082 -0.028365647 0.5932799 -0.41651243
000040 db f3 94 3e 78 6a 36 bf 6e bb 38 3d 14 a0 d4 3e
       0.29092297 -0.7125621 0.045100622 0.4152838
000050 16 e3 00 3f 3d 0c d9 3e bb 7d da be 05 00 87 bf
       0.50346506 0.4239215 -0.4267405 -1.0546881
000060 6e 60 41 bf 6d ff 75 3e 10 d2 86 bf a2 55 70 bc
       -0.75537765 0.24023218 -1.0532856 -0.014668854
000070 b9 40 29 3e 8f 9f 57 3e 76 01 5e 3e c6 d3 0d bc
       0.16528596 0.2105696 0.21680245 -0.008656448
000080 4f f1 6c be 60 ab f4 bd 14 7a 60 3e 1e 7a 3e bd
       -0.23138927 -0.1194675 0.21921569 -0.04650318
000090 3c f7 5f 3e ab 33 04 3f 27 ce 21 3f b9 ba a1 3e
       0.21871656 0.5164134 0.6320519 0.3158777
0000a0 08 18 f3 3e 72 93 df 3e f8 eb 1e 3e 2f 7f de 3d
       0.47479272 0.4366718 0.15519702 0.10864102
0000b0 33 09 eb 3d c4 38 89 3e 56 be 82 3d 41 e0 31 be
       0.11476364 0.2680112 0.0638396 -0.17370702
0000c0 94 1f 0e be de c5 1b 3e 95 0a 89 3d 5d 81 00 bd
       -0.13879234 0.15212199 0.066914715 -0.03137337
0000d0 6b 38 83 be 02 76 44 3e fa 57 26 3f 62 5f e8 3e
       -0.2562898 0.19185641 0.6497799 0.4538527
0000e0 cc e2 10 3f 9f 92 31 bf aa 94 58 bf 54 aa 01 bf
       0.56596065 -0.6936435 -0.84601843 -0.50650525
0000f0 ab 6a d4 be 0e 1e 83 be 13 11 32 bf 58 70 9e be
       -0.4148763 -0.25608867 -0.69557303 -0.30945086
000100 18 b8 eb 3d 19 c5 3d bf 97 3e 11 bf b9 40 b6 3d
       0.115097225 -0.7412887 -0.5673613 0.088990636
000110 b2 9a 75 bf 63 cd 9e be 32 29 1c 3e 57 a5 23 be
       -0.9593917 -0.31016073 0.1525009 -0.15981041
000120 f7 a4 09 3f 19 37 2a be a3 d1 b7 3e 25 4a 45 3f
       0.5376734 -0.1662258 0.35902128 0.7706626
000130 49 a8 45 3f 09 20 06 bf 20 1b 60 be 40 fc 3f 3f
       0.7720991 -0.5239263 -0.21885347 0.7499428
000140 f0 cd 70 bd 07 82 0d bf 40 0a 40 bf e2 8d 17 bf
       -0.058790147 -0.5527653 -0.7501564 -0.5920087
000150 6b be 56 bd 6d 01 17 3e 72 47 00 3f 4f ae da 3e
       -0.05242769 0.14746638 0.50109017 0.42711112
000160 4c f6 be 3e 0c d5 fb 3e 1e b2 5c bd 9f a2 1b 3e
       0.37297285 0.4918598 -0.053880803 0.15198754
000170 93 4e c2 be c6 53 20 bf a4 83 b9 bd e3 b1 5d 3b
       -0.37950572 -0.6262783 -0.090583116 0.0033827953
000180 36 49 1f bf eb e9 38 bf 82 3e f2 bc 20 ad ba 3e
       -0.62221086 -0.7223193 -0.029570822 0.3646021
000190 e3 bf ad be 67 7d f0 be 70 49 55 be 59 56 15 be
       -0.3393546 -0.46970674 -0.20828795 -0.1458372
0001a0 13 07 93 3e ec 04 28 bf 8c 3d e5 be 28 92 47 3e
       0.28716335 -0.6563251 -0.4477352 0.19489348
0001b0 89 e3 29 bf 1d 45 8d be f8 25 0c be ee 89 da 3c
       -0.66362816 -0.27591792 -0.13686359 0.026677098
0001c0 fc 41 c7 be 7e 3a 18 3d 5f 92 29 be ca c8 d7 be
       -0.3891753 0.037165157 -0.16559742 -0.42145377
0001d0 e4 7d 39 bd d6 07 17 bf 03 be b4 be 43 99 2f 3d
       -0.045286074 -0.5899633 -0.35301217 0.04287077
0001e0 30 9f 5c be 23 d3 25 3e 05 08 24 3d c8 c3 e1 be
       -0.215451 0.16193824 0.04004671 -0.44094682
0001f0 cf a3 3b be 9d b9 e9 be 80 c2 01 3e 51 d2 f7 bd
       -0.18324207 -0.45649424 0.12671852 -0.121006615
000200 b6 87 c5 3d d4 41 92 be d1 c0 c9 3e c9 0b 49 3e
       0.096450254 -0.28565848 0.3940492 0.19633402
000210 b7 85 d3 be af 02 5a be c7 c3 58 3e fc e7 fb 3e
       -0.41312954 -0.21290086 0.21168433 0.49200428
000220 d7 48 98 bf b9 9b 12 bf 2c f6 6e 3f a9 25 d4 be
       -1.1897229 -0.57268864 0.9334438 -0.41434982
000230 d2 d0 59 3f 32 d1 a2 3f 36 08 89 3e c0 16 69 3f
       0.8508426 1.2720091 0.26764077 0.9105034
000240 55 ea 75 bf 68 68 0d be 58 8f a6 bf ed 68 d1 bf
       -0.9606069 -0.13809359 -1.3012495 -1.6360146
000250 23 8c 45 bf d7 79 67 bf 3a 38 16 bf 92 c4 78 bc
       -0.77166957 -0.9042029 -0.58679545 -0.015183585
000260 f6 c3 cf be 96 27 94 3f e7 4a 96 3f a4 56 e9 be
       -0.40579194 1.1574581 1.1741608 -0.45573914
000270 e2 23 0e 3f 43 80 83 bf 9a c8 32 3f 0d 1e 42 bf
       0.555235 -1.0273517 0.69837344 -0.75827104
000280 72 90 bf bb 1d 07 a2 bf b5 d9 cb 3e 99 da 6a be
       -0.0058460766 -1.2658421 0.39814535 -0.22934951
000290 92 c0 80 bf f2 ba f9 bd 45 09 95 be 7d c4 48 be
       -1.0058768 -0.1219386 -0.29108635 -0.19606204
0002a0 8f c0 23 3f 1e aa 85 3f 00 da 14 3f f2 67 fe 3e
       0.63965696 1.0442541 0.5814514 0.4968868
0002b0 1d a3 83 bf 36 e5 6f bf eb 58 c0 be 50 1d b5 3d
       -1.0284153 -0.93709123 -0.3756784 0.088434815
0002c0 4f 93 a4 3e 02 df f6 bd 46 3a 93 3e dd f9 8c 3f
       0.32143638 -0.12054254 0.28755397 1.1013752
0002d0 ff 5b 33 bf 69 c7 23 bf a5 8b d4 be 3f 61 36 bf
       -0.7006225 -0.6397615 -0.4151279 -0.71242136
0002e0 fb 88 f5 3d b0 5a 72 bf 61 1d 7d 3e a8 b0 01 3c
       0.119890176 -0.9466963 0.24718238 0.007915653
0002f0 25 6f 1f 3f 2f 4e 03 3d 05 c9 a0 bd 9f 7f f7 3e
       0.6227897 0.032056984 -0.078508414 0.48339555
000300 5c 34 cc 3e b6 ba c4 3e 0e 71 4e 3f 47 52 b9 3e
       0.39883697 0.384237 0.8064126 0.36195585
000310 17 46 ef 3e 35 3d 42 3e 30 6c 0f bf 9e 81 06 3f
       0.46733162 0.18968661 -0.56024456 0.5254153
000320 7e 99 fa 3d af d5 c2 bd 74 ff 07 be 7d 61 bd bd
       0.122363076 -0.09513413 -0.13281041 -0.0924711
000330 5e 9a 08 3f 62 24 c2 3e ff 66 45 3e c5 04 c3 be
       0.53360546 0.37918383 0.19277571 -0.38089576
000340 b8 c7 72 bf e4 dc 5d bf 70 37 c1 3e 63 64 20 bf
       -0.94835997 -0.8666518 0.37737608 -0.6265318
000350 3f 30 3e bf 4f da 2f bf 37 e9 95 bf f4 5e 82 bf
       -0.7429237 -0.6869249 -1.1711797 -1.0185227
000360 e8 96 8d be 6e bb ba 3d 6b c9 00 3f fa ad 30 be
       -0.27654195 0.091177806 0.5030734 -0.17253867
000370 70 71 a9 3c 56 8c a7 3e ee 5f 8b 3c a8 29 a9 be
       0.020683974 0.32724255 0.017013516 -0.33039594
000380 95 38 ab be 7e 42 88 be b6 8f 77 be 46 c6 9e 3d
       -0.33441606 -0.2661323 -0.24175915 0.077526614
000390 00 0e 4e 3e a7 45 13 3e f4 b9 73 be d7 9d 67 bd
       0.20122528 0.14382039 -0.23801404 -0.056547012
0003a0 02 de 49 be 1f 03 c5 be 1e f9 c7 be 2c 5b d8 bd
       -0.19713596 -0.38478944 -0.3905725 -0.10564265
0003b0 4d 35 75 be 82 a8 83 be 6d 3c 2e bf 36 32 f8 be
       -0.23946114 -0.257145 -0.6806095 -0.48475808
0003c0 0a fa a2 3e 58 f3 47 be 54 2a 73 be 8c 1f 40 3f
       0.3183139 -0.19526422 -0.23746616 0.75048137
0003d0 d0 07 34 3f 0c fd 24 bf 57 92 cb bf ca 6d 9b bf
       0.7032442 -0.6444862 -1.5904034 -1.214288
0003e0 c0 ed fd be 78 e6 8f 3e d1 03 59 bf b7 83 d5 be
       -0.4959545 0.2810552 -0.8477145 -0.41702053
0003f0 33 47 88 3f ba 1f 35 3d 1d 1e b8 3f e2 64 88 bf
       1.0646728 0.04421971 1.438419 -1.0655787

arith.constant8 f4 [1, 3, 3, 16]
000000 0a 61 00 3e 9c ef 80 bd 30 96 7f bd 89 42 7a 3e
       0.12537017 -0.06295702 -0.06239909 0.24439444
000010 3b 95 51 bd f7 bc 47 3c db d9 1f be f1 7e 00 3e
       -0.051167708 0.012191049 -0.15610449 0.12548424
000020 a1 b3 aa bb 96 d7 28 3e 2f 08 97 3d 01 eb 35 be
       -0.0052094017 0.1648849 0.07374608 -0.17765428
000030 89 6e 96 3d 0c 24 1c 3c 63 9d 4c bc ae a4 62 be
       0.07345302 0.009530079 -0.012488696 -0.22133133
000040 b8 18 77 3e 26 d4 8f 3c ab 8f c0 bd ae cc eb 3d
       0.24130523 0.017557215 -0.094024025 0.11513649
000050 5e e9 98 bd b1 f6 67 be ab 3e 80 bd ae 5b 4f 3e
       -0.07466386 -0.22652699 -0.06261953 0.20249817
000060 27 d5 a3 3d 1a 43 11 3e bc a1 d7 3d 1f 4e 6e be
       0.0799964 0.14185753 0.10528895 -0.23271988
000070 a5 66 0a bd 6d 79 8c bd 79 f8 14 bd bd 05 cf bd
       -0.033789296 -0.06859098 -0.036369774 -0.10108516
000080 ca da d9 3d cb 60 f9 3d 3d 52 9f bd 99 3d c4 3d
       0.10637434 0.12176665 -0.077793576 0.09582061
000090 24 df 7a be dc 9d 47 be 37 f5 7d 3d df c6 ce 3d
       -0.24499184 -0.19493812 0.062001433 0.100965254
0000a0 d4 92 19 be e6 40 3c bc 4d cd 0d 3e 93 ff 41 be
       -0.14997417 -0.011490082 0.13847847 -0.1894515
0000b0 78 cb ab 3d ad 49 53 bd 01 c9 e9 3c 0e 89 7f 3d
       0.08388418 -0.051583935 0.028538229 0.062386565
0000c0 c4 a7 88 3e ea d1 96 3e a9 e3 70 3c b4 09 ab 3d
       0.26690495 0.29457027 0.014702716 0.0835146
0000d0 bd 38 0c 3e 73 77 57 be 6f 47 c7 bc b0 05 0d 3e
       0.13693519 -0.2104166 -0.024326054 0.13771701
0000e0 f1 0a 60 be 26 36 57 3e 2f 09 c1 3c 77 d1 6c 3c
       -0.21879174 0.2101675 0.02356395 0.014454237
0000f0 1b 1c d9 bd 70 ef 16 3d 7b 03 0e be 14 7d b3 3c
       -0.10601064 0.03684944 -0.13868515 0.021910228
000100 2d 1b af 3e 8e 67 86 3e a8 e2 15 bd f1 e4 4e 3b
       0.3420042 0.2625088 -0.03659311 0.0031569565
000110 11 1e 08 be 44 87 c0 be 89 65 f7 bd 49 be 80 3e
       -0.1329272 -0.376032 -0.12079913 0.25145176
000120 d9 20 ef bc a7 17 48 3e 58 7e 95 3d 09 e6 75 b8
       -0.029190468 0.19540273 0.07299489 -5.862679e-05
000130 75 3e 7e 3e f2 70 da 3c b9 fb 1b be ed c9 ac bd
       0.24828513 0.026665185 -0.15232743 -0.08436952
000140 fd 90 98 3d db 14 2f 3d e6 60 e4 bd e0 c3 39 3d
       0.07449529 0.0427445 -0.111512944 0.045352817
000150 0e b2 41 be 90 86 44 be 8f 76 1f be 10 14 51 3e
       -0.18915579 -0.19191957 -0.1557257 0.2041781
000160 1e f6 01 bd 99 53 5d 3d 3b 37 f5 3b d4 25 85 3d
       -0.031728856 0.054034803 0.0074833906 0.06501356
000170 7f 25 91 3d 8f b5 23 be db 78 15 be dc 83 75 3d
       0.0708723 -0.15987228 -0.14596884 0.059940204
000180 ee 9e 1a 3e ea 9c e1 3d fe 73 3e 3e 8a 8b fc 3d
       0.1509969 0.11016257 0.18598935 0.123313025
000190 1c b9 b7 bd 90 b8 27 be 44 3b 03 be ad a6 3a 3c
       -0.08970854 -0.16378999 -0.12815577 0.011392278
0001a0 09 89 cf bd 9b 8c 93 3c 6f 46 51 be 4c 00 66 bd
       -0.10133559 0.018011382 -0.20437025 -0.056152627
0001b0 42 c0 43 be f8 58 31 be 6d c2 5f bc 74 a1 87 3e
       -0.1911631 -0.17319095 -0.013657195 0.26490366
0001c0 fd cc 77 3d a6 63 53 bc ad 78 f7 bd ee aa c1 bd
       0.060498226 -0.012902176 -0.12083564 -0.094564304
0001d0 5c e8 ef 3d c0 19 86 be 7a 71 81 be 03 d8 34 3e
       0.11714241 -0.2619152 -0.25281888 0.17660527
0001e0 d8 d3 d4 bd 7e 0e 29 3e 4e bc 87 be 57 29 3d 3d
       -0.103919685 0.16509435 -0.26510853 0.046182003
0001f0 b0 e2 38 3d f1 4e ac be 6f d6 ce bd b3 99 9a 3d
       0.04513806 -0.33653978 -0.10099494 0.07548847
000200 a6 84 af bc 39 e9 06 be 65 97 12 be 6b cc 96 3d
       -0.021425556 -0.13174905 -0.14315565 0.073632084
000210 8a 37 cd 3d 0b 50 89 3c bd 3f 82 be 9b a5 0d 3e
       0.10020359 0.0167618 -0.25439253 0.13832705
000220 68 f2 49 3e 92 ec 9d 3d 22 c4 0d be e6 a7 2c 3e
       0.19721377 0.07711138 -0.1384435 0.16860923
000230 38 ef 3e 3d 8d 9f 74 bd fa 4a f6 bd 1b 93 06 be
       0.046614856 -0.059722472 -0.120260194 -0.13142054

arith.constant9 f4 [48, 1, 1, 16]
000000 5c 74 ab 3d 68 b6 95 bf 96 91 a1 3d 18 9a 99 bc
       0.08371803 -1.1696291 0.078890964 -0.018750235
000010 f6 f6 0d 3f 28 19 8c 3f eb 0b dd 3e 04 9c 27 bf
       0.5545496 1.0945177 0.43173155 -0.65472436
000020 43 c5 84 bf d2 b4 ea bc 7a 9b 8a bf b6 41 9c 3e
       -1.03727 -0.028650675 -1.0828698 0.30518883
000030 7e 58 91 3f bf a1 6a 3f 37 a1 60 3f d3 f9 11 bf
       1.1355131 0.91653055 0.87745994 -0.57021827
000040 06 a6 1d bf a1 f2 da be 15 11 7e be c4 c3 8c 3f
       -0.61581457 -0.42763236 -0.24811204 1.0997243
000050 74 5c bc 3f fc dc 56 bf 82 de af 3e 0a 1a 3e 3f
       1.4715714 -0.83930945 0.34349447 0.7425848
000060 ad f3 9d be b1 be c9 3d 75 d8 a3 3f cd 84 f1 be
       -0.30849972 0.098508246 1.2800432 -0.4717163
000070 45 8a 02 bf 48 a6 4a bf 0b 95 b9 be 59 6f 3d 3e
       -0.5099223 -0.79159975 -0.36246523 0.18499507
000080 54 73 38 3f cc f7 4c bf dc 53 3e 3e ce e3 fb 3d
       0.72050977 -0.8006561 0.18586677 0.1229931
000090 d9 70 03 bf e3 60 9e 3f 61 c8 cc be 19 e5 ce bf
       -0.51344067 1.2373317 -0.39996627 -1.6163665
0000a0 39 ce cf 3d d0 ab 81 bf eb 73 de be fc a4 05 3f
       0.10146756 -1.0130558 -0.43447813 0.5220487
0000b0 f0 ad b7 3d 6d e9 80 3f 77 6a 11 3f c9 da 9e be
       0.08968723 1.0071236 0.5680308 -0.31026295
0000c0 4d 94 0c 3f 6b 43 de 3e 98 38 39 3f ea 6f e0 bc
       0.5491379 0.4341081 0.7235198 -0.027397115
0000d0 0a 63 a3 3e ae bd c5 3f 86 25 63 3f 93 af 06 3e
       0.31911498 1.5448511 0.8872913 0.13152914
0000e0 ab 84 67 be 76 71 90 bf ec 78 93 bf ff a5 6e bf
       -0.22609203 -1.1284626 -1.1521277 -0.9322204
0000f0 89 02 96 3f 4d e5 22 bf e2 b1 ba be 99 08 8d 3f
       1.1719524 -0.63631135 -0.3646384 1.1018249
000100 a1 46 50 3f 42 50 e3 3e bc 48 81 bf 85 fd fd 3c
       0.8135777 0.4439717 -1.0100322 0.031004677
000110 13 3c a8 be 78 89 40 3f 77 89 2c bf 7f 08 8f 3e
       -0.32858333 0.7520976 -0.67397255 0.2793617
000120 2b a5 07 bd 11 4a 89 bf fb c7 3b bf b8 ae 5a bf
       -0.0331165 -1.0725728 -0.7335202 -0.8542285
000130 8f 9e 19 3f a9 d0 6f 3c f4 0f 82 bf 99 9f 1a 3f
       0.60007566 0.014637151 -1.0161119 0.60399777
000140 b2 23 fe 3f fd aa 5d bf ec 23 1f be fa 0c 23 bf
       1.9854643 -0.8658903 -0.15541047 -0.63691676
000150 73 11 18 3f c4 9e 0e 40 9e e2 cf 3e 41 2b 2a bf
       0.59401625 2.2284403 0.40602583 -0.6647225
000160 c2 45 fe bf 4b 37 13 3e 1d 05 c4 3f af 6d 9f 3e
       -1.9865038 0.14376561 1.531406 0.3113837
000170 0f 16 c8 3e 98 70 cf bf 65 7d e3 3e f5 b3 a3 3f
       0.3907933 -1.6206236 0.44431606 1.2789294
000180 8d 45 aa bf c4 68 be 3f c7 16 c0 bf 12 ae 8a bf
       -1.3302475 1.4875722 -1.5006951 -1.0834372
000190 16 da ab bf 96 f0 33 bf cc 9d 7a 3e a0 40 28 3f
       -1.342593 -0.7028898 0.24474257 0.6572361
0001a0 fa ca 46 3d 9b a2 ad 3e 9b 6b 2a be 51 c6 03 40
       0.048533417 0.3391312 -0.1664261 2.0589793
0001b0 28 7b 87 3e 79 2e 31 3f 00 84 c5 3f d2 50 de bf
       0.26461148 0.69211537 1.5430908 -1.7368414
0001c0 28 98 8c bf 6c 40 41 bf a6 ec 45 bf 27 e5 2d bf
       -1.0983934 -0.75488925 -0.7731422 -0.67927784
0001d0 d4 f5 58 bf 6b 4f 3f bf a2 88 b0 3e 5e e5 0b 3f
       -0.84750104 -0.7473056 0.34479243 0.5464686
0001e0 a7 8d 70 3e 05 a9 d7 3f ac 89 9e bf 13 91 cc be
       0.23491536 1.6848456 -1.2385764 -0.39954433
0001f0 12 62 88 be 69 18 14 3f 87 3b f3 bd a9 d3 85 be
       -0.26637322 0.57849747 -0.11876588 -0.26138046
000200 8d 4c 2a 3e 71 d5 4d be d0 f1 5e bf ee a1 27 3f
       0.16630764 -0.20100953 -0.87087727 0.6548146
000210 ee 6e 4c 3f c5 6d 0a 3f bd 72 0c bf 17 97 93 bf
       0.79856765 0.54073745 -0.54862577 -1.1530484
000220 b1 85 8b 3e 4d c8 09 be 3c d9 03 bf da 00 e6 be
       0.27250436 -0.13455315 -0.5150335 -0.44922525
000230 f0 f6 70 3f 0e df 30 3f 04 55 60 bf 80 7b 89 bd
       0.94126797 0.69090354 -0.87629724 -0.06713009
000240 0e 43 08 c0 4a 83 f2 3e 2f f3 a4 3d 65 a7 00 3f
       -2.1290927 0.4736579 0.08054196 0.50255424
000250 c6 9a c0 3e cb 45 92 bf 0b 24 0b 3f 26 0a c5 3f
       0.37618083 -1.1427549 0.5435187 1.5393722
000260 16 d2 49 3f ee 0a a0 3f 47 0e d1 bd b2 f0 b0 3f
       0.7883619 1.2503335 -0.10207801 1.3823454
000270 b2 8d 1f 3f 2c 17 04 bf 63 22 38 bf 0e d4 bf be
       0.62325585 -0.5159786 -0.7192747 -0.37466472
000280 ea d2 88 bf 3a 56 2a be b7 29 c6 3d 84 b2 21 bf
       -1.0689366 -0.16634455 0.09675925 -0.6316302
000290 95 a8 0c bf fa 68 6f be cf 37 05 3f 3f 76 fc be
       -0.54944736 -0.23379889 0.5203828 -0.49308965
0002a0 31 e8 1e bf 12 f8 2f bf 12 c5 a4 bf 2f a0 29 3f
       -0.62073046 -0.687379 -1.2872641 0.66260046
0002b0 67 6c 4b 3f c2 1d 6e 3f d2 39 2d bd cc 46 37 bf
       0.79462284 0.93014157 -0.04229147 -0.715924
0002c0 60 fc 20 3f 86 e1 16 bf 7a e9 eb be 4f a2 9e bf
       0.62885094 -0.5893787 -0.46076566 -1.2393283
0002d0 d2 19 01 40 41 81 df 3f ac 7d 8c bf 61 90 e0 bf
       2.017201 1.746132 -1.0975852 -1.7544061
0002e0 e2 cf 56 3f 0e 8e 1d 3f be c9 c1 3e 06 a9 03 bf
       0.83910954 0.61544883 0.3784923 -0.51429784
0002f0 8d 51 18 be a6 24 b7 3f 82 fe 20 3e bb 14 ac 3f
       -0.14874859 1.4308059 0.15722087 1.3443826
000300 d0 d9 c9 3f b2 76 56 3f c4 54 e6 3e 54 10 60 be
       1.5769596 0.83774865 0.44986546 -0.21881229
000310 b3 66 74 3e f8 1c ad bf b5 2d 36 3e 6d 4d 56 be
       0.23867302 -1.3524466 0.17790873 -0.20927973
000320 e9 92 6e 3f af f6 6c 3f 5d 9c 2c bf 9f 36 56 bf
       0.9319292 0.9256391 -0.6742609 -0.83677095
000330 6e 84 6c bf fa 07 74 3f 6f ca 28 3f 6a 66 c7 bf
       -0.9238957 0.9532467 0.6593389 -1.5578129
000340 27 79 de be 54 84 34 bf 18 ee a9 3f 69 1b 8d 3e
       -0.43451807 -0.70514417 1.3275785 0.27559975
000350 1a 6a 90 3f b6 b9 6a 3e cc 85 0a c0 9f 97 97 be
       1.128238 0.22922406 -2.1644163 -0.29607865
000360 f2 e0 e8 3e aa 12 04 bf 78 68 9a 3f 6d f0 5c 3f
       0.4548412 -0.5159098 1.2063131 0.8630436
000370 10 24 29 3e 04 68 ca 3e 2c 43 4e bf ec e7 39 3f
       0.16517663 0.39532483 -0.80571246 0.7261951
000380 a6 37 88 3e 6d 96 eb bf be 46 9b 3e 94 f4 e5 3d
       0.26604956 -1.8405281 0.3032741 0.1122829
000390 61 1e f4 3f 5b f6 aa 3f 19 59 5f bf 9f ed 43 bf
       1.9071771 1.3356432 -0.8724533 -0.76534456
0003a0 99 fe 97 bf f7 5b b1 be 00 f1 2c 3f 18 bd 7d be
       -1.1874572 -0.34640476 0.67555237 -0.24779165
0003b0 65 e2 72 3f fe b8 ef be 91 5d 15 bf 89 56 15 bf
       0.948767 -0.46820825 -0.58345896 -0.5833517
0003c0 8d eb 76 bf ec 90 0a 3f 93 91 35 bf 87 ab 15 3f
       -0.9645317 0.54127383 -0.70925254 0.58464855
0003d0 36 43 08 bf ef 44 03 3e 22 8e 18 bf 75 1d 8c 3f
       -0.53227556 0.12819265 -0.5959188 1.094649
0003e0 74 07 f9 be bd 59 84 3f d1 52 ac 3f 04 3e 94 3d
       -0.486385 1.0339886 1.3462774 0.07238391
0003f0 15 2d cf 3e a3 c2 64 3e 09 ab 78 3e 4d ee 15 3f
       0.40464082 0.22339873 0.24283995 0.58566743

arith.constant10 f4 [1, 3, 3, 48]
000000 d5 5d 16 be 9a e8 1c 3d 6a 1b 31 be 8d 5d 82 3d
       -0.14684232 0.038307764 -0.17295614 0.063655
000010 b7 c8 81 bd 05 df e4 bd 0a 02 40 be c0 4c db bd
       -0.063371114 -0.1117535 -0.18750778 -0.10707998
000020 18 8a 84 3d f5 18 81 bd 58 e2 d6 bd 78 ea 73 be
       0.06471652 -0.06303588 -0.104923904 -0.23819911
000030 0c 3a 7f bd ce 47 e6 3d 15 02 2e be fd 73 aa 3c
       -0.062311217 0.112441644 -0.16992982 0.02080726
000040 ea c5 ee 3d bf 5d 47 be 12 23 21 3e bf 81 37 3e
       0.11658843 -0.19469355 0.15736035 0.17920588
000050 b9 d6 38 3d 45 4f 3c 3d ad 06 80 bd 8d ae 23 bd
       0.04512665 0.045974035 -0.06251273 -0.039961386
000060 5e ad e4 3d 85 c8 d6 bd 91 01 3f 3c 97 3c 73 3e
       0.1116588 -0.10487465 0.011658088 0.23753582
000070 61 0f bf 3c 3b 28 8e 3d 12 f3 2c be 06 ae 9a bd
       0.023322763 0.06941267 -0.16889599 -0.075527236
000080 4f 57 97 3d a2 67 0f 3e df e7 f9 3d eb 36 60 be
       0.073897 0.14004377 0.12202429 -0.2189595
000090 c0 f3 6e 3d da 09 ae bb 3d 98 ab 3c 31 de 28 bd
       0.058337927 -0.005311233 0.020946616 -0.041227523
0000a0 25 1a 13 3e e1 3f 0f be 3d 89 8f bd 94 18 52 3e
       0.14365442 -0.13989212 -0.07008598 0.20517188
0000b0 3d be 94 3d 3c dd e2 bb fe b9 5b 3c 11 ff 88 3d
       0.072628476 -0.006923346 0.013411043 0.06689275
0000c0 cd d6 0b be 06 8d 88 3d a0 44 46 bd 1b 2c 3e be
       -0.13656159 0.06667523 -0.04840529 -0.18571512
0000d0 aa 00 40 bd f2 d5 ae bd 26 57 10 be fe b0 df bd
       -0.046875633 -0.085369006 -0.14095744 -0.109224305
0000e0 49 1f 20 be be b7 93 3c 32 3b a1 3c 7b 8f 6c be
       -0.15636934 0.018031951 0.019681547 -0.23101608
0000f0 c9 b0 86 bd e0 8f 10 3e 6b 4a 28 bd d5 76 1a bd
       -0.06576688 0.14117384 -0.041086596 -0.037710983
000100 68 dd 2d 3e 14 c8 52 bd cc b2 17 bd f7 64 ba bb
       0.16978991 -0.05146034 -0.03703575 -0.0056883055
000110 43 d9 0f 3e e2 fb 56 ba 1d 37 25 be 46 59 67 bd
       0.14047723 -0.00082009856 -0.16134305 -0.056481622
000120 94 04 ef 3d 8b 6c ae bd a1 e8 2c 3e 7a 6a b4 bd
       0.11670795 -0.08516797 0.16885616 -0.08809371
000130 ce 66 8a 3c d3 10 fd 3d d6 d6 87 3d c2 3e e4 3c
       0.016894724 0.123567246 0.066327736 0.027861957
000140 bd bb e7 3d 04 1b 28 3e 60 91 9a bd 16 0e 75 be
       0.11315105 0.16416556 -0.07547259 -0.23931155
000150 c9 45 c1 bd 53 59 a0 bd 85 cb 35 be 32 6f 35 bd
       -0.094371386 -0.07829537 -0.17753418 -0.044295497
000160 78 e9 cf 3d 3e 8e f5 ba ac 7d 53 3d 9a f6 52 3e
       0.101519525 -0.0018734408 0.051633522 0.20601884
000170 79 27 16 be 79 76 18 bd 24 46 5b 3c d8 b3 dd 3d
       -0.14663495 -0.03722236 0.013383422 0.10825318
000180 75 fa 19 bd 85 f6 7e bd 47 b5 51 3e b6 8e 95 bd
       -0.03759237 -0.062246818 0.20479308 -0.073026106
000190 1b e6 31 bd dc 1c 8f bd 3b 61 2c 3d de 55 56 bd
       -0.043432336 -0.06987926 0.042084914 -0.052327983
0001a0 90 b5 42 bd bc 7a 19 be 4e 68 c4 bc 4f 42 79 bd
       -0.047536433 -0.14988226 -0.023975518 -0.060854252
0001b0 a8 8d e0 bd cb db 59 3d a2 2c df 3d 01 bc 84 bd
       -0.10964519 0.053188127 0.10897185 -0.064811714
0001c0 d7 f2 cc 3d 33 37 b1 3d 14 56 fe 3c 9c ab fc bc
       0.100072555 0.086531065 0.031046905 -0.030843548
0001d0 8d 70 42 3d 85 a7 6b 3e f5 e3 f0 bd 40 38 1c 3e
       0.047470618 0.23013122 -0.11762229 0.15255833
0001e0 4e 44 34 be c9 9f e8 3c f2 b0 10 3e 6c c1 6a 3c
       -0.17604181 0.028396504 0.1413 0.014328342
0001f0 ea 35 80 bd 53 6f 15 3d 63 9b 95 bd 2b 2b be 3d
       -0.06260283 0.03648312 -0.07305028 0.092855774
000200 ca fd a0 3b e8 a8 93 3d 61 a9 2c bd 67 71 26 be
       0.0049130665 0.07209951 -0.04215372 -0.16254197
000210 1c 98 90 bd 08 f8 61 be 40 e1 c1 bd 34 1e 48 be
       -0.070602626 -0.22067273 -0.09466791 -0.19542772
000220 0c ef 9d 3d 95 fc 12 3e b6 29 20 3e 6a 61 17 3d
       0.0771161 0.14354165 0.15640911 0.036958136
000230 63 33 9b bd b0 8f 76 bd cd b5 19 3e 1e d4 4b bd
       -0.075781606 -0.060195625 0.15010758 -0.049762838
000240 dd 50 a0 3d c5 56 19 be 17 8a 64 bd 02 a2 de 3a
       0.078279234 -0.14974506 -0.055795755 0.0016985538
000250 8b 1d fc bd a3 ec 6c 3e 42 a2 84 3d 56 2a 0d be
       -0.123103224 0.23137145 0.06476261 -0.13785681
000260 5a 3f d8 3d 6a 33 19 3d 77 60 4d bd 48 07 2e be
       0.10558958 0.037402548 -0.050140824 -0.16994965
000270 00 45 b9 3c 27 36 44 be 58 16 e3 bc 13 aa 03 3d
       0.02261591 -0.19161282 -0.027720615 0.032144617
000280 25 c2 ac bd 62 74 d7 bd 6e f0 32 bd 17 f5 3d 3e
       -0.08435468 -0.10520245 -0.043686323 0.18550526
000290 13 0f 8a 3e 63 7d d5 3d ad a8 ea bc 29 83 c3 3d
       0.26964626 0.10424306 -0.028644884 0.09546501
0002a0 7d 4e d7 3d e3 24 48 3e 6a 84 1c be cd 44 26 3e
       0.10513017 0.19545321 -0.15284887 0.16237183
0002b0 5b 44 90 3d da 5b 16 be 1e bd 3f 3e 91 88 f9 3d
       0.07044288 -0.14683476 0.18724486 0.12184251
0002c0 de f7 df bd a9 30 21 3d 0e b9 ca bd 1c 89 6b 3d
       -0.10935949 0.039353047 -0.09898578 0.057503805
0002d0 9b 69 0f be 23 e7 34 3d 12 c6 10 bd ab 6d 7c 3e
       -0.14005129 0.04416574 -0.035345145 0.2465121
0002e0 0f e6 30 be 85 ea e7 bc 1d e0 4e 3e f9 71 13 be
       -0.1727526 -0.02831007 0.2020268 -0.14398946
0002f0 35 0d 9c 3d fd 21 14 3d 96 f9 f6 ba 06 d3 b3 3d
       0.076197065 0.036165226 -0.0018842693 0.08780484
000300 36 d5 4d bd 13 0c f9 bd 21 6c 17 3e fe bf b7 3d
       -0.050252162 -0.12160506 0.14787342 0.089721665
000310 59 88 1d 3e 63 30 7f 3e af c6 54 bd 0d b7 35 be
       0.15384044 0.24920802 -0.051947292 -0.1774561
000320 1c ea b6 bd bc ec aa bd e0 44 ec 3b 97 17 fa bd
       -0.089313716 -0.08345935 0.007210359 -0.12211531
000330 34 79 5c be 18 06 83 be 38 06 23 3e e6 a1 1d 3e
       -0.2153061 -0.25590587 0.15920341 0.1539379
000340 12 06 42 be 75 ff 6b bd c6 78 02 bd 65 a1 6b bd
       -0.18947628 -0.05761667 -0.03185346 -0.057526965
000350 5f 5c 24 3e a3 31 9b 3d 87 62 98 bd a5 27 c0 bd
       0.16050862 0.07577827 -0.074406676 -0.093825616
000360 1e 1c 2e 3e 7b 93 a7 3d 1e e8 01 be 7f 09 21 3d
       0.17002913 0.081824265 -0.12686202 0.039315697
000370 04 b9 21 3e d9 fe 33 bb fc d1 cf 3d 4f 38 ed 3d
       0.15793234 -0.0027465133 0.10147473 0.11583006
000380 97 e5 a4 bd 95 69 cf 3d ff a1 c2 bc 73 5c a7 bd
       -0.08051603 0.1012756 -0.023758886 -0.0817193
000390 cd c0 61 bd 9a 3a 2c ba cb 3e 03 3e 9a 75 b2 3d
       -0.05511551 -0.00065700116 0.12816922 0.08713837
0003a0 c6 76 d2 bc b4 dd 7c bd 26 d1 32 3e fa 97 77 bd
       -0.025691401 -0.06173487 0.17462596 -0.06044767
0003b0 d4 4d bf bc 0e 07 02 be 36 9f 1e 3e 52 5d 65 3d
       -0.023352541 -0.12698004 0.15490422 0.0559972
0003c0 f9 a0 3c 3e 17 b0 3e be 4a e7 a6 3d a3 e3 1b 3e
       0.18420781 -0.1862186 0.08149584 0.15223555
0003d0 54 a0 d7 3c 39 3c 19 3e 30 9d 8a bc bb 1c 81 bd
       0.026321568 0.1496438 -0.016920656 -0.06304308
0003e0 90 8a 3c bd 0c 2f 4e be 93 33 50 be 88 9b e3 bc
       -0.04603058 -0.20135134 -0.20332174 -0.027784124
0003f0 a0 d7 77 bd bb 12 0b be 2d ae 25 bd a4 64 02 3e
       -0.06050837 -0.13581364 -0.04044931 0.12733704

arith.constant11 f4 [1, 3, 3, 80]
000000 a7 9d 3a 3d 41 26 f5 bc a3 05 02 be 6c ee 31 be
       0.045560505 -0.029925467 -0.12697463 -0.17376107
000010 f0 66 b9 bc a2 c2 1c 3e 25 02 49 be 25 8d 19 bd
       -0.022632092 0.15308622 -0.19629724 -0.03748812
000020 2c e4 51 3e 7b df 2d be 88 92 a3 bd 02 dc c7 bd
       0.20497197 -0.16979782 -0.07986933 -0.0975876
000030 81 b2 52 bd a1 01 92 bc 2e 1b 9c bb 0e dd 93 bd
       -0.051439766 -0.017823042 -0.0047639823 -0.07219897
000040 34 74 ec 3d c2 d0 3c be 76 dc 14 3d e9 36 38 3e
       0.115456015 -0.1843901 0.03634306 0.17989697
000050 d4 0c b1 bd b1 4a 36 3e 4b fc 13 3e 61 ec 87 3d
       -0.08645025 0.1780193 0.14451711 0.066368826
000060 e0 bc 09 3e 1b 19 0e bd 6a 37 94 bd c6 c3 59 bd
       0.13450956 -0.03469191 -0.07237132 -0.05316522
000070 ed 47 01 3c d4 04 c1 bd 80 15 b9 3d f2 95 f6 bd
       0.007890684 -0.09424749 0.09037304 -0.120403185
000080 90 5d 40 3e ac b2 36 be c8 28 b5 bd 65 8c 20 3d
       0.18785691 -0.17841595 -0.08845669 0.03919639
000090 f9 9a 1e 3e 6b 7a 16 3e 47 3c 23 3e d0 d0 df 3c
       0.15488805 0.14695136 0.15940963 0.02732125
0000a0 d4 ef c5 3d 10 2d 1c bc d3 f3 94 bc 67 e3 b4 3d
       0.09664884 -0.009532228 -0.01818267 0.08832436
0000b0 98 d9 0f be e3 77 24 be 4a a6 ca 3d fe 09 20 3e
       -0.14047849 -0.16061358 0.09894998 0.15628812
0000c0 8e 47 f5 3c ab 07 50 bc 1c 87 dc bd 43 f3 1a be
       0.029941346 -0.012697141 -0.107679576 -0.1513186
0000d0 3b 8b 12 bc af 44 dd bd 69 f0 55 3e ba db 92 3d
       -0.008944328 -0.10804116 0.2089249 0.07170816
0000e0 79 53 d0 3c 1b d5 0a be 17 72 da bd d0 ff 2a 3b
       0.025430428 -0.13557856 -0.10666292 0.0026092418
0000f0 d9 92 fc bc cf e1 ff bd 14 16 03 3e 4d 01 91 3b
       -0.030831741 -0.124942414 0.12801391 0.004425204
000100 ff 82 99 bd df 50 37 3e 15 0a 2a be 3d 47 0b be
       -0.07495689 0.17901944 -0.16605408 -0.13601394
000110 18 81 ce 3c 08 7a bd bd 17 4a 64 3e 35 a3 3d 3e
       0.025208041 -0.09251791 0.22293888 0.1851929
000120 de 1e 81 3c ee 1b 8b 3d 7f c0 b8 bd 71 83 36 3d
       0.015761789 0.067924365 -0.09021091 0.044558946
000130 7c e9 68 3d aa 44 9b 3d d7 e6 ab 3d 0d 3f 9a bc
       0.056863293 0.07581456 0.083936386 -0.018828893
000140 3f 08 81 bd c7 f5 8e 3e 38 b2 a2 bc 54 5e a3 bd
       -0.06300401 0.27921888 -0.019860372 -0.07976976
000150 6e 47 dc bc a7 63 ee 3d 3f 2f ce bd 65 69 16 3d
       -0.02688953 0.11640101 -0.10067605 0.036721606
000160 ae 0c 00 3c f7 df 81 bd e8 65 22 be dc 08 43 3d
       0.007815523 -0.06341546 -0.15859187 0.04761587
000170 ee db 6b 3e 86 f0 b6 bd 3b 59 b7 bd ca a7 12 bc
       0.23033115 -0.08932595 -0.08952566 -0.008951137
000180 8b ec 4c 3e 44 39 24 3e ae 6d 3b bd 1a 8e 1f 3d
       0.20012109 0.1603747 -0.045758896 0.038953878
000190 de 47 31 be d2 c2 fc 3d 11 08 2b bc 40 fa 39 bd
       -0.17312571 0.123418465 -0.010438935 -0.045404673
0001a0 04 b7 27 3d bb 08 00 be 4e 9b 65 bb 05 cd c5 3d
       0.04094602 -0.1250333 -0.0035035196 0.09658245
0001b0 3e 9c b7 3d c3 eb 1e 3d 6e aa d7 bc ee 6a e0 bc
       0.08965348 0.03879906 -0.026326384 -0.027394738
0001c0 b6 f9 d9 3d 5f 99 9e bc a7 e1 9a bc 41 1e f2 bd
       0.10643332 -0.019360242 -0.018906428 -0.11822177
0001d0 25 2b 15 bb e8 a1 98 3d c3 3f 43 be eb 37 19 3e
       -0.0022761312 0.07452756 -0.19067292 0.14962737
0001e0 50 68 3a bd dd 05 d0 3c 9c 52 97 bd 62 bc 68 bd
       -0.045509636 0.02539342 -0.07388803 -0.05682028
0001f0 60 fd 94 3d af b2 03 be 62 e0 ff 3d 9c 4d c6 bd
       0.0727489 -0.12861131 0.124939695 -0.096827716
000200 f5 ad 70 3c 29 11 ec 3d 6b 8d e0 bd de b3 38 bd
       0.014689912 0.115267105 -0.10964473 -0.04509341
000210 4c 4f 3b be 50 39 1e 3e 2d 6a f0 3a 37 72 50 be
       -0.18291968 0.1545155 0.001834219 -0.2035607
000220 03 a5 e4 3d fb 7e 06 3d 81 9d e9 3c c4 d4 df 3d
       0.11164286 0.03283594 0.028517487 0.10929254
000230 5a ad 42 be 26 b6 1a bb 76 10 9c 3d ff 59 2c bd
       -0.19011441 -0.0023607104 0.07620327 -0.042078014
000240 55 3c 17 bd 1d db 40 3e 7c 14 0b be 71 bb e2 bd
       -0.03692277 0.18833585 -0.13582033 -0.11070908
000250 3c b7 a4 3d b8 47 f3 3c 2d 38 01 3e a5 c8 d4 3d
       0.08042762 0.029697284 0.12619086 0.103898324
000260 c3 83 c7 3c 04 6c ef bb 51 f1 99 ba bf 5e 3a bd
       0.024354821 -0.0073065776 -0.0011744892 -0.045500513
000270 de 43 d1 3d f1 72 b5 bb 69 42 d2 3d ca 8b 16 be
       0.10218023 -0.0055373837 0.10266573 -0.14701763
000280 a8 ba 4e 3d 59 18 a3 3c 0a 7f 55 be 2a a5 e6 bb
       0.050470978 0.01990907 -0.20849243 -0.007038732
000290 20 f5 1a bd 50 63 0f 3d 03 c4 8e bd be 10 30 3d
       -0.037831426 0.03500682 -0.0697098 0.042984717
0002a0 e1 c0 5c bd b7 5c c4 3d a7 8f 23 bd d5 ea 9f 3d
       -0.05389488 0.095879965 -0.03993192 0.078084625
0002b0 f4 bd 16 3e 74 37 ad bc a2 06 d7 3c db 77 0b 3d
       0.14720899 -0.021144606 0.02624828 0.03404985
0002c0 1a 9a da bd d5 c3 7d 3d e6 53 bf 3d a3 b8 a7 3c
       -0.10673924 0.061954338 0.09342174 0.020473784
0002d0 3f 6b f1 bd 79 15 5c 3d b8 1b 03 39 c8 11 ca bd
       -0.11788034 0.053731415 0.0001250346 -0.09866673
0002e0 23 69 5b 3d 5d de 0b bd 1d 81 8a 3d 80 73 c0 3d
       0.053567063 -0.03414761 0.06762908 0.0939703
0002f0 df 03 62 3d be 6b 22 be 46 29 6b bd e0 31 cc bd
       0.055179473 -0.15861413 -0.05741241 -0.099704504
000300 fe ec 8f bd 05 ca e2 3c 91 4f c3 3d c7 19 5a bd
       -0.070276245 0.027684221 0.095366605 -0.05324724
000310 19 9e 31 bd 6f cb 02 be ac b0 20 be 62 9e 8c 3d
       -0.043363664 -0.12772916 -0.15692395 0.068661466
000320 6d 05 e1 3d 0e a2 c1 3d 33 56 4a 3d 61 63 76 3c
       0.10987363 0.094547376 0.049398612 0.015038342
000330 4b 1c c3 3c fe 2e b4 bc 13 d2 86 3d d5 2f 16 bd
       0.023817202 -0.021995064 0.06583037 -0.03666671
000340 53 93 f9 3d df 53 3e 3d 92 7e 46 3d 13 8f 69 3c
       0.12186303 0.046466704 0.04846055 0.014255303
000350 7b 89 7d bc 40 04 83 3d 25 c5 43 bd 8f bb f4 3d
       -0.015474672 0.06397295 -0.047795434 0.119498365
000360 8d 2c 3e bd d6 47 32 3d 59 29 10 3d e0 5b a6 bd
       -0.046429206 0.04352554 0.035195682 -0.081229925
000370 84 e6 ad bd 13 56 94 3d c8 05 45 bd bc b4 c7 3d
       -0.08491233 0.0724298 -0.048101217 0.09751269
000380 bb fc 0d 3e 7b aa 97 bb e7 5c f9 bd 11 37 a7 3d
       0.1386594 -0.004628477 -0.12175923 0.081648
000390 97 4a b0 3d 23 68 14 be 17 38 07 be 92 65 42 bd
       0.08607977 -0.1449285 -0.1320499 -0.047460146
0003a0 f4 16 d7 bd ec ea 5a 3c e1 70 25 3e 8c 30 c8 bd
       -0.10502425 0.013361674 0.16156341 -0.097748846
0003b0 40 4d c4 bd 01 42 55 bc 90 11 de bd a8 b6 46 3e
       -0.09585047 -0.013016225 -0.108431935 0.19405615
0003c0 8e 8e f7 3c a5 a8 37 3e 98 8c 5c 3c 70 96 3f 3b
       0.030219343 0.17935427 0.013461255 0.0029233955
0003d0 69 d4 20 bb cc cc 23 3b 4d ec e4 3d a1 e4 ce bd
       -0.0024540669 0.0024993895 0.11177883 -0.10102201
0003e0 e4 fd d4 3d c3 8b 9f 3b 77 00 11 bc 15 6c a0 3d
       0.10399988 0.004868956 -0.0088502085 0.07833115
0003f0 58 c3 b8 bd d5 fa 68 be 63 ea b1 3b a3 44 32 bd
       -0.09021634 -0.22751935 0.0054295524 -0.04352249

arith.constant12 f4 [1, 3, 3, 64]
000000 5f bb 88 be 7f aa 9a 3d 7d 3f 10 be 0d 62 d9 3d
       -0.26705453 0.07552051 -0.14086719 0.10614405
000010 eb e6 de bd 0d 9c 87 bd 7d 16 4d bd c5 28 3b 3e
       -0.10883888 -0.06621561 -0.050070275 0.18277271
000020 32 24 c4 bc c7 1d 0c b9 71 12 83 3d 89 55 4f 3e
       -0.02394304 -0.00013362533 0.06400002 0.20247473
000030 c5 a7 e2 bd c7 72 9f bd 16 b5 14 3e 88 46 1c 3e
       -0.11067156 -0.07785564 0.14522204 0.1526128
000040 18 c8 a0 3c 86 f5 24 3e 7b 11 36 bc cb 09 43 be
       0.019626662 0.16109285 -0.011112566 -0.19046704
000050 e0 d9 8d 3c 0e 36 ae bd 23 ca 01 3e 39 8a 4a bd
       0.017315805 -0.08506404 0.12674765 -0.049448226
000060 f0 7d 9d 3d 00 fb 7f bd 85 d8 a8 3d a8 f0 33 3e
       0.07690036 -0.06249523 0.08244423 0.17572272
000070 c5 92 7c 3c 6f a6 7e 3e 99 6c 13 3d 35 a3 f4 bc
       0.015415852 0.24868177 0.03599224 -0.02986298
000080 0e 0f 10 3e 54 b7 61 be cd c5 98 3c 7b b6 a1 3b
       0.14068243 -0.2204259 0.018649006 0.0049350834
000090 f7 83 02 3d 55 10 11 bd 76 5b b9 3d da 59 c5 bd
       0.031864133 -0.035415966 0.09050648 -0.096362785
0000a0 be 2f 11 bd e8 cb 98 bd ef 5e d8 bc 99 d2 ca 3d
       -0.03544592 -0.07460767 -0.026412455 0.099034496
0000b0 72 02 22 bd ca 24 d8 3d 7d 1a 59 be ce 66 49 be
       -0.039553113 0.10553892 -0.2120151 -0.19668123
0000c0 52 c4 29 3c cb bd 4b bd b8 b1 35 be 70 d6 15 3e
       0.010361748 -0.049741548 -0.17743576 0.14632583
0000d0 23 f2 eb bd cb ca 48 be 04 ca 17 3d 60 01 09 be
       -0.11520793 -0.1960861 0.03705789 -0.13379431
0000e0 bd c0 8d bd d9 61 47 be bf d6 dd bd 8f d7 1e be
       -0.069215275 -0.1947092 -0.10831975 -0.15511917
0000f0 8d cd ab 3d d1 c8 92 3d c9 1d 2a be 77 04 05 3e
       0.08388815 0.07167209 -0.16612925 0.12989984
000100 33 93 01 3d 21 1f f4 3d 4e be 70 bd 16 9c 5b 3d
       0.03163452 0.1192 -0.05877524 0.053615652
000110 0f e8 22 be e0 6c 33 3e 29 82 83 bd 50 14 fb bd
       -0.15908836 0.17522001 -0.064213105 -0.12259734
000120 da 33 b0 3d d5 d4 45 be d2 b7 15 be 09 cc 4f be
       0.0860364 -0.1931947 -0.14620903 -0.20292677
000130 50 bc f0 bc 75 fc 5e 3e 48 f9 de 3d 06 e2 fc bd
       -0.02938667 0.21775992 0.108873904 -0.12347798
000140 1b 3b d8 bd 77 72 11 be 28 4a d2 bd b1 94 3d 3d
       -0.105581485 -0.14203821 -0.102680504 0.04628438
000150 f3 38 41 bd 94 32 d1 3d b3 6e fd bd 2f 2a c7 3d
       -0.04717345 0.10214725 -0.1237463 0.09724843
000160 c7 56 4d 3e a4 b2 aa bd 15 d6 2e be 5a 82 f9 bd
       0.20052634 -0.08334854 -0.17073853 -0.12183066
000170 cc 94 4a 3d f9 09 ae 3d cf 11 0d be b8 67 02 bd
       0.04945831 0.08497996 -0.13776325 -0.031837195
000180 c7 06 0b 3e 73 fd 9e bb c1 c8 10 be 4c 0c 8d 3d
       0.13576804 -0.004851991 -0.14139082 0.06887111
000190 9c 77 03 bd bd d3 9b 3d 4b a0 df bd ef 22 23 be
       -0.03209649 0.07608745 -0.10919245 -0.15931295
0001a0 b7 5a 39 3e 4a 66 de 3d d9 16 8c 3c 05 b9 34 bd
       0.18101011 0.10859354 0.017100738 -0.04412176
0001b0 4b 0b 8c 3b 15 81 f5 3d 77 e0 08 bd 79 63 f9 3d
       0.004273807 0.11987511 -0.03341719 0.12177176
0001c0 09 68 f2 bd 23 c9 33 be df 87 dd 3a be 4e 98 3d
       -0.118362494 -0.17557196 0.0016901455 0.07436894
0001d0 4e 2c 2e 3e 02 ab e6 3d b0 01 ae bb 5d dd 72 bd
       0.17009088 0.11263086 -0.0053102598 -0.05929314
0001e0 3c fb af 3d 26 60 17 3d b1 92 09 be 7d 26 8c 3d
       0.08592841 0.03695693 -0.13434865 0.068432786
0001f0 c0 a3 f9 3d 10 9b 24 3e a7 d8 a2 3d 6b f9 3d 3e
       0.12189436 0.16074777 0.079514794 0.18552177
000200 50 b5 4c 3e fa db 2a 3e ce e4 e8 3d 96 2a a7 bd
       0.1999104 0.16685477 0.11371766 -0.081624195
000210 0f 5d 71 bc b1 ce 8e bd fa 88 60 bd 50 9a 02 bc
       -0.01473166 -0.06973017 -0.05481813 -0.007971361
000220 c2 85 1e bd e6 0c 21 3e d1 fd 0d be 1d 06 5b be
       -0.03870178 0.15727577 -0.13866355 -0.21389051
000230 42 9f 10 be 86 26 87 3d 0e c2 67 bd 06 55 83 3b
       -0.14123252 0.06599145 -0.05658155 0.0040079383
000240 28 ec 2d 3e 6e 8a 24 bd d3 6d 70 3e 20 fb 15 bb
       0.16984618 -0.04017108 0.23479395 -0.0022885278
000250 ed f5 8e bd 6b 45 52 bd d9 31 dc bd cf 07 6b 3d
       -0.069805 -0.051335733 -0.10751695 0.057380494
000260 b9 ea d9 bd 8b 2b 17 be bd e5 e6 bd de 3e bc bb
       -0.10640473 -0.14762704 -0.11274288 -0.005744799
000270 6b 11 db bd c5 8a a5 bd 0d 50 9b bd 76 9e f6 bc
       -0.106966816 -0.08083109 -0.07583628 -0.030104857
000280 a6 a7 b0 bd 30 d4 a7 3c da 76 66 bd 12 e4 9f bc
       -0.086257264 0.020486921 -0.05626569 -0.019517932
000290 d3 f3 bf bd 29 75 32 3d 68 1b 28 bd cd 75 cb bc
       -0.09372678 0.043568764 -0.04104176 -0.024836445
0002a0 0e 4a 9b bd b2 01 dd bd 01 fd 4b 3c 8b c4 c5 3d
       -0.07582484 -0.10791339 0.012450458 0.09656628
0002b0 6d 9f 8b bd ce 85 9d 3d f6 29 32 be 8d 2f 43 bd
       -0.068175174 0.07691537 -0.1739882 -0.04765277
0002c0 14 a7 8d bd d4 75 a2 3c e4 78 84 3e 8f 6b be 3d
       -0.06916633 0.019831575 0.25873482 0.09297859
0002d0 7b 7e e0 bc d3 fd 47 3b 3d 5a 29 3e 6d 5f 17 3e
       -0.02740406 0.0030516281 0.1653833 0.14782496
0002e0 e0 5e fc bd 1f 54 e3 3d d7 13 3d 3e 56 f9 bd 3d
       -0.123227835 0.11100029 0.184646 0.09276073
0002f0 cd a7 74 3b b8 c7 1b bd aa 41 cb 3d dc ab 1a 3d
       0.0037331462 -0.038032264 0.09924634 0.037761554
000300 9d e5 4b bd 17 c4 17 bb c8 92 82 3c 7d e4 9d ba
       -0.049779523 -0.002315765 0.015939131 -0.0012046244
000310 15 ad c1 bc c1 69 0c be ce 5c c4 ba 1e 51 33 3e
       -0.023642102 -0.13712217 -0.0014981271 0.17511413
000320 c4 3a 3e be 04 82 0a 3d 8e 2a 5b be d9 5a b2 bd
       -0.18577105 0.0338154 -0.21402952 -0.08708734
000330 41 f7 92 bd 24 82 cf bd f9 48 f6 bd 73 a6 b2 bd
       -0.07176066 -0.10132244 -0.12025637 -0.08723154
000340 b5 ef 98 3d c4 81 4c be 5e 13 b4 3d b0 b4 31 be
       0.074675955 -0.19971377 0.087927565 -0.17354083
000350 91 cc 37 3d 36 9c 52 be 62 e1 ab 3d 8e 58 ec bd
       0.044872824 -0.20567402 0.08392598 -0.11540328
000360 36 ed 32 be 3c 95 6f bb b4 43 28 be 46 41 fc bd
       -0.17473301 -0.0036557456 -0.16432077 -0.123171374
000370 b0 c1 d1 bd a3 2e a0 3d e8 2b 67 3d 0a 42 01 be
       -0.10242021 0.07821395 0.056438357 -0.12622848
000380 12 1f cd 3d 39 81 da 3d f0 e9 a5 3d ed c0 dd bc
       0.10015692 0.106691785 0.08101261 -0.027069533
000390 f6 a2 05 be 92 36 cc 3d d6 94 28 3e 74 63 9c ba
       -0.13050446 0.09971346 0.16463026 -0.0011931495
0003a0 e5 d6 18 bd 26 13 13 3e e6 de 11 3d 3a cc b5 bd
       -0.037314314 0.14362773 0.035612963 -0.08876844
0003b0 04 77 fb 3d 67 eb e5 bd f1 a4 91 bd fd fd a9 3d
       0.1227856 -0.1122654 -0.07111538 0.083003975
0003c0 fd 97 de bc 49 9e 17 3e 62 d7 ed bd 57 95 87 3c
       -0.027172083 0.14806475 -0.11613347 0.016550703
0003d0 10 4c 37 bd c6 a8 b3 bd d7 2b 1c be 95 38 e6 bd
       -0.044750273 -0.08772425 -0.15251099 -0.11241261
0003e0 8f 2c 1d 3e 6c 5c 12 bd fc b5 ba bc a6 a4 be bd
       0.15349029 -0.03573267 -0.022791855 -0.09308748
0003f0 11 bd ab 3d f2 b4 96 bc 01 b6 34 bc e6 90 dd bd
       0.08385671 -0.018396828 -0.011029721 -0.10818653

arith.constant13 f4 [1, 3, 3, 96]
000000 33 ae 27 3e 2c 38 c5 3d 5d 7c 26 bd a2 fc b3 bd
       0.16375045 0.096298546 -0.040645946 -0.0878842
000010 a5 b9 38 be 3e ed 89 bc 1a cd 85 bd 1d 26 3b be
       -0.18039568 -0.016836759 -0.06533261 -0.18276258
000020 6e bd 9c bd c1 1f 18 3d bc 78 f0 bd 7c db 29 3c
       -0.07653318 0.037139658 -0.11741778 0.010367271
000030 c9 2e cd 3c c8 32 93 3c 55 4e ce bd c0 d7 b0 3d
       0.025046723 0.01796855 -0.100735344 0.08634901
000040 20 25 6e 3d 40 63 d8 bd b6 40 8d 3d 35 3b dc bd
       0.058140874 -0.105658054 0.06897108 -0.1075348
000050 f6 c7 cd bd f9 cd ea 3d 9c ce b5 3d c4 84 04 bc
       -0.10047905 0.114650674 0.08877298 -0.008088294
000060 92 16 11 bd 55 7b 4e 3e c0 b4 5d bc c5 86 dc bd
       -0.035421915 0.20164235 -0.013531864 -0.10767893
000070 65 e9 b1 bd 8c 73 e8 ba 3f ad 2d 3e c7 47 db 3c
       -0.086870946 -0.0017734631 0.1696062 0.026767625
000080 b5 5c 80 3c b0 47 a8 bd 24 61 52 3d 73 08 e7 bd
       0.015669206 -0.08216798 0.05136217 -0.112809084
000090 65 c6 dc bd eb d2 98 3d 22 2e 2d be 58 14 d6 bc
       -0.10780028 0.074621044 -0.1691213 -0.026132748
0000a0 15 ed dd bb 9a 7e 85 3d 7d 96 95 bd 24 42 e8 3d
       -0.006772647 0.06518288 -0.07304094 0.1134074
0000b0 68 50 22 be 2d 98 b5 bd 0f 4c a0 bd 16 f0 46 3d
       -0.15850985 -0.08866916 -0.07827007 0.048568808
0000c0 1b 92 86 bb b5 34 c4 3d bd 8b c2 bd e3 b5 19 3e
       -0.0041067726 0.095803656 -0.09499309 0.1501079
0000d0 50 3c c6 3d 9b f8 0b be 01 90 3b bd cb 6f bb bd
       0.096794724 -0.13669054 -0.04579163 -0.09152182
0000e0 5c 3a 90 bd 67 76 43 be 00 25 07 be a4 67 69 3d
       -0.07042381 -0.19088136 -0.13197708 0.056983605
0000f0 8a 0c 4b bd b9 ce 7f 3d 88 16 c1 bd 9f a6 bd 3d
       -0.049572505 0.062453005 -0.094281256 0.09260296
000100 15 bc 85 bc a6 43 9b bd 5f d0 ea 3b 7d da c7 3c
       -0.016325036 -0.07581262 0.007165953 0.024396176
000110 ad ba fc bd 4a 7e dc bd 7e 3d 5c 3d 23 98 5b 3e
       -0.12340293 -0.10766275 0.05376958 0.21444754
000120 06 4a 18 3e 56 e5 32 3e 2b 73 1e be b0 2e 95 3c
       0.14871988 0.17470297 -0.1547362 0.018210739
000130 57 a6 29 3e 39 d4 78 bb 49 81 a9 bd 7d 5b a8 3d
       0.1656736 -0.0037968291 -0.08276612 0.08220575
000140 b1 15 e6 bd e5 3a 91 bb 1e 3e 61 be 8b c4 09 bd
       -0.11234606 -0.0044320696 -0.21996352 -0.033634704
000150 7d 66 46 be a0 11 8b bd 74 38 71 3d 21 57 ab 3c
       -0.19375034 -0.06790471 0.05889173 0.02091557
000160 39 e6 6e bd f6 52 97 bc c5 f8 22 3e 73 01 c7 3d
       -0.058325026 -0.018472176 0.1591521 0.09717073
000170 2e 05 36 3d 06 1e db bc 7e 92 8f 3d 88 76 9e 3d
       0.044438533 -0.026747715 0.07010363 0.07737452
000180 f7 ca 7b 3a 5c 26 df bd 05 e2 ab bd 01 63 00 be
       0.0009605134 -0.10895988 -0.08392719 -0.12537767
000190 2b f1 e5 bd 10 39 46 3e a6 ec f0 bd 7a 7a 24 be
       -0.1122764 0.19357705 -0.11763887 -0.16062346
0001a0 2f ac a3 3c 26 78 43 3d 92 d6 8d bc ba 4e 0c 3d
       0.019979564 0.047722004 -0.01731423 0.034254767
0001b0 6b 82 d4 bd e2 c7 c9 3d fe 55 9f bd f6 b7 1f be
       -0.10376438 0.09852578 -0.077800736 -0.1559752
0001c0 56 5b 15 bc 8d aa e4 bd 44 42 2f bc 75 ea 2b 3e
       -0.0091160145 -0.111653425 -0.010696951 0.16788657
0001d0 39 66 91 bd 96 b6 4b 3d 22 e6 cb bd 90 6b 36 be
       -0.070995755 0.049734674 -0.09956004 -0.1781447
0001e0 c9 5c 07 3e 35 f8 7c bc 89 df b0 3d 06 66 48 be
       0.13218988 -0.015440037 0.08636386 -0.19570169
0001f0 0c e9 02 3d 75 ee eb bd 5d 2e 3c be 88 98 89 bd
       0.031960532 -0.115200914 -0.18377061 -0.06718546
000200 1b 63 98 bd d8 14 69 bd ab a2 a2 bc 2f b7 59 3d
       -0.07440778 -0.056904644 -0.019852957 0.053153213
000210 75 5e 28 3c cb 9a a0 3c 16 25 0b 3e 6c 56 47 3c
       0.010276427 0.019605061 0.13588366 0.012166601
000220 61 d6 bd bd 74 a2 2b 3e f6 a9 99 3d 0c c0 f4 bc
       -0.09269405 0.1676119 0.075031206 -0.029876731
000230 65 d2 e5 bd d4 bc 07 3e 24 1d 10 bd 9c 93 ed bd
       -0.1122177 0.13255626 -0.03518404 -0.1160042
000240 01 a9 eb bd 0d 61 fb bd 03 a8 a3 bd 51 89 50 3d
       -0.11506844 -0.1227437 -0.0799103 0.050912205
000250 c7 30 6a bb ba f9 ef bd d2 74 16 3d bd 3d 61 bd
       -0.003573464 -0.117175534 0.036732502 -0.05499052
000260 71 de 81 3d ba 4f 79 3d 05 f8 02 be a0 d2 64 3d
       0.063412555 0.06086705 -0.12789924 0.05586493
000270 4c 13 ad 3d 4a 9e 44 3e 7a ad 69 3d 42 7f 53 bd
       0.08450946 0.19201007 0.057050206 -0.051635034
000280 93 0a 55 3d 72 ad af 3c 12 c1 fd bc 18 5c 74 3d
       0.052012037 0.02144501 -0.030975852 0.05965814
000290 dd 0e aa b9 3b f3 ac bd ec ff 25 be 9f 73 4b 3c
       -0.00032436 -0.0844483 -0.16210908 0.012417703
0002a0 14 50 9d 3c d2 71 44 3d 0d 4f ed bd d5 07 e0 3d
       0.019203223 0.04796011 -0.11587343 0.10938994
0002b0 a7 3e 83 bd 28 6e 11 be 13 5e 61 bb 1e b1 ea 3d
       -0.06408434 -0.14202178 -0.0034388348 0.11459564
0002c0 92 07 01 3e 39 aa 16 3c 16 68 95 3b b9 ba ea 3b
       0.12600544 0.009195858 0.004559527 0.0071633724
0002d0 d6 35 fd 3c 48 36 16 3e 20 19 b3 3a d9 1e 02 be
       0.03090946 0.14669144 0.0013664104 -0.1270708
0002e0 12 e6 7b 3d 4e 46 dd bc a8 58 fd bd e9 ce ae 3d
       0.06149871 -0.027011063 -0.123704255 0.08535559
0002f0 5c 0a 03 3e 70 3b 8b 3d 24 5f 51 bd f2 8c 00 3e
       0.1279692 0.06798446 -0.051116124 0.12553766
000300 65 8b a5 bd cd de 0b be cb db ea 3d 6c a4 2c bd
       -0.08083228 -0.1365921 0.114677034 -0.042148992
000310 7b c5 a6 3b e0 55 58 3d 66 e5 59 bd 69 1e b6 3d
       0.0050894595 0.05281627 -0.053197287 0.08892519
000320 17 5d b2 3b 59 62 d7 3d 3a 04 ce 3c f5 cb 07 3e
       0.005443226 0.10516805 0.0251485 0.13261397
000330 3d 33 2e be 87 ee 8b 3d 98 35 7c 3d 15 6a 25 bc
       -0.17011733 0.06832605 0.06157455 -0.010096093
000340 ae 41 a5 bd ff 4b 83 3c 79 87 1f 3e 5f 3e 3a 3e
       -0.08069168 0.016027449 0.15579022 0.18187855
000350 99 4a ca 3c c6 65 d4 bd af 5f 74 3e 42 ba 03 be
       0.024693774 -0.10370974 0.23864625 -0.1286402
000360 8d 35 9b 3c ac 90 18 be 9a 4a fc bc 24 b5 32 3d
       0.018946433 -0.14898938 -0.030797292 0.04362978
000370 f2 47 0c be b9 d0 1a 3c f5 a9 a5 bd b5 5e 11 3e
       -0.1369932 0.009449177 -0.08089057 0.14196284
000380 70 fc e0 bc f8 88 fa bc fc ee 84 b9 74 5e 6b 3d
       -0.027464122 -0.03058289 -0.0002535506 0.057463124
000390 8e 35 d8 3d a1 2e 95 3d cf 92 20 3d 33 1e 48 3d
       0.1055709 0.072842844 0.039202508 0.048856925
0003a0 b3 76 84 3d 84 c4 b2 3d 8e 83 3b 3e 0e fa bd bd
       0.064679526 0.08728889 0.18311903 -0.0927621
0003b0 eb 76 46 3b 95 f0 b3 bd 55 51 55 bc f3 ed e7 bd
       0.0030283283 -0.08786122 -0.013019879 -0.11324682
0003c0 30 a7 a8 3b 85 71 d0 3d bb ea 94 3d 02 de da bc
       0.0051468834 0.10177902 0.07271334 -0.02671719
0003d0 d9 c8 10 bd 0f 0e b5 3c d2 3d 7a bd 2e d0 e4 3d
       -0.035347793 0.02210143 -0.061094113 0.111725196
0003e0 23 33 a4 3d 6e 0d bf bd 08 96 6e bd e4 4c 16 bd
       0.08017566 -0.093287334 -0.05824855 -0.036694422
0003f0 a4 1d dc 3d 90 2f c4 bc f1 a8 1f 3e 9a d5 ca bd
       0.10747841 -0.02394846 0.1559179 -0.099040225
