Final Project/Q4/headers/mobilenetv1.tflite (tflite, 305232 bytes, 28 tensors)

tfl.pseudo_qconst1 i1 [10, 256]
0	0x0b	11
1	0x11	17
2	0x10	16
3	0xd6	-42
4	0x21	33
5	0x0a	10
6	0xcd	-51
7	0x1c	28
8	0xd9	-39
9	0xdb	-37
10	0x07	7
11	0x02	2
12	0xb5	-75
13	0xd9	-39
14	0x0e	14
15	0xb2	-78
16	0xc4	-60
17	0x10	16
18	0x1b	27
19	0x10	16
20	0xf9	-7
21	0x0d	13
22	0xd0	-48
23	0x0a	10
24	0x2b	43
25	0x03	3
26	0xb7	-73
27	0x24	36
28	0xda	-38
29	0x06	6
30	0x1a	26
31	0x08	8
32	0xe9	-23
33	0x1e	30
34	0x81	-127
35	0x13	19
36	0xfe	-2
37	0xad	-83
38	0xcb	-53
39	0xff	-1
40	0xa8	-88
41	0x07	7
42	0x18	24
43	0x1a	26
44	0xc4	-60
45	0xc0	-64
46	0x1b	27
47	0x1b	27
48	0x17	23
49	0xcf	-49
50	0xe8	-24
51	0xa3	-93
52	0x87	-121
53	0x12	18
54	0x18	24
55	0x15	21
56	0xd6	-42
57	0x1f	31
58	0x04	4
59	0xfb	-5
60	0xac	-84
61	0xdb	-37
62	0xee	-18
63	0x1f	31
64	0xe1	-31
65	0xd6	-42
66	0xbc	-68
67	0xdc	-36
68	0x1d	29
69	0xed	-19
70	0x1f	31
71	0x1e	30
72	0xca	-54
73	0x12	18
74	0x0a	10
75	0xac	-84
76	0x10	16
77	0xd4	-44
78	0x11	17
79	0x11	17
80	0x9a	-102
81	0x20	32
82	0x0f	15
83	0x13	19
84	0xbe	-66
85	0x20	32
86	0x07	7
87	0x20	32
88	0xbf	-65
89	0x91	-111
90	0x14	20
91	0xdb	-37
92	0x19	25
93	0xfc	-4
94	0xfe	-2
95	0xff	-1
96	0x12	18
97	0xfa	-6
98	0x07	7
99	0xed	-19
100	0x12	18
101	0xb6	-74
102	0xe1	-31
103	0x12	18
104	0xb4	-76
105	0x15	21
106	0x1d	29
107	0x14	20
108	0x1b	27
109	0xe2	-30
110	0xe2	-30
111	0x1e	30
112	0x22	34
113	0xfc	-4
114	0x28	40
115	0x17	23
116	0x1b	27
117	0xb5	-75
118	0x03	3
119	0xf8	-8
120	0xf0	-16
121	0x28	40
122	0x18	24
123	0x15	21
124	0x1b	27
125	0x0f	15
126	0x0e	14
127	0xb4	-76
128	0x1a	26
129	0x17	23
130	0xdb	-37
131	0x16	22
132	0xda	-38
133	0xd5	-43
134	0xa9	-87
135	0x1b	27
136	0x22	34
137	0x8a	-118
138	0x0f	15
139	0xf8	-8
140	0xd7	-41
141	0xec	-20
142	0xa5	-91
143	0xb3	-77
144	0x26	38
145	0x02	2
146	0xcb	-53
147	0xf0	-16
148	0x22	34
149	0x11	17
150	0x11	17
151	0xfe	-2
152	0xdc	-36
153	0x18	24
154	0x19	25
155	0xe6	-26
156	0xff	-1
157	0x1c	28
158	0xd9	-39
159	0x1f	31
160	0x17	23
161	0x1d	29
162	0x26	38
163	0xb1	-79
164	0xc0	-64
165	0xe8	-24
166	0x0f	15
167	0x19	25
168	0x16	22
169	0x07	7
170	0x1a	26
171	0x1d	29
172	0xec	-20
173	0xb5	-75
174	0xdb	-37
175	0xb1	-79
176	0xf1	-15
177	0x1b	27
178	0xee	-18
179	0xec	-20
180	0x23	35
181	0x17	23
182	0xab	-85
183	0x97	-105
184	0x20	32
185	0x00	0
186	0xb2	-78
187	0xde	-34
188	0xf9	-7
189	0xc7	-57
190	0x10	16
191	0xfe	-2
192	0xa3	-93
193	0xe3	-29
194	0xbd	-67
195	0xeb	-21
196	0xf7	-9
197	0x1a	26
198	0xdc	-36
199	0xb9	-71
200	0x1d	29
201	0xc1	-63
202	0xd8	-40
203	0x8c	-116
204	0xe3	-29
205	0xaa	-86
206	0x0b	11
207	0xe9	-23
208	0xcc	-52
209	0x1f	31
210	0x1e	30
211	0x1d	29
212	0x02	2
213	0xcb	-53
214	0x19	25
215	0x98	-104
216	0xfb	-5
217	0x16	22
218	0xfd	-3
219	0x14	20
220	0xf7	-9
221	0x19	25
222	0xab	-85
223	0x07	7
224	0x15	21
225	0xd4	-44
226	0x0a	10
227	0xf3	-13
228	0xcf	-49
229	0xee	-18
230	0x29	41
231	0x1f	31
232	0xfc	-4
233	0xe3	-29
234	0x23	35
235	0xb7	-73
236	0xc3	-61
237	0x02	2
238	0x00	0
239	0x1d	29
240	0x22	34
241	0xaa	-86
242	0xda	-38
243	0xe5	-27
244	0x1b	27
245	0x28	40
246	0x09	9
247	0xbd	-67
248	0xeb	-21
249	0x20	32
250	0x1b	27
251	0x29	41
252	0x0c	12
253	0xe0	-32
254	0xd7	-41
255	0x18	24

tfl.pseudo_qconst3 i1 [256, 1, 1, 256]
0	0xe3	-29
1	0x23	35
2	0x2d	45
3	0xc6	-58
4	0xdb	-37
5	0x0e	14
6	0xf5	-11
7	0x2c	44
8	0xfb	-5
9	0x43	67
10	0x14	20
11	0x04	4
12	0x25	37
13	0x1e	30
14	0x0e	14
15	0xf7	-9
16	0x21	33
17	0xf7	-9
18	0x1f	31
19	0x27	39
20	0xf4	-12
21	0x0e	14
22	0xd6	-42
23	0x21	33
24	0x09	9
25	0x17	23
26	0x41	65
27	0x03	3
28	0x2c	44
29	0x03	3
30	0xf3	-13
31	0x11	17
32	0x09	9
33	0xec	-20
34	0xb7	-73
35	0x04	4
36	0xfc	-4
37	0x1a	26
38	0xd6	-42
39	0x07	7
40	0xe9	-23
41	0xef	-17
42	0x0c	12
43	0x06	6
44	0x00	0
45	0xed	-19
46	0x2c	44
47	0xfe	-2
48	0xf4	-12
49	0xf4	-12
50	0x5f	95
51	0xf8	-8
52	0xff	-1
53	0xf2	-14
54	0x10	16
55	0xfe	-2
56	0x01	1
57	0xdb	-37
58	0xd2	-46
59	0x0b	11
60	0xee	-18
61	0x07	7
62	0xcd	-51
63	0xe4	-28
64	0x0c	12
65	0xce	-50
66	0xd9	-39
67	0xf0	-16
68	0xf2	-14
69	0x0a	10
70	0x0d	13
71	0x09	9
72	0x50	80
73	0xfb	-5
74	0xd7	-41
75	0x1f	31
76	0xea	-22
77	0xdf	-33
78	0x02	2
79	0xc5	-59
80	0xf1	-15
81	0xfb	-5
82	0x0a	10
83	0x1c	28
84	0x0e	14
85	0xee	-18
86	0x6f	111
87	0x08	8
88	0x1d	29
89	0x03	3
90	0x7f	127
91	0xf5	-11
92	0x14	20
93	0x07	7
94	0x1b	27
95	0x02	2
96	0x02	2
97	0x22	34
98	0x13	19
99	0xe9	-23
100	0xde	-34
101	0xea	-22
102	0x0c	12
103	0x09	9
104	0x00	0
105	0xdf	-33
106	0x1f	31
107	0x07	7
108	0x06	6
109	0x38	56
110	0x1f	31
111	0xfe	-2
112	0xec	-20
113	0x01	1
114	0x5c	92
115	0xf7	-9
116	0x0b	11
117	0x0f	15
118	0xe6	-26
119	0xf2	-14
120	0xfc	-4
121	0x01	1
122	0xf4	-12
123	0x13	19
124	0x0a	10
125	0x13	19
126	0xd0	-48
127	0xe9	-23
128	0x03	3
129	0x4b	75
130	0x06	6
131	0xfa	-6
132	0xf7	-9
133	0xf5	-11
134	0xea	-22
135	0x13	19
136	0xee	-18
137	0xbe	-66
138	0xf6	-10
139	0x60	96
140	0xed	-19
141	0x0e	14
142	0x0b	11
143	0xf9	-7
144	0x09	9
145	0xe2	-30
146	0xf4	-12
147	0x49	73
148	0x01	1
149	0xe0	-32
150	0xfb	-5
151	0x15	21
152	0x01	1
153	0xff	-1
154	0xe0	-32
155	0x27	39
156	0x10	16
157	0xdc	-36
158	0xcc	-52
159	0x2a	42
160	0xef	-17
161	0xee	-18
162	0x12	18
163	0xf5	-11
164	0xdd	-35
165	0xce	-50
166	0x0e	14
167	0x24	36
168	0xdf	-33
169	0x21	33
170	0x1a	26
171	0x10	16
172	0x16	22
173	0x09	9
174	0x06	6
175	0xed	-19
176	0xff	-1
177	0xf2	-14
178	0xe3	-29
179	0xe6	-26
180	0xbb	-69
181	0x23	35
182	0xe4	-28
183	0xf3	-13
184	0x11	17
185	0xfc	-4
186	0x0e	14
187	0xde	-34
188	0x23	35
189	0xf1	-15
190	0x0f	15
191	0x0f	15
192	0x2f	47
193	0xf6	-10
194	0xf4	-12
195	0x29	41
196	0x1d	29
197	0x3e	62
198	0xd4	-44
199	0x21	33
200	0x02	2
201	0xc0	-64
202	0x14	20
203	0xf1	-15
204	0xf0	-16
205	0xd2	-46
206	0x29	41
207	0xeb	-21
208	0x1f	31
209	0xf3	-13
210	0xed	-19
211	0x0a	10
212	0xe3	-29
213	0x03	3
214	0x09	9
215	0xfb	-5
216	0x3f	63
217	0xfa	-6
218	0xf2	-14
219	0xfa	-6
220	0x1e	30
221	0x02	2
222	0xc0	-64
223	0xe3	-29
224	0x0d	13
225	0x08	8
226	0xd7	-41
227	0xe8	-24
228	0xec	-20
229	0x08	8
230	0x2a	42
231	0xf9	-7
232	0xdd	-35
233	0x10	16
234	0xe2	-30
235	0xd9	-39
236	0xdd	-35
237	0xee	-18
238	0x1c	28
239	0x0c	12
240	0x06	6
241	0x0d	13
242	0x07	7
243	0xf9	-7
244	0xd6	-42
245	0x22	34
246	0x35	53
247	0x28	40
248	0x1f	31
249	0xed	-19
250	0xe3	-29
251	0x03	3
252	0x0e	14
253	0xa4	-92
254	0xf4	-12
255	0xf0	-16

tfl.pseudo_qconst5 i1 [1, 3, 3, 256]
0	0xf9	-7
1	0xa7	-89
2	0xf0	-16
3	0x35	53
4	0x20	32
5	0x14	20
6	0xf8	-8
7	0x28	40
8	0xfd	-3
9	0x23	35
10	0x34	52
11	0xf5	-11
12	0x7f	127
13	0x5d	93
14	0x62	98
15	0x0d	13
16	0x1c	28
17	0x49	73
18	0xfa	-6
19	0x12	18
20	0x00	0
21	0xe8	-24
22	0x90	-112
23	0xec	-20
24	0x9a	-102
25	0x0c	12
26	0x0d	13
27	0x2c	44
28	0xf7	-9
29	0xf5	-11
30	0x1a	26
31	0xef	-17
32	0xca	-54
33	0x73	115
34	0xe2	-30
35	0x05	5
36	0x1b	27
37	0xb2	-78
38	0xec	-20
39	0x07	7
40	0xf8	-8
41	0xc9	-55
42	0xf3	-13
43	0xfb	-5
44	0xc1	-63
45	0xd0	-48
46	0xda	-38
47	0xde	-34
48	0x43	67
49	0x17	23
50	0x81	-127
51	0xcb	-53
52	0xa5	-91
53	0xf3	-13
54	0x7f	127
55	0x07	7
56	0xd7	-41
57	0xef	-17
58	0x26	38
59	0xc1	-63
60	0x84	-124
61	0xcc	-52
62	0xcb	-53
63	0xdb	-37
64	0x10	16
65	0x7f	127
66	0x2b	43
67	0xfb	-5
68	0x91	-111
69	0xc9	-55
70	0x1a	26
71	0x35	53
72	0x2a	42
73	0x25	37
74	0xb2	-78
75	0xbc	-68
76	0xd5	-43
77	0x31	49
78	0xb3	-77
79	0xef	-17
80	0x1b	27
81	0x58	88
82	0x16	22
83	0x81	-127
84	0xb5	-75
85	0xd2	-46
86	0x4f	79
87	0x32	50
88	0xa6	-90
89	0x3f	63
90	0x14	20
91	0x22	34
92	0x38	56
93	0xa4	-92
94	0xd7	-41
95	0x1f	31
96	0x01	1
97	0x87	-121
98	0xff	-1
99	0x32	50
100	0xbd	-67
101	0xa1	-95
102	0xde	-34
103	0x83	-125
104	0x6e	110
105	0x0b	11
106	0xb8	-72
107	0x24	36
108	0x04	4
109	0x07	7
110	0x4f	79
111	0xd7	-41
112	0x1c	28
113	0x0a	10
114	0x18	24
115	0x12	18
116	0xf1	-15
117	0xf0	-16
118	0x34	52
119	0x0f	15
120	0xd0	-48
121	0xe0	-32
122	0x0a	10
123	0xed	-19
124	0x14	20
125	0xcd	-51
126	0x5d	93
127	0x10	16
128	0xfd	-3
129	0xd6	-42
130	0x7f	127
131	0xa5	-91
132	0xce	-50
133	0x7f	127
134	0x30	48
135	0x34	52
136	0xbe	-66
137	0x11	17
138	0xb4	-76
139	0x06	6
140	0xbf	-65
141	0x62	98
142	0xca	-54
143	0xe0	-32
144	0xe2	-30
145	0x7f	127
146	0xcc	-52
147	0xee	-18
148	0xd4	-44
149	0x7f	127
150	0xe9	-23
151	0x81	-127
152	0xf4	-12
153	0x78	120
154	0x20	32
155	0xe8	-24
156	0x7f	127
157	0xde	-34
158	0xdd	-35
159	0x5e	94
160	0xcd	-51
161	0xfe	-2
162	0xf2	-14
163	0xcd	-51
164	0xc7	-57
165	0xd8	-40
166	0xb9	-71
167	0x0b	11
168	0xac	-84
169	0xd5	-43
170	0xf1	-15
171	0x07	7
172	0x98	-104
173	0x81	-127
174	0x56	86
175	0xdc	-36
176	0x9a	-102
177	0xb5	-75
178	0xbf	-65
179	0x21	33
180	0x53	83
181	0xfb	-5
182	0x5e	94
183	0xcc	-52
184	0x23	35
185	0x23	35
186	0x1a	26
187	0xba	-70
188	0xe4	-28
189	0x81	-127
190	0x27	39
191	0x17	23
192	0x37	55
193	0xfe	-2
194	0xde	-34
195	0x35	53
196	0xf1	-15
197	0x63	99
198	0xa7	-89
199	0xa2	-94
200	0x7f	127
201	0x46	70
202	0xd2	-46
203	0x3b	59
204	0x9a	-102
205	0x9d	-99
206	0xcd	-51
207	0x27	39
208	0x11	17
209	0x81	-127
210	0xb5	-75
211	0xdc	-36
212	0xec	-20
213	0x3b	59
214	0xf6	-10
215	0xaa	-86
216	0x81	-127
217	0xf1	-15
218	0x49	73
219	0x81	-127
220	0x33	51
221	0xca	-54
222	0x67	103
223	0x7f	127
224	0x7f	127
225	0x1f	31
226	0x81	-127
227	0x1d	29
228	0x0d	13
229	0x13	19
230	0x39	57
231	0xff	-1
232	0x50	80
233	0x81	-127
234	0xfe	-2
235	0xfc	-4
236	0x09	9
237	0x47	71
238	0xaf	-81
239	0x81	-127
240	0xa2	-94
241	0xe9	-23
242	0x4c	76
243	0x3f	63
244	0xc7	-57
245	0x13	19
246	0x1b	27
247	0x28	40
248	0xf5	-11
249	0xdf	-33
250	0x13	19
251	0x7f	127
252	0xf6	-10
253	0x77	119
254	0xd5	-43
255	0x14	20

tfl.pseudo_qconst7 i1 [256, 1, 1, 128]
0	0xfb	-5
1	0xf5	-11
2	0xf7	-9
3	0xe7	-25
4	0x35	53
5	0xcb	-53
6	0x25	37
7	0xde	-34
8	0x0a	10
9	0x04	4
10	0xfb	-5
11	0xf3	-13
12	0x0c	12
13	0x21	33
14	0x13	19
15	0x15	21
16	0x04	4
17	0xea	-22
18	0x7f	127
19	0xda	-38
20	0x16	22
21	0x1b	27
22	0xd0	-48
23	0x0a	10
24	0xef	-17
25	0xf9	-7
26	0xe4	-28
27	0x0b	11
28	0xc9	-55
29	0xf8	-8
30	0xe7	-25
31	0x20	32
32	0xf3	-13
33	0xdf	-33
34	0x05	5
35	0xf2	-14
36	0x1a	26
37	0xea	-22
38	0xe4	-28
39	0x61	97
40	0x00	0
41	0xdf	-33
42	0x07	7
43	0x15	21
44	0xf4	-12
45	0xb4	-76
46	0x10	16
47	0xd1	-47
48	0xed	-19
49	0xf6	-10
50	0xf8	-8
51	0x06	6
52	0x11	17
53	0x1a	26
54	0x03	3
55	0x02	2
56	0xe1	-31
57	0x1b	27
58	0xf8	-8
59	0x10	16
60	0xfb	-5
61	0xfb	-5
62	0xfc	-4
63	0xbd	-67
64	0x02	2
65	0x24	36
66	0xdd	-35
67	0xf1	-15
68	0xf3	-13
69	0x26	38
70	0x16	22
71	0xf0	-16
72	0x05	5
73	0xe6	-26
74	0x01	1
75	0xf5	-11
76	0xf9	-7
77	0x15	21
78	0xcd	-51
79	0xea	-22
80	0xf9	-7
81	0xeb	-21
82	0xfc	-4
83	0x0f	15
84	0x11	17
85	0x29	41
86	0x15	21
87	0xf7	-9
88	0xf3	-13
89	0x2d	45
90	0xf7	-9
91	0xf4	-12
92	0xed	-19
93	0xf0	-16
94	0xfa	-6
95	0xff	-1
96	0x04	4
97	0x06	6
98	0xc7	-57
99	0x0a	10
100	0xd7	-41
101	0xfc	-4
102	0x0c	12
103	0xfe	-2
104	0xfe	-2
105	0xe4	-28
106	0xe4	-28
107	0x2a	42
108	0xd2	-46
109	0xee	-18
110	0xef	-17
111	0xf4	-12
112	0xeb	-21
113	0x00	0
114	0xf6	-10
115	0x24	36
116	0xfb	-5
117	0x11	17
118	0x04	4
119	0xf6	-10
120	0xf4	-12
121	0xf4	-12
122	0x28	40
123	0xed	-19
124	0x02	2
125	0x11	17
126	0x18	24
127	0xfe	-2
128	0x0f	15
129	0xed	-19
130	0xf9	-7
131	0x0e	14
132	0x0d	13
133	0x1c	28
134	0x0d	13
135	0xbc	-68
136	0xeb	-21
137	0xdb	-37
138	0xeb	-21
139	0x31	49
140	0x03	3
141	0xf2	-14
142	0xea	-22
143	0x2f	47
144	0x30	48
145	0xda	-38
146	0x0a	10
147	0x46	70
148	0xfc	-4
149	0xff	-1
150	0xe1	-31
151	0xe9	-23
152	0xf7	-9
153	0x06	6
154	0x1d	29
155	0xf1	-15
156	0x0e	14
157	0xfa	-6
158	0x03	3
159	0xdb	-37
160	0x24	36
161	0x13	19
162	0x14	20
163	0xe0	-32
164	0x5c	92
165	0x04	4
166	0x17	23
167	0xcc	-52
168	0xc3	-61
169	0xf7	-9
170	0xd7	-41
171	0xbf	-65
172	0x01	1
173	0xbc	-68
174	0xe8	-24
175	0xe7	-25
176	0xec	-20
177	0xfa	-6
178	0x25	37
179	0xee	-18
180	0xe1	-31
181	0x13	19
182	0xcf	-49
183	0xf1	-15
184	0xed	-19
185	0xda	-38
186	0x07	7
187	0x14	20
188	0x1d	29
189	0xe9	-23
190	0x0b	11
191	0xfb	-5
192	0xd8	-40
193	0xf9	-7
194	0x0b	11
195	0x18	24
196	0x07	7
197	0x04	4
198	0x0d	13
199	0xec	-20
200	0xea	-22
201	0x03	3
202	0x1b	27
203	0x25	37
204	0xeb	-21
205	0xde	-34
206	0x0f	15
207	0x39	57
208	0xee	-18
209	0x1a	26
210	0x10	16
211	0x2b	43
212	0x0b	11
213	0xe2	-30
214	0x3a	58
215	0xe2	-30
216	0xe7	-25
217	0xd9	-39
218	0x11	17
219	0xcd	-51
220	0x24	36
221	0xfd	-3
222	0x04	4
223	0x7f	127
224	0x1f	31
225	0x08	8
226	0xe4	-28
227	0xef	-17
228	0x01	1
229	0xfe	-2
230	0x0a	10
231	0xe4	-28
232	0xd1	-47
233	0x36	54
234	0x0f	15
235	0xf3	-13
236	0xf4	-12
237	0x0d	13
238	0xed	-19
239	0x01	1
240	0xf3	-13
241	0x18	24
242	0xf4	-12
243	0x08	8
244	0xea	-22
245	0x0a	10
246	0x2f	47
247	0xfe	-2
248	0x0c	12
249	0xe4	-28
250	0xe6	-26
251	0xed	-19
252	0xed	-19
253	0x1c	28
254	0xe4	-28
255	0xe6	-26

tfl.pseudo_qconst9 i1 [1, 3, 3, 128]
0	0xfb	-5
1	0x81	-127
2	0x0c	12
3	0x15	21
4	0x7f	127
5	0x81	-127
6	0xce	-50
7	0xf4	-12
8	0xf3	-13
9	0xe0	-32
10	0x90	-112
11	0xfc	-4
12	0x7f	127
13	0xac	-84
14	0xe1	-31
15	0x7f	127
16	0x35	53
17	0x4d	77
18	0x7f	127
19	0xd3	-45
20	0xdb	-37
21	0xe8	-24
22	0x36	54
23	0xeb	-21
24	0x78	120
25	0x1f	31
26	0x7f	127
27	0xfc	-4
28	0x95	-107
29	0x81	-127
30	0x70	112
31	0x64	100
32	0x17	23
33	0x30	48
34	0xf3	-13
35	0x00	0
36	0x3c	60
37	0x0a	10
38	0x15	21
39	0xe3	-29
40	0x64	100
41	0x07	7
42	0x9c	-100
43	0x32	50
44	0xf0	-16
45	0xda	-38
46	0xf2	-14
47	0xcc	-52
48	0xf6	-10
49	0xc2	-62
50	0xc0	-64
51	0xd1	-47
52	0x2b	43
53	0x12	18
54	0xa1	-95
55	0x69	105
56	0xeb	-21
57	0x53	83
58	0xf4	-12
59	0xd7	-41
60	0xd9	-39
61	0x09	9
62	0xf3	-13
63	0x0f	15
64	0x89	-119
65	0xe9	-23
66	0xd9	-39
67	0x7f	127
68	0x90	-112
69	0xf5	-11
70	0x73	115
71	0xd7	-41
72	0xf5	-11
73	0xab	-85
74	0x81	-127
75	0x93	-109
76	0xa1	-95
77	0x89	-119
78	0x08	8
79	0x81	-127
80	0x86	-122
81	0xa4	-92
82	0xb8	-72
83	0x7f	127
84	0x81	-127
85	0xef	-17
86	0x81	-127
87	0x0d	13
88	0x11	17
89	0x96	-106
90	0xeb	-21
91	0xd8	-40
92	0x1b	27
93	0xa7	-89
94	0x61	97
95	0xa0	-96
96	0xd0	-48
97	0x64	100
98	0xf0	-16
99	0x7f	127
100	0x0f	15
101	0xbc	-68
102	0xe7	-25
103	0x84	-124
104	0xe7	-25
105	0x81	-127
106	0x0e	14
107	0x86	-122
108	0x05	5
109	0x81	-127
110	0xfe	-2
111	0x29	41
112	0x09	9
113	0x81	-127
114	0x26	38
115	0x81	-127
116	0x5a	90
117	0x1e	30
118	0xf7	-9
119	0xc6	-58
120	0x19	25
121	0x44	68
122	0xf0	-16
123	0x81	-127
124	0x7f	127
125	0xa7	-89
126	0x14	20
127	0x7f	127
128	0x5b	91
129	0xdf	-33
130	0x0a	10
131	0x14	20
132	0x3b	59
133	0x2a	42
134	0xe8	-24
135	0x22	34
136	0xd0	-48
137	0x29	41
138	0x5b	91
139	0x56	86
140	0xf4	-12
141	0x19	25
142	0x21	33
143	0xbf	-65
144	0x81	-127
145	0xbb	-69
146	0x16	22
147	0xc3	-61
148	0xf2	-14
149	0x11	17
150	0x81	-127
151	0xe9	-23
152	0xba	-70
153	0xab	-85
154	0x42	66
155	0xfa	-6
156	0x27	39
157	0xf2	-14
158	0x81	-127
159	0xc4	-60
160	0x22	34
161	0x81	-127
162	0x15	21
163	0x00	0
164	0x01	1
165	0xa4	-92
166	0x07	7
167	0x0d	13
168	0xd2	-46
169	0x06	6
170	0x0f	15
171	0x81	-127
172	0xc2	-62
173	0x8c	-116
174	0xc0	-64
175	0x10	16
176	0x62	98
177	0x81	-127
178	0x0e	14
179	0x7f	127
180	0xff	-1
181	0xab	-85
182	0xe8	-24
183	0x7f	127
184	0x1d	29
185	0x81	-127
186	0x4e	78
187	0xae	-82
188	0x56	86
189	0x1d	29
190	0x19	25
191	0xc1	-63
192	0xde	-34
193	0x79	121
194	0x2c	44
195	0x67	103
196	0x14	20
197	0xec	-20
198	0x86	-122
199	0xe6	-26
200	0xf2	-14
201	0x29	41
202	0xae	-82
203	0xac	-84
204	0x71	113
205	0x81	-127
206	0x81	-127
207	0xcc	-52
208	0x81	-127
209	0x81	-127
210	0x02	2
211	0x32	50
212	0x5e	94
213	0xa8	-88
214	0x15	21
215	0xac	-84
216	0x00	0
217	0xf5	-11
218	0x10	16
219	0x42	66
220	0x7f	127
221	0xbd	-67
222	0xda	-38
223	0x17	23
224	0x7f	127
225	0x81	-127
226	0x9b	-101
227	0x23	35
228	0x2c	44
229	0xd8	-40
230	0x2a	42
231	0xb8	-72
232	0x1b	27
233	0xe9	-23
234	0xce	-50
235	0x4e	78
236	0xf8	-8
237	0x3d	61
238	0x81	-127
239	0x7f	127
240	0x54	84
241	0xde	-34
242	0x7f	127
243	0x01	1
244	0xe8	-24
245	0xcd	-51
246	0x0c	12
247	0xc3	-61
248	0x54	84
249	0x48	72
250	0xbd	-67
251	0x10	16
252	0xd5	-43
253	0x15	21
254	0x9f	-97
255	0x0f	15

tfl.pseudo_qconst11 i1 [128, 1, 1, 128]
0	0xd3	-45
1	0x39	57
2	0xa4	-92
3	0x14	20
4	0xf3	-13
5	0xf0	-16
6	0x51	81
7	0x36	54
8	0x1d	29
9	0xf7	-9
10	0xfd	-3
11	0xcc	-52
12	0x52	82
13	0xc0	-64
14	0xc4	-60
15	0x06	6
16	0x5e	94
17	0xc6	-58
18	0x46	70
19	0x36	54
20	0xce	-50
21	0x02	2
22	0x1e	30
23	0xb8	-72
24	0xfd	-3
25	0x55	85
26	0x23	35
27	0x3c	60
28	0xd6	-42
29	0x51	81
30	0x23	35
31	0x04	4
32	0x31	49
33	0xf5	-11
34	0xea	-22
35	0x0e	14
36	0x2c	44
37	0x27	39
38	0x2d	45
39	0x25	37
40	0xed	-19
41	0x43	67
42	0x63	99
43	0xc3	-61
44	0xe9	-23
45	0x2e	46
46	0x7f	127
47	0xfb	-5
48	0xe7	-25
49	0x3e	62
50	0xe5	-27
51	0x32	50
52	0xfd	-3
53	0x09	9
54	0xb4	-76
55	0x18	24
56	0x3d	61
57	0x14	20
58	0x08	8
59	0x20	32
60	0xb9	-71
61	0x30	48
62	0x31	49
63	0xeb	-21
64	0xf6	-10
65	0x1b	27
66	0x0c	12
67	0x13	19
68	0xed	-19
69	0x34	52
70	0x37	55
71	0xc6	-58
72	0x3f	63
73	0x62	98
74	0xd5	-43
75	0x0a	10
76	0x2e	46
77	0xe4	-28
78	0xc9	-55
79	0xe2	-30
80	0xf5	-11
81	0x05	5
82	0x0c	12
83	0xc4	-60
84	0x19	25
85	0xde	-34
86	0xa3	-93
87	0xed	-19
88	0xe7	-25
89	0xd0	-48
90	0x35	53
91	0x0e	14
92	0x0d	13
93	0x0f	15
94	0xf9	-7
95	0x0a	10
96	0xc7	-57
97	0xe0	-32
98	0xe0	-32
99	0x00	0
100	0x00	0
101	0xda	-38
102	0x1c	28
103	0x0b	11
104	0xf4	-12
105	0x24	36
106	0x1b	27
107	0x06	6
108	0xed	-19
109	0xdd	-35
110	0x38	56
111	0x0b	11
112	0xdb	-37
113	0x2e	46
114	0x07	7
115	0xc3	-61
116	0xee	-18
117	0xe0	-32
118	0x45	69
119	0x0e	14
120	0xdd	-35
121	0x17	23
122	0xe2	-30
123	0x0a	10
124	0xd5	-43
125	0x02	2
126	0x09	9
127	0x0a	10
128	0x34	52
129	0x12	18
130	0xd9	-39
131	0xe9	-23
132	0x27	39
133	0xe6	-26
134	0x29	41
135	0x19	25
136	0xd6	-42
137	0xeb	-21
138	0xdb	-37
139	0xf4	-12
140	0x1e	30
141	0xdb	-37
142	0x0d	13
143	0xfd	-3
144	0x2f	47
145	0xf3	-13
146	0x2e	46
147	0xcd	-51
148	0xf2	-14
149	0xe7	-25
150	0xfc	-4
151	0x26	38
152	0x30	48
153	0x45	69
154	0xfd	-3
155	0x45	69
156	0xf3	-13
157	0x28	40
158	0x01	1
159	0x1c	28
160	0x15	21
161	0x28	40
162	0x31	49
163	0xff	-1
164	0xd0	-48
165	0x4a	74
166	0x29	41
167	0xf3	-13
168	0xdb	-37
169	0xe2	-30
170	0x22	34
171	0xd2	-46
172	0xf1	-15
173	0xe4	-28
174	0xf0	-16
175	0x0c	12
176	0xec	-20
177	0xe7	-25
178	0xfe	-2
179	0x0c	12
180	0xf8	-8
181	0xc1	-63
182	0xd0	-48
183	0x1c	28
184	0xf1	-15
185	0x00	0
186	0x99	-103
187	0xfb	-5
188	0x26	38
189	0x01	1
190	0x0f	15
191	0xf5	-11
192	0xe9	-23
193	0xe8	-24
194	0x1f	31
195	0xd0	-48
196	0xdb	-37
197	0x32	50
198	0x22	34
199	0xe6	-26
200	0x70	112
201	0xcb	-53
202	0x22	34
203	0x11	17
204	0xff	-1
205	0xda	-38
206	0xe4	-28
207	0x1d	29
208	0xdc	-36
209	0x0d	13
210	0xf2	-14
211	0x04	4
212	0x17	23
213	0xf8	-8
214	0xfe	-2
215	0x2e	46
216	0x08	8
217	0x3a	58
218	0xed	-19
219	0xe9	-23
220	0x16	22
221	0x2b	43
222	0x1b	27
223	0x4b	75
224	0x3f	63
225	0x14	20
226	0xc9	-55
227	0x28	40
228	0xe4	-28
229	0x18	24
230	0xe9	-23
231	0xf0	-16
232	0xe7	-25
233	0x37	55
234	0xff	-1
235	0xe1	-31
236	0xdb	-37
237	0xe4	-28
238	0x7f	127
239	0x17	23
240	0x13	19
241	0x08	8
242	0x07	7
243	0xeb	-21
244	0x09	9
245	0x09	9
246	0x32	50
247	0x8f	-113
248	0xff	-1
249	0x0b	11
250	0x3f	63
251	0x44	68
252	0x13	19
253	0x3f	63
254	0x6b	107
255	0xa5	-91

tfl.pseudo_qconst13 i1 [1, 3, 3, 128]
0	0x81	-127
1	0xfa	-6
2	0x28	40
3	0xb5	-75
4	0x13	19
5	0x12	18
6	0x9a	-102
7	0xbc	-68
8	0x7f	127
9	0x27	39
10	0x21	33
11	0xdf	-33
12	0x7f	127
13	0x8f	-113
14	0xa2	-94
15	0xe1	-31
16	0x73	115
17	0xbf	-65
18	0xc6	-58
19	0x7f	127
20	0xe5	-27
21	0xc5	-59
22	0x70	112
23	0x11	17
24	0x7f	127
25	0xf4	-12
26	0x6f	111
27	0xa8	-88
28	0x81	-127
29	0x5e	94
30	0x7f	127
31	0xf5	-11
32	0x0b	11
33	0x7f	127
34	0x69	105
35	0x7f	127
36	0x48	72
37	0x51	81
38	0xdc	-36
39	0xe8	-24
40	0x81	-127
41	0xe1	-31
42	0x1d	29
43	0xbf	-65
44	0xee	-18
45	0x1b	27
46	0xd4	-44
47	0x1b	27
48	0x57	87
49	0x2a	42
50	0xc3	-61
51	0x2e	46
52	0x39	57
53	0x7f	127
54	0xe8	-24
55	0x81	-127
56	0xfb	-5
57	0x7f	127
58	0x0c	12
59	0x43	67
60	0x19	25
61	0x97	-105
62	0x81	-127
63	0x81	-127
64	0xfe	-2
65	0xd4	-44
66	0xd5	-43
67	0xf9	-7
68	0x67	103
69	0xa1	-95
70	0x7f	127
71	0xfe	-2
72	0xf6	-10
73	0x7f	127
74	0xe8	-24
75	0x3f	63
76	0x7d	125
77	0x1e	30
78	0xc9	-55
79	0x87	-121
80	0x81	-127
81	0xe8	-24
82	0xea	-22
83	0x0d	13
84	0xb5	-75
85	0x6a	106
86	0xfc	-4
87	0x0f	15
88	0xe6	-26
89	0xfc	-4
90	0xf5	-11
91	0x3b	59
92	0x44	68
93	0xd6	-42
94	0xf1	-15
95	0xf5	-11
96	0xd9	-39
97	0x31	49
98	0x2e	46
99	0xd4	-44
100	0x04	4
101	0xaa	-86
102	0x60	96
103	0x81	-127
104	0xe4	-28
105	0xf9	-7
106	0xf0	-16
107	0xc0	-64
108	0x46	70
109	0xce	-50
110	0x44	68
111	0x9e	-98
112	0xf5	-11
113	0x81	-127
114	0x1e	30
115	0x20	32
116	0x1c	28
117	0x28	40
118	0xef	-17
119	0xf2	-14
120	0x9f	-97
121	0xd9	-39
122	0xcf	-49
123	0x02	2
124	0x11	17
125	0xd5	-43
126	0x2f	47
127	0xc8	-56
128	0xe8	-24
129	0x8f	-113
130	0xfb	-5
131	0x29	41
132	0xe1	-31
133	0x13	19
134	0xcf	-49
135	0x7f	127
136	0xc9	-55
137	0x81	-127
138	0x7a	122
139	0x1d	29
140	0x0f	15
141	0xb1	-79
142	0xcd	-51
143	0x33	51
144	0x04	4
145	0xb1	-79
146	0xfe	-2
147	0xf4	-12
148	0xd9	-39
149	0x10	16
150	0x81	-127
151	0xb4	-76
152	0x51	81
153	0xbc	-68
154	0x52	82
155	0x7f	127
156	0x7a	122
157	0x0f	15
158	0xba	-70
159	0xfb	-5
160	0xec	-20
161	0xbe	-66
162	0x7f	127
163	0xf5	-11
164	0x0e	14
165	0xf8	-8
166	0x19	25
167	0x12	18
168	0x3d	61
169	0x41	65
170	0x2d	45
171	0x0c	12
172	0xb8	-72
173	0x41	65
174	0xfc	-4
175	0x83	-125
176	0x18	24
177	0x6d	109
178	0x3b	59
179	0x7f	127
180	0x27	39
181	0x7c	124
182	0x7f	127
183	0xd3	-45
184	0x0a	10
185	0xe2	-30
186	0x4d	77
187	0x81	-127
188	0xb5	-75
189	0x4e	78
190	0xec	-20
191	0x30	48
192	0xfb	-5
193	0x2a	42
194	0xbf	-65
195	0x7f	127
196	0xf2	-14
197	0x81	-127
198	0x86	-122
199	0xe9	-23
200	0xee	-18
201	0x17	23
202	0xbf	-65
203	0x26	38
204	0x23	35
205	0xf3	-13
206	0xeb	-21
207	0xe9	-23
208	0xac	-84
209	0x7f	127
210	0xfc	-4
211	0x28	40
212	0xf3	-13
213	0x81	-127
214	0x52	82
215	0xbc	-68
216	0x01	1
217	0x1a	26
218	0x1d	29
219	0xb0	-80
220	0x2a	42
221	0x32	50
222	0xf0	-16
223	0xca	-54
224	0xf3	-13
225	0xc2	-62
226	0x64	100
227	0x21	33
228	0x7f	127
229	0x23	35
230	0xe7	-25
231	0xee	-18
232	0x08	8
233	0xce	-50
234	0x0b	11
235	0x21	33
236	0xea	-22
237	0xd3	-45
238	0x0d	13
239	0x7f	127
240	0xc4	-60
241	0x83	-125
242	0x01	1
243	0xf6	-10
244	0x2c	44
245	0xe2	-30
246	0xd1	-47
247	0x7f	127
248	0x0d	13
249	0xbb	-69
250	0xfc	-4
251	0x4b	75
252	0x11	17
253	0x17	23
254	0x3e	62
255	0xf6	-10

tfl.pseudo_qconst15 i1 [128, 1, 1, 128]
0	0xf7	-9
1	0xe7	-25
2	0x17	23
3	0xc7	-57
4	0x05	5
5	0xe5	-27
6	0x1e	30
7	0xba	-70
8	0xe6	-26
9	0x08	8
10	0x2e	46
11	0x06	6
12	0x1c	28
13	0x14	20
14	0x12	18
15	0x5e	94
16	0xf1	-15
17	0x37	55
18	0x16	22
19	0x3d	61
20	0xc6	-58
21	0xf3	-13
22	0xdc	-36
23	0x25	37
24	0xea	-22
25	0xe3	-29
26	0xcc	-52
27	0x07	7
28	0x5b	91
29	0x11	17
30	0x33	51
31	0xe2	-30
32	0x39	57
33	0x12	18
34	0x2a	42
35	0x18	24
36	0x20	32
37	0xbf	-65
38	0x02	2
39	0x4f	79
40	0x5e	94
41	0x14	20
42	0xdc	-36
43	0xe7	-25
44	0xf9	-7
45	0x29	41
46	0xf7	-9
47	0xe8	-24
48	0x04	4
49	0x11	17
50	0x81	-127
51	0x18	24
52	0xd5	-43
53	0x26	38
54	0xf3	-13
55	0xd0	-48
56	0x1e	30
57	0xf8	-8
58	0xd1	-47
59	0x18	24
60	0x0a	10
61	0x55	85
62	0xdb	-37
63	0xfd	-3
64	0x0a	10
65	0x06	6
66	0xe8	-24
67	0x1c	28
68	0x22	34
69	0xfd	-3
70	0xd4	-44
71	0xd2	-46
72	0xd7	-41
73	0xe7	-25
74	0x47	71
75	0xff	-1
76	0x15	21
77	0xf8	-8
78	0xfe	-2
79	0xf6	-10
80	0x01	1
81	0xfe	-2
82	0xee	-18
83	0x3a	58
84	0xf9	-7
85	0xc2	-62
86	0x31	49
87	0xf4	-12
88	0xdb	-37
89	0xc8	-56
90	0x44	68
91	0x2f	47
92	0x17	23
93	0xf0	-16
94	0xe2	-30
95	0x03	3
96	0x23	35
97	0xc9	-55
98	0x14	20
99	0xbf	-65
100	0x59	89
101	0xf9	-7
102	0xef	-17
103	0xab	-85
104	0xed	-19
105	0xed	-19
106	0xdc	-36
107	0x3e	62
108	0x21	33
109	0x20	32
110	0xb8	-72
111	0xe2	-30
112	0xf8	-8
113	0x02	2
114	0x09	9
115	0xf6	-10
116	0x14	20
117	0xcd	-51
118	0x0f	15
119	0xc4	-60
120	0xfe	-2
121	0x08	8
122	0x5b	91
123	0x05	5
124	0xab	-85
125	0x38	56
126	0xd0	-48
127	0xb5	-75
128	0x67	103
129	0xf3	-13
130	0x30	48
131	0xfd	-3
132	0x38	56
133	0xfe	-2
134	0x1f	31
135	0x09	9
136	0xa9	-87
137	0x07	7
138	0xe9	-23
139	0xe1	-31
140	0x7f	127
141	0x3a	58
142	0x2f	47
143	0xc9	-55
144	0xed	-19
145	0xec	-20
146	0x15	21
147	0x1c	28
148	0xe2	-30
149	0x08	8
150	0x03	3
151	0xeb	-21
152	0xf2	-14
153	0x54	84
154	0xf6	-10
155	0x32	50
156	0xe5	-27
157	0x14	20
158	0x2c	44
159	0xe6	-26
160	0xfe	-2
161	0xf1	-15
162	0x1f	31
163	0x21	33
164	0x0e	14
165	0x42	66
166	0x16	22
167	0x1f	31
168	0xfb	-5
169	0xdb	-37
170	0xc7	-57
171	0x06	6
172	0x50	80
173	0xa9	-87
174	0x69	105
175	0x18	24
176	0x36	54
177	0x27	39
178	0x05	5
179	0x12	18
180	0x10	16
181	0xb7	-73
182	0x31	49
183	0xed	-19
184	0x04	4
185	0xdb	-37
186	0xeb	-21
187	0x1f	31
188	0x1f	31
189	0xe3	-29
190	0xf2	-14
191	0xc4	-60
192	0xff	-1
193	0xf0	-16
194	0x00	0
195	0xe3	-29
196	0x19	25
197	0xf4	-12
198	0xfe	-2
199	0xf3	-13
200	0x0e	14
201	0x4f	79
202	0x15	21
203	0xf4	-12
204	0xe9	-23
205	0x43	67
206	0xee	-18
207	0xf4	-12
208	0x00	0
209	0x32	50
210	0x11	17
211	0x39	57
212	0x47	71
213	0xeb	-21
214	0x41	65
215	0x48	72
216	0xef	-17
217	0xe6	-26
218	0xac	-84
219	0xed	-19
220	0x1f	31
221	0x1d	29
222	0x4b	75
223	0xe9	-23
224	0xef	-17
225	0x0b	11
226	0xf6	-10
227	0xf9	-7
228	0xf6	-10
229	0x64	100
230	0x02	2
231	0x29	41
232	0xc5	-59
233	0xd1	-47
234	0xb8	-72
235	0xd9	-39
236	0x14	20
237	0x69	105
238	0x18	24
239	0x24	36
240	0xf4	-12
241	0x1e	30
242	0xf4	-12
243	0x99	-103
244	0x10	16
245	0xff	-1
246	0x1d	29
247	0x1a	26
248	0x20	32
249	0xe2	-30
250	0xb4	-76
251	0xe3	-29
252	0xf8	-8
253	0xed	-19
254	0xe5	-27
255	0x1d	29

tfl.pseudo_qconst17 i1 [1, 3, 3, 128]
0	0x24	36
1	0xac	-84
2	0x81	-127
3	0x22	34
4	0x0d	13
5	0x14	20
6	0x45	69
7	0x3d	61
8	0x12	18
9	0xf7	-9
10	0xa6	-90
11	0xce	-50
12	0x08	8
13	0x28	40
14	0x4a	74
15	0x94	-108
16	0xfd	-3
17	0x81	-127
18	0x00	0
19	0xf3	-13
20	0xf9	-7
21	0xe6	-26
22	0xf4	-12
23	0xab	-85
24	0x81	-127
25	0x18	24
26	0xd7	-41
27	0xce	-50
28	0xdc	-36
29	0x7f	127
30	0x83	-125
31	0xe8	-24
32	0xbe	-66
33	0xed	-19
34	0xa7	-89
35	0x19	25
36	0xe0	-32
37	0x1f	31
38	0x7f	127
39	0x34	52
40	0xfe	-2
41	0x09	9
42	0xbe	-66
43	0x06	6
44	0x7f	127
45	0x13	19
46	0x0d	13
47	0x82	-126
48	0xa3	-93
49	0xfb	-5
50	0x60	96
51	0xe8	-24
52	0x6e	110
53	0x2b	43
54	0x3d	61
55	0x24	36
56	0xdc	-36
57	0xeb	-21
58	0xa8	-88
59	0x08	8
60	0xb3	-77
61	0x15	21
62	0x04	4
63	0xd8	-40
64	0x9a	-102
65	0x72	114
66	0xec	-20
67	0xed	-19
68	0xf8	-8
69	0xba	-70
70	0x21	33
71	0x7f	127
72	0xa6	-90
73	0xeb	-21
74	0x39	57
75	0xdc	-36
76	0x7f	127
77	0x7f	127
78	0xe7	-25
79	0x37	55
80	0x4a	74
81	0xe8	-24
82	0x33	51
83	0xc8	-56
84	0xd5	-43
85	0xcf	-49
86	0x7b	123
87	0x81	-127
88	0x29	41
89	0x5a	90
90	0x60	96
91	0x10	16
92	0x4d	77
93	0x7f	127
94	0x81	-127
95	0xac	-84
96	0xf5	-11
97	0xfd	-3
98	0xeb	-21
99	0xeb	-21
100	0x69	105
101	0x63	99
102	0x81	-127
103	0x1c	28
104	0x81	-127
105	0x20	32
106	0xea	-22
107	0x99	-103
108	0xaf	-81
109	0xed	-19
110	0x23	35
111	0xea	-22
112	0xa1	-95
113	0xeb	-21
114	0x1b	27
115	0xa0	-96
116	0xe7	-25
117	0x0c	12
118	0xf0	-16
119	0xac	-84
120	0x81	-127
121	0x25	37
122	0xf8	-8
123	0xe8	-24
124	0x18	24
125	0x14	20
126	0x20	32
127	0x35	53
128	0xfd	-3
129	0x19	25
130	0xd6	-42
131	0x7f	127
132	0x40	64
133	0x0f	15
134	0x0a	10
135	0x33	51
136	0x0b	11
137	0x7f	127
138	0x7f	127
139	0x1f	31
140	0x02	2
141	0x81	-127
142	0x7f	127
143	0x95	-107
144	0xf7	-9
145	0x2c	44
146	0xe9	-23
147	0x12	18
148	0xe0	-32
149	0x10	16
150	0x7f	127
151	0x81	-127
152	0xbf	-65
153	0xe0	-32
154	0xa0	-96
155	0x7f	127
156	0x12	18
157	0x3a	58
158	0x7f	127
159	0xaf	-81
160	0x5e	94
161	0x0e	14
162	0x81	-127
163	0xdb	-37
164	0x7f	127
165	0xc7	-57
166	0x0f	15
167	0x1f	31
168	0x81	-127
169	0xcb	-53
170	0x81	-127
171	0xa3	-93
172	0x10	16
173	0x9b	-101
174	0x11	17
175	0xd7	-41
176	0xc4	-60
177	0x81	-127
178	0x75	117
179	0xf2	-14
180	0x7f	127
181	0x81	-127
182	0xe8	-24
183	0xf1	-15
184	0xdc	-36
185	0x07	7
186	0x0d	13
187	0x09	9
188	0x0a	10
189	0xdc	-36
190	0xd7	-41
191	0x5d	93
192	0x81	-127
193	0xbe	-66
194	0x81	-127
195	0xfc	-4
196	0x81	-127
197	0x81	-127
198	0x30	48
199	0x2d	45
200	0xb6	-74
201	0x81	-127
202	0xe8	-24
203	0x73	115
204	0x69	105
205	0x5b	91
206	0x7f	127
207	0xd4	-44
208	0xc9	-55
209	0x03	3
210	0x10	16
211	0x52	82
212	0xa4	-92
213	0x8b	-117
214	0xe2	-30
215	0x3d	61
216	0x40	64
217	0x34	52
218	0x1d	29
219	0xdf	-33
220	0xaa	-86
221	0xc5	-59
222	0x4e	78
223	0x85	-123
224	0x3c	60
225	0x05	5
226	0x18	24
227	0x7f	127
228	0x0b	11
229	0x7f	127
230	0xa8	-88
231	0x3b	59
232	0x27	39
233	0x81	-127
234	0xef	-17
235	0x7f	127
236	0xfd	-3
237	0x07	7
238	0xe9	-23
239	0x28	40
240	0x00	0
241	0xfb	-5
242	0xc4	-60
243	0xef	-17
244	0x81	-127
245	0x17	23
246	0xd2	-46
247	0x81	-127
248	0xc2	-62
249	0x18	24
250	0x00	0
251	0xa8	-88
252	0xf4	-12
253	0x7f	127
254	0x23	35
255	0xec	-20

tfl.pseudo_qconst19 i1 [128, 1, 1, 128]
0	0xf2	-14
1	0xc8	-56
2	0x9f	-97
3	0xf1	-15
4	0xea	-22
5	0x0b	11
6	0xaf	-81
7	0xe8	-24
8	0xef	-17
9	0x2d	45
10	0x17	23
11	0xe4	-28
12	0xc5	-59
13	0xdb	-37
14	0xae	-82
15	0xeb	-21
16	0x0b	11
17	0x0e	14
18	0xe9	-23
19	0x05	5
20	0xbe	-66
21	0x11	17
22	0xdf	-33
23	0x20	32
24	0x47	71
25	0x63	99
26	0x28	40
27	0x1b	27
28	0xf3	-13
29	0xe8	-24
30	0xf7	-9
31	0xd7	-41
32	0xed	-19
33	0x2c	44
34	0xd9	-39
35	0xd6	-42
36	0xd8	-40
37	0x9a	-102
38	0x09	9
39	0xe9	-23
40	0x01	1
41	0x33	51
42	0xdf	-33
43	0x36	54
44	0x04	4
45	0x34	52
46	0x10	16
47	0xea	-22
48	0xc9	-55
49	0x1a	26
50	0xb7	-73
51	0xac	-84
52	0x4e	78
53	0xed	-19
54	0x07	7
55	0xec	-20
56	0xe8	-24
57	0x09	9
58	0xd4	-44
59	0xf7	-9
60	0x06	6
61	0xf9	-7
62	0xa3	-93
63	0xf3	-13
64	0x11	17
65	0x1b	27
66	0x7f	127
67	0xfa	-6
68	0xdb	-37
69	0xe8	-24
70	0x0d	13
71	0xaf	-81
72	0xb3	-77
73	0xf5	-11
74	0x10	16
75	0x2f	47
76	0x4d	77
77	0x04	4
78	0x3a	58
79	0xde	-34
80	0x37	55
81	0x57	87
82	0xd3	-45
83	0xce	-50
84	0xa6	-90
85	0xe1	-31
86	0x1e	30
87	0x0d	13
88	0xfc	-4
89	0x4d	77
90	0x45	69
91	0x1a	26
92	0xcf	-49
93	0x38	56
94	0xb8	-72
95	0xb3	-77
96	0x37	55
97	0xe0	-32
98	0x20	32
99	0xe4	-28
100	0xc1	-63
101	0x69	105
102	0xe2	-30
103	0x39	57
104	0x01	1
105	0xe3	-29
106	0x1e	30
107	0xec	-20
108	0x36	54
109	0xf0	-16
110	0x2b	43
111	0x37	55
112	0xdd	-35
113	0x13	19
114	0xeb	-21
115	0x0e	14
116	0xc6	-58
117	0xcb	-53
118	0xe3	-29
119	0xe1	-31
120	0xe7	-25
121	0xfc	-4
122	0xed	-19
123	0xcd	-51
124	0x00	0
125	0x32	50
126	0x11	17
127	0x9c	-100
128	0xd9	-39
129	0x08	8
130	0xd4	-44
131	0x00	0
132	0x3f	63
133	0x43	67
134	0xe1	-31
135	0x23	35
136	0xd4	-44
137	0xf5	-11
138	0x29	41
139	0xe7	-25
140	0xe9	-23
141	0x32	50
142	0x4a	74
143	0xfc	-4
144	0xf2	-14
145	0x84	-124
146	0x1d	29
147	0x0e	14
148	0xc7	-57
149	0x22	34
150	0x02	2
151	0xfc	-4
152	0x08	8
153	0xf0	-16
154	0xd1	-47
155	0x2c	44
156	0xf5	-11
157	0x1d	29
158	0x10	16
159	0xf1	-15
160	0xfb	-5
161	0x21	33
162	0xd4	-44
163	0xd4	-44
164	0x1a	26
165	0x49	73
166	0x3d	61
167	0xff	-1
168	0xde	-34
169	0xb9	-71
170	0xec	-20
171	0xfd	-3
172	0x10	16
173	0xcf	-49
174	0x04	4
175	0xcc	-52
176	0xdf	-33
177	0x41	65
178	0xf2	-14
179	0xf3	-13
180	0xd3	-45
181	0xf6	-10
182	0x23	35
183	0x0a	10
184	0x37	55
185	0xdf	-33
186	0xe4	-28
187	0x05	5
188	0x81	-127
189	0x02	2
190	0xe9	-23
191	0x2f	47
192	0xbf	-65
193	0xe8	-24
194	0x19	25
195	0x10	16
196	0xd1	-47
197	0xc4	-60
198	0xb3	-77
199	0x74	116
200	0xc3	-61
201	0x11	17
202	0x08	8
203	0x2f	47
204	0xba	-70
205	0x1e	30
206	0xb1	-79
207	0xdd	-35
208	0x17	23
209	0xe2	-30
210	0xf6	-10
211	0xea	-22
212	0xdf	-33
213	0xe6	-26
214	0x00	0
215	0x01	1
216	0x1b	27
217	0xf8	-8
218	0x21	33
219	0xe1	-31
220	0xed	-19
221	0xff	-1
222	0x04	4
223	0xd6	-42
224	0xcc	-52
225	0xf4	-12
226	0xeb	-21
227	0x09	9
228	0x40	64
229	0x0e	14
230	0x26	38
231	0xf2	-14
232	0x0b	11
233	0x17	23
234	0x45	69
235	0x10	16
236	0xf6	-10
237	0x18	24
238	0x0c	12
239	0x1d	29
240	0xce	-50
241	0xb1	-79
242	0xfe	-2
243	0x16	22
244	0xc1	-63
245	0x33	51
246	0x13	19
247	0x03	3
248	0xda	-38
249	0x09	9
250	0x01	1
251	0x13	19
252	0x2b	43
253	0xf4	-12
254	0x14	20
255	0xe7	-25

tfl.pseudo_qconst21 i1 [1, 3, 3, 128]
0	0x16	22
1	0x7f	127
2	0xfa	-6
3	0x16	22
4	0xbf	-65
5	0xc2	-62
6	0x0b	11
7	0xbb	-69
8	0x7d	125
9	0x81	-127
10	0x4b	75
11	0xc5	-59
12	0x5f	95
13	0x7f	127
14	0xae	-82
15	0x17	23
16	0xcd	-51
17	0x78	120
18	0xba	-70
19	0xdb	-37
20	0x3b	59
21	0x7f	127
22	0xd2	-46
23	0xe5	-27
24	0x7f	127
25	0x2d	45
26	0x1f	31
27	0xa7	-89
28	0xce	-50
29	0xfb	-5
30	0x07	7
31	0xd7	-41
32	0xec	-20
33	0x6e	110
34	0x92	-110
35	0x1b	27
36	0xf6	-10
37	0xd2	-46
38	0xcd	-51
39	0x1d	29
40	0xed	-19
41	0x24	36
42	0x0d	13
43	0x44	68
44	0x42	66
45	0x5e	94
46	0x22	34
47	0xa9	-87
48	0x0e	14
49	0xe5	-27
50	0xa0	-96
51	0x08	8
52	0xe3	-29
53	0x56	86
54	0xf5	-11
55	0x7f	127
56	0x2c	44
57	0x81	-127
58	0xf0	-16
59	0xec	-20
60	0xed	-19
61	0xfd	-3
62	0xb2	-78
63	0x7f	127
64	0x5f	95
65	0xc8	-56
66	0x81	-127
67	0xa1	-95
68	0x65	101
69	0x21	33
70	0xaf	-81
71	0x7f	127
72	0x1d	29
73	0x29	41
74	0x11	17
75	0x00	0
76	0xbe	-66
77	0x6d	109
78	0x0d	13
79	0x81	-127
80	0x93	-109
81	0xc1	-63
82	0x65	101
83	0x4a	74
84	0xe1	-31
85	0x7f	127
86	0xe4	-28
87	0xae	-82
88	0xed	-19
89	0x81	-127
90	0x9d	-99
91	0x24	36
92	0xd4	-44
93	0x63	99
94	0x3b	59
95	0x78	120
96	0x37	55
97	0x0d	13
98	0xcd	-51
99	0x37	55
100	0x19	25
101	0xd8	-40
102	0x62	98
103	0x50	80
104	0xf1	-15
105	0x81	-127
106	0x33	51
107	0xf2	-14
108	0x74	116
109	0xd8	-40
110	0x2c	44
111	0x81	-127
112	0x74	116
113	0xd1	-47
114	0x5c	92
115	0xd8	-40
116	0x1e	30
117	0xbe	-66
118	0x27	39
119	0x1a	26
120	0x0c	12
121	0x4f	79
122	0xec	-20
123	0x59	89
124	0xd4	-44
125	0xf8	-8
126	0x4c	76
127	0x3f	63
128	0xc2	-62
129	0xff	-1
130	0x46	70
131	0xd0	-48
132	0x09	9
133	0x08	8
134	0x08	8
135	0x89	-119
136	0x1e	30
137	0x8e	-114
138	0x2f	47
139	0x58	88
140	0x7f	127
141	0x1f	31
142	0xdc	-36
143	0x47	71
144	0xb1	-79
145	0x32	50
146	0xbe	-66
147	0x13	19
148	0x1b	27
149	0x39	57
150	0xf7	-9
151	0x39	57
152	0xe4	-28
153	0x9c	-100
154	0x7f	127
155	0xbd	-67
156	0x43	67
157	0x81	-127
158	0xf3	-13
159	0xb5	-75
160	0x0a	10
161	0x5c	92
162	0xd1	-47
163	0xe0	-32
164	0x38	56
165	0x81	-127
166	0x02	2
167	0x5b	91
168	0x7f	127
169	0xca	-54
170	0xee	-18
171	0xcd	-51
172	0x81	-127
173	0x81	-127
174	0xde	-34
175	0x81	-127
176	0x17	23
177	0x17	23
178	0xfc	-4
179	0xb0	-80
180	0x0a	10
181	0xa1	-95
182	0x1d	29
183	0x14	20
184	0x17	23
185	0xd9	-39
186	0x5a	90
187	0xce	-50
188	0x0c	12
189	0xe6	-26
190	0xcc	-52
191	0xe9	-23
192	0xcb	-53
193	0x44	68
194	0xc8	-56
195	0x3a	58
196	0xf8	-8
197	0xe5	-27
198	0xff	-1
199	0xf8	-8
200	0xff	-1
201	0xd9	-39
202	0x11	17
203	0xf0	-16
204	0x10	16
205	0x2c	44
206	0x07	7
207	0xf7	-9
208	0x40	64
209	0x38	56
210	0x5b	91
211	0xe8	-24
212	0xdb	-37
213	0x0b	11
214	0xe6	-26
215	0x18	24
216	0xfc	-4
217	0x60	96
218	0xa9	-87
219	0x81	-127
220	0x7f	127
221	0xce	-50
222	0x0e	14
223	0x1d	29
224	0x12	18
225	0x00	0
226	0xdc	-36
227	0x21	33
228	0xca	-54
229	0xbc	-68
230	0xdb	-37
231	0xda	-38
232	0xdb	-37
233	0xb9	-71
234	0xa3	-93
235	0xec	-20
236	0xdb	-37
237	0xd7	-41
238	0xee	-18
239	0xad	-83
240	0xed	-19
241	0xbf	-65
242	0xb8	-72
243	0xe5	-27
244	0xb4	-76
245	0x7f	127
246	0xea	-22
247	0x3e	62
248	0xf0	-16
249	0xe5	-27
250	0x7f	127
251	0x01	1
252	0xe1	-31
253	0xda	-38
254	0xfd	-3
255	0x02	2

tfl.pseudo_qconst23 i1 [128, 1, 1, 128]
0	0x09	9
1	0xb7	-73
2	0x02	2
3	0xf6	-10
4	0xdb	-37
5	0x19	25
6	0x04	4
7	0xe6	-26
8	0xde	-34
9	0xeb	-21
10	0x42	66
11	0xf1	-15
12	0xba	-70
13	0xfb	-5
14	0x0b	11
15	0x0a	10
16	0xf6	-10
17	0x0d	13
18	0x21	33
19	0xed	-19
20	0x4f	79
21	0x0d	13
22	0xcb	-53
23	0xf4	-12
24	0xc0	-64
25	0x81	-127
26	0x06	6
27	0x3b	59
28	0xed	-19
29	0x27	39
30	0xfc	-4
31	0xcb	-53
32	0xe2	-30
33	0xee	-18
34	0x32	50
35	0x37	55
36	0x2e	46
37	0x49	73
38	0xd5	-43
39	0x31	49
40	0xdc	-36
41	0x23	35
42	0x40	64
43	0x4e	78
44	0x0d	13
45	0x29	41
46	0x37	55
47	0x20	32
48	0xb3	-77
49	0xda	-38
50	0xac	-84
51	0x08	8
52	0xef	-17
53	0xfd	-3
54	0x41	65
55	0x1b	27
56	0x15	21
57	0xf0	-16
58	0x51	81
59	0x0f	15
60	0xd0	-48
61	0xe5	-27
62	0x23	35
63	0x2a	42
64	0xd9	-39
65	0x1d	29
66	0x30	48
67	0xf1	-15
68	0xb2	-78
69	0xbb	-69
70	0x37	55
71	0xda	-38
72	0x09	9
73	0x11	17
74	0xf4	-12
75	0xf0	-16
76	0xe3	-29
77	0xa1	-95
78	0x3c	60
79	0x27	39
80	0x24	36
81	0x06	6
82	0xfd	-3
83	0xbd	-67
84	0x1e	30
85	0xe5	-27
86	0x2f	47
87	0xc4	-60
88	0xef	-17
89	0xc5	-59
90	0xcc	-52
91	0xef	-17
92	0xe8	-24
93	0xad	-83
94	0x33	51
95	0xf2	-14
96	0xb9	-71
97	0x28	40
98	0x31	49
99	0xf0	-16
100	0xc6	-58
101	0xe8	-24
102	0xc2	-62
103	0xb8	-72
104	0x2a	42
105	0xf4	-12
106	0x2b	43
107	0x25	37
108	0xeb	-21
109	0x0a	10
110	0x3e	62
111	0x02	2
112	0x39	57
113	0xea	-22
114	0x05	5
115	0x17	23
116	0xd6	-42
117	0x03	3
118	0x8e	-114
119	0x0f	15
120	0x8c	-116
121	0xe1	-31
122	0xfb	-5
123	0xdb	-37
124	0xfe	-2
125	0xe1	-31
126	0xe0	-32
127	0x1e	30
128	0xf9	-7
129	0xfe	-2
130	0x1e	30
131	0xef	-17
132	0xf4	-12
133	0xfc	-4
134	0x1e	30
135	0x2c	44
136	0x28	40
137	0x0f	15
138	0xb4	-76
139	0x4a	74
140	0xe6	-26
141	0x07	7
142	0x15	21
143	0xe4	-28
144	0xf9	-7
145	0x55	85
146	0xe3	-29
147	0x11	17
148	0x1b	27
149	0xfe	-2
150	0x05	5
151	0x1d	29
152	0x5c	92
153	0x49	73
154	0x38	56
155	0xe4	-28
156	0xc6	-58
157	0x17	23
158	0xf1	-15
159	0x0f	15
160	0x21	33
161	0x03	3
162	0x18	24
163	0xc9	-55
164	0x0a	10
165	0xfb	-5
166	0x10	16
167	0xcc	-52
168	0x0b	11
169	0x11	17
170	0xe4	-28
171	0x27	39
172	0x36	54
173	0xf5	-11
174	0xe1	-31
175	0x14	20
176	0xbb	-69
177	0x1a	26
178	0xe5	-27
179	0x81	-127
180	0x16	22
181	0xd7	-41
182	0x44	68
183	0xf9	-7
184	0x15	21
185	0xeb	-21
186	0x03	3
187	0x40	64
188	0x2d	45
189	0x16	22
190	0xef	-17
191	0xc4	-60
192	0x10	16
193	0x3c	60
194	0xcb	-53
195	0x01	1
196	0xdc	-36
197	0x15	21
198	0x05	5
199	0x03	3
200	0xf6	-10
201	0x06	6
202	0xf3	-13
203	0x5f	95
204	0xe5	-27
205	0x0e	14
206	0xdb	-37
207	0x16	22
208	0xbc	-68
209	0x27	39
210	0xf8	-8
211	0x0b	11
212	0x1c	28
213	0xf9	-7
214	0x03	3
215	0x0b	11
216	0x0c	12
217	0x3f	63
218	0x29	41
219	0xf4	-12
220	0x0d	13
221	0xf2	-14
222	0xf7	-9
223	0x08	8
224	0x00	0
225	0x03	3
226	0x1e	30
227	0xe3	-29
228	0xde	-34
229	0x35	53
230	0x10	16
231	0xef	-17
232	0x07	7
233	0x0c	12
234	0xef	-17
235	0xdd	-35
236	0xe2	-30
237	0xf9	-7
238	0xd2	-46
239	0x2f	47
240	0x36	54
241	0xd3	-45
242	0x42	66
243	0xd3	-45
244	0x2e	46
245	0xd5	-43
246	0xc2	-62
247	0xc3	-61
248	0xab	-85
249	0x1c	28
250	0x1b	27
251	0x0f	15
252	0x35	53
253	0x1b	27
254	0x72	114
255	0x13	19

tfl.pseudo_qconst25 i1 [1, 3, 3, 128]
0	0xec	-20
1	0xd9	-39
2	0x48	72
3	0x7f	127
4	0x81	-127
5	0xfb	-5
6	0x4e	78
7	0x0f	15
8	0x25	37
9	0x0a	10
10	0x06	6
11	0x81	-127
12	0x0e	14
13	0x17	23
14	0xe8	-24
15	0x81	-127
16	0xae	-82
17	0x66	102
18	0xc0	-64
19	0x81	-127
20	0xdf	-33
21	0x81	-127
22	0x9f	-97
23	0xf5	-11
24	0xd9	-39
25	0xcd	-51
26	0x19	25
27	0xc5	-59
28	0xbf	-65
29	0x03	3
30	0x15	21
31	0xf9	-7
32	0x08	8
33	0xda	-38
34	0x7f	127
35	0x14	20
36	0xe0	-32
37	0x96	-106
38	0x01	1
39	0xd8	-40
40	0x7f	127
41	0x05	5
42	0xfc	-4
43	0x4a	74
44	0x7f	127
45	0xd8	-40
46	0x73	115
47	0xaf	-81
48	0xc1	-63
49	0xac	-84
50	0x37	55
51	0x34	52
52	0xc0	-64
53	0xc1	-63
54	0xdf	-33
55	0x3c	60
56	0x01	1
57	0xfa	-6
58	0x8d	-115
59	0xfe	-2
60	0xde	-34
61	0x9a	-102
62	0xd2	-46
63	0x7f	127
64	0xee	-18
65	0xd3	-45
66	0x22	34
67	0xa4	-92
68	0x2d	45
69	0x3c	60
70	0x7f	127
71	0xed	-19
72	0x00	0
73	0x81	-127
74	0xe2	-30
75	0xd4	-44
76	0x81	-127
77	0x4f	79
78	0x27	39
79	0xa8	-88
80	0xfe	-2
81	0x0c	12
82	0x81	-127
83	0x81	-127
84	0x03	3
85	0x24	36
86	0x81	-127
87	0x7f	127
88	0x11	17
89	0x6d	109
90	0x1f	31
91	0x0f	15
92	0x9a	-102
93	0x7f	127
94	0xbb	-69
95	0x9b	-101
96	0xfe	-2
97	0xa9	-87
98	0x21	33
99	0x8d	-115
100	0xdf	-33
101	0xaa	-86
102	0x79	121
103	0xf2	-14
104	0x26	38
105	0x2e	46
106	0xc7	-57
107	0x6d	109
108	0x44	68
109	0x19	25
110	0x30	48
111	0x74	116
112	0x08	8
113	0xd1	-47
114	0x22	34
115	0x06	6
116	0xf7	-9
117	0x13	19
118	0x7f	127
119	0x8e	-114
120	0x88	-120
121	0x7f	127
122	0xdd	-35
123	0xd5	-43
124	0x0b	11
125	0xdc	-36
126	0x30	48
127	0x74	116
128	0x0c	12
129	0x12	18
130	0x7f	127
131	0x44	68
132	0x26	38
133	0x6a	106
134	0x1a	26
135	0x01	1
136	0xeb	-21
137	0xc6	-58
138	0x96	-106
139	0x8b	-117
140	0xf1	-15
141	0xf8	-8
142	0x6d	109
143	0x23	35
144	0x7f	127
145	0x45	69
146	0xc5	-59
147	0x11	17
148	0xb4	-76
149	0x02	2
150	0x7f	127
151	0xa5	-91
152	0x17	23
153	0x91	-111
154	0xb2	-78
155	0xc6	-58
156	0xd8	-40
157	0x7f	127
158	0x0c	12
159	0xd9	-39
160	0x20	32
161	0x7f	127
162	0x39	57
163	0xea	-22
164	0x7f	127
165	0x20	32
166	0xb4	-76
167	0xf3	-13
168	0xc3	-61
169	0xdd	-35
170	0xea	-22
171	0xb9	-71
172	0xfb	-5
173	0xd8	-40
174	0xef	-17
175	0x52	82
176	0xac	-84
177	0x50	80
178	0x03	3
179	0x7f	127
180	0x0e	14
181	0xf3	-13
182	0xfc	-4
183	0xfa	-6
184	0xd9	-39
185	0xed	-19
186	0xb4	-76
187	0xee	-18
188	0xeb	-21
189	0x39	57
190	0x2d	45
191	0x64	100
192	0x32	50
193	0x50	80
194	0x1b	27
195	0x49	73
196	0x05	5
197	0x43	67
198	0x49	73
199	0xdc	-36
200	0x5f	95
201	0x8c	-116
202	0x17	23
203	0x4c	76
204	0x28	40
205	0xba	-70
206	0x3d	61
207	0xd8	-40
208	0xdb	-37
209	0x81	-127
210	0xfd	-3
211	0x3d	61
212	0xfc	-4
213	0x52	82
214	0x64	100
215	0x29	41
216	0xfc	-4
217	0xb8	-72
218	0xf6	-10
219	0x5d	93
220	0xda	-38
221	0xb1	-79
222	0x7f	127
223	0xc5	-59
224	0x20	32
225	0x57	87
226	0xf8	-8
227	0xbf	-65
228	0xc3	-61
229	0xf6	-10
230	0x52	82
231	0x47	71
232	0xbf	-65
233	0xf1	-15
234	0x7f	127
235	0x7f	127
236	0xdf	-33
237	0x81	-127
238	0xef	-17
239	0x5a	90
240	0x95	-107
241	0xca	-54
242	0xb8	-72
243	0xf1	-15
244	0x27	39
245	0xfa	-6
246	0xb3	-77
247	0xda	-38
248	0x03	3
249	0x0d	13
250	0xe7	-25
251	0xe0	-32
252	0xe7	-25
253	0x7f	127
254	0xd9	-39
255	0x0f	15

tfl.pseudo_qconst27 i1 [128, 1, 1, 128]
0	0x10	16
1	0xd2	-46
2	0x0f	15
3	0xfc	-4
4	0xf2	-14
5	0x05	5
6	0x00	0
7	0xb6	-74
8	0x42	66
9	0x04	4
10	0xbb	-69
11	0x41	65
12	0xed	-19
13	0xef	-17
14	0x2c	44
15	0xe0	-32
16	0x02	2
17	0x0c	12
18	0xf3	-13
19	0x12	18
20	0xee	-18
21	0x00	0
22	0xb1	-79
23	0x33	51
24	0xfc	-4
25	0x11	17
26	0xd9	-39
27	0xfe	-2
28	0xf7	-9
29	0x13	19
30	0xe9	-23
31	0xef	-17
32	0x0d	13
33	0x1e	30
34	0x0c	12
35	0x1f	31
36	0xe0	-32
37	0x1b	27
38	0x46	70
39	0x06	6
40	0x24	36
41	0xf7	-9
42	0xf5	-11
43	0xf5	-11
44	0x0d	13
45	0x29	41
46	0xc6	-58
47	0xfa	-6
48	0xf0	-16
49	0xee	-18
50	0xf0	-16
51	0x48	72
52	0xf1	-15
53	0xec	-20
54	0x32	50
55	0x00	0
56	0xed	-19
57	0x00	0
58	0x10	16
59	0x28	40
60	0x12	18
61	0x2b	43
62	0xec	-20
63	0x14	20
64	0x06	6
65	0xe7	-25
66	0xf3	-13
67	0xe6	-26
68	0x26	38
69	0x14	20
70	0x09	9
71	0x07	7
72	0x31	49
73	0xf9	-7
74	0x1b	27
75	0x19	25
76	0xed	-19
77	0x0d	13
78	0x00	0
79	0xf0	-16
80	0xf2	-14
81	0x0f	15
82	0xe8	-24
83	0xff	-1
84	0xd3	-45
85	0xe6	-26
86	0xb3	-77
87	0xf5	-11
88	0x0b	11
89	0xef	-17
90	0x06	6
91	0x2c	44
92	0x81	-127
93	0x00	0
94	0xff	-1
95	0x02	2
96	0x14	20
97	0x16	22
98	0x12	18
99	0xfc	-4
100	0x27	39
101	0xdf	-33
102	0xcb	-53
103	0xf1	-15
104	0xf3	-13
105	0xe8	-24
106	0xea	-22
107	0xee	-18
108	0x3c	60
109	0x2b	43
110	0xf4	-12
111	0x15	21
112	0xf9	-7
113	0xee	-18
114	0xe7	-25
115	0x16	22
116	0x09	9
117	0xf3	-13
118	0x18	24
119	0x2b	43
120	0x06	6
121	0xdd	-35
122	0xb2	-78
123	0xf2	-14
124	0x0f	15
125	0x3b	59
126	0x05	5
127	0x12	18
128	0x21	33
129	0xc3	-61
130	0xe3	-29
131	0x0d	13
132	0xc2	-62
133	0x52	82
134	0xf3	-13
135	0xe9	-23
136	0xe9	-23
137	0x0d	13
138	0x10	16
139	0x07	7
140	0xc9	-55
141	0xb8	-72
142	0xfb	-5
143	0x19	25
144	0xdd	-35
145	0xd8	-40
146	0x39	57
147	0x06	6
148	0xf5	-11
149	0xb2	-78
150	0xc2	-62
151	0x27	39
152	0xeb	-21
153	0x08	8
154	0x41	65
155	0x0d	13
156	0x04	4
157	0x2f	47
158	0xf2	-14
159	0x1f	31
160	0xd3	-45
161	0x26	38
162	0x13	19
163	0xd6	-42
164	0xcd	-51
165	0xee	-18
166	0x22	34
167	0x09	9
168	0x2d	45
169	0xfc	-4
170	0x16	22
171	0xd6	-42
172	0x30	48
173	0xdd	-35
174	0xca	-54
175	0xfa	-6
176	0x54	84
177	0x7f	127
178	0x43	67
179	0x4b	75
180	0x0d	13
181	0x29	41
182	0xf3	-13
183	0xed	-19
184	0xf4	-12
185	0xf7	-9
186	0x0a	10
187	0xe0	-32
188	0x34	52
189	0xab	-85
190	0x34	52
191	0x40	64
192	0xed	-19
193	0x0e	14
194	0x36	54
195	0xd9	-39
196	0x27	39
197	0x2c	44
198	0xd7	-41
199	0x0c	12
200	0x27	39
201	0x10	16
202	0xe2	-30
203	0xf1	-15
204	0xe4	-28
205	0x4a	74
206	0x0e	14
207	0xe6	-26
208	0x40	64
209	0xf0	-16
210	0x05	5
211	0x26	38
212	0xd3	-45
213	0xde	-34
214	0xb4	-76
215	0x2b	43
216	0x36	54
217	0x09	9
218	0x2a	42
219	0xdb	-37
220	0xe5	-27
221	0x12	18
222	0xae	-82
223	0x23	35
224	0xdb	-37
225	0xe4	-28
226	0x32	50
227	0x3b	59
228	0xe5	-27
229	0xf3	-13
230	0x1b	27
231	0x25	37
232	0xcc	-52
233	0xeb	-21
234	0xf6	-10
235	0x3c	60
236	0xb6	-74
237	0x44	68
238	0x0c	12
239	0x42	66
240	0x5b	91
241	0xd0	-48
242	0xc1	-63
243	0x33	51
244	0xb2	-78
245	0x15	21
246	0x24	36
247	0x1f	31
248	0xce	-50
249	0x0d	13
250	0x3e	62
251	0x1e	30
252	0xde	-34
253	0x07	7
254	0x44	68
255	0xd1	-47

tfl.pseudo_qconst29 i1 [1, 3, 3, 128]
0	0xeb	-21
1	0x66	102
2	0xf1	-15
3	0x1a	26
4	0xf4	-12
5	0x81	-127
6	0x1f	31
7	0x7f	127
8	0xed	-19
9	0x63	99
10	0x58	88
11	0x8f	-113
12	0x3b	59
13	0xbb	-69
14	0xd4	-44
15	0x13	19
16	0x7f	127
17	0x65	101
18	0x81	-127
19	0xab	-85
20	0x48	72
21	0xc5	-59
22	0x01	1
23	0xfe	-2
24	0x81	-127
25	0x81	-127
26	0x18	24
27	0xa1	-95
28	0x7f	127
29	0xe5	-27
30	0x81	-127
31	0x97	-105
32	0xcd	-51
33	0x09	9
34	0x1b	27
35	0xa2	-94
36	0x17	23
37	0xb5	-75
38	0xa9	-87
39	0x7c	124
40	0xab	-85
41	0x2d	45
42	0x13	19
43	0x7f	127
44	0x81	-127
45	0x04	4
46	0x64	100
47	0x86	-122
48	0xa7	-89
49	0x7f	127
50	0x81	-127
51	0x81	-127
52	0xe2	-30
53	0xa3	-93
54	0x9e	-98
55	0xbe	-66
56	0x55	85
57	0x41	65
58	0xf1	-15
59	0x91	-111
60	0x26	38
61	0x7a	122
62	0xb1	-79
63	0x4b	75
64	0xa4	-92
65	0xec	-20
66	0x7f	127
67	0x7f	127
68	0x2b	43
69	0x1e	30
70	0xdc	-36
71	0x1b	27
72	0xdd	-35
73	0x21	33
74	0xdb	-37
75	0xf7	-9
76	0x07	7
77	0x15	21
78	0xbf	-65
79	0xfb	-5
80	0x0b	11
81	0x70	112
82	0xe8	-24
83	0x7f	127
84	0xef	-17
85	0x7f	127
86	0xf7	-9
87	0x2f	47
88	0xae	-82
89	0x34	52
90	0x2c	44
91	0x1b	27
92	0xeb	-21
93	0xef	-17
94	0x81	-127
95	0x7f	127
96	0xfb	-5
97	0xe9	-23
98	0xc8	-56
99	0x7f	127
100	0x9e	-98
101	0x7f	127
102	0x38	56
103	0x0c	12
104	0xa7	-89
105	0x2f	47
106	0x0e	14
107	0x7f	127
108	0x38	56
109	0xdc	-36
110	0xd6	-42
111	0xa7	-89
112	0x7f	127
113	0x7f	127
114	0x0a	10
115	0x81	-127
116	0xf3	-13
117	0x17	23
118	0xbe	-66
119	0xcb	-53
120	0x7f	127
121	0x3a	58
122	0x14	20
123	0x0e	14
124	0xca	-54
125	0xcd	-51
126	0x5c	92
127	0xc9	-55
128	0xed	-19
129	0xd0	-48
130	0x2c	44
131	0x38	56
132	0xf0	-16
133	0x58	88
134	0x7f	127
135	0x4a	74
136	0xe9	-23
137	0xcb	-53
138	0x0d	13
139	0xf7	-9
140	0x7f	127
141	0xb6	-74
142	0xc6	-58
143	0x35	53
144	0xd0	-48
145	0x81	-127
146	0x15	21
147	0x98	-104
148	0x0a	10
149	0x11	17
150	0x17	23
151	0x20	32
152	0x73	115
153	0xdf	-33
154	0x3f	63
155	0x7f	127
156	0xd2	-46
157	0x08	8
158	0x43	67
159	0x06	6
160	0xd6	-42
161	0xd9	-39
162	0x19	25
163	0xc8	-56
164	0xaa	-86
165	0x12	18
166	0x62	98
167	0xab	-85
168	0x25	37
169	0xb3	-77
170	0xb9	-71
171	0xba	-70
172	0x17	23
173	0x7f	127
174	0x71	113
175	0x16	22
176	0x22	34
177	0xb4	-76
178	0x07	7
179	0x1d	29
180	0x3b	59
181	0x7f	127
182	0xbb	-69
183	0x56	86
184	0xa2	-94
185	0xdc	-36
186	0x3f	63
187	0xec	-20
188	0x81	-127
189	0xf4	-12
190	0x0c	12
191	0xdc	-36
192	0x02	2
193	0x4d	77
194	0x18	24
195	0x10	16
196	0x1a	26
197	0xcf	-49
198	0xdf	-33
199	0x4f	79
200	0x96	-106
201	0xed	-19
202	0x1f	31
203	0x4c	76
204	0x46	70
205	0x10	16
206	0xe0	-32
207	0xe1	-31
208	0x7f	127
209	0x91	-111
210	0xd9	-39
211	0x15	21
212	0x0b	11
213	0x27	39
214	0x0b	11
215	0x26	38
216	0x52	82
217	0x7f	127
218	0xf6	-10
219	0xe6	-26
220	0xe8	-24
221	0x7f	127
222	0xde	-34
223	0xaf	-81
224	0xca	-54
225	0x27	39
226	0x22	34
227	0xd4	-44
228	0xe5	-27
229	0x1e	30
230	0x75	117
231	0x7f	127
232	0xdf	-33
233	0xf3	-13
234	0xbb	-69
235	0x20	32
236	0xef	-17
237	0x72	114
238	0x79	121
239	0x2d	45
240	0x3f	63
241	0x47	71
242	0x14	20
243	0xd1	-47
244	0x81	-127
245	0x25	37
246	0x1c	28
247	0x2b	43
248	0x5a	90
249	0x3f	63
250	0x08	8
251	0x6e	110
252	0x81	-127
253	0x6e	110
254	0xbb	-69
255	0x81	-127

tfl.pseudo_qconst31 i1 [128, 1, 1, 64]
0	0x21	33
1	0xf8	-8
2	0xff	-1
3	0xd3	-45
4	0xfe	-2
5	0xf0	-16
6	0xcd	-51
7	0x3c	60
8	0x2c	44
9	0xf4	-12
10	0x42	66
11	0xf0	-16
12	0x1d	29
13	0x0e	14
14	0x2b	43
15	0x21	33
16	0xcd	-51
17	0x39	57
18	0x0b	11
19	0xda	-38
20	0x10	16
21	0xc4	-60
22	0xaf	-81
23	0x03	3
24	0xd2	-46
25	0xef	-17
26	0x5e	94
27	0xf9	-7
28	0xc5	-59
29	0xae	-82
30	0x11	17
31	0x38	56
32	0x1e	30
33	0x17	23
34	0x09	9
35	0xc2	-62
36	0x01	1
37	0xe7	-25
38	0x87	-121
39	0xf2	-14
40	0xf1	-15
41	0xf7	-9
42	0xfd	-3
43	0x42	66
44	0x18	24
45	0xbb	-69
46	0x1d	29
47	0x94	-108
48	0x5d	93
49	0x27	39
50	0x32	50
51	0xea	-22
52	0xc3	-61
53	0xf6	-10
54	0x0c	12
55	0x11	17
56	0xc5	-59
57	0xfd	-3
58	0xda	-38
59	0x11	17
60	0xa8	-88
61	0x21	33
62	0x7f	127
63	0xe2	-30
64	0xa8	-88
65	0xf3	-13
66	0xef	-17
67	0xcd	-51
68	0xf9	-7
69	0xb4	-76
70	0x0b	11
71	0xf1	-15
72	0xed	-19
73	0x33	51
74	0x04	4
75	0x0e	14
76	0xfc	-4
77	0xc2	-62
78	0x59	89
79	0xf2	-14
80	0xa6	-90
81	0x06	6
82	0x8f	-113
83	0xf9	-7
84	0x24	36
85	0x0b	11
86	0x06	6
87	0x20	32
88	0xd7	-41
89	0x0e	14
90	0xb9	-71
91	0xdd	-35
92	0x07	7
93	0x02	2
94	0xf4	-12
95	0xed	-19
96	0x15	21
97	0xef	-17
98	0xe7	-25
99	0xf8	-8
100	0x0c	12
101	0xe4	-28
102	0x11	17
103	0x27	39
104	0x63	99
105	0xf4	-12
106	0xb5	-75
107	0xfc	-4
108	0xe3	-29
109	0x39	57
110	0xb5	-75
111	0x1b	27
112	0x22	34
113	0xd0	-48
114	0xcb	-53
115	0x26	38
116	0x10	16
117	0x43	67
118	0xf2	-14
119	0x27	39
120	0x41	65
121	0xf3	-13
122	0x1e	30
123	0x7f	127
124	0x00	0
125	0x0a	10
126	0xcf	-49
127	0xd7	-41
128	0x14	20
129	0xf9	-7
130	0xf9	-7
131	0x47	71
132	0xd0	-48
133	0x13	19
134	0x18	24
135	0xc8	-56
136	0xa8	-88
137	0x0d	13
138	0xd9	-39
139	0xdd	-35
140	0xdb	-37
141	0x26	38
142	0x2a	42
143	0xc4	-60
144	0xe2	-30
145	0x46	70
146	0x02	2
147	0xff	-1
148	0xdb	-37
149	0xbb	-69
150	0x66	102
151	0xcb	-53
152	0x47	71
153	0xa5	-91
154	0x60	96
155	0x38	56
156	0xed	-19
157	0x30	48
158	0xe7	-25
159	0x0d	13
160	0xe7	-25
161	0x21	33
162	0xf2	-14
163	0xa5	-91
164	0x32	50
165	0xed	-19
166	0x0a	10
167	0x21	33
168	0xd2	-46
169	0xf2	-14
170	0xbf	-65
171	0x25	37
172	0xc5	-59
173	0xec	-20
174	0x8f	-113
175	0x31	49
176	0xe8	-24
177	0x01	1
178	0x7f	127
179	0xe8	-24
180	0x64	100
181	0x03	3
182	0xc5	-59
183	0xc5	-59
184	0x8b	-117
185	0xc5	-59
186	0xf7	-9
187	0x14	20
188	0xfa	-6
189	0xb9	-71
190	0xff	-1
191	0x37	55
192	0xf9	-7
193	0xd3	-45
194	0xdf	-33
195	0xd7	-41
196	0xe2	-30
197	0x22	34
198	0x2f	47
199	0x88	-120
200	0x29	41
201	0xf5	-11
202	0x44	68
203	0xf5	-11
204	0x67	103
205	0xc2	-62
206	0xfa	-6
207	0x0e	14
208	0xf8	-8
209	0x39	57
210	0x18	24
211	0xd5	-43
212	0x08	8
213	0xff	-1
214	0xfd	-3
215	0x0d	13
216	0x06	6
217	0xb6	-74
218	0xeb	-21
219	0x18	24
220	0x11	17
221	0x7f	127
222	0x1d	29
223	0x5a	90
224	0xe3	-29
225	0xb9	-71
226	0x2d	45
227	0x31	49
228	0xef	-17
229	0x30	48
230	0xf1	-15
231	0x9f	-97
232	0xda	-38
233	0x0a	10
234	0xe4	-28
235	0xce	-50
236	0xf6	-10
237	0xc9	-55
238	0xca	-54
239	0x2e	46
240	0xf2	-14
241	0x52	82
242	0x3a	58
243	0xb8	-72
244	0x2e	46
245	0x14	20
246	0x12	18
247	0x17	23
248	0x23	35
249	0xd2	-46
250	0xca	-54
251	0xb4	-76
252	0xb8	-72
253	0x2a	42
254	0xfe	-2
255	0xd7	-41
