Final Project/Q4/headers/resnetv1.tflite (tflite, 314944 bytes, 22 tensors)

tfl.pseudo_qconst1 i1 [10, 256]
000000 fc b0 26 f0 ca 0c 17 0d 0a 17 14 ff ce eb 0b 0b
       -4 -80 38 -16 -54 12 23 13 10 23 20 -1 -50 -21 11 11
000010 fc 04 bd e3 00 f3 13 fe 15 fd ce fd f5 09 ea 15
       -4 4 -67 -29 0 -13 19 -2 21 -3 -50 -3 -11 9 -22 21
000020 ee cb d0 f6 00 e1 10 f5 e2 de ca 07 04 c2 f0 fc
       -18 -53 -48 -10 0 -31 16 -11 -30 -34 -54 7 4 -62 -16 -4
000030 00 11 e8 0d 0b c1 e9 d6 ff 19 0d f8 bc 2b ef 1f
       0 17 -24 13 11 -63 -23 -42 -1 25 13 -8 -68 43 -17 31
000040 db a2 08 16 fd dd de e5 ea 01 f0 f9 f5 d9 0b ce
       -37 -94 8 22 -3 -35 -34 -27 -22 1 -16 -7 -11 -39 11 -50
000050 19 d7 e1 e1 fe 22 de fd d7 ec 18 21 2f 05 14 de
       25 -41 -31 -31 -2 34 -34 -3 -41 -20 24 33 47 5 20 -34
000060 0b d8 1b de fc 0e 0a 21 e0 06 12 ea da 27 05 2a
       11 -40 27 -34 -4 14 10 33 -32 6 18 -22 -38 39 5 42
000070 07 f1 22 2b e5 e4 e6 05 16 10 12 01 f9 1f f5 fd
       7 -15 34 43 -27 -28 -26 5 22 16 18 1 -7 31 -11 -3
000080 f9 1e ee bf 0f b3 06 f9 c1 10 f2 12 0a c9 f6 16
       -7 30 -18 -65 15 -77 6 -7 -63 16 -14 18 10 -55 -10 22
000090 08 ef 0c 05 f0 f5 20 dd ff 0c 00 24 fd fe 03 fc
       8 -17 12 5 -16 -11 32 -35 -1 12 0 36 -3 -2 3 -4
0000a0 14 f7 1b e7 de 0a 1b 24 0c dc 12 14 be fd 12 f2
       20 -9 27 -25 -34 10 27 36 12 -36 18 20 -66 -3 18 -14
0000b0 08 0f c7 0a fd ce 0f ea da 2a 07 fa 24 07 ec 09
       8 15 -57 10 -3 -50 15 -22 -38 42 7 -6 36 7 -20 9
0000c0 ea bd cc 21 ef 0f 0e f8 d4 18 27 f2 0e 10 0d 05
       -22 -67 -52 33 -17 15 14 -8 -44 24 39 -14 14 16 13 5
0000d0 cf fc 05 f8 f9 d4 d2 16 e2 f9 d0 ff 0c 06 cb c5
       -49 -4 5 -8 -7 -44 -46 22 -30 -7 -48 -1 12 6 -53 -59
0000e0 9e 15 db fd da d0 95 da ff f2 10 b2 29 dd cd 14
       -98 21 -37 -3 -38 -48 -107 -38 -1 -14 16 -78 41 -35 -51 20
0000f0 d7 81 1b dd 35 05 b0 fa 1a d0 df e5 c0 cc dc e0
       -41 -127 27 -35 53 5 -80 -6 26 -48 -33 -27 -64 -52 -36 -32

tfl.pseudo_qconst3 i1 [64, 3, 3, 64]
000000 fc 00 14 00 00 00 00 00 00 26 00 00 00 00 f3 00
       -4 0 20 0 0 0 0 0 0 38 0 0 0 0 -13 0
000010 00 00 00 00 00 00 00 00 00 00 00 00 00 05 5b 00
       0 0 0 0 0 0 0 0 0 0 0 0 0 5 91 0
000020 41 00 00 00 25 12 e1 1d 00 00 00 00 00 00 00 00
       65 0 0 0 37 18 -31 29 0 0 0 0 0 0 0 0
000030 00 00 f0 00 f6 d1 f7 00 00 00 00 00 00 01 00 00
       0 0 -16 0 -10 -47 -9 0 0 0 0 0 0 1 0 0
000040 fb 00 16 00 00 00 00 00 00 11 00 00 00 00 eb 00
       -5 0 22 0 0 0 0 0 0 17 0 0 0 0 -21 0
000050 00 00 00 00 00 00 00 00 00 00 00 00 00 ff 46 00
       0 0 0 0 0 0 0 0 0 0 0 0 0 -1 70 0
000060 3e 00 00 00 12 fe e6 12 00 00 00 00 00 00 00 00
       62 0 0 0 18 -2 -26 18 0 0 0 0 0 0 0 0
000070 00 00 ff 00 ef ba f6 00 00 00 00 00 00 fe 00 00
       0 0 -1 0 -17 -70 -10 0 0 0 0 0 0 -2 0 0
000080 fd 00 1e 00 00 00 00 00 00 17 00 00 00 00 ec 00
       -3 0 30 0 0 0 0 0 0 23 0 0 0 0 -20 0
000090 00 00 00 00 00 00 00 00 00 00 00 00 00 fd 1c 00
       0 0 0 0 0 0 0 0 0 0 0 0 0 -3 28 0
0000a0 19 00 00 00 11 ed dc 0a 00 00 00 00 00 00 00 00
       25 0 0 0 17 -19 -36 10 0 0 0 0 0 0 0 0
0000b0 00 00 05 00 e7 b5 f7 00 00 00 00 00 00 fe 00 00
       0 0 5 0 -25 -75 -9 0 0 0 0 0 0 -2 0 0
0000c0 ff 00 0a 00 00 00 00 00 00 13 00 00 00 00 f4 00
       -1 0 10 0 0 0 0 0 0 19 0 0 0 0 -12 0
0000d0 00 00 00 00 00 00 00 00 00 00 00 00 00 12 27 00
       0 0 0 0 0 0 0 0 0 0 0 0 0 18 39 0
0000e0 74 00 00 00 39 e1 03 18 00 00 00 00 00 00 00 00
       116 0 0 0 57 -31 3 24 0 0 0 0 0 0 0 0
0000f0 00 00 f1 00 f7 15 fc 00 00 00 00 00 00 03 00 00
       0 0 -15 0 -9 21 -4 0 0 0 0 0 0 3 0 0

tfl.pseudo_qconst5 i1 [64, 3, 3, 64]
000000 0e 15 06 21 fd 04 02 0f 0e 13 3a 0a 06 14 2e 01
       14 21 6 33 -3 4 2 15 14 19 58 10 6 20 46 1
000010 15 08 4d 01 00 42 08 08 2b 02 27 2e ff fc e2 0e
       21 8 77 1 0 66 8 8 43 2 39 46 -1 -4 -30 14
000020 28 23 ff fd fe fb 13 f9 1c 04 ec f8 22 15 ff 2c
       40 35 -1 -3 -2 -5 19 -7 28 4 -20 -8 34 21 -1 44
000030 03 f8 2f 16 4a 19 26 2c 1a fe 08 03 e5 06 14 05
       3 -8 47 22 74 25 38 44 26 -2 8 3 -27 6 20 5
000040 18 28 0d 11 fd 10 03 09 24 0d 0f 03 12 0f 1a fc
       24 40 13 17 -3 16 3 9 36 13 15 3 18 15 26 -4
000050 1b 0a 43 08 fd 49 0b 09 28 03 1b 36 fb fd e4 12
       27 10 67 8 -3 73 11 9 40 3 27 54 -5 -3 -28 18
000060 33 26 08 06 02 06 52 06 25 0c f9 fe 2e 28 ff 22
       51 38 8 6 2 6 82 6 37 12 -7 -2 46 40 -1 34
000070 fd 02 2f 17 26 11 40 22 0c 0e 18 00 f7 3a 20 1b
       -3 2 47 23 38 17 64 34 12 14 24 0 -9 58 32 27
000080 1a 24 09 03 f5 08 01 05 2d 02 18 fd 22 ff 05 fa
       26 36 9 3 -11 8 1 5 45 2 24 -3 34 -1 5 -6
000090 17 07 3d 0a 01 5a 06 0d 1d 00 10 2a fb ff f3 07
       23 7 61 10 1 90 6 13 29 0 16 42 -5 -1 -13 7
0000a0 2d 19 0c fc ff 0b 43 11 26 05 16 02 15 1e ff 19
       45 25 12 -4 -1 11 67 17 38 5 22 2 21 30 -1 25
0000b0 fd 02 25 12 21 01 24 20 fa 0d 0f f8 08 59 24 1c
       -3 2 37 18 33 1 36 32 -6 13 15 -8 8 89 36 28
0000c0 0e 28 09 20 07 09 0b 07 0e 02 27 08 0f 1b 1e f9
       14 40 9 32 7 9 11 7 14 2 39 8 15 27 30 -7
0000d0 16 14 46 0a ff 22 0b 0c 1d 02 38 25 0c fd f1 21
       22 20 70 10 -1 34 11 12 29 2 56 37 12 -3 -15 33
0000e0 23 47 ed 04 02 08 16 f8 3e 08 11 02 20 23 ff 1d
       35 71 -19 4 2 8 22 -8 62 8 17 2 32 35 -1 29
0000f0 02 fd 2d 0e 3a 2e 39 11 10 f7 e6 f3 fa 10 3a 01
       2 -3 45 14 58 46 57 17 16 -9 -26 -13 -6 16 58 1

tfl.pseudo_qconst7 i1 [64, 3, 3, 64]
000000 dc 00 00 e5 00 12 00 45 09 76 00 c2 f3 01 00 00
       -36 0 0 -27 0 18 0 69 9 118 0 -62 -13 1 0 0
000010 00 06 00 00 db 1d fe 00 00 00 1a af 00 4c 00 00
       0 6 0 0 -37 29 -2 0 0 0 26 -81 0 76 0 0
000020 15 7f ef 00 00 26 00 00 00 1f 00 00 00 00 00 00
       21 127 -17 0 0 38 0 0 0 31 0 0 0 0 0 0
000030 00 f3 00 00 4c 00 00 03 00 ed 00 00 00 e4 00 00
       0 -13 0 0 76 0 0 3 0 -19 0 0 0 -28 0 0
000040 d1 00 00 df 00 ff 00 47 eb 44 00 d9 dc 04 00 00
       -47 0 0 -33 0 -1 0 71 -21 68 0 -39 -36 4 0 0
000050 00 fc 00 00 e4 fa 01 00 00 00 20 ca 00 00 00 00
       0 -4 0 0 -28 -6 1 0 0 0 32 -54 0 0 0 0
000060 f9 55 f7 00 00 1d 00 00 00 1a 00 00 00 00 00 00
       -7 85 -9 0 0 29 0 0 0 26 0 0 0 0 0 0
000070 00 e9 00 00 53 00 00 16 00 f3 00 00 00 f6 00 00
       0 -23 0 0 83 0 0 22 0 -13 0 0 0 -10 0 0
000080 e9 00 00 e5 00 f8 00 4c e1 51 00 07 d4 ff 00 00
       -23 0 0 -27 0 -8 0 76 -31 81 0 7 -44 -1 0 0
000090 00 fa 00 00 f8 ed 01 00 00 00 38 d0 00 22 00 00
       0 -6 0 0 -8 -19 1 0 0 0 56 -48 0 34 0 0
0000a0 bb 2d ff 00 00 14 00 00 00 1b 00 00 00 00 00 00
       -69 45 -1 0 0 20 0 0 0 27 0 0 0 0 0 0
0000b0 00 e5 00 00 5c 00 00 05 00 09 00 00 00 ee 00 00
       0 -27 0 0 92 0 0 5 0 9 0 0 0 -18 0 0
0000c0 22 00 00 28 00 eb 00 e1 34 5f 00 e9 fb 0d 00 00
       34 0 0 40 0 -21 0 -31 52 95 0 -23 -5 13 0 0
0000d0 00 cf 00 00 dd 0f fb 00 00 00 e4 e8 00 4c 00 00
       0 -49 0 0 -35 15 -5 0 0 0 -28 -24 0 76 0 0
0000e0 06 4d dd 00 00 ee 00 00 00 04 00 00 00 00 00 00
       6 77 -35 0 0 -18 0 0 0 4 0 0 0 0 0 0
0000f0 00 f1 00 00 75 00 00 0f 00 e9 00 00 00 03 00 00
       0 -15 0 0 117 0 0 15 0 -23 0 0 0 3 0 0

tfl.pseudo_qconst9 i1 [64, 3, 3, 64]
000000 00 df ed e8 00 0f fa 08 f9 00 24 09 2a 00 31 00
       0 -33 -19 -24 0 15 -6 8 -7 0 36 9 42 0 49 0
000010 00 00 35 00 00 7f 00 00 d2 00 fe 3d 00 f2 00 00
       0 0 53 0 0 127 0 0 -46 0 -2 61 0 -14 0 0
000020 ee 00 d0 18 00 00 06 00 1a 00 f5 00 13 d0 00 d5
       -18 0 -48 24 0 0 6 0 26 0 -11 0 19 -48 0 -43
000030 00 fb e7 06 f0 45 13 1a 1e 08 e0 00 02 1c 00 ff
       0 -5 -25 6 -16 69 19 26 30 8 -32 0 2 28 0 -1
000040 00 f7 eb e2 00 2f fd ff e6 00 06 02 1b 00 45 00
       0 -9 -21 -30 0 47 -3 -1 -26 0 6 2 27 0 69 0
000050 00 00 f9 00 00 33 00 00 96 00 f9 30 00 ee 00 00
       0 0 -7 0 0 51 0 0 -106 0 -7 48 0 -18 0 0
000060 fb f9 c8 0c fc 00 f7 01 10 00 02 00 ff d7 00 da
       -5 -7 -56 12 -4 0 -9 1 16 0 2 0 -1 -41 0 -38
000070 00 fb e7 24 d3 1b 1a 10 26 0e fa 00 e3 1f 00 01
       0 -5 -25 36 -45 27 26 16 38 14 -6 0 -29 31 0 1
000080 00 06 ed e1 00 5b fd fc f8 00 e1 f7 e6 00 51 00
       0 6 -19 -31 0 91 -3 -4 -8 0 -31 -9 -26 0 81 0
000090 00 00 ec 00 00 f1 00 00 b0 00 0b 3c 00 f7 00 00
       0 0 -20 0 0 -15 0 0 -80 0 11 60 0 -9 0 0
0000a0 0f 01 f7 25 f9 00 f6 01 ff 00 2d 00 fb e9 00 d9
       15 1 -9 37 -7 0 -10 1 -1 0 45 0 -5 -23 0 -39
0000b0 00 fd 03 17 ca e4 1b f1 24 29 fa 00 06 09 00 16
       0 -3 3 23 -54 -28 27 -15 36 41 -6 0 6 9 0 22
0000c0 00 c0 f7 fa 00 79 01 01 01 00 f9 05 f1 00 22 00
       0 -64 -9 -6 0 121 1 1 1 0 -7 5 -15 0 34 0
0000d0 00 fd 03 00 00 f7 00 00 e3 00 ff 19 00 f6 00 00
       0 -3 3 0 0 -9 0 0 -29 0 -1 25 0 -10 0 0
0000e0 f7 f0 ed 38 ef 00 a3 ff 04 00 25 00 08 1c 00 db
       -9 -16 -19 56 -17 0 -93 -1 4 0 37 0 8 28 0 -37
0000f0 00 ff f8 17 f1 27 f4 1d f6 f5 db 00 02 12 00 00
       0 -1 -8 23 -15 39 -12 29 -10 -11 -37 0 2 18 0 0

tfl.pseudo_qconst11 i1 [64, 1, 1, 32]
000000 00 00 00 00 00 00 00 00 00 00 00 00 00 00 00 00
       0 0 0 0 0 0 0 0 0 0 0 0 0 0 0 0
000010 00 00 00 00 00 00 00 00 00 00 00 00 00 00 00 00
       0 0 0 0 0 0 0 0 0 0 0 0 0 0 0 0
000020 fc 00 00 10 e7 07 c7 e4 fd b9 ce f8 00 7f d5 00
       -4 0 0 16 -25 7 -57 -28 -3 -71 -50 -8 0 127 -43 0
000030 ec f2 00 e5 ef 00 fc f4 ed e1 e9 a5 00 e3 00 00
       -20 -14 0 -27 -17 0 -4 -12 -19 -31 -23 -91 0 -29 0 0
000040 cc 00 00 bc 81 f3 07 8e 0b eb 16 af 00 97 9d 00
       -52 0 0 -68 -127 -13 7 -114 11 -21 22 -81 0 -105 -99 0
000050 03 f9 00 01 b9 00 01 ed 07 eb b0 aa 00 fb 00 00
       3 -7 0 1 -71 0 1 -19 7 -21 -80 -86 0 -5 0 0
000060 e6 00 00 a5 e2 ff ac 81 fe d0 d6 a7 00 8b b9 00
       -26 0 0 -91 -30 -1 -84 -127 -2 -48 -42 -89 0 -117 -71 0
000070 f9 06 00 02 01 00 f7 da f3 ac ca dd 00 d2 00 00
       -7 6 0 2 1 0 -9 -38 -13 -84 -54 -35 0 -46 0 0
000080 00 00 00 00 00 00 00 00 00 00 00 00 00 00 00 00
       0 0 0 0 0 0 0 0 0 0 0 0 0 0 0 0
000090 00 00 00 00 00 00 00 00 00 00 00 00 00 00 00 00
       0 0 0 0 0 0 0 0 0 0 0 0 0 0 0 0
0000a0 d0 00 00 7f e4 fd 33 c0 fd e7 cb e9 00 b0 09 00
       -48 0 0 127 -28 -3 51 -64 -3 -25 -53 -23 0 -80 9 0
0000b0 fb d5 00 ea 11 00 fc fa fe eb 08 db 00 d4 00 00
       -5 -43 0 -22 17 0 -4 -6 -2 -21 8 -37 0 -44 0 0
0000c0 01 00 00 d3 cc f1 f0 99 01 81 f8 aa 00 cb 8a 00
       1 0 0 -45 -52 -15 -16 -103 1 -127 -8 -86 0 -53 -118 0
0000d0 fa bb 00 e7 aa 00 01 e0 bc a9 ce d3 00 95 00 00
       -6 -69 0 -25 -86 0 1 -32 -68 -87 -50 -45 0 -107 0 0
0000e0 fb 00 00 c2 9f f4 bb 81 00 d1 e7 8d 00 a6 c6 00
       -5 0 0 -62 -97 -12 -69 -127 0 -47 -25 -115 0 -90 -58 0
0000f0 fc fd 00 dd d0 00 ff 07 ef b6 ac b4 00 ef 00 00
       -4 -3 0 -35 -48 0 -1 7 -17 -74 -84 -76 0 -17 0 0

tfl.pseudo_qconst13 i1 [64, 3, 3, 64]
000000 00 00 00 00 00 00 00 00 00 00 00 00 00 00 00 00
       0 0 0 0 0 0 0 0 0 0 0 0 0 0 0 0
000010 00 00 00 00 00 00 00 00 00 00 00 00 00 00 00 00
       0 0 0 0 0 0 0 0 0 0 0 0 0 0 0 0
000020 00 00 00 00 00 00 00 00 00 00 00 00 00 00 00 00
       0 0 0 0 0 0 0 0 0 0 0 0 0 0 0 0
000030 00 00 00 00 00 00 00 00 00 00 00 00 00 00 00 00
       0 0 0 0 0 0 0 0 0 0 0 0 0 0 0 0
000040 00 00 00 00 00 00 00 00 00 00 00 00 00 00 00 00
       0 0 0 0 0 0 0 0 0 0 0 0 0 0 0 0
000050 00 00 00 00 00 00 00 00 00 00 00 00 00 00 00 00
       0 0 0 0 0 0 0 0 0 0 0 0 0 0 0 0
000060 00 00 00 00 00 00 00 00 00 00 00 00 00 00 00 00
       0 0 0 0 0 0 0 0 0 0 0 0 0 0 0 0
000070 00 00 00 00 00 00 00 00 00 00 00 00 00 00 00 00
       0 0 0 0 0 0 0 0 0 0 0 0 0 0 0 0
000080 00 00 00 00 00 00 00 00 00 00 00 00 00 00 00 00
       0 0 0 0 0 0 0 0 0 0 0 0 0 0 0 0
000090 00 00 00 00 00 00 00 00 00 00 00 00 00 00 00 00
       0 0 0 0 0 0 0 0 0 0 0 0 0 0 0 0
0000a0 00 00 00 00 00 00 00 00 00 00 00 00 00 00 00 00
       0 0 0 0 0 0 0 0 0 0 0 0 0 0 0 0
0000b0 00 00 00 00 00 00 00 00 00 00 00 00 00 00 00 00
       0 0 0 0 0 0 0 0 0 0 0 0 0 0 0 0
0000c0 00 00 00 00 00 00 00 00 00 00 00 00 00 00 00 00
       0 0 0 0 0 0 0 0 0 0 0 0 0 0 0 0
0000d0 00 00 00 00 00 00 00 00 00 00 00 00 00 00 00 00
       0 0 0 0 0 0 0 0 0 0 0 0 0 0 0 0
0000e0 00 00 00 00 00 00 00 00 00 00 00 00 00 00 00 00
       0 0 0 0 0 0 0 0 0 0 0 0 0 0 0 0
0000f0 00 00 00 00 00 00 00 00 00 00 00 00 00 00 00 00
       0 0 0 0 0 0 0 0 0 0 0 0 0 0 0 0

tfl.pseudo_qconst15 i1 [64, 3, 3, 32]
000000 02 00 00 14 e0 44 fb f5 fe 06 fd c5 00 10 09 00
       2 0 0 20 -32 68 -5 -11 -2 6 -3 -59 0 16 9 0
000010 02 ff 00 28 07 00 ff 5d 10 21 19 e0 00 fc 00 00
       2 -1 0 40 7 0 -1 93 16 33 25 -32 0 -4 0 0
000020 e4 00 00 0b 0f 61 11 e9 fd e7 05 de 00 42 01 00
       -28 0 0 11 15 97 17 -23 -3 -25 5 -34 0 66 1 0
000030 03 fd 00 57 fa 00 ff 72 f1 1f 20 fa 00 e5 00 00
       3 -3 0 87 -6 0 -1 114 -15 31 32 -6 0 -27 0 0
000040 dd 00 00 1b 11 18 1e f6 00 da 06 fd 00 1d 23 00
       -35 0 0 27 17 24 30 -10 0 -38 6 -3 0 29 35 0
000050 ff 05 00 38 fb 00 00 3b 08 0b 4a 06 00 eb 00 00
       -1 5 0 56 -5 0 0 59 8 11 74 6 0 -21 0 0
000060 0a 00 00 15 e5 55 05 ee ff 32 08 d8 00 1c 0f 00
       10 0 0 21 -27 85 5 -18 -1 50 8 -40 0 28 15 0
000070 fb 12 00 2f f9 00 00 51 f6 12 e8 e8 00 e9 00 00
       -5 18 0 47 -7 0 0 81 -10 18 -24 -24 0 -23 0 0
000080 ed 00 00 ef f5 52 08 ef fe 1c fe 07 00 31 4d 00
       -19 0 0 -17 -11 82 8 -17 -2 28 -2 7 0 49 77 0
000090 f3 01 00 79 06 00 00 60 0f 16 ec cf 00 dd 00 00
       -13 1 0 121 6 0 0 96 15 22 -20 -49 0 -35 0 0
0000a0 d0 00 00 0a 0d 16 1c 11 01 02 09 3d 00 f2 7f 00
       -48 0 0 10 13 22 28 17 1 2 9 61 0 -14 127 0
0000b0 f0 f7 00 1d 09 00 01 ea 40 00 20 dc 00 f6 00 00
       -16 -9 0 29 9 0 1 -22 64 0 32 -36 0 -10 0 0
0000c0 ea 00 00 04 fb 30 15 03 fe 3d ff b9 00 2c e8 00
       -22 0 0 4 -5 48 21 3 -2 61 -1 -71 0 44 -24 0
0000d0 01 09 00 39 11 00 fe 44 e2 15 e3 06 00 d8 00 00
       1 9 0 57 17 0 -2 68 -30 21 -29 6 0 -40 0 0
0000e0 d2 00 00 e6 06 26 fb e2 00 30 f6 f6 00 05 37 00
       -46 0 0 -26 6 38 -5 -30 0 48 -10 -10 0 5 55 0
0000f0 fb f0 00 4a fb 00 fd 31 fd 18 e8 f6 00 cf 00 00
       -5 -16 0 74 -5 0 -3 49 -3 24 -24 -10 0 -49 0 0

tfl.pseudo_qconst17 i1 [32, 3, 3, 32]
000000 00 00 f8 00 67 f3 3e 00 00 00 00 00 07 00 00 00
       0 0 -8 0 103 -13 62 0 0 0 0 0 7 0 0 0
000010 00 00 00 ff 21 00 fb 00 00 00 00 2c 00 00 0d 00
       0 0 0 -1 33 0 -5 0 0 0 0 44 0 0 13 0
000020 00 00 f7 00 6d f9 3f 00 00 00 00 00 e5 00 00 00
       0 0 -9 0 109 -7 63 0 0 0 0 0 -27 0 0 0
000030 00 00 00 02 08 00 e5 00 00 00 00 15 00 00 fa 00
       0 0 0 2 8 0 -27 0 0 0 0 21 0 0 -6 0
000040 00 00 f8 00 7f ff 4e 00 00 00 00 00 d7 00 00 00
       0 0 -8 0 127 -1 78 0 0 0 0 0 -41 0 0 0
000050 00 01 00 02 ee 00 df 00 00 00 00 3f 00 00 e0 00
       0 1 0 2 -18 0 -33 0 0 0 0 63 0 0 -32 0
000060 00 00 00 00 5f f1 14 00 00 00 00 00 13 00 00 00
       0 0 0 0 95 -15 20 0 0 0 0 0 19 0 0 0
000070 00 00 00 f3 fc 00 e2 00 00 00 00 38 00 00 1e 00
       0 0 0 -13 -4 0 -30 0 0 0 0 56 0 0 30 0
000080 00 00 00 00 54 fa 17 00 00 00 00 00 ea 00 00 00
       0 0 0 0 84 -6 23 0 0 0 0 0 -22 0 0 0
000090 00 00 00 00 f5 00 e5 00 00 00 00 2c 00 00 09 00
       0 0 0 0 -11 0 -27 0 0 0 0 44 0 0 9 0
0000a0 00 00 ff 00 77 ff 1b 00 00 00 00 00 c7 00 00 00
       0 0 -1 0 119 -1 27 0 0 0 0 0 -57 0 0 0
0000b0 00 00 00 04 e9 00 cf 00 00 00 00 2e 00 00 f5 00
       0 0 0 4 -23 0 -49 0 0 0 0 46 0 0 -11 0
0000c0 00 00 01 00 39 eb f5 00 00 00 00 00 10 00 00 00
       0 0 1 0 57 -21 -11 0 0 0 0 0 16 0 0 0
0000d0 00 00 00 ef f1 00 c3 00 00 00 00 29 00 00 0c 00
       0 0 0 -17 -15 0 -61 0 0 0 0 41 0 0 12 0
0000e0 00 00 01 00 40 fd ef 00 00 00 00 00 f9 00 00 00
       0 0 1 0 64 -3 -17 0 0 0 0 0 -7 0 0 0
0000f0 00 00 00 fa f2 00 d9 00 00 00 00 1b 00 00 0a 00
       0 0 0 -6 -14 0 -39 0 0 0 0 27 0 0 10 0

tfl.pseudo_qconst19 i1 [32, 3, 3, 32]
000000 00 00 00 00 00 00 00 00 00 00 00 00 00 00 00 00
       0 0 0 0 0 0 0 0 0 0 0 0 0 0 0 0
000010 00 00 00 00 00 00 00 00 00 00 00 00 00 00 00 00
       0 0 0 0 0 0 0 0 0 0 0 0 0 0 0 0
000020 00 00 00 00 00 00 00 00 00 00 00 00 00 00 00 00
       0 0 0 0 0 0 0 0 0 0 0 0 0 0 0 0
000030 00 00 00 00 00 00 00 00 00 00 00 00 00 00 00 00
       0 0 0 0 0 0 0 0 0 0 0 0 0 0 0 0
000040 00 00 00 00 00 00 00 00 00 00 00 00 00 00 00 00
       0 0 0 0 0 0 0 0 0 0 0 0 0 0 0 0
000050 00 00 00 00 00 00 00 00 00 00 00 00 00 00 00 00
       0 0 0 0 0 0 0 0 0 0 0 0 0 0 0 0
000060 00 00 00 00 00 00 00 00 00 00 00 00 00 00 00 00
       0 0 0 0 0 0 0 0 0 0 0 0 0 0 0 0
000070 00 00 00 00 00 00 00 00 00 00 00 00 00 00 00 00
       0 0 0 0 0 0 0 0 0 0 0 0 0 0 0 0
000080 00 00 00 00 00 00 00 00 00 00 00 00 00 00 00 00
       0 0 0 0 0 0 0 0 0 0 0 0 0 0 0 0
000090 00 00 00 00 00 00 00 00 00 00 00 00 00 00 00 00
       0 0 0 0 0 0 0 0 0 0 0 0 0 0 0 0
0000a0 00 00 00 00 00 00 00 00 00 00 00 00 00 00 00 00
       0 0 0 0 0 0 0 0 0 0 0 0 0 0 0 0
0000b0 00 00 00 00 00 00 00 00 00 00 00 00 00 00 00 00
       0 0 0 0 0 0 0 0 0 0 0 0 0 0 0 0
0000c0 00 00 00 00 00 00 00 00 00 00 00 00 00 00 00 00
       0 0 0 0 0 0 0 0 0 0 0 0 0 0 0 0
0000d0 00 00 00 00 00 00 00 00 00 00 00 00 00 00 00 00
       0 0 0 0 0 0 0 0 0 0 0 0 0 0 0 0
0000e0 00 00 00 00 00 00 00 00 00 00 00 00 00 00 00 00
       0 0 0 0 0 0 0 0 0 0 0 0 0 0 0 0
0000f0 00 00 00 00 00 00 00 00 00 00 00 00 00 00 00 00
       0 0 0 0 0 0 0 0 0 0 0 0 0 0 0 0

tfl.pseudo_qconst21 i1 [32, 3, 3, 32]
000000 00 00 4b 18 00 45 cf 00 00 00 07 00 f1 00 00 00
       0 0 75 24 0 69 -49 0 0 0 7 0 -15 0 0 0
000010 00 00 f2 00 fe ff 00 fa 01 00 00 06 00 00 00 00
       0 0 -14 0 -2 -1 0 -6 1 0 0 6 0 0 0 0
000020 00 00 6f ff 00 e4 d6 00 00 00 dc 00 f8 00 00 00
       0 0 111 -1 0 -28 -42 0 0 0 -36 0 -8 0 0 0
000030 00 00 e3 04 ef 0f 00 00 04 00 00 b1 00 00 00 00
       0 0 -29 4 -17 15 0 0 4 0 0 -79 0 0 0 0
000040 00 00 7e cc 00 d2 d4 00 00 00 de 00 06 00 00 00
       0 0 126 -52 0 -46 -44 0 0 0 -34 0 6 0 0 0
000050 00 00 d8 02 f7 25 00 06 05 00 00 9e 00 00 00 00
       0 0 -40 2 -9 37 0 6 5 0 0 -98 0 0 0 0
000060 00 00 08 e1 00 60 fb 00 00 00 1f 00 f9 00 00 00
       0 0 8 -31 0 96 -5 0 0 0 31 0 -7 0 0 0
000070 00 00 e7 fc f9 fb 00 f7 fe 00 00 3f 00 00 00 00
       0 0 -25 -4 -7 -5 0 -9 -2 0 0 63 0 0 0 0
000080 00 00 48 d9 00 0f da 00 00 00 db 00 f5 00 00 00
       0 0 72 -39 0 15 -38 0 0 0 -37 0 -11 0 0 0
000090 00 00 db 02 e8 01 00 f4 01 00 00 d8 00 00 00 00
       0 0 -37 2 -24 1 0 -12 1 0 0 -40 0 0 0 0
0000a0 00 00 73 c8 00 d5 db 00 00 00 96 00 02 00 00 00
       0 0 115 -56 0 -43 -37 0 0 0 -106 0 2 0 0 0
0000b0 00 00 cb 01 ee 26 00 fa 02 00 00 ae 00 00 00 00
       0 0 -53 1 -18 38 0 -6 2 0 0 -82 0 0 0 0
0000c0 00 00 f1 cb 00 36 f0 00 00 00 2a 00 07 00 00 00
       0 0 -15 -53 0 54 -16 0 0 0 42 0 7 0 0 0
0000d0 00 00 cb 00 f4 09 00 f9 00 00 00 6b 00 00 00 00
       0 0 -53 0 -12 9 0 -7 0 0 0 107 0 0 0 0
0000e0 00 00 23 be 00 09 fe 00 00 00 06 00 0c 00 00 00
       0 0 35 -66 0 9 -2 0 0 0 6 0 12 0 0 0
0000f0 00 00 dc 05 f5 06 00 f6 07 00 00 24 00 00 00 00
       0 0 -36 5 -11 6 0 -10 7 0 0 36 0 0 0 0

tfl.pseudo_qconst23 i1 [32, 3, 3, 32]
000000 00 00 00 00 00 00 00 00 00 00 00 00 00 00 00 00
       0 0 0 0 0 0 0 0 0 0 0 0 0 0 0 0
000010 00 00 00 00 00 00 00 00 00 00 00 00 00 00 00 00
       0 0 0 0 0 0 0 0 0 0 0 0 0 0 0 0
000020 00 00 00 00 00 00 00 00 00 00 00 00 00 00 00 00
       0 0 0 0 0 0 0 0 0 0 0 0 0 0 0 0
000030 00 00 00 00 00 00 00 00 00 00 00 00 00 00 00 00
       0 0 0 0 0 0 0 0 0 0 0 0 0 0 0 0
000040 00 00 00 00 00 00 00 00 00 00 00 00 00 00 00 00
       0 0 0 0 0 0 0 0 0 0 0 0 0 0 0 0
000050 00 00 00 00 00 00 00 00 00 00 00 00 00 00 00 00
       0 0 0 0 0 0 0 0 0 0 0 0 0 0 0 0
000060 00 00 00 00 00 00 00 00 00 00 00 00 00 00 00 00
       0 0 0 0 0 0 0 0 0 0 0 0 0 0 0 0
000070 00 00 00 00 00 00 00 00 00 00 00 00 00 00 00 00
       0 0 0 0 0 0 0 0 0 0 0 0 0 0 0 0
000080 00 00 00 00 00 00 00 00 00 00 00 00 00 00 00 00
       0 0 0 0 0 0 0 0 0 0 0 0 0 0 0 0
000090 00 00 00 00 00 00 00 00 00 00 00 00 00 00 00 00
       0 0 0 0 0 0 0 0 0 0 0 0 0 0 0 0
0000a0 00 00 00 00 00 00 00 00 00 00 00 00 00 00 00 00
       0 0 0 0 0 0 0 0 0 0 0 0 0 0 0 0
0000b0 00 00 00 00 00 00 00 00 00 00 00 00 00 00 00 00
       0 0 0 0 0 0 0 0 0 0 0 0 0 0 0 0
0000c0 00 00 00 00 00 00 00 00 00 00 00 00 00 00 00 00
       0 0 0 0 0 0 0 0 0 0 0 0 0 0 0 0
0000d0 00 00 00 00 00 00 00 00 00 00 00 00 00 00 00 00
       0 0 0 0 0 0 0 0 0 0 0 0 0 0 0 0
0000e0 00 00 00 00 00 00 00 00 00 00 00 00 00 00 00 00
       0 0 0 0 0 0 0 0 0 0 0 0 0 0 0 0
0000f0 00 00 00 00 00 00 00 00 00 00 00 00 00 00 00 00
       0 0 0 0 0 0 0 0 0 0 0 0 0 0 0 0

tfl.pseudo_qconst25 i1 [32, 3, 3, 32]
000000 f5 00 fa 19 f7 00 f5 00 00 00 00 00 2e 00 62 00
       -11 0 -6 25 -9 0 -11 0 0 0 0 0 46 0 98 0
000010 00 00 00 00 f0 00 00 16 2f 4b 00 e5 00 02 00 00
       0 0 0 0 -16 0 0 22 47 75 0 -27 0 2 0 0
000020 f0 00 ef 3d 0c 00 08 00 00 00 00 00 66 00 17 00
       -16 0 -17 61 12 0 8 0 0 0 0 0 102 0 23 0
000030 00 00 00 00 fe 00 00 fd fd 06 00 e2 00 e6 00 00
       0 0 0 0 -2 0 0 -3 -3 6 0 -30 0 -26 0 0
000040 e8 00 e3 0b 02 00 f4 00 00 00 00 00 1f 00 dc 00
       -24 0 -29 11 2 0 -12 0 0 0 0 0 31 0 -36 0
000050 00 00 00 00 ff 00 00 f2 fe df 00 df 00 31 00 00
       0 0 0 0 -1 0 0 -14 -2 -33 0 -33 0 49 0 0
000060 f0 00 ef 00 f6 00 ee 00 00 00 00 00 16 00 2f 00
       -16 0 -17 0 -10 0 -18 0 0 0 0 0 22 0 47 0
000070 00 00 00 00 00 00 00 11 0d 2e 00 f8 00 1a 00 00
       0 0 0 0 0 0 0 17 13 46 0 -8 0 26 0 0
000080 ec 00 eb 2b 04 00 06 00 00 00 00 00 5a 00 08 00
       -20 0 -21 43 4 0 6 0 0 0 0 0 90 0 8 0
000090 00 00 00 00 01 00 00 f7 ff 0a 00 ce 00 f7 00 00
       0 0 0 0 1 0 0 -9 -1 10 0 -50 0 -9 0 0
0000a0 e6 00 fd 29 1a 00 15 00 00 00 00 00 59 00 da 00
       -26 0 -3 41 26 0 21 0 0 0 0 0 89 0 -38 0
0000b0 00 00 00 00 01 00 00 fe 14 e4 00 db 00 f7 00 00
       0 0 0 0 1 0 0 -2 20 -28 0 -37 0 -9 0 0
0000c0 e0 00 0a d7 01 00 02 00 00 00 00 00 d7 00 0c 00
       -32 0 10 -41 1 0 2 0 0 0 0 0 -41 0 12 0
0000d0 00 00 00 00 f6 00 00 0f 12 fe 00 fb 00 f4 00 00
       0 0 0 0 -10 0 0 15 18 -2 0 -5 0 -12 0 0
0000e0 de 00 f7 0d ff 00 05 00 00 00 00 00 2b 00 e9 00
       -34 0 -9 13 -1 0 5 0 0 0 0 0 43 0 -23 0
0000f0 00 00 00 00 f6 00 00 01 fe f6 00 d7 00 e3 00 00
       0 0 0 0 -10 0 0 1 -2 -10 0 -41 0 -29 0 0

tfl.pseudo_qconst27 i1 [32, 3, 3, 16]
000000 0f 19 00 f3 00 f8 23 fd 22 0d f3 2d 41 00 2d f7
       15 25 0 -13 0 -8 35 -3 34 13 -13 45 65 0 45 -9
000010 06 0f 00 07 d8 ca 17 fd 02 26 d8 30 26 00 fa ef
       6 15 0 7 -40 -54 23 -3 2 38 -40 48 38 0 -6 -17
000020 13 f5 00 1c b6 0a 1d f0 e3 48 c3 1d 23 00 ee d3
       19 -11 0 28 -74 10 29 -16 -29 72 -61 29 35 0 -18 -45
000030 19 09 00 40 04 ed 10 f6 0d 2d e0 29 1f 00 f1 ea
       25 9 0 64 4 -19 16 -10 13 45 -32 41 31 0 -15 -22
000040 0b f4 00 39 bc c6 f8 fd ea 34 d7 20 ec 00 c9 df
       11 -12 0 57 -68 -58 -8 -3 -22 52 -41 32 -20 0 -55 -33
000050 1c cf 00 3b 9a 0a fe f1 c1 4f d8 0a fa 00 e5 c5
       28 -49 0 59 -102 10 -2 -15 -63 79 -40 10 -6 0 -27 -59
000060 15 f3 00 66 0b ff 09 f3 0f 1e f1 11 0b 00 cb e6
       21 -13 0 102 11 -1 9 -13 15 30 -15 17 11 0 -53 -26
000070 fc e0 00 56 a7 d7 f0 f3 e4 11 f2 02 d0 00 d3 d7
       -4 -32 0 86 -89 -41 -16 -13 -28 17 -14 2 -48 0 -45 -41
000080 f8 c4 00 4b 81 1e ea e6 ac 33 03 01 e5 00 14 c2
       -8 -60 0 75 -127 30 -22 -26 -84 51 3 1 -27 0 20 -62
000090 00 00 00 00 00 00 00 00 00 00 00 00 00 00 00 00
       0 0 0 0 0 0 0 0 0 0 0 0 0 0 0 0
0000a0 00 00 00 00 00 00 00 00 00 00 00 00 00 00 00 00
       0 0 0 0 0 0 0 0 0 0 0 0 0 0 0 0
0000b0 00 00 00 00 00 00 00 00 00 00 00 00 00 00 00 00
       0 0 0 0 0 0 0 0 0 0 0 0 0 0 0 0
0000c0 00 00 00 00 00 00 00 00 00 00 00 00 00 00 00 00
       0 0 0 0 0 0 0 0 0 0 0 0 0 0 0 0
0000d0 00 00 00 00 00 00 00 00 00 00 00 00 00 00 00 00
       0 0 0 0 0 0 0 0 0 0 0 0 0 0 0 0
0000e0 00 00 00 00 00 00 00 00 00 00 00 00 00 00 00 00
       0 0 0 0 0 0 0 0 0 0 0 0 0 0 0 0
0000f0 00 00 00 00 00 00 00 00 00 00 00 00 00 00 00 00
       0 0 0 0 0 0 0 0 0 0 0 0 0 0 0 0

tfl.pseudo_qconst29 i1 [32, 1, 1, 16]
000000 d2 f6 00 a6 7f 6d c1 f3 68 be c8 bc d4 00 a9 0c
       -46 -10 0 -90 127 109 -63 -13 104 -66 -56 -68 -44 0 -87 12
000010 00 00 00 00 00 00 00 00 00 00 00 00 00 00 00 00
       0 0 0 0 0 0 0 0 0 0 0 0 0 0 0 0
000020 00 00 00 00 00 00 00 00 00 00 00 00 00 00 00 00
       0 0 0 0 0 0 0 0 0 0 0 0 0 0 0 0
000030 04 f2 00 b6 81 ac e7 f8 f2 09 61 4d 67 00 3c 2f
       4 -14 0 -74 -127 -84 -25 -8 -14 9 97 77 103 0 60 47
000040 6f d5 00 ef ce 05 e3 fd e3 42 ae 19 7f 00 eb e7
       111 -43 0 -17 -50 5 -29 -3 -29 66 -82 25 127 0 -21 -25
000050 00 00 00 00 00 00 00 00 00 00 00 00 00 00 00 00
       0 0 0 0 0 0 0 0 0 0 0 0 0 0 0 0
000060 06 f0 00 e7 81 26 c6 f8 24 e8 d3 36 24 00 3f f1
       6 -16 0 -25 -127 38 -58 -8 36 -24 -45 54 36 0 63 -15
000070 d3 05 00 11 bc 26 eb 03 e4 f5 7c 17 e4 00 7f 14
       -45 5 0 17 -68 38 -21 3 -28 -11 124 23 -28 0 127 20
000080 ec d6 00 ce c0 d4 eb 00 ce 81 d6 e8 eb 00 f5 f1
       -20 -42 0 -50 -64 -44 -21 0 -50 -127 -42 -24 -21 0 -11 -15
000090 1c f2 00 7f 61 08 11 01 22 a5 47 a1 2d 00 df f1
       28 -14 0 127 97 8 17 1 34 -91 71 -95 45 0 -33 -15
0000a0 b0 bf 00 af e5 8c d4 07 ab cb 81 e9 86 00 6d eb
       -80 -65 0 -81 -27 -116 -44 7 -85 -53 -127 -23 -122 0 109 -21
0000b0 c0 69 00 76 ed d8 47 25 3c 1e b9 ee b6 00 81 f0
       -64 105 0 118 -19 -40 71 37 60 30 -71 -18 -74 0 -127 -16
0000c0 00 00 00 00 00 00 00 00 00 00 00 00 00 00 00 00
       0 0 0 0 0 0 0 0 0 0 0 0 0 0 0 0
0000d0 0b a9 00 f6 53 d7 fd fa 8d de ea 24 bd 00 7f 27
       11 -87 0 -10 83 -41 -3 -6 -115 -34 -22 36 -67 0 127 39
0000e0 e9 07 00 7f de f3 22 0f 2a bc 02 fd e3 00 df ef
       -23 7 0 127 -34 -13 34 15 42 -68 2 -3 -29 0 -33 -17
0000f0 00 00 00 00 00 00 00 00 00 00 00 00 00 00 00 00
       0 0 0 0 0 0 0 0 0 0 0 0 0 0 0 0

tfl.pseudo_qconst31 i1 [16, 3, 3, 16]
000000 00 19 37 00 00 1e 00 00 00 00 00 00 00 00 5a 00
       0 25 55 0 0 30 0 0 0 0 0 0 0 0 90 0
000010 00 0a 1c 00 00 0c 00 00 00 00 00 00 00 00 4e 00
       0 10 28 0 0 12 0 0 0 0 0 0 0 0 78 0
000020 00 f0 ea 00 00 f0 00 00 00 00 00 01 00 00 1e 00
       0 -16 -22 0 0 -16 0 0 0 0 0 1 0 0 30 0
000030 00 28 42 00 00 28 00 00 00 00 00 00 00 00 1a 00
       0 40 66 0 0 40 0 0 0 0 0 0 0 0 26 0
000040 00 29 3d 00 00 2d 00 00 00 00 00 00 00 00 61 00
       0 41 61 0 0 45 0 0 0 0 0 0 0 0 97 0
000050 00 13 1a 00 00 16 00 00 00 00 00 00 00 00 56 00
       0 19 26 0 0 22 0 0 0 0 0 0 0 0 86 0
000060 00 07 06 00 00 06 00 00 00 00 00 00 00 00 c1 00
       0 7 6 0 0 6 0 0 0 0 0 0 0 0 -63 0
000070 00 17 23 00 00 1a 00 00 00 00 00 00 00 00 33 00
       0 23 35 0 0 26 0 0 0 0 0 0 0 0 51 0
000080 00 21 30 00 00 25 00 00 00 00 00 00 00 00 7f 00
       0 33 48 0 0 37 0 0 0 0 0 0 0 0 127 0
000090 00 d7 c2 00 00 d0 00 00 00 00 00 fd 00 00 81 00
       0 -41 -62 0 0 -48 0 0 0 0 0 -3 0 0 -127 0
0000a0 00 f6 ee 00 00 f7 00 00 00 00 00 fb 00 00 d7 00
       0 -10 -18 0 0 -9 0 0 0 0 0 -5 0 0 -41 0
0000b0 00 09 15 00 00 0e 00 00 00 00 00 f9 00 00 10 00
       0 9 21 0 0 14 0 0 0 0 0 -7 0 0 16 0
0000c0 00 d9 ab 00 00 d8 00 00 00 00 00 06 00 00 bc 00
       0 -39 -85 0 0 -40 0 0 0 0 0 6 0 0 -68 0
0000d0 00 ea c0 00 00 ef 00 00 00 00 00 06 00 00 f6 00
       0 -22 -64 0 0 -17 0 0 0 0 0 6 0 0 -10 0
0000e0 00 f3 e0 00 00 f9 00 00 00 00 00 04 00 00 06 00
       0 -13 -32 0 0 -7 0 0 0 0 0 4 0 0 6 0
0000f0 00 e4 c6 00 00 de 00 00 00 00 00 10 00 00 e4 00
       0 -28 -58 0 0 -34 0 0 0 0 0 16 0 0 -28 0

tfl.pseudo_qconst33 i1 [16, 3, 3, 16]
000000 ff 00 00 d7 0f ff 00 00 02 fb e6 f9 81 00 8b 00
       -1 0 0 -41 15 -1 0 0 2 -5 -26 -7 -127 0 -117 0
000010 00 00 00 df fd 00 00 00 01 ff ed fb 92 00 90 00
       0 0 0 -33 -3 0 0 0 1 -1 -19 -5 -110 0 -112 0
000020 00 00 00 e2 e9 00 00 00 01 00 f1 fa 9a 00 85 00
       0 0 0 -30 -23 0 0 0 1 0 -15 -6 -102 0 -123 0
000030 ff 00 00 cf 09 fd 00 00 00 fc e0 fb 90 00 bb 00
       -1 0 0 -49 9 -3 0 0 0 -4 -32 -5 -112 0 -69 0
000040 00 00 00 d5 ef 00 00 00 00 ff eb fb 94 00 b7 00
       0 0 0 -43 -17 0 0 0 0 -1 -21 -5 -108 0 -73 0
000050 00 00 00 d2 d5 00 00 00 00 00 f0 f8 94 00 a6 00
       0 0 0 -46 -43 0 0 0 0 0 -16 -8 -108 0 -90 0
000060 fe ff 00 c4 f8 fe 00 00 00 fa cb f8 a7 00 d3 00
       -2 -1 0 -60 -8 -2 0 0 0 -6 -53 -8 -89 0 -45 0
000070 ff ff 00 ba cc 00 00 00 00 fe d8 f9 a0 00 c9 00
       -1 -1 0 -70 -52 0 0 0 0 -2 -40 -7 -96 0 -55 0
000080 00 ff 00 ac a4 00 ff 00 ff ff de f4 96 00 b7 00
       0 -1 0 -84 -92 0 -1 0 -1 -1 -34 -12 -106 0 -73 0
000090 03 0b 00 60 0b f6 02 06 03 f3 09 e4 0b 00 e5 07
       3 11 0 96 11 -10 2 6 3 -13 9 -28 11 0 -27 7
0000a0 fe fb 00 56 24 ed ed 05 fc e0 ea d1 fa 00 df 03
       -2 -5 0 86 36 -19 -19 5 -4 -32 -22 -47 -6 0 -33 3
0000b0 e7 ef 00 46 2b ea e2 00 fc c7 d9 c7 d5 00 d0 fe
       -25 -17 0 70 43 -22 -30 0 -4 -57 -39 -57 -43 0 -48 -2
0000c0 ef fe 00 1e f4 0c f0 0e f5 d6 06 d2 19 00 33 05
       -17 -2 0 30 -12 12 -16 14 -11 -42 6 -46 25 0 51 5
0000d0 ee f5 00 0a 01 f1 e9 0a eb bf f2 e2 2a 00 4b 05
       -18 -11 0 10 1 -15 -23 10 -21 -65 -14 -30 42 0 75 5
0000e0 e9 ee 00 ea 06 e1 e2 02 e4 af ea ee 16 00 45 01
       -23 -18 0 -22 6 -31 -30 2 -28 -81 -22 -18 22 0 69 1
0000f0 cf 11 00 ce f6 27 f5 0c ff b2 10 de 2c 00 67 09
       -49 17 0 -50 -10 39 -11 12 -1 -78 16 -34 44 0 103 9

tfl.pseudo_qconst35 i1 [16, 3, 3, 16]
000000 00 00 06 00 d7 c0 ff 00 d8 00 ff d5 f0 00 00 fb
       0 0 6 0 -41 -64 -1 0 -40 0 -1 -43 -16 0 0 -5
000010 00 00 08 00 b3 95 ff 00 d3 00 fe ce f7 00 00 fe
       0 0 8 0 -77 -107 -1 0 -45 0 -2 -50 -9 0 0 -2
000020 00 00 08 00 9d 87 ff 00 d7 00 ff d2 f5 00 00 00
       0 0 8 0 -99 -121 -1 0 -41 0 -1 -46 -11 0 0 0
000030 00 00 09 00 e0 e4 ff 00 f1 00 ff ec fc 00 00 fc
       0 0 9 0 -32 -28 -1 0 -15 0 -1 -20 -4 0 0 -4
000040 00 00 0b 00 a8 bf ff 00 eb 00 ff e2 fe 00 00 fe
       0 0 11 0 -88 -65 -1 0 -21 0 -1 -30 -2 0 0 -2
000050 00 00 0b 00 81 aa ff 00 ea 00 ff e0 fb 00 00 00
       0 0 11 0 -127 -86 -1 0 -22 0 -1 -32 -5 0 0 0
000060 00 00 0d 00 e0 be 00 00 08 00 ff f0 01 00 00 fb
       0 0 13 0 -32 -66 0 0 8 0 -1 -16 1 0 0 -5
000070 00 00 0e 00 a8 be 00 00 ff 00 ff f3 09 00 00 ff
       0 0 14 0 -88 -66 0 0 -1 0 -1 -13 9 0 0 -1
000080 00 00 0e 00 87 a5 00 00 fb 00 ff f9 fb 00 00 00
       0 0 14 0 -121 -91 0 0 -5 0 -1 -7 -5 0 0 0
000090 00 00 26 00 58 fb 00 ff 00 00 01 22 08 00 00 01
       0 0 38 0 88 -5 0 -1 0 0 1 34 8 0 0 1
0000a0 00 00 1c 00 66 01 fd ff 09 00 01 21 07 00 00 02
       0 0 28 0 102 1 -3 -1 9 0 1 33 7 0 0 2
0000b0 00 00 11 00 7f 0d fe 00 0e 00 01 28 0f 00 00 02
       0 0 17 0 127 13 -2 0 14 0 1 40 15 0 0 2
0000c0 00 00 1c 00 0b d4 fa ff f5 00 00 07 fd 00 00 01
       0 0 28 0 11 -44 -6 -1 -11 0 0 7 -3 0 0 1
0000d0 00 00 0e 00 14 d0 f8 ff fb 00 00 02 fd 00 00 04
       0 0 14 0 20 -48 -8 -1 -5 0 0 2 -3 0 0 4
0000e0 00 00 04 00 2d d8 fa ff 07 00 00 03 03 00 00 05
       0 0 4 0 45 -40 -6 -1 7 0 0 3 3 0 0 5
0000f0 00 00 14 00 db d9 fa 00 f6 00 00 fc 00 00 00 01
       0 0 20 0 -37 -39 -6 0 -10 0 0 -4 0 0 0 1

tfl.pseudo_qconst37 i1 [16, 3, 3, 16]
000000 00 00 00 00 00 00 00 00 00 00 00 00 00 00 00 00
       0 0 0 0 0 0 0 0 0 0 0 0 0 0 0 0
000010 00 00 00 00 00 00 00 00 00 00 00 00 00 00 00 00
       0 0 0 0 0 0 0 0 0 0 0 0 0 0 0 0
000020 00 00 00 00 00 00 00 00 00 00 00 00 00 00 00 00
       0 0 0 0 0 0 0 0 0 0 0 0 0 0 0 0
000030 00 00 00 00 00 00 00 00 00 00 00 00 00 00 00 00
       0 0 0 0 0 0 0 0 0 0 0 0 0 0 0 0
000040 00 00 00 00 00 00 00 00 00 00 00 00 00 00 00 00
       0 0 0 0 0 0 0 0 0 0 0 0 0 0 0 0
000050 00 00 00 00 00 00 00 00 00 00 00 00 00 00 00 00
       0 0 0 0 0 0 0 0 0 0 0 0 0 0 0 0
000060 00 00 00 00 00 00 00 00 00 00 00 00 00 00 00 00
       0 0 0 0 0 0 0 0 0 0 0 0 0 0 0 0
000070 00 00 00 00 00 00 00 00 00 00 00 00 00 00 00 00
       0 0 0 0 0 0 0 0 0 0 0 0 0 0 0 0
000080 00 00 00 00 00 00 00 00 00 00 00 00 00 00 00 00
       0 0 0 0 0 0 0 0 0 0 0 0 0 0 0 0
000090 00 00 00 c6 03 00 00 00 00 00 00 00 00 00 00 00
       0 0 0 -58 3 0 0 0 0 0 0 0 0 0 0 0
0000a0 00 00 00 ea 00 00 00 00 00 00 00 00 00 00 00 00
       0 0 0 -22 0 0 0 0 0 0 0 0 0 0 0 0
0000b0 00 00 00 f7 fc 00 00 00 00 00 00 00 00 00 00 00
       0 0 0 -9 -4 0 0 0 0 0 0 0 0 0 0 0
0000c0 00 00 00 d5 06 00 00 00 00 00 00 00 00 00 00 00
       0 0 0 -43 6 0 0 0 0 0 0 0 0 0 0 0
0000d0 00 00 00 f3 0f 00 00 00 00 00 00 00 00 00 00 00
       0 0 0 -13 15 0 0 0 0 0 0 0 0 0 0 0
0000e0 00 00 00 fe 09 00 00 00 00 00 00 00 00 00 00 00
       0 0 0 -2 9 0 0 0 0 0 0 0 0 0 0 0
0000f0 00 00 00 81 c3 00 00 00 00 00 00 00 00 00 00 00
       0 0 0 -127 -61 0 0 0 0 0 0 0 0 0 0 0

tfl.pseudo_qconst39 i1 [16, 3, 3, 16]
000000 0f 0f 30 07 e7 00 ff 14 1f 3c 00 15 00 00 05 ef
       15 15 48 7 -25 0 -1 20 31 60 0 21 0 0 5 -17
000010 23 17 10 06 ee 00 07 f4 2f 2c 00 ff 00 00 fd 03
       35 23 16 6 -18 0 7 -12 47 44 0 -1 0 0 -3 3
000020 0d 01 ec 03 ea 00 c1 df fd 18 00 d9 00 00 f4 07
       13 1 -20 3 -22 0 -63 -33 -3 24 0 -39 0 0 -12 7
000030 08 ea 55 05 f2 00 f3 21 11 66 00 fd 00 00 0b fe
       8 -22 85 5 -14 0 -13 33 17 102 0 -3 0 0 11 -2
000040 23 f2 2e 06 fb 00 03 fe 09 49 00 ed 00 00 05 09
       35 -14 46 6 -5 0 3 -2 9 73 0 -19 0 0 5 9
000050 0f fa 00 04 f6 00 b7 e2 d7 31 00 d7 00 00 fb 0e
       15 -6 0 4 -10 0 -73 -30 -41 49 0 -41 0 0 -5 14
000060 f2 d8 60 06 02 00 ec 1f f9 7f 00 f4 00 00 13 0b
       -14 -40 96 6 2 0 -20 31 -7 127 0 -12 0 0 19 11
000070 1e eb 3e 05 0a 00 02 01 fd 68 00 eb 00 00 0f 21
       30 -21 62 5 10 0 2 1 -3 104 0 -21 0 0 15 33
000080 14 ed 19 04 09 00 b3 e4 da 47 00 e0 00 00 07 18
       20 -19 25 4 9 0 -77 -28 -38 71 0 -32 0 0 7 24
000090 aa b3 17 14 7f 00 22 f6 d1 cf 00 ef 00 00 05 d2
       -86 -77 23 20 127 0 34 -10 -47 -49 0 -17 0 0 5 -46
0000a0 b6 d8 27 10 6a 00 1f 02 b4 d6 00 ee 00 00 0c dc
       -74 -40 39 16 106 0 31 2 -76 -42 0 -18 0 0 12 -36
0000b0 cd ef 44 01 5f 00 15 f6 d4 e0 00 fd 00 00 0d f8
       -51 -17 68 1 95 0 21 -10 -44 -32 0 -3 0 0 13 -8
0000c0 a7 09 e9 11 5b 00 13 f2 ea cc 00 de 00 00 fa d0
       -89 9 -23 17 91 0 19 -14 -22 -52 0 -34 0 0 -6 -48
0000d0 ac 1c ee 0e 43 00 03 fc d2 cd 00 e5 00 00 fb ec
       -84 28 -18 14 67 0 3 -4 -46 -51 0 -27 0 0 -5 -20
0000e0 c6 29 02 fd 36 00 09 f1 f5 df 00 e8 00 00 fd 0b
       -58 41 2 -3 54 0 9 -15 -11 -33 0 -24 0 0 -3 11
0000f0 28 6f db 00 26 00 d2 f7 46 ee 00 e3 00 00 f8 07
       40 111 -37 0 38 0 -46 -9 70 -18 0 -29 0 0 -8 7

tfl.pseudo_qconst41 i1 [16, 3, 3, 16]
000000 fc fb 00 1d 3a f6 fa fc c8 d3 ea 98 34 00 ee f0
       -4 -5 0 29 58 -10 -6 -4 -56 -45 -22 -104 52 0 -18 -16
000010 ea 07 00 d4 7f f3 f9 f8 ed cd d3 c3 03 00 c8 f4
       -22 7 0 -44 127 -13 -7 -8 -19 -51 -45 -61 3 0 -56 -12
000020 cf 16 00 a1 65 f7 f9 fe 07 d2 dd d8 b5 00 d7 ea
       -49 22 0 -95 101 -9 -7 -2 7 -46 -35 -40 -75 0 -41 -22
000030 e8 fe 00 4d d0 fe fc 0a c7 dd d6 90 1f 00 17 f1
       -24 -2 0 77 -48 -2 -4 10 -57 -35 -42 -112 31 0 23 -15
000040 f6 08 00 f8 20 f8 fc f4 db d7 c2 d8 08 00 f9 f5
       -10 8 0 -8 32 -8 -4 -12 -37 -41 -62 -40 8 0 -7 -11
000050 e2 10 00 bd 28 fb fc f4 f2 d7 ce 00 db 00 ef f2
       -30 16 0 -67 40 -5 -4 -12 -14 -41 -50 0 -37 0 -17 -14
000060 c3 fb 00 1e 9c 03 fc 20 c5 e8 cf 91 28 00 35 f6
       -61 -5 0 30 -100 3 -4 32 -59 -24 -49 -111 40 0 53 -10
000070 f5 07 00 d1 de ff fd fb d9 e1 c7 eb 2e 00 30 fa
       -11 7 0 -47 -34 -1 -3 -5 -39 -31 -57 -21 46 0 48 -6
000080 fc 11 00 8c 06 00 fe e5 ef dc cf 27 25 00 05 ff
       -4 17 0 -116 6 0 -2 -27 -17 -36 -49 39 37 0 5 -1
000090 f6 06 00 81 17 fa fa 06 22 e8 f4 c6 bb 00 c2 fb
       -10 6 0 -127 23 -6 -6 6 34 -24 -12 -58 -69 0 -62 -5
0000a0 0f fb 00 c9 55 f8 fe 06 18 f3 f8 bd d8 00 cb 00
       15 -5 0 -55 85 -8 -2 6 24 -13 -8 -67 -40 0 -53 0
0000b0 1f eb 00 ff 16 f3 01 f3 f1 00 f9 b9 ee 00 d5 08
       31 -21 0 -1 22 -13 1 -13 -15 0 -7 -71 -18 0 -43 8
0000c0 fa 0d 00 e0 40 f6 f8 f8 36 da f6 b5 d0 00 d6 f2
       -6 13 0 -32 64 -10 -8 -8 54 -38 -10 -75 -48 0 -42 -14
0000d0 ff fd 00 ea 02 f6 fb f7 0c e6 fa b0 df 00 cf fa
       -1 -3 0 -22 2 -10 -5 -9 12 -26 -6 -80 -33 0 -49 -6
0000e0 1d ec 00 4b 09 f5 fe f1 eb ec f9 a8 f5 00 e3 02
       29 -20 0 75 9 -11 -2 -15 -21 -20 -7 -88 -11 0 -29 2
0000f0 ce fd 00 e8 2b f8 f8 04 18 cd 0f cc f9 00 10 fa
       -50 -3 0 -24 43 -8 -8 4 24 -51 15 -52 -7 0 16 -6

tfl.pseudo_qconst43 i1 [16, 3, 3, 1]
000000 36 ea 41 1b 81 d1 03 f2 5f 0c 2b 0c 8e e7 11 7f
       54 -22 65 27 -127 -47 3 -14 95 12 43 12 -114 -25 17 127
000010 52 d9 00 00 00 00 00 00 00 00 00 81 0d 38 c3 f6
       82 -39 0 0 0 0 0 0 0 0 0 -127 13 56 -61 -10
000020 28 3c 15 3a 7f ba 8a 44 99 17 38 de 65 81 cf 69
       40 60 21 58 127 -70 -118 68 -103 23 56 -34 101 -127 -49 105
000030 b5 d3 44 c9 ba c7 f6 c5 95 81 c7 ee b0 e0 11 af
       -75 -45 68 -55 -70 -57 -10 -59 -107 -127 -57 -18 -80 -32 17 -81
000040 ab 7f 11 d7 36 54 bd ac d6 11 f1 c2 c0 c8 7f 1f
       -85 127 17 -41 54 84 -67 -84 -42 17 -15 -62 -64 -56 127 31
000050 ea d0 bc ec c8 d2 f6 84 93 7f 7a 4a e4 97 23 b2
       -22 -48 -68 -20 -56 -46 -10 -124 -109 127 122 74 -28 -105 35 -78
000060 81 21 e5 67 df 3a 5e 91 81 52 ba a7 17 c7 3f 2b
       -127 33 -27 103 -33 58 94 -111 -127 82 -70 -89 23 -57 63 43
000070 f3 75 81 e2 09 00 00 00 00 00 00 00 00 00 31 5f
       -13 117 -127 -30 9 0 0 0 0 0 0 0 0 0 49 95
000080 7f e6 d9 f6 e8 fa 9a 7f 99 e7 55 a1 c8 88 d3 12
       127 -26 -39 -10 -24 -6 -102 127 -103 -25 85 -95 -56 -120 -45 18
