Final Project/Q4/headers/squeezenetv11.tflite (tflite, 827176 bytes, 26 tensors)

tfl.pseudo_qconst1 i1 [10, 1, 1, 512]
0	0x0c	12
1	0x0c	12
2	0x12	18
3	0x0d	13
4	0x03	3
5	0xf6	-10
6	0xf1	-15
7	0xfa	-6
8	0x09	9
9	0x08	8
10	0x1c	28
11	0xc7	-57
12	0x05	5
13	0x11	17
14	0xf9	-7
15	0xfe	-2
16	0x17	23
17	0x0b	11
18	0xfb	-5
19	0xff	-1
20	0xf3	-13
21	0xff	-1
22	0xf9	-7
23	0x07	7
24	0x1a	26
25	0x02	2
26	0x11	17
27	0x08	8
28	0xfa	-6
29	0x08	8
30	0x0c	12
31	0xfb	-5
32	0xe9	-23
33	0x19	25
34	0xe9	-23
35	0xf6	-10
36	0xff	-1
37	0xd6	-42
38	0xfe	-2
39	0xcc	-52
40	0x1d	29
41	0x0a	10
42	0xcd	-51
43	0x03	3
44	0x05	5
45	0x11	17
46	0x13	19
47	0x0f	15
48	0x0c	12
49	0x14	20
50	0x14	20
51	0xf1	-15
52	0x02	2
53	0xf8	-8
54	0xc6	-58
55	0x04	4
56	0x15	21
57	0xf7	-9
58	0x0d	13
59	0xce	-50
60	0xe5	-27
61	0x02	2
62	0x1b	27
63	0x10	16
64	0xff	-1
65	0xfc	-4
66	0xf9	-7
67	0xde	-34
68	0xf8	-8
69	0x17	23
70	0xf1	-15
71	0x04	4
72	0xfa	-6
73	0x09	9
74	0x05	5
75	0xd8	-40
76	0xec	-20
77	0xdd	-35
78	0xf9	-7
79	0x0c	12
80	0x0d	13
81	0xed	-19
82	0x17	23
83	0x16	22
84	0x1c	28
85	0xfe	-2
86	0xd9	-39
87	0xf9	-7
88	0x06	6
89	0x10	16
90	0x0b	11
91	0x02	2
92	0xe9	-23
93	0xf3	-13
94	0xd8	-40
95	0x14	20
96	0x11	17
97	0xea	-22
98	0xff	-1
99	0x17	23
100	0x07	7
101	0xe4	-28
102	0xee	-18
103	0x0f	15
104	0x0b	11
105	0xc2	-62
106	0x1c	28
107	0x05	5
108	0x01	1
109	0xfa	-6
110	0x12	18
111	0x0b	11
112	0x15	21
113	0x12	18
114	0x06	6
115	0x08	8
116	0x18	24
117	0x03	3
118	0xf4	-12
119	0x1a	26
120	0xd6	-42
121	0xfe	-2
122	0x12	18
123	0xf4	-12
124	0xfb	-5
125	0x13	19
126	0xf1	-15
127	0xe5	-27
128	0xc5	-59
129	0x1e	30
130	0x17	23
131	0x17	23
132	0xfc	-4
133	0xe0	-32
134	0xe1	-31
135	0xbb	-69
136	0x10	16
137	0x17	23
138	0xf1	-15
139	0x06	6
140	0x04	4
141	0xa9	-87
142	0xd0	-48
143	0x07	7
144	0x00	0
145	0xd7	-41
146	0x12	18
147	0x15	21
148	0xfd	-3
149	0x11	17
150	0x08	8
151	0x0e	14
152	0xc2	-62
153	0xf1	-15
154	0xeb	-21
155	0x19	25
156	0x13	19
157	0x0e	14
158	0x10	16
159	0xff	-1
160	0x0c	12
161	0x16	22
162	0x14	20
163	0x06	6
164	0x10	16
165	0x00	0
166	0x0f	15
167	0xcd	-51
168	0x1d	29
169	0x17	23
170	0xf8	-8
171	0xde	-34
172	0x1b	27
173	0xd7	-41
174	0x12	18
175	0x0f	15
176	0xfc	-4
177	0x02	2
178	0xd4	-44
179	0x06	6
180	0xb6	-74
181	0xf2	-14
182	0x1d	29
183	0xf9	-7
184	0xe8	-24
185	0x07	7
186	0x0b	11
187	0x18	24
188	0x0d	13
189	0xd6	-42
190	0xfb	-5
191	0xce	-50
192	0x08	8
193	0x06	6
194	0x15	21
195	0x0f	15
196	0x15	21
197	0x03	3
198	0xf0	-16
199	0x13	19
200	0x19	25
201	0x0a	10
202	0x15	21
203	0x1e	30
204	0xc2	-62
205	0x12	18
206	0x01	1
207	0x18	24
208	0x1e	30
209	0xed	-19
210	0x11	17
211	0x0c	12
212	0xae	-82
213	0x0f	15
214	0x12	18
215	0x1a	26
216	0x06	6
217	0xe9	-23
218	0xed	-19
219	0x0f	15
220	0xc4	-60
221	0xe8	-24
222	0x11	17
223	0x08	8
224	0xa7	-89
225	0xdc	-36
226	0xe4	-28
227	0xf5	-11
228	0x19	25
229	0x04	4
230	0x0d	13
231	0xf0	-16
232	0x0b	11
233	0xf0	-16
234	0xf1	-15
235	0x08	8
236	0xf2	-14
237	0x0b	11
238	0x03	3
239	0xec	-20
240	0x15	21
241	0x07	7
242	0xeb	-21
243	0xed	-19
244	0xf7	-9
245	0x00	0
246	0xd8	-40
247	0xfb	-5
248	0x03	3
249	0xe9	-23
250	0x0e	14
251	0x16	22
252	0xd8	-40
253	0x0e	14
254	0xe7	-25
255	0x22	34

tfl.pseudo_qconst3 i1 [256, 3, 3, 64]
0	0x32	50
1	0xfe	-2
2	0x43	67
3	0x10	16
4	0x6a	106
5	0xc2	-62
6	0xfa	-6
7	0xe9	-23
8	0x04	4
9	0x2d	45
10	0xed	-19
11	0x24	36
12	0x23	35
13	0x57	87
14	0x01	1
15	0x7f	127
16	0xf5	-11
17	0x13	19
18	0x12	18
19	0x38	56
20	0x1b	27
21	0x32	50
22	0x2a	42
23	0xb1	-79
24	0xce	-50
25	0xdd	-35
26	0x16	22
27	0x07	7
28	0x06	6
29	0x21	33
30	0x14	20
31	0x5a	90
32	0x25	37
33	0x28	40
34	0xe3	-29
35	0x29	41
36	0xfa	-6
37	0xe6	-26
38	0xe8	-24
39	0xec	-20
40	0x24	36
41	0x2e	46
42	0xea	-22
43	0x0f	15
44	0xd7	-41
45	0x02	2
46	0xdb	-37
47	0xdb	-37
48	0x0c	12
49	0xfc	-4
50	0x6e	110
51	0x54	84
52	0x57	87
53	0x05	5
54	0xe4	-28
55	0x0c	12
56	0x19	25
57	0x13	19
58	0x1b	27
59	0x04	4
60	0xe7	-25
61	0x21	33
62	0xac	-84
63	0x22	34
64	0x39	57
65	0xd5	-43
66	0x19	25
67	0x00	0
68	0x37	55
69	0xbe	-66
70	0xee	-18
71	0xf3	-13
72	0x12	18
73	0x17	23
74	0xe9	-23
75	0x15	21
76	0x2b	43
77	0x24	36
78	0x0d	13
79	0x41	65
80	0xe1	-31
81	0xc5	-59
82	0x30	48
83	0x19	25
84	0xf8	-8
85	0x22	34
86	0x09	9
87	0xe4	-28
88	0xfd	-3
89	0x0e	14
90	0x27	39
91	0x0e	14
92	0x1e	30
93	0x41	65
94	0x06	6
95	0x35	53
96	0x0a	10
97	0x0b	11
98	0xee	-18
99	0x25	37
100	0xe0	-32
101	0xe9	-23
102	0xf2	-14
103	0xe0	-32
104	0x31	49
105	0x28	40
106	0xde	-34
107	0xfd	-3
108	0xf2	-14
109	0x13	19
110	0xdf	-33
111	0xd7	-41
112	0xf6	-10
113	0x33	51
114	0x32	50
115	0x26	38
116	0x22	34
117	0x04	4
118	0xf7	-9
119	0x21	33
120	0x03	3
121	0x0c	12
122	0x23	35
123	0x23	35
124	0xf2	-14
125	0x25	37
126	0xc8	-56
127	0x17	23
128	0x35	53
129	0xfc	-4
130	0xee	-18
131	0xfc	-4
132	0xfd	-3
133	0xdb	-37
134	0xfc	-4
135	0xf7	-9
136	0xed	-19
137	0xfc	-4
138	0x27	39
139	0x09	9
140	0x12	18
141	0xeb	-21
142	0x03	3
143	0xe6	-26
144	0x18	24
145	0xd4	-44
146	0x36	54
147	0x0b	11
148	0x00	0
149	0x0c	12
150	0xee	-18
151	0xeb	-21
152	0x2b	43
153	0x0f	15
154	0x23	35
155	0x0c	12
156	0x14	20
157	0x2c	44
158	0xf8	-8
159	0x12	18
160	0x08	8
161	0x00	0
162	0xf6	-10
163	0x16	22
164	0x0c	12
165	0x2b	43
166	0x3a	58
167	0x06	6
168	0x19	25
169	0x1c	28
170	0xea	-22
171	0x0f	15
172	0x02	2
173	0x0a	10
174	0xfb	-5
175	0xee	-18
176	0xfa	-6
177	0x25	37
178	0xf2	-14
179	0xf4	-12
180	0xfc	-4
181	0xf7	-9
182	0x01	1
183	0x1b	27
184	0xfa	-6
185	0x27	39
186	0x14	20
187	0x1b	27
188	0x03	3
189	0x20	32
190	0xf9	-7
191	0x2e	46
192	0x13	19
193	0x14	20
194	0x38	56
195	0x0d	13
196	0x4c	76
197	0xea	-22
198	0x15	21
199	0x14	20
200	0x0e	14
201	0x1c	28
202	0xec	-20
203	0x33	51
204	0x09	9
205	0xe1	-31
206	0x04	4
207	0x22	34
208	0x00	0
209	0x06	6
210	0xef	-17
211	0x43	67
212	0x19	25
213	0x15	21
214	0xfc	-4
215	0xca	-54
216	0xe0	-32
217	0xf7	-9
218	0x21	33
219	0x12	18
220	0x16	22
221	0xfa	-6
222	0x09	9
223	0x42	66
224	0x08	8
225	0xf4	-12
226	0x05	5
227	0x14	20
228	0x0f	15
229	0xea	-22
230	0xec	-20
231	0xff	-1
232	0xf9	-7
233	0x16	22
234	0xf3	-13
235	0xf9	-7
236	0xf9	-7
237	0x0e	14
238	0xfc	-4
239	0xf7	-9
240	0xf9	-7
241	0xff	-1
242	0x3f	63
243	0x45	69
244	0x18	24
245	0xfe	-2
246	0xe3	-29
247	0xf8	-8
248	0x12	18
249	0x08	8
250	0x21	33
251	0xe3	-29
252	0x2d	45
253	0xf2	-14
254	0xcb	-53
255	0x18	24

tfl.pseudo_qconst5 i1 [256, 1, 1, 64]
0	0xf9	-7
1	0x17	23
2	0x3b	59
3	0x15	21
4	0xbb	-69
5	0xf3	-13
6	0x1d	29
7	0x35	53
8	0xcb	-53
9	0x08	8
10	0xff	-1
11	0x1e	30
12	0xac	-84
13	0xea	-22
14	0x18	24
15	0x05	5
16	0xdb	-37
17	0xd8	-40
18	0x1a	26
19	0x5c	92
20	0x0d	13
21	0x08	8
22	0xe6	-26
23	0xd9	-39
24	0xc8	-56
25	0xc9	-55
26	0xeb	-21
27	0xe1	-31
28	0x15	21
29	0x29	41
30	0x03	3
31	0x10	16
32	0xd3	-45
33	0x65	101
34	0x44	68
35	0x08	8
36	0x01	1
37	0x0a	10
38	0x06	6
39	0x6a	106
40	0x16	22
41	0xf9	-7
42	0x17	23
43	0x7f	127
44	0xe3	-29
45	0x1a	26
46	0xc5	-59
47	0x2f	47
48	0x08	8
49	0x4b	75
50	0x03	3
51	0x18	24
52	0x39	57
53	0xbf	-65
54	0xbd	-67
55	0x07	7
56	0xdc	-36
57	0x00	0
58	0xea	-22
59	0xc6	-58
60	0x0e	14
61	0x37	55
62	0xfe	-2
63	0xf4	-12
64	0x4d	77
65	0x1a	26
66	0xfe	-2
67	0x17	23
68	0xc9	-55
69	0x15	21
70	0xf8	-8
71	0xd8	-40
72	0xbe	-66
73	0x11	17
74	0xf0	-16
75	0xf9	-7
76	0xe9	-23
77	0xf8	-8
78	0x38	56
79	0x1f	31
80	0xf0	-16
81	0x0e	14
82	0x0c	12
83	0xde	-34
84	0x12	18
85	0xdf	-33
86	0x3a	58
87	0xdf	-33
88	0x53	83
89	0xc4	-60
90	0x7f	127
91	0x03	3
92	0x06	6
93	0x56	86
94	0x1f	31
95	0x03	3
96	0xac	-84
97	0x1e	30
98	0x01	1
99	0xca	-54
100	0xe6	-26
101	0xfe	-2
102	0x36	54
103	0x07	7
104	0x07	7
105	0x29	41
106	0x1f	31
107	0x0e	14
108	0xd3	-45
109	0xcc	-52
110	0x2b	43
111	0xed	-19
112	0x66	102
113	0x03	3
114	0xf4	-12
115	0xc8	-56
116	0xee	-18
117	0x02	2
118	0x2d	45
119	0xf7	-9
120	0x06	6
121	0x25	37
122	0x2b	43
123	0x0d	13
124	0x45	69
125	0xe3	-29
126	0xdc	-36
127	0x71	113
128	0x4d	77
129	0x46	70
130	0x03	3
131	0x0f	15
132	0x0e	14
133	0x11	17
134	0x5c	92
135	0x2d	45
136	0x4c	76
137	0x46	70
138	0x21	33
139	0x13	19
140	0xfc	-4
141	0xf6	-10
142	0xec	-20
143	0xf3	-13
144	0x7f	127
145	0x1f	31
146	0xe2	-30
147	0x05	5
148	0x39	57
149	0x03	3
150	0xfc	-4
151	0x15	21
152	0x02	2
153	0x13	19
154	0xf8	-8
155	0x2b	43
156	0xaa	-86
157	0x2a	42
158	0xed	-19
159	0xc8	-56
160	0x64	100
161	0xfa	-6
162	0x0f	15
163	0xdf	-33
164	0xee	-18
165	0x0f	15
166	0xc8	-56
167	0x22	34
168	0xff	-1
169	0x21	33
170	0x6c	108
171	0xd5	-43
172	0x5b	91
173	0xe4	-28
174	0x28	40
175	0x47	71
176	0xef	-17
177	0xc3	-61
178	0xe2	-30
179	0xc8	-56
180	0xf5	-11
181	0x39	57
182	0xf7	-9
183	0xf6	-10
184	0x3c	60
185	0xe8	-24
186	0x30	48
187	0x28	40
188	0x43	67
189	0x21	33
190	0x28	40
191	0x22	34
192	0xf8	-8
193	0xcf	-49
194	0x20	32
195	0xef	-17
196	0xd8	-40
197	0xd2	-46
198	0x3b	59
199	0xe4	-28
200	0xe7	-25
201	0xee	-18
202	0x1d	29
203	0x0c	12
204	0x2c	44
205	0xcd	-51
206	0x34	52
207	0xf7	-9
208	0x07	7
209	0xf2	-14
210	0x0f	15
211	0x53	83
212	0x28	40
213	0xfc	-4
214	0x15	21
215	0xe3	-29
216	0x1c	28
217	0xbd	-67
218	0xfc	-4
219	0x0a	10
220	0xef	-17
221	0x16	22
222	0x0a	10
223	0x2e	46
224	0x2a	42
225	0x0b	11
226	0xfe	-2
227	0xec	-20
228	0xfd	-3
229	0xf3	-13
230	0x6e	110
231	0xbf	-65
232	0x41	65
233	0x7f	127
234	0xf6	-10
235	0xdf	-33
236	0xe1	-31
237	0xe5	-27
238	0xe3	-29
239	0xca	-54
240	0x14	20
241	0x3b	59
242	0x0b	11
243	0xde	-34
244	0x0d	13
245	0xdf	-33
246	0x3d	61
247	0xf5	-11
248	0x25	37
249	0x2e	46
250	0x44	68
251	0x45	69
252	0x1f	31
253	0xfe	-2
254	0x02	2
255	0x1c	28

tfl.pseudo_qconst7 i1 [64, 1, 1, 512]
0	0x49	73
1	0xc9	-55
2	0xe1	-31
3	0xff	-1
4	0x05	5
5	0x2c	44
6	0xf5	-11
7	0xda	-38
8	0xb5	-75
9	0xf1	-15
10	0x2b	43
11	0x1d	29
12	0x7e	126
13	0xc3	-61
14	0x1a	26
15	0xff	-1
16	0xf1	-15
17	0xe8	-24
18	0xda	-38
19	0x0e	14
20	0xf8	-8
21	0x14	20
22	0xe6	-26
23	0xba	-70
24	0x1f	31
25	0xf3	-13
26	0xef	-17
27	0xee	-18
28	0xd6	-42
29	0xe7	-25
30	0xd4	-44
31	0xde	-34
32	0x1e	30
33	0xfe	-2
34	0x17	23
35	0x23	35
36	0x14	20
37	0x0d	13
38	0xdd	-35
39	0x39	57
40	0x0a	10
41	0xe9	-23
42	0xdf	-33
43	0xc2	-62
44	0x01	1
45	0xeb	-21
46	0xf4	-12
47	0x10	16
48	0xe9	-23
49	0x14	20
50	0x05	5
51	0xbd	-67
52	0x03	3
53	0xe3	-29
54	0xdf	-33
55	0xf0	-16
56	0xd4	-44
57	0x4e	78
58	0x11	17
59	0x03	3
60	0x21	33
61	0xe5	-27
62	0xc0	-64
63	0xef	-17
64	0xf4	-12
65	0xbe	-66
66	0x3a	58
67	0x25	37
68	0x14	20
69	0x46	70
70	0xb6	-74
71	0xdb	-37
72	0xdd	-35
73	0xdd	-35
74	0x07	7
75	0xc4	-60
76	0xdf	-33
77	0xd6	-42
78	0xad	-83
79	0xe2	-30
80	0x25	37
81	0x21	33
82	0xd4	-44
83	0xf8	-8
84	0xee	-18
85	0xb4	-76
86	0x1f	31
87	0xce	-50
88	0xe6	-26
89	0xc8	-56
90	0xcd	-51
91	0xe9	-23
92	0x03	3
93	0xe9	-23
94	0xef	-17
95	0xe9	-23
96	0xde	-34
97	0xc9	-55
98	0x3a	58
99	0x29	41
100	0x31	49
101	0x03	3
102	0x12	18
103	0xea	-22
104	0xe2	-30
105	0xda	-38
106	0x3a	58
107	0x0b	11
108	0xd0	-48
109	0x32	50
110	0xe7	-25
111	0xfc	-4
112	0x0c	12
113	0x13	19
114	0xd2	-46
115	0x89	-119
116	0xd3	-45
117	0xec	-20
118	0x4c	76
119	0x30	48
120	0x12	18
121	0xd0	-48
122	0x07	7
123	0xf9	-7
124	0xe3	-29
125	0xdf	-33
126	0x77	119
127	0x29	41
128	0x22	34
129	0xfc	-4
130	0x59	89
131	0xd0	-48
132	0x72	114
133	0x1b	27
134	0xc3	-61
135	0xcc	-52
136	0x25	37
137	0xef	-17
138	0xf3	-13
139	0xfa	-6
140	0x7f	127
141	0xe8	-24
142	0x17	23
143	0xf4	-12
144	0x32	50
145	0x1a	26
146	0xe7	-25
147	0x05	5
148	0x12	18
149	0x17	23
150	0xe2	-30
151	0x3a	58
152	0x1b	27
153	0xee	-18
154	0xcc	-52
155	0xfb	-5
156	0x0b	11
157	0xdf	-33
158	0x13	19
159	0x22	34
160	0xea	-22
161	0x68	104
162	0xcb	-53
163	0x1a	26
164	0xdd	-35
165	0x25	37
166	0xfb	-5
167	0x3c	60
168	0x0b	11
169	0xab	-85
170	0x1b	27
171	0x00	0
172	0xb2	-78
173	0x27	39
174	0x48	72
175	0x19	25
176	0x28	40
177	0xb7	-73
178	0x23	35
179	0x11	17
180	0xf8	-8
181	0xd7	-41
182	0xc3	-61
183	0x27	39
184	0xcb	-53
185	0xd8	-40
186	0xf1	-15
187	0xec	-20
188	0xe4	-28
189	0xea	-22
190	0xd4	-44
191	0x17	23
192	0x01	1
193	0xe8	-24
194	0x07	7
195	0x09	9
196	0xee	-18
197	0x17	23
198	0x3f	63
199	0xb4	-76
200	0xee	-18
201	0xb9	-71
202	0x1c	28
203	0x11	17
204	0x28	40
205	0x05	5
206	0x28	40
207	0xef	-17
208	0xfd	-3
209	0x05	5
210	0xe7	-25
211	0x20	32
212	0xe6	-26
213	0xea	-22
214	0x02	2
215	0xf7	-9
216	0x34	52
217	0xcf	-49
218	0x27	39
219	0xef	-17
220	0xff	-1
221	0x1c	28
222	0xfa	-6
223	0x2b	43
224	0x06	6
225	0xc6	-58
226	0xf5	-11
227	0xd5	-43
228	0xb4	-76
229	0x0a	10
230	0x1f	31
231	0xea	-22
232	0xda	-38
233	0xf2	-14
234	0xcf	-49
235	0xc8	-56
236	0xfd	-3
237	0x5c	92
238	0x07	7
239	0xec	-20
240	0x27	39
241	0x30	48
242	0xfb	-5
243	0xd0	-48
244	0xc3	-61
245	0xb4	-76
246	0xe1	-31
247	0xea	-22
248	0xf9	-7
249	0xc6	-58
250	0x33	51
251	0xe2	-30
252	0xc6	-58
253	0xed	-19
254	0xfe	-2
255	0xaf	-81

tfl.pseudo_qconst9 i1 [256, 3, 3, 64]
0	0xe6	-26
1	0x1f	31
2	0xe7	-25
3	0x19	25
4	0x04	4
5	0xee	-18
6	0xfc	-4
7	0xed	-19
8	0xdb	-37
9	0x0a	10
10	0x15	21
11	0x13	19
12	0xfe	-2
13	0x4a	74
14	0x09	9
15	0x23	35
16	0x12	18
17	0x21	33
18	0x1b	27
19	0x0b	11
20	0x12	18
21	0x24	36
22	0xcf	-49
23	0xdd	-35
24	0x04	4
25	0x3a	58
26	0xf6	-10
27	0xf2	-14
28	0x37	55
29	0xfd	-3
30	0x13	19
31	0xf0	-16
32	0x35	53
33	0xfb	-5
34	0x47	71
35	0x30	48
36	0x1c	28
37	0xec	-20
38	0x41	65
39	0x16	22
40	0x02	2
41	0x22	34
42	0xf9	-7
43	0xfa	-6
44	0x02	2
45	0x15	21
46	0x06	6
47	0x2f	47
48	0x1a	26
49	0x09	9
50	0xe8	-24
51	0x20	32
52	0x09	9
53	0x0e	14
54	0x3d	61
55	0xef	-17
56	0xd4	-44
57	0x27	39
58	0x05	5
59	0xe2	-30
60	0xea	-22
61	0x35	53
62	0x36	54
63	0x00	0
64	0x11	17
65	0x08	8
66	0x2d	45
67	0x15	21
68	0x0b	11
69	0x16	22
70	0x0a	10
71	0x00	0
72	0xfc	-4
73	0x0e	14
74	0x15	21
75	0xff	-1
76	0xf5	-11
77	0x14	20
78	0xd0	-48
79	0x0d	13
80	0xfc	-4
81	0x27	39
82	0x3d	61
83	0x0d	13
84	0xf5	-11
85	0x02	2
86	0x10	16
87	0x23	35
88	0x16	22
89	0x16	22
90	0xfd	-3
91	0x19	25
92	0x24	36
93	0x1a	26
94	0xf5	-11
95	0x1c	28
96	0xee	-18
97	0xf6	-10
98	0x2c	44
99	0x41	65
100	0x1e	30
101	0x2e	46
102	0x3e	62
103	0x22	34
104	0xdc	-36
105	0x01	1
106	0x10	16
107	0xf3	-13
108	0xeb	-21
109	0x18	24
110	0x0d	13
111	0xea	-22
112	0x0b	11
113	0xc1	-63
114	0x07	7
115	0xee	-18
116	0x14	20
117	0xd9	-39
118	0x04	4
119	0xf8	-8
120	0x17	23
121	0x0c	12
122	0xfb	-5
123	0x13	19
124	0xe5	-27
125	0x2d	45
126	0x21	33
127	0x02	2
128	0x21	33
129	0x0e	14
130	0x2d	45
131	0xd9	-39
132	0x35	53
133	0x20	32
134	0x0e	14
135	0x10	16
136	0xf6	-10
137	0x1c	28
138	0xf3	-13
139	0xfd	-3
140	0xfb	-5
141	0x33	51
142	0xee	-18
143	0x13	19
144	0xe3	-29
145	0x14	20
146	0x18	24
147	0x3f	63
148	0x4e	78
149	0xfb	-5
150	0x21	33
151	0x19	25
152	0x2b	43
153	0x0b	11
154	0x13	19
155	0x10	16
156	0xf8	-8
157	0x05	5
158	0xf4	-12
159	0x09	9
160	0x45	69
161	0xeb	-21
162	0x08	8
163	0xf8	-8
164	0x12	18
165	0x61	97
166	0x10	16
167	0x31	49
168	0xfd	-3
169	0xe8	-24
170	0x16	22
171	0x24	36
172	0xf5	-11
173	0xf0	-16
174	0x3f	63
175	0xfa	-6
176	0xba	-70
177	0xea	-22
178	0x2c	44
179	0xfa	-6
180	0x0c	12
181	0xd9	-39
182	0xf4	-12
183	0x0b	11
184	0x03	3
185	0x08	8
186	0x0e	14
187	0x17	23
188	0x03	3
189	0x21	33
190	0xfc	-4
191	0xcd	-51
192	0xf4	-12
193	0xc8	-56
194	0xe6	-26
195	0xfd	-3
196	0x14	20
197	0x14	20
198	0x12	18
199	0xfd	-3
200	0x1f	31
201	0x1d	29
202	0xb5	-75
203	0xf9	-7
204	0x16	22
205	0xce	-50
206	0x41	65
207	0xd9	-39
208	0x24	36
209	0xd8	-40
210	0xe2	-30
211	0xe7	-25
212	0xf0	-16
213	0x05	5
214	0xbb	-69
215	0xad	-83
216	0xeb	-21
217	0xed	-19
218	0xdb	-37
219	0x1b	27
220	0xe1	-31
221	0xed	-19
222	0x25	37
223	0xcb	-53
224	0xde	-34
225	0x36	54
226	0x15	21
227	0xe5	-27
228	0xd9	-39
229	0xfc	-4
230	0x0c	12
231	0xf2	-14
232	0x0b	11
233	0x31	49
234	0x1c	28
235	0xc3	-61
236	0xf0	-16
237	0x10	16
238	0x00	0
239	0x04	4
240	0xf1	-15
241	0x3c	60
242	0xcf	-49
243	0xdd	-35
244	0x21	33
245	0x16	22
246	0x1b	27
247	0x0d	13
248	0x1a	26
249	0xf5	-11
250	0xdc	-36
251	0xb9	-71
252	0x17	23
253	0xe3	-29
254	0xd5	-43
255	0xe8	-24

tfl.pseudo_qconst11 i1 [256, 1, 1, 64]
0	0xaa	-86
1	0x3a	58
2	0xcc	-52
3	0x04	4
4	0x00	0
5	0x0f	15
6	0xf2	-14
7	0xd7	-41
8	0xdc	-36
9	0x29	41
10	0xe4	-28
11	0xa0	-96
12	0xc0	-64
13	0x2b	43
14	0xd5	-43
15	0xfe	-2
16	0x23	35
17	0xe9	-23
18	0xf9	-7
19	0x0a	10
20	0xff	-1
21	0xcd	-51
22	0x32	50
23	0x3a	58
24	0xd9	-39
25	0xf3	-13
26	0x7f	127
27	0xf9	-7
28	0x08	8
29	0x7f	127
30	0xf1	-15
31	0xe6	-26
32	0x07	7
33	0x1b	27
34	0x63	99
35	0xbb	-69
36	0x00	0
37	0xdf	-33
38	0x9d	-99
39	0x0b	11
40	0xef	-17
41	0x5d	93
42	0xf9	-7
43	0x72	114
44	0xf3	-13
45	0x0d	13
46	0x19	25
47	0xd7	-41
48	0xe4	-28
49	0xe5	-27
50	0xe1	-31
51	0xb7	-73
52	0xef	-17
53	0x21	33
54	0x1c	28
55	0x02	2
56	0xc8	-56
57	0xf3	-13
58	0xf0	-16
59	0x1c	28
60	0xff	-1
61	0x3e	62
62	0x55	85
63	0xeb	-21
64	0xd0	-48
65	0xe5	-27
66	0xba	-70
67	0x3a	58
68	0xdc	-36
69	0x1d	29
70	0xd4	-44
71	0xb0	-80
72	0x15	21
73	0xfa	-6
74	0x5a	90
75	0x7a	122
76	0xc6	-58
77	0xcb	-53
78	0xd5	-43
79	0xa4	-92
80	0x09	9
81	0xee	-18
82	0x02	2
83	0xd5	-43
84	0xb8	-72
85	0x0c	12
86	0x31	49
87	0xc2	-62
88	0x2c	44
89	0x71	113
90	0xa8	-88
91	0x16	22
92	0x16	22
93	0x22	34
94	0xf3	-13
95	0xed	-19
96	0xea	-22
97	0x03	3
98	0x10	16
99	0x50	80
100	0x05	5
101	0xc9	-55
102	0xda	-38
103	0x05	5
104	0xd3	-45
105	0x15	21
106	0x30	48
107	0xe9	-23
108	0x18	24
109	0x30	48
110	0xc0	-64
111	0x27	39
112	0x2f	47
113	0xa7	-89
114	0xbe	-66
115	0x0c	12
116	0xdb	-37
117	0xfa	-6
118	0xfb	-5
119	0xc3	-61
120	0x17	23
121	0x7f	127
122	0xad	-83
123	0xd1	-47
124	0x25	37
125	0xce	-50
126	0x44	68
127	0x68	104
128	0x15	21
129	0x0d	13
130	0x04	4
131	0x03	3
132	0xdd	-35
133	0x16	22
134	0x0a	10
135	0x05	5
136	0xeb	-21
137	0x19	25
138	0x20	32
139	0xf0	-16
140	0xaf	-81
141	0x04	4
142	0xcd	-51
143	0x20	32
144	0xfb	-5
145	0x1f	31
146	0x03	3
147	0x11	17
148	0x1a	26
149	0x0b	11
150	0xd5	-43
151	0xc9	-55
152	0x00	0
153	0x11	17
154	0xc3	-61
155	0x39	57
156	0xe5	-27
157	0x16	22
158	0xfe	-2
159	0xcf	-49
160	0x0e	14
161	0xd8	-40
162	0xf3	-13
163	0x20	32
164	0x00	0
165	0x32	50
166	0x02	2
167	0x06	6
168	0xbf	-65
169	0x32	50
170	0x14	20
171	0xc3	-61
172	0xf5	-11
173	0xf4	-12
174	0x10	16
175	0xf7	-9
176	0xd1	-47
177	0xaf	-81
178	0xdc	-36
179	0x01	1
180	0x2e	46
181	0x81	-127
182	0x0e	14
183	0xe9	-23
184	0xb9	-71
185	0x04	4
186	0xb7	-73
187	0xfc	-4
188	0xe6	-26
189	0x28	40
190	0x14	20
191	0x16	22
192	0x9c	-100
193	0xad	-83
194	0xab	-85
195	0xfb	-5
196	0x6d	109
197	0x23	35
198	0x05	5
199	0xb3	-77
200	0x13	19
201	0x2e	46
202	0xd2	-46
203	0xf7	-9
204	0x2d	45
205	0xd2	-46
206	0x73	115
207	0xe5	-27
208	0xf7	-9
209	0xe4	-28
210	0x1f	31
211	0x03	3
212	0x87	-121
213	0xd8	-40
214	0xf1	-15
215	0x12	18
216	0xce	-50
217	0xc5	-59
218	0xbb	-69
219	0xd0	-48
220	0xc3	-61
221	0xec	-20
222	0xe2	-30
223	0xe6	-26
224	0x92	-110
225	0x6d	109
226	0xfe	-2
227	0x9d	-99
228	0xad	-83
229	0xf1	-15
230	0xc4	-60
231	0xcf	-49
232	0x7c	124
233	0x1d	29
234	0x40	64
235	0xbe	-66
236	0xe9	-23
237	0x4b	75
238	0xde	-34
239	0xab	-85
240	0xf4	-12
241	0x7f	127
242	0x17	23
243	0x51	81
244	0xdb	-37
245	0x39	57
246	0xe9	-23
247	0x1d	29
248	0x46	70
249	0x4b	75
250	0x22	34
251	0xf9	-7
252	0x32	50
253	0x0f	15
254	0x9f	-97
255	0x21	33

tfl.pseudo_qconst13 i1 [64, 1, 1, 384]
0	0xef	-17
1	0x1a	26
2	0xd1	-47
3	0xfd	-3
4	0xf0	-16
5	0xfd	-3
6	0xe1	-31
7	0x18	24
8	0x0d	13
9	0x12	18
10	0xb8	-72
11	0x11	17
12	0xf0	-16
13	0x29	41
14	0xd8	-40
15	0xe8	-24
16	0x37	55
17	0x16	22
18	0x37	55
19	0xf2	-14
20	0x16	22
21	0xc2	-62
22	0xbc	-68
23	0xfa	-6
24	0xd3	-45
25	0xae	-82
26	0xf4	-12
27	0x18	24
28	0x09	9
29	0x1f	31
30	0xa4	-92
31	0xe7	-25
32	0xf3	-13
33	0x3e	62
34	0x2c	44
35	0xd8	-40
36	0x04	4
37	0xe5	-27
38	0x23	35
39	0x0f	15
40	0x1e	30
41	0xf6	-10
42	0x1e	30
43	0xf9	-7
44	0xd6	-42
45	0xc3	-61
46	0xef	-17
47	0x16	22
48	0xa5	-91
49	0x0e	14
50	0x6c	108
51	0xdc	-36
52	0x17	23
53	0xf6	-10
54	0xe3	-29
55	0xde	-34
56	0xc9	-55
57	0x01	1
58	0x09	9
59	0xf0	-16
60	0x68	104
61	0xfd	-3
62	0x06	6
63	0xb6	-74
64	0xb7	-73
65	0x33	51
66	0x12	18
67	0xe8	-24
68	0x05	5
69	0x09	9
70	0x20	32
71	0x05	5
72	0xd5	-43
73	0xd0	-48
74	0x17	23
75	0x38	56
76	0xfa	-6
77	0x14	20
78	0xe6	-26
79	0x1a	26
80	0x05	5
81	0x41	65
82	0x07	7
83	0xed	-19
84	0xf4	-12
85	0x26	38
86	0x21	33
87	0x85	-123
88	0x55	85
89	0x19	25
90	0xd2	-46
91	0x15	21
92	0x08	8
93	0xf0	-16
94	0x07	7
95	0xf3	-13
96	0xec	-20
97	0xfe	-2
98	0xc9	-55
99	0xb2	-78
100	0x31	49
101	0x2f	47
102	0x00	0
103	0xf7	-9
104	0x1c	28
105	0x17	23
106	0xe1	-31
107	0x09	9
108	0x08	8
109	0xdf	-33
110	0x2e	46
111	0x22	34
112	0xff	-1
113	0xb5	-75
114	0xce	-50
115	0x38	56
116	0xf7	-9
117	0xd8	-40
118	0xf7	-9
119	0xaa	-86
120	0x03	3
121	0x1d	29
122	0xf5	-11
123	0xf0	-16
124	0xa6	-90
125	0xdc	-36
126	0xf9	-7
127	0x10	16
128	0x2f	47
129	0x2b	43
130	0x1a	26
131	0xef	-17
132	0x00	0
133	0xe8	-24
134	0x1a	26
135	0xff	-1
136	0xf6	-10
137	0xdc	-36
138	0x09	9
139	0xfc	-4
140	0xfc	-4
141	0x10	16
142	0x25	37
143	0xcf	-49
144	0x00	0
145	0xd1	-47
146	0xe8	-24
147	0x00	0
148	0x12	18
149	0x07	7
150	0x06	6
151	0x41	65
152	0xeb	-21
153	0xec	-20
154	0xea	-22
155	0x1c	28
156	0xff	-1
157	0x1b	27
158	0xcf	-49
159	0x0e	14
160	0x37	55
161	0x23	35
162	0x01	1
163	0x19	25
164	0x2b	43
165	0xa1	-95
166	0xfd	-3
167	0xf6	-10
168	0xf7	-9
169	0xf9	-7
170	0x08	8
171	0x24	36
172	0xe8	-24
173	0x1f	31
174	0xe3	-29
175	0xf4	-12
176	0x0b	11
177	0xf1	-15
178	0xcf	-49
179	0x3c	60
180	0xe0	-32
181	0xe5	-27
182	0x27	39
183	0xb4	-76
184	0x2f	47
185	0xb1	-79
186	0xf6	-10
187	0x10	16
188	0xf6	-10
189	0xdd	-35
190	0x11	17
191	0xcd	-51
192	0x17	23
193	0x55	85
194	0xf3	-13
195	0x22	34
196	0x10	16
197	0xeb	-21
198	0xfb	-5
199	0xb4	-76
200	0x14	20
201	0xdb	-37
202	0x1f	31
203	0xdc	-36
204	0x2a	42
205	0xc6	-58
206	0x0c	12
207	0xef	-17
208	0x0a	10
209	0xd9	-39
210	0xd0	-48
211	0x18	24
212	0xfa	-6
213	0xe8	-24
214	0xc3	-61
215	0x17	23
216	0xd3	-45
217	0xdf	-33
218	0x0e	14
219	0x06	6
220	0x12	18
221	0x33	51
222	0x30	48
223	0x12	18
224	0xb7	-73
225	0x0f	15
226	0x4a	74
227	0x15	21
228	0xd2	-46
229	0xf2	-14
230	0xd6	-42
231	0x05	5
232	0xd2	-46
233	0xf9	-7
234	0xff	-1
235	0x18	24
236	0xce	-50
237	0xe5	-27
238	0xf0	-16
239	0xd8	-40
240	0xeb	-21
241	0xe2	-30
242	0xf9	-7
243	0xf9	-7
244	0xdd	-35
245	0x08	8
246	0xfc	-4
247	0xf5	-11
248	0xff	-1
249	0xbb	-69
250	0x14	20
251	0x15	21
252	0x9b	-101
253	0x1e	30
254	0xe9	-23
255	0xf5	-11

tfl.pseudo_qconst15 i1 [192, 3, 3, 48]
0	0x16	22
1	0x1e	30
2	0xdb	-37
3	0x11	17
4	0xeb	-21
5	0xe3	-29
6	0x19	25
7	0x00	0
8	0xf2	-14
9	0xde	-34
10	0xeb	-21
11	0xc9	-55
12	0x0e	14
13	0x1e	30
14	0x15	21
15	0x21	33
16	0xef	-17
17	0xcb	-53
18	0xb5	-75
19	0xf6	-10
20	0x1e	30
21	0xf6	-10
22	0xf7	-9
23	0xe3	-29
24	0xc9	-55
25	0xeb	-21
26	0xc3	-61
27	0xdf	-33
28	0xef	-17
29	0xfb	-5
30	0xc5	-59
31	0xc2	-62
32	0xd0	-48
33	0xae	-82
34	0x0f	15
35	0x05	5
36	0xfd	-3
37	0xf8	-8
38	0xd2	-46
39	0xeb	-21
40	0x22	34
41	0xb8	-72
42	0xf1	-15
43	0x09	9
44	0xcc	-52
45	0xe1	-31
46	0xcb	-53
47	0x05	5
48	0xf9	-7
49	0xf7	-9
50	0xff	-1
51	0x15	21
52	0x29	41
53	0x0d	13
54	0x0c	12
55	0x10	16
56	0xfe	-2
57	0xc1	-63
58	0xe2	-30
59	0xcb	-53
60	0x0b	11
61	0x30	48
62	0x1d	29
63	0x01	1
64	0xe0	-32
65	0xf5	-11
66	0xd5	-43
67	0x23	35
68	0x10	16
69	0xc4	-60
70	0xf6	-10
71	0xf0	-16
72	0xdc	-36
73	0xf1	-15
74	0xca	-54
75	0x00	0
76	0x07	7
77	0x02	2
78	0xee	-18
79	0x06	6
80	0x02	2
81	0x00	0
82	0x27	39
83	0xdb	-37
84	0xe4	-28
85	0xea	-22
86	0xde	-34
87	0xe0	-32
88	0x01	1
89	0x07	7
90	0xf4	-12
91	0xe4	-28
92	0xbc	-68
93	0x07	7
94	0xd5	-43
95	0xcc	-52
96	0x0d	13
97	0x08	8
98	0x10	16
99	0xbc	-68
100	0xd2	-46
101	0x1a	26
102	0xfc	-4
103	0xc6	-58
104	0x05	5
105	0xd5	-43
106	0xc6	-58
107	0x12	18
108	0xf9	-7
109	0x0d	13
110	0x2c	44
111	0x07	7
112	0x08	8
113	0x0f	15
114	0xa5	-91
115	0xd6	-42
116	0xff	-1
117	0xd8	-40
118	0xf0	-16
119	0xcb	-53
120	0xfd	-3
121	0xd1	-47
122	0x98	-104
123	0x10	16
124	0x24	36
125	0xe1	-31
126	0xf3	-13
127	0xcf	-49
128	0xdf	-33
129	0x02	2
130	0xea	-22
131	0x09	9
132	0xd5	-43
133	0xb6	-74
134	0xae	-82
135	0xeb	-21
136	0xc3	-61
137	0xe9	-23
138	0x29	41
139	0xe2	-30
140	0xb5	-75
141	0xe8	-24
142	0xea	-22
143	0xca	-54
144	0xf0	-16
145	0xe3	-29
146	0x22	34
147	0xd0	-48
148	0xe2	-30
149	0x03	3
150	0xc6	-58
151	0xfc	-4
152	0xf3	-13
153	0xd3	-45
154	0xca	-54
155	0xdd	-35
156	0xeb	-21
157	0xe2	-30
158	0xdd	-35
159	0xb8	-72
160	0x0e	14
161	0x0a	10
162	0x0c	12
163	0xe4	-28
164	0x0a	10
165	0xd3	-45
166	0x1a	26
167	0xf8	-8
168	0xf9	-7
169	0xe7	-25
170	0xd1	-47
171	0xf7	-9
172	0xee	-18
173	0x00	0
174	0xff	-1
175	0xfa	-6
176	0x0a	10
177	0xea	-22
178	0xc4	-60
179	0x9e	-98
180	0xc5	-59
181	0xd9	-39
182	0xe7	-25
183	0xd8	-40
184	0xf0	-16
185	0xdb	-37
186	0x1d	29
187	0x33	51
188	0xcd	-51
189	0x0f	15
190	0x31	49
191	0xff	-1
192	0xbe	-66
193	0xdc	-36
194	0x18	24
195	0x05	5
196	0xb9	-71
197	0x1d	29
198	0xd7	-41
199	0x34	52
200	0xd5	-43
201	0x10	16
202	0xe1	-31
203	0x49	73
204	0xb4	-76
205	0xf7	-9
206	0x02	2
207	0x0c	12
208	0x38	56
209	0x20	32
210	0xfc	-4
211	0xdd	-35
212	0xe9	-23
213	0xe4	-28
214	0x16	22
215	0x07	7
216	0xfc	-4
217	0xd5	-43
218	0x1a	26
219	0x52	82
220	0x13	19
221	0x28	40
222	0x09	9
223	0xe7	-25
224	0x13	19
225	0xfc	-4
226	0xd4	-44
227	0x00	0
228	0x18	24
229	0x12	18
230	0x2a	42
231	0xf1	-15
232	0x0e	14
233	0x3a	58
234	0xe2	-30
235	0x07	7
236	0x04	4
237	0xed	-19
238	0xe6	-26
239	0x2a	42
240	0xd4	-44
241	0x17	23
242	0x1e	30
243	0xd8	-40
244	0xdf	-33
245	0x0a	10
246	0xc2	-62
247	0x1e	30
248	0x3a	58
249	0xd6	-42
250	0xf8	-8
251	0x13	19
252	0xd5	-43
253	0x2d	45
254	0xfd	-3
255	0xf7	-9

tfl.pseudo_qconst17 i1 [192, 1, 1, 48]
0	0xfb	-5
1	0x20	32
2	0xfc	-4
3	0xf1	-15
4	0xc1	-63
5	0x92	-110
6	0x0a	10
7	0x1b	27
8	0xdd	-35
9	0xef	-17
10	0xde	-34
11	0x0a	10
12	0x23	35
13	0x13	19
14	0xe5	-27
15	0xf7	-9
16	0xd2	-46
17	0xe2	-30
18	0x09	9
19	0xd9	-39
20	0x07	7
21	0x16	22
22	0x2f	47
23	0x21	33
24	0xfc	-4
25	0x11	17
26	0xd8	-40
27	0xa1	-95
28	0xcd	-51
29	0xe4	-28
30	0xcf	-49
31	0xfe	-2
32	0xf9	-7
33	0xcd	-51
34	0xd8	-40
35	0xd6	-42
36	0xda	-38
37	0x17	23
38	0xea	-22
39	0x1f	31
40	0xff	-1
41	0x9f	-97
42	0x7f	127
43	0x71	113
44	0x05	5
45	0xd5	-43
46	0x01	1
47	0x15	21
48	0x0f	15
49	0x0c	12
50	0x1f	31
51	0x0c	12
52	0x56	86
53	0xef	-17
54	0xa5	-91
55	0xea	-22
56	0x1a	26
57	0x97	-105
58	0x81	-127
59	0xe0	-32
60	0x07	7
61	0xe5	-27
62	0x64	100
63	0xdc	-36
64	0x9d	-99
65	0xac	-84
66	0x55	85
67	0x33	51
68	0xec	-20
69	0xe6	-26
70	0xfb	-5
71	0x16	22
72	0xcc	-52
73	0x6d	109
74	0xca	-54
75	0xbe	-66
76	0x06	6
77	0xd8	-40
78	0xa0	-96
79	0x72	114
80	0xe6	-26
81	0x96	-106
82	0x34	52
83	0xae	-82
84	0xa7	-89
85	0x9f	-97
86	0x99	-103
87	0xde	-34
88	0xc7	-57
89	0xf1	-15
90	0x47	71
91	0x04	4
92	0xe7	-25
93	0xbe	-66
94	0x70	112
95	0x0b	11
96	0x43	67
97	0xfb	-5
98	0x39	57
99	0x98	-104
100	0x81	-127
101	0x43	67
102	0x1d	29
103	0xd3	-45
104	0x4e	78
105	0xb4	-76
106	0x21	33
107	0x0a	10
108	0x9d	-99
109	0xeb	-21
110	0x52	82
111	0xda	-38
112	0x3d	61
113	0xbc	-68
114	0xf3	-13
115	0xbe	-66
116	0xbb	-69
117	0x44	68
118	0xf9	-7
119	0xa5	-91
120	0xd5	-43
121	0x0f	15
122	0xd8	-40
123	0xc0	-64
124	0x4a	74
125	0xba	-70
126	0xf8	-8
127	0xf0	-16
128	0xb4	-76
129	0x28	40
130	0xc4	-60
131	0xe7	-25
132	0x08	8
133	0xf2	-14
134	0x35	53
135	0xea	-22
136	0x11	17
137	0xd9	-39
138	0x4a	74
139	0x8b	-117
140	0x35	53
141	0xb3	-77
142	0xf9	-7
143	0x96	-106
144	0x13	19
145	0x7f	127
146	0xc2	-62
147	0x03	3
148	0x6f	111
149	0xfe	-2
150	0x2f	47
151	0x33	51
152	0xd3	-45
153	0xdd	-35
154	0x5b	91
155	0x97	-105
156	0x63	99
157	0x05	5
158	0x0e	14
159	0xc2	-62
160	0xf0	-16
161	0x9f	-97
162	0x10	16
163	0x37	55
164	0xa7	-89
165	0x56	86
166	0x34	52
167	0x13	19
168	0x9b	-101
169	0xd1	-47
170	0xc8	-56
171	0xce	-50
172	0xc5	-59
173	0xdc	-36
174	0xc8	-56
175	0xce	-50
176	0xf1	-15
177	0xd8	-40
178	0xee	-18
179	0xfe	-2
180	0xd7	-41
181	0x2c	44
182	0xd4	-44
183	0x00	0
184	0x28	40
185	0xb0	-80
186	0xd9	-39
187	0x24	36
188	0x04	4
189	0xce	-50
190	0xfd	-3
191	0x94	-108
192	0x93	-109
193	0x29	41
194	0x15	21
195	0xf3	-13
196	0xeb	-21
197	0xda	-38
198	0xb6	-74
199	0x4a	74
200	0x05	5
201	0x32	50
202	0xe9	-23
203	0xd3	-45
204	0x3d	61
205	0x2b	43
206	0xec	-20
207	0xc6	-58
208	0x0a	10
209	0x0b	11
210	0x28	40
211	0xec	-20
212	0x0e	14
213	0xf4	-12
214	0x39	57
215	0xc9	-55
216	0x99	-103
217	0xde	-34
218	0xdd	-35
219	0x06	6
220	0x81	-127
221	0x06	6
222	0x28	40
223	0xad	-83
224	0x07	7
225	0xd2	-46
226	0xa2	-94
227	0xbc	-68
228	0x09	9
229	0xfd	-3
230	0xc8	-56
231	0xed	-19
232	0xf1	-15
233	0xfd	-3
234	0xe5	-27
235	0x54	84
236	0x02	2
237	0x2c	44
238	0xf5	-11
239	0x50	80
240	0xb8	-72
241	0xf0	-16
242	0x67	103
243	0x30	48
244	0x4e	78
245	0x0a	10
246	0xbc	-68
247	0x44	68
248	0x1f	31
249	0xea	-22
250	0xd0	-48
251	0x0b	11
252	0xc6	-58
253	0x2d	45
254	0x51	81
255	0xf7	-9

tfl.pseudo_qconst19 i1 [48, 1, 1, 384]
0	0xd3	-45
1	0x92	-110
2	0x29	41
3	0x09	9
4	0x2e	46
5	0x62	98
6	0x18	24
7	0x17	23
8	0xf4	-12
9	0x12	18
10	0x0b	11
11	0xf0	-16
12	0xb0	-80
13	0xb0	-80
14	0xb3	-77
15	0x46	70
16	0x4e	78
17	0x04	4
18	0xfb	-5
19	0xf4	-12
20	0xb6	-74
21	0x03	3
22	0xfd	-3
23	0x9e	-98
24	0x1f	31
25	0xf3	-13
26	0xf0	-16
27	0x12	18
28	0x2b	43
29	0x42	66
30	0x1b	27
31	0xf2	-14
32	0x0b	11
33	0x1f	31
34	0xeb	-21
35	0xbd	-67
36	0x35	53
37	0x54	84
38	0x0b	11
39	0x0f	15
40	0xcb	-53
41	0x33	51
42	0x03	3
43	0xcd	-51
44	0x12	18
45	0xb7	-73
46	0xc8	-56
47	0xe9	-23
48	0xe5	-27
49	0xfd	-3
50	0xdb	-37
51	0xf2	-14
52	0x1a	26
53	0xcc	-52
54	0xf1	-15
55	0xac	-84
56	0x07	7
57	0x2c	44
58	0xfe	-2
59	0x38	56
60	0xb8	-72
61	0xe0	-32
62	0xc9	-55
63	0x1f	31
64	0xea	-22
65	0xfa	-6
66	0xc3	-61
67	0xd4	-44
68	0xf4	-12
69	0xc1	-63
70	0x42	66
71	0x1b	27
72	0xea	-22
73	0xb6	-74
74	0xdf	-33
75	0xd6	-42
76	0xdc	-36
77	0xea	-22
78	0xb5	-75
79	0xca	-54
80	0xb8	-72
81	0xf0	-16
82	0xc3	-61
83	0x25	37
84	0x23	35
85	0xe2	-30
86	0xad	-83
87	0x26	38
88	0x38	56
89	0x1b	27
90	0xd2	-46
91	0xda	-38
92	0xc7	-57
93	0xfe	-2
94	0x33	51
95	0xf2	-14
96	0x00	0
97	0xe9	-23
98	0xe5	-27
99	0xbc	-68
100	0x9d	-99
101	0x16	22
102	0xfe	-2
103	0xc3	-61
104	0xf3	-13
105	0xcb	-53
106	0xec	-20
107	0xe0	-32
108	0x2d	45
109	0xf7	-9
110	0x04	4
111	0xcc	-52
112	0xef	-17
113	0x0a	10
114	0xfa	-6
115	0x03	3
116	0x11	17
117	0x15	21
118	0xd4	-44
119	0x3e	62
120	0xee	-18
121	0x5e	94
122	0x11	17
123	0x0e	14
124	0xf8	-8
125	0xd3	-45
126	0xfa	-6
127	0x22	34
128	0x37	55
129	0x08	8
130	0xfb	-5
131	0xe6	-26
132	0x21	33
133	0x23	35
134	0xb7	-73
135	0x01	1
136	0x16	22
137	0xc3	-61
138	0x33	51
139	0x34	52
140	0x32	50
141	0xa6	-90
142	0xe0	-32
143	0x39	57
144	0x2a	42
145	0x0d	13
146	0xd9	-39
147	0xdc	-36
148	0xee	-18
149	0xf5	-11
150	0xe4	-28
151	0xfe	-2
152	0x20	32
153	0xc4	-60
154	0xe9	-23
155	0x0a	10
156	0x24	36
157	0x25	37
158	0xc2	-62
159	0x25	37
160	0xf1	-15
161	0x35	53
162	0xff	-1
163	0x27	39
164	0x1a	26
165	0x20	32
166	0x38	56
167	0x03	3
168	0xf3	-13
169	0x81	-127
170	0x1e	30
171	0x04	4
172	0xfa	-6
173	0xa8	-88
174	0xa2	-94
175	0xcd	-51
176	0x03	3
177	0x15	21
178	0xe5	-27
179	0xbe	-66
180	0xfb	-5
181	0xdd	-35
182	0x52	82
183	0x32	50
184	0xd3	-45
185	0xe0	-32
186	0xd1	-47
187	0x27	39
188	0xd8	-40
189	0xe2	-30
190	0x1d	29
191	0x36	54
192	0xd6	-42
193	0xa2	-94
194	0x3c	60
195	0x28	40
196	0xe8	-24
197	0x2e	46
198	0xcb	-53
199	0xe3	-29
200	0xab	-85
201	0x17	23
202	0x50	80
203	0x20	32
204	0x9a	-102
205	0xf9	-7
206	0xce	-50
207	0x0b	11
208	0x37	55
209	0x24	36
210	0xe2	-30
211	0xec	-20
212	0x4a	74
213	0x2e	46
214	0xb8	-72
215	0x39	57
216	0x19	25
217	0xbb	-69
218	0xc2	-62
219	0x49	73
220	0x38	56
221	0x3d	61
222	0xf7	-9
223	0x23	35
224	0x08	8
225	0xe8	-24
226	0xa8	-88
227	0x19	25
228	0xe8	-24
229	0x0d	13
230	0xfc	-4
231	0x14	20
232	0x36	54
233	0x9f	-97
234	0xd4	-44
235	0xd9	-39
236	0x05	5
237	0x42	66
238	0xc3	-61
239	0xe4	-28
240	0x1b	27
241	0xf9	-7
242	0x24	36
243	0xd9	-39
244	0xd1	-47
245	0x0e	14
246	0xff	-1
247	0x1a	26
248	0xe3	-29
249	0xdd	-35
250	0xd1	-47
251	0xae	-82
252	0x25	37
253	0xe6	-26
254	0x23	35
255	0x0e	14

tfl.pseudo_qconst21 i1 [192, 3, 3, 48]
0	0xf0	-16
1	0xea	-22
2	0xb1	-79
3	0xf9	-7
4	0x00	0
5	0x38	56
6	0x56	86
7	0xf5	-11
8	0x2c	44
9	0xec	-20
10	0xbd	-67
11	0x0d	13
12	0x03	3
13	0xcc	-52
14	0x05	5
15	0x51	81
16	0x19	25
17	0xb8	-72
18	0x0c	12
19	0xf2	-14
20	0x2c	44
21	0xdc	-36
22	0x1c	28
23	0x0e	14
24	0x22	34
25	0x1f	31
26	0x00	0
27	0x26	38
28	0xe7	-25
29	0x00	0
30	0x19	25
31	0xef	-17
32	0xcf	-49
33	0x4d	77
34	0xcf	-49
35	0xf8	-8
36	0xe2	-30
37	0x08	8
38	0xb2	-78
39	0xd7	-41
40	0x23	35
41	0x11	17
42	0x39	57
43	0x1e	30
44	0x26	38
45	0xd7	-41
46	0xff	-1
47	0x13	19
48	0x0a	10
49	0xbf	-65
50	0x11	17
51	0xf4	-12
52	0xde	-34
53	0x17	23
54	0x18	24
55	0x16	22
56	0xfc	-4
57	0xfc	-4
58	0xd1	-47
59	0x0c	12
60	0xcb	-53
61	0x06	6
62	0x25	37
63	0x2f	47
64	0x00	0
65	0x0d	13
66	0xef	-17
67	0x1c	28
68	0xfb	-5
69	0x0c	12
70	0x25	37
71	0xa4	-92
72	0x57	87
73	0x2a	42
74	0x19	25
75	0x23	35
76	0xe2	-30
77	0xdd	-35
78	0xb4	-76
79	0xdd	-35
80	0xfc	-4
81	0x08	8
82	0xea	-22
83	0xe7	-25
84	0x81	-127
85	0x03	3
86	0x01	1
87	0x9d	-99
88	0x18	24
89	0x86	-122
90	0x35	53
91	0xf0	-16
92	0xeb	-21
93	0x05	5
94	0xdc	-36
95	0x00	0
96	0x20	32
97	0x24	36
98	0xfa	-6
99	0xf9	-7
100	0x2d	45
101	0xe3	-29
102	0xe8	-24
103	0x33	51
104	0xc8	-56
105	0x18	24
106	0x0c	12
107	0xef	-17
108	0x0f	15
109	0xda	-38
110	0x0c	12
111	0xd2	-46
112	0xab	-85
113	0x2c	44
114	0x2f	47
115	0x12	18
116	0x45	69
117	0xde	-34
118	0xef	-17
119	0xef	-17
120	0x0d	13
121	0x39	57
122	0x27	39
123	0x2e	46
124	0xb5	-75
125	0xf0	-16
126	0x24	36
127	0x44	68
128	0x2b	43
129	0xf9	-7
130	0x0d	13
131	0x09	9
132	0xf5	-11
133	0x2b	43
134	0x00	0
135	0xe3	-29
136	0xdc	-36
137	0xb0	-80
138	0xd2	-46
139	0xdc	-36
140	0xb7	-73
141	0x0d	13
142	0xf8	-8
143	0x01	1
144	0x41	65
145	0x30	48
146	0xca	-54
147	0x0c	12
148	0x34	52
149	0xf3	-13
150	0x3a	58
151	0xdb	-37
152	0x2b	43
153	0x27	39
154	0x05	5
155	0x28	40
156	0xea	-22
157	0xf1	-15
158	0xc7	-57
159	0x04	4
160	0x10	16
161	0xde	-34
162	0x39	57
163	0xab	-85
164	0x2c	44
165	0xe7	-25
166	0xed	-19
167	0x10	16
168	0xf2	-14
169	0xf9	-7
170	0x14	20
171	0x09	9
172	0x14	20
173	0x1e	30
174	0x38	56
175	0xf0	-16
176	0xc2	-62
177	0x4c	76
178	0x9e	-98
179	0xd3	-45
180	0xe2	-30
181	0xe6	-26
182	0xf3	-13
183	0x19	25
184	0xf5	-11
185	0x25	37
186	0x2d	45
187	0xf5	-11
188	0xd2	-46
189	0xea	-22
190	0x0b	11
191	0x42	66
192	0xf3	-13
193	0x4d	77
194	0xe0	-32
195	0x3b	59
196	0x17	23
197	0xbe	-66
198	0xdf	-33
199	0x47	71
200	0xe7	-25
201	0x04	4
202	0x2f	47
203	0x15	21
204	0xf1	-15
205	0xd6	-42
206	0x1c	28
207	0xc4	-60
208	0xd3	-45
209	0x07	7
210	0x50	80
211	0x25	37
212	0xdd	-35
213	0xf4	-12
214	0xfa	-6
215	0xc1	-63
216	0xf7	-9
217	0x46	70
218	0x42	66
219	0x27	39
220	0x32	50
221	0xbc	-68
222	0xb8	-72
223	0xdb	-37
224	0x0a	10
225	0xf2	-14
226	0xf4	-12
227	0xdc	-36
228	0xd2	-46
229	0x40	64
230	0xf7	-9
231	0x1e	30
232	0x2f	47
233	0xe8	-24
234	0x05	5
235	0xc2	-62
236	0x8f	-113
237	0x37	55
238	0xe6	-26
239	0xfc	-4
240	0xdb	-37
241	0x14	20
242	0xcd	-51
243	0x04	4
244	0x36	54
245	0xdf	-33
246	0x07	7
247	0xef	-17
248	0x2a	42
249	0xa7	-89
250	0xc9	-55
251	0xd1	-47
252	0x35	53
253	0x0c	12
254	0xf6	-10
255	0xf4	-12

tfl.pseudo_qconst23 i1 [192, 1, 1, 48]
0	0x6b	107
1	0x74	116
2	0xa8	-88
3	0xd2	-46
4	0x95	-107
5	0xfd	-3
6	0xde	-34
7	0x1b	27
8	0xf1	-15
9	0x10	16
10	0x12	18
11	0xff	-1
12	0x23	35
13	0xc6	-58
14	0x05	5
15	0xba	-70
16	0xe3	-29
17	0xb7	-73
18	0x11	17
19	0x0e	14
20	0x68	104
21	0xa1	-95
22	0x95	-107
23	0xf3	-13
24	0xd6	-42
25	0x18	24
26	0xa7	-89
27	0x3d	61
28	0x41	65
29	0x22	34
30	0xca	-54
31	0x0f	15
32	0xf5	-11
33	0xd1	-47
34	0xbd	-67
35	0xdd	-35
36	0xf8	-8
37	0x1c	28
38	0xfc	-4
39	0x32	50
40	0xfd	-3
41	0x81	-127
42	0xba	-70
43	0x2b	43
44	0x29	41
45	0x2a	42
46	0xd9	-39
47	0x15	21
48	0x10	16
49	0xc9	-55
50	0xc4	-60
51	0xfe	-2
52	0xd9	-39
53	0xf3	-13
54	0xdc	-36
55	0xf9	-7
56	0x1a	26
57	0x0f	15
58	0xe9	-23
59	0x03	3
60	0x8b	-117
61	0xdc	-36
62	0xc5	-59
63	0x4a	74
64	0xe8	-24
65	0x95	-107
66	0x24	36
67	0x9b	-101
68	0xd6	-42
69	0xdb	-37
70	0xc1	-63
71	0x1e	30
72	0xe9	-23
73	0xa3	-93
74	0xd8	-40
75	0x05	5
76	0x34	52
77	0x3e	62
78	0xf3	-13
79	0x0e	14
80	0xfe	-2
81	0x0b	11
82	0x4d	77
83	0xcf	-49
84	0xab	-85
85	0xa8	-88
86	0x06	6
87	0xdf	-33
88	0xf0	-16
89	0x0b	11
90	0xe2	-30
91	0xfa	-6
92	0x3e	62
93	0x2e	46
94	0xaa	-86
95	0x7f	127
96	0xd9	-39
97	0x1f	31
98	0xd9	-39
99	0x0f	15
100	0x02	2
101	0xf7	-9
102	0xf5	-11
103	0x3d	61
104	0x0d	13
105	0xf1	-15
106	0x26	38
107	0x07	7
108	0xff	-1
109	0xed	-19
110	0xcc	-52
111	0x07	7
112	0x1f	31
113	0xe7	-25
114	0x19	25
115	0x25	37
116	0xe7	-25
117	0xf8	-8
118	0xf5	-11
119	0x1a	26
120	0x11	17
121	0x7f	127
122	0xfc	-4
123	0x44	68
124	0x36	54
125	0xe0	-32
126	0x2a	42
127	0x0b	11
128	0xf9	-7
129	0x3b	59
130	0x04	4
131	0xe6	-26
132	0x15	21
133	0x17	23
134	0x0e	14
135	0x2e	46
136	0xd4	-44
137	0xda	-38
138	0xe0	-32
139	0x36	54
140	0x03	3
141	0x32	50
142	0xf1	-15
143	0xf7	-9
144	0x56	86
145	0x37	55
146	0xd3	-45
147	0xbe	-66
148	0x5b	91
149	0xb5	-75
150	0x1c	28
151	0x87	-121
152	0x6b	107
153	0x1f	31
154	0xf0	-16
155	0x3a	58
156	0x13	19
157	0xf3	-13
158	0x02	2
159	0x2f	47
160	0x7f	127
161	0x36	54
162	0x0b	11
163	0x0f	15
164	0x2a	42
165	0xb7	-73
166	0x30	48
167	0xab	-85
168	0xf8	-8
169	0xc8	-56
170	0x50	80
171	0xa5	-91
172	0xfa	-6
173	0x3c	60
174	0x4d	77
175	0xed	-19
176	0xde	-34
177	0x10	16
178	0xcd	-51
179	0xec	-20
180	0x31	49
181	0xcd	-51
182	0xb9	-71
183	0x09	9
184	0xf3	-13
185	0x6a	106
186	0x2a	42
187	0xbd	-67
188	0xbd	-67
189	0x05	5
190	0x0c	12
191	0x00	0
192	0x40	64
193	0xbe	-66
194	0xcd	-51
195	0x05	5
196	0x1f	31
197	0x4f	79
198	0x11	17
199	0x0e	14
200	0x11	17
201	0x3f	63
202	0x0f	15
203	0xa9	-87
204	0x3f	63
205	0x15	21
206	0x16	22
207	0x5a	90
208	0x00	0
209	0x1d	29
210	0xc5	-59
211	0xfb	-5
212	0x3e	62
213	0x09	9
214	0x55	85
215	0x01	1
216	0xcc	-52
217	0xd6	-42
218	0xfd	-3
219	0xa3	-93
220	0xcf	-49
221	0x59	89
222	0x6b	107
223	0xa5	-91
224	0xca	-54
225	0xf7	-9
226	0xdf	-33
227	0x0c	12
228	0xeb	-21
229	0x8f	-113
230	0xe4	-28
231	0x18	24
232	0xd4	-44
233	0x33	51
234	0xfe	-2
235	0x24	36
236	0xc9	-55
237	0x06	6
238	0x7f	127
239	0xad	-83
240	0xb2	-78
241	0x81	-127
242	0x26	38
243	0x36	54
244	0xea	-22
245	0x1a	26
246	0xe9	-23
247	0xbd	-67
248	0x23	35
249	0x2a	42
250	0x56	86
251	0xfe	-2
252	0x0e	14
253	0xff	-1
254	0x32	50
255	0x2c	44

tfl.pseudo_qconst25 i1 [48, 1, 1, 256]
0	0x03	3
1	0xde	-34
2	0xee	-18
3	0xd3	-45
4	0x18	24
5	0x16	22
6	0x3a	58
7	0x1d	29
8	0xca	-54
9	0x0a	10
10	0xef	-17
11	0xef	-17
12	0xe6	-26
13	0x39	57
14	0x05	5
15	0xe0	-32
16	0xeb	-21
17	0x1f	31
18	0xd8	-40
19	0xd6	-42
20	0xe9	-23
21	0x49	73
22	0xf4	-12
23	0x38	56
24	0x19	25
25	0xfb	-5
26	0x26	38
27	0x2e	46
28	0x08	8
29	0xfd	-3
30	0xaf	-81
31	0xf3	-13
32	0x9e	-98
33	0xcf	-49
34	0x18	24
35	0x50	80
36	0x2b	43
37	0x1d	29
38	0xbe	-66
39	0xf3	-13
40	0xde	-34
41	0xec	-20
42	0xf8	-8
43	0x28	40
44	0x0f	15
45	0xce	-50
46	0xe7	-25
47	0x0a	10
48	0x10	16
49	0x16	22
50	0x1d	29
51	0xe8	-24
52	0xb5	-75
53	0xe0	-32
54	0x28	40
55	0xfd	-3
56	0x00	0
57	0xf0	-16
58	0x09	9
59	0xef	-17
60	0xdb	-37
61	0x02	2
62	0x24	36
63	0x22	34
64	0x09	9
65	0xf1	-15
66	0x07	7
67	0x24	36
68	0xc3	-61
69	0x1f	31
70	0x09	9
71	0xf8	-8
72	0x15	21
73	0xcc	-52
74	0xce	-50
75	0x39	57
76	0xf1	-15
77	0xff	-1
78	0x07	7
79	0xf1	-15
80	0xe3	-29
81	0xce	-50
82	0xe5	-27
83	0x1e	30
84	0x2d	45
85	0x35	53
86	0xfc	-4
87	0x16	22
88	0x31	49
89	0xf9	-7
90	0x0c	12
91	0xef	-17
92	0x07	7
93	0xf8	-8
94	0xe4	-28
95	0x11	17
96	0x37	55
97	0xea	-22
98	0x13	19
99	0x04	4
100	0xee	-18
101	0x29	41
102	0x16	22
103	0x13	19
104	0xf7	-9
105	0x15	21
106	0xee	-18
107	0x10	16
108	0x00	0
109	0xe8	-24
110	0x04	4
111	0x00	0
112	0x17	23
113	0x4c	76
114	0x09	9
115	0x1c	28
116	0xf8	-8
117	0xf7	-9
118	0xe2	-30
119	0xef	-17
120	0xf9	-7
121	0xf1	-15
122	0xf5	-11
123	0xeb	-21
124	0x20	32
125	0x04	4
126	0x05	5
127	0xef	-17
128	0x13	19
129	0x0d	13
130	0x14	20
131	0xfb	-5
132	0xb8	-72
133	0xf3	-13
134	0x26	38
135	0x26	38
136	0x27	39
137	0x1e	30
138	0xd3	-45
139	0x2d	45
140	0xcd	-51
141	0x17	23
142	0x11	17
143	0xe9	-23
144	0xf6	-10
145	0x95	-107
146	0xf1	-15
147	0x17	23
148	0x08	8
149	0x00	0
150	0x05	5
151	0xb1	-79
152	0x11	17
153	0xc3	-61
154	0x03	3
155	0x0f	15
156	0xd0	-48
157	0x1e	30
158	0xed	-19
159	0xfe	-2
160	0xe8	-24
161	0xb6	-74
162	0xc9	-55
163	0x02	2
164	0x0a	10
165	0x00	0
166	0x04	4
167	0xe2	-30
168	0xdf	-33
169	0x21	33
170	0xe5	-27
171	0xd1	-47
172	0xe8	-24
173	0x11	17
174	0x21	33
175	0x16	22
176	0x09	9
177	0xe8	-24
178	0x32	50
179	0xe8	-24
180	0xf2	-14
181	0xd3	-45
182	0x3b	59
183	0x5e	94
184	0xf0	-16
185	0xeb	-21
186	0xc5	-59
187	0x21	33
188	0xde	-34
189	0xdd	-35
190	0x48	72
191	0x17	23
192	0xe3	-29
193	0x0e	14
194	0xe6	-26
195	0xf7	-9
196	0x53	83
197	0xde	-34
198	0x7f	127
199	0xd5	-43
200	0x25	37
201	0x45	69
202	0x0f	15
203	0xd6	-42
204	0x0c	12
205	0xef	-17
206	0x3e	62
207	0x04	4
208	0xf4	-12
209	0xc7	-57
210	0x46	70
211	0xfa	-6
212	0x02	2
213	0xf1	-15
214	0xa7	-89
215	0x08	8
216	0xd3	-45
217	0x53	83
218	0x1c	28
219	0xd4	-44
220	0x02	2
221	0x16	22
222	0xe8	-24
223	0xe1	-31
224	0xac	-84
225	0x44	68
226	0xd5	-43
227	0xd4	-44
228	0xd9	-39
229	0x31	49
230	0x03	3
231	0x17	23
232	0x04	4
233	0x17	23
234	0x08	8
235	0xde	-34
236	0xdd	-35
237	0xf1	-15
238	0xc9	-55
239	0x55	85
240	0x30	48
241	0xe9	-23
242	0xe1	-31
243	0xa7	-89
244	0xd1	-47
245	0xdf	-33
246	0x0a	10
247	0x01	1
248	0x22	34
249	0x9e	-98
250	0x22	34
251	0x1c	28
252	0x16	22
253	0x2a	42
254	0x20	32
255	0x2c	44

tfl.pseudo_qconst27 i1 [128, 3, 3, 32]
0	0xeb	-21
1	0xe6	-26
2	0xcb	-53
3	0x27	39
4	0x0b	11
5	0xe6	-26
6	0xd5	-43
7	0xef	-17
8	0x22	34
9	0x05	5
10	0x29	41
11	0xe5	-27
12	0x3f	63
13	0xb9	-71
14	0x0d	13
15	0xda	-38
16	0xe3	-29
17	0x13	19
18	0xe1	-31
19	0x19	25
20	0xf6	-10
21	0x13	19
22	0x02	2
23	0xe5	-27
24	0xe5	-27
25	0x0b	11
26	0xb1	-79
27	0xef	-17
28	0x89	-119
29	0x2b	43
30	0xc4	-60
31	0xd2	-46
32	0xfa	-6
33	0x1d	29
34	0xd0	-48
35	0x18	24
36	0xfd	-3
37	0x2f	47
38	0xa1	-95
39	0x2b	43
40	0x64	100
41	0xe7	-25
42	0xdb	-37
43	0x01	1
44	0x1f	31
45	0x97	-105
46	0x1c	28
47	0xf4	-12
48	0xd1	-47
49	0x52	82
50	0x28	40
51	0xf4	-12
52	0xf4	-12
53	0xe0	-32
54	0x34	52
55	0xeb	-21
56	0x24	36
57	0xe6	-26
58	0xea	-22
59	0x33	51
60	0xd7	-41
61	0xee	-18
62	0xf4	-12
63	0x19	25
64	0xdf	-33
65	0xe7	-25
66	0xe6	-26
67	0x0e	14
68	0xfd	-3
69	0x1d	29
70	0xe8	-24
71	0x69	105
72	0x2e	46
73	0x2f	47
74	0xf1	-15
75	0x44	68
76	0xf0	-16
77	0xc0	-64
78	0x38	56
79	0x21	33
80	0xc3	-61
81	0xe7	-25
82	0x0a	10
83	0xd1	-47
84	0x81	-127
85	0x1d	29
86	0x4c	76
87	0xe1	-31
88	0x2f	47
89	0xc4	-60
90	0xde	-34
91	0x20	32
92	0xea	-22
93	0xc8	-56
94	0xd8	-40
95	0x2b	43
96	0xec	-20
97	0xcf	-49
98	0xd6	-42
99	0xdb	-37
100	0xc8	-56
101	0xdc	-36
102	0x36	54
103	0x0b	11
104	0xc0	-64
105	0x38	56
106	0x27	39
107	0xd1	-47
108	0x14	20
109	0x0b	11
110	0xe1	-31
111	0xe1	-31
112	0xdf	-33
113	0xec	-20
114	0xba	-70
115	0xd3	-45
116	0xcb	-53
117	0xad	-83
118	0xb9	-71
119	0x30	48
120	0xf1	-15
121	0xf1	-15
122	0xf5	-11
123	0xff	-1
124	0x14	20
125	0xd3	-45
126	0xb2	-78
127	0x01	1
128	0x1b	27
129	0x24	36
130	0xd0	-48
131	0x0e	14
132	0xd9	-39
133	0x09	9
134	0xfa	-6
135	0xdc	-36
136	0xee	-18
137	0xe7	-25
138	0x2f	47
139	0x0a	10
140	0xd9	-39
141	0xfe	-2
142	0xd8	-40
143	0xe6	-26
144	0xe6	-26
145	0xf6	-10
146	0xdf	-33
147	0xf2	-14
148	0x30	48
149	0xc2	-62
150	0xe2	-30
151	0x2f	47
152	0xe9	-23
153	0xba	-70
154	0xc7	-57
155	0x0e	14
156	0x69	105
157	0xd6	-42
158	0x00	0
159	0xd7	-41
160	0x28	40
161	0xcf	-49
162	0xb4	-76
163	0xe0	-32
164	0x06	6
165	0x32	50
166	0xff	-1
167	0x06	6
168	0x23	35
169	0x52	82
170	0xf5	-11
171	0xfc	-4
172	0x0e	14
173	0xe6	-26
174	0x07	7
175	0x4f	79
176	0xfd	-3
177	0x04	4
178	0x07	7
179	0xe8	-24
180	0xef	-17
181	0xcc	-52
182	0xfb	-5
183	0x11	17
184	0x0e	14
185	0x02	2
186	0xcc	-52
187	0x2f	47
188	0x12	18
189	0xde	-34
190	0x8f	-113
191	0x05	5
192	0xf8	-8
193	0x03	3
194	0xfc	-4
195	0x00	0
196	0xe0	-32
197	0xb7	-73
198	0xee	-18
199	0x02	2
200	0xe0	-32
201	0xb1	-79
202	0x05	5
203	0x12	18
204	0xd9	-39
205	0x30	48
206	0xff	-1
207	0xcf	-49
208	0xef	-17
209	0xb1	-79
210	0xd0	-48
211	0xe7	-25
212	0xe8	-24
213	0x18	24
214	0x0d	13
215	0x02	2
216	0xf8	-8
217	0xce	-50
218	0xf8	-8
219	0xe6	-26
220	0xd4	-44
221	0x14	20
222	0xdc	-36
223	0xfb	-5
224	0x02	2
225	0xfd	-3
226	0xf0	-16
227	0xbe	-66
228	0xe3	-29
229	0xcb	-53
230	0xea	-22
231	0xf1	-15
232	0x9e	-98
233	0xaa	-86
234	0x10	16
235	0xfe	-2
236	0xc8	-56
237	0x24	36
238	0xe0	-32
239	0xeb	-21
240	0x27	39
241	0xc0	-64
242	0xe1	-31
243	0x1c	28
244	0x38	56
245	0xf9	-7
246	0xaa	-86
247	0x18	24
248	0xd6	-42
249	0xbe	-66
250	0x2e	46
251	0x14	20
252	0x3a	58
253	0x4d	77
254	0x64	100
255	0xfd	-3

tfl.pseudo_qconst29 i1 [128, 1, 1, 32]
0	0x26	38
1	0xd8	-40
2	0xa5	-91
3	0x30	48
4	0xf7	-9
5	0xe8	-24
6	0xc1	-63
7	0x1c	28
8	0xe4	-28
9	0xf8	-8
10	0xfe	-2
11	0xf3	-13
12	0x81	-127
13	0xec	-20
14	0x36	54
15	0xef	-17
16	0xd6	-42
17	0xfd	-3
18	0x8f	-113
19	0x27	39
20	0xdb	-37
21	0xc1	-63
22	0xdd	-35
23	0x31	49
24	0xba	-70
25	0xb4	-76
26	0x2a	42
27	0xdb	-37
28	0x07	7
29	0x3c	60
30	0xff	-1
31	0xd9	-39
32	0x0a	10
33	0x96	-106
34	0x73	115
35	0xef	-17
36	0x3a	58
37	0x20	32
38	0x28	40
39	0x99	-103
40	0x3a	58
41	0xca	-54
42	0x0d	13
43	0x27	39
44	0x8a	-118
45	0x41	65
46	0x90	-112
47	0x7f	127
48	0x60	96
49	0xfe	-2
50	0x2d	45
51	0x50	80
52	0xe3	-29
53	0xd9	-39
54	0x31	49
55	0x09	9
56	0xaf	-81
57	0xed	-19
58	0x28	40
59	0x30	48
60	0xec	-20
61	0x0b	11
62	0x35	53
63	0x48	72
64	0xc0	-64
65	0xde	-34
66	0xfb	-5
67	0x33	51
68	0xb8	-72
69	0xd3	-45
70	0xfe	-2
71	0xaf	-81
72	0xd2	-46
73	0x45	69
74	0xd3	-45
75	0x0a	10
76	0xf5	-11
77	0x14	20
78	0x1e	30
79	0xf6	-10
80	0x8c	-116
81	0xe2	-30
82	0x81	-127
83	0x0e	14
84	0xcf	-49
85	0x02	2
86	0xe4	-28
87	0xf1	-15
88	0x1d	29
89	0xea	-22
90	0xe0	-32
91	0x9d	-99
92	0xce	-50
93	0x0d	13
94	0xda	-38
95	0x04	4
96	0xf1	-15
97	0xef	-17
98	0xf2	-14
99	0xbb	-69
100	0xbe	-66
101	0xc2	-62
102	0x2b	43
103	0x06	6
104	0xa9	-87
105	0xfd	-3
106	0x0a	10
107	0xf1	-15
108	0xee	-18
109	0x01	1
110	0xf0	-16
111	0xcc	-52
112	0xca	-54
113	0xcc	-52
114	0x81	-127
115	0xdb	-37
116	0xfb	-5
117	0xc2	-62
118	0xf8	-8
119	0x0d	13
120	0xbf	-65
121	0x00	0
122	0xff	-1
123	0xb7	-73
124	0x30	48
125	0x5d	93
126	0xfc	-4
127	0xb6	-74
128	0x12	18
129	0x07	7
130	0xf6	-10
131	0xe7	-25
132	0x2b	43
133	0xd8	-40
134	0x81	-127
135	0x0b	11
136	0x15	21
137	0xe6	-26
138	0xf1	-15
139	0xed	-19
140	0xfe	-2
141	0x24	36
142	0x18	24
143	0x09	9
144	0xe8	-24
145	0xbc	-68
146	0x31	49
147	0x0b	11
148	0x19	25
149	0x28	40
150	0xac	-84
151	0xea	-22
152	0xbb	-69
153	0xbb	-69
154	0x40	64
155	0xf0	-16
156	0xd5	-43
157	0x45	69
158	0xf9	-7
159	0xe5	-27
160	0xd1	-47
161	0x50	80
162	0x17	23
163	0x1f	31
164	0xf4	-12
165	0x02	2
166	0xda	-38
167	0xf7	-9
168	0x12	18
169	0x0c	12
170	0x1a	26
171	0xfb	-5
172	0xdf	-33
173	0x18	24
174	0x11	17
175	0xe8	-24
176	0xc5	-59
177	0xdd	-35
178	0x40	64
179	0x81	-127
180	0xdf	-33
181	0xe7	-25
182	0x1c	28
183	0xff	-1
184	0x3a	58
185	0x9a	-102
186	0xfd	-3
187	0xd3	-45
188	0xea	-22
189	0x08	8
190	0x02	2
191	0xed	-19
192	0xf8	-8
193	0xef	-17
194	0x0d	13
195	0x18	24
196	0x1b	27
197	0x1a	26
198	0x28	40
199	0xcd	-51
200	0xdd	-35
201	0xb6	-74
202	0xd6	-42
203	0xfe	-2
204	0xc9	-55
205	0xeb	-21
206	0x0b	11
207	0x06	6
208	0xfc	-4
209	0xd0	-48
210	0xb5	-75
211	0x0d	13
212	0xa8	-88
213	0x01	1
214	0xbf	-65
215	0x15	21
216	0x81	-127
217	0xda	-38
218	0x3d	61
219	0xf3	-13
220	0xf0	-16
221	0x23	35
222	0x18	24
223	0xc9	-55
224	0x13	19
225	0x12	18
226	0xd7	-41
227	0xe2	-30
228	0x86	-122
229	0x12	18
230	0x13	19
231	0x1e	30
232	0x29	41
233	0x0d	13
234	0x0c	12
235	0x18	24
236	0x1d	29
237	0x81	-127
238	0x01	1
239	0xec	-20
240	0x11	17
241	0xfb	-5
242	0xdc	-36
243	0x22	34
244	0xe7	-25
245	0xe2	-30
246	0x47	71
247	0x29	41
248	0x08	8
249	0x33	51
250	0x0d	13
251	0xf7	-9
252	0xef	-17
253	0xb5	-75
254	0xe9	-23
255	0x07	7

tfl.pseudo_qconst31 i1 [32, 1, 1, 256]
0	0xfb	-5
1	0x03	3
2	0x25	37
3	0x4e	78
4	0x40	64
5	0x0c	12
6	0x04	4
7	0x02	2
8	0xe6	-26
9	0x1d	29
10	0xfa	-6
11	0xe5	-27
12	0x01	1
13	0xe7	-25
14	0xcb	-53
15	0xfd	-3
16	0x15	21
17	0xe4	-28
18	0x15	21
19	0x26	38
20	0xd1	-47
21	0x04	4
22	0x04	4
23	0x1a	26
24	0x64	100
25	0xed	-19
26	0xfa	-6
27	0x02	2
28	0xb6	-74
29	0x21	33
30	0x32	50
31	0xe4	-28
32	0xf8	-8
33	0xb0	-80
34	0xda	-38
35	0x46	70
36	0xfc	-4
37	0x0e	14
38	0xff	-1
39	0xe8	-24
40	0xea	-22
41	0xd9	-39
42	0xe1	-31
43	0xf4	-12
44	0x13	19
45	0xe5	-27
46	0x0f	15
47	0x5a	90
48	0x0b	11
49	0x23	35
50	0x0e	14
51	0x29	41
52	0xb7	-73
53	0x39	57
54	0xec	-20
55	0xfb	-5
56	0xfa	-6
57	0xe2	-30
58	0x1c	28
59	0x42	66
60	0x1b	27
61	0x29	41
62	0xc8	-56
63	0x09	9
64	0x03	3
65	0x23	35
66	0xdb	-37
67	0x04	4
68	0xd7	-41
69	0xd6	-42
70	0x07	7
71	0xf7	-9
72	0xea	-22
73	0xaa	-86
74	0x39	57
75	0xb9	-71
76	0xf0	-16
77	0xe7	-25
78	0x06	6
79	0xfa	-6
80	0xd4	-44
81	0x0b	11
82	0x17	23
83	0xf8	-8
84	0x18	24
85	0x1b	27
86	0x39	57
87	0xec	-20
88	0x16	22
89	0xcf	-49
90	0xd7	-41
91	0xea	-22
92	0xff	-1
93	0xda	-38
94	0x25	37
95	0xf2	-14
96	0x39	57
97	0x0c	12
98	0xf4	-12
99	0xc6	-58
100	0xe1	-31
101	0x15	21
102	0x0b	11
103	0xf4	-12
104	0x09	9
105	0xf4	-12
106	0x35	53
107	0xe8	-24
108	0xe9	-23
109	0xe7	-25
110	0x1c	28
111	0x9d	-99
112	0x02	2
113	0xc6	-58
114	0x3c	60
115	0xec	-20
116	0x4f	79
117	0x26	38
118	0xbd	-67
119	0x2e	46
120	0xb0	-80
121	0xfd	-3
122	0x2b	43
123	0x27	39
124	0x3d	61
125	0xee	-18
126	0x07	7
127	0xe0	-32
128	0xc7	-57
129	0x17	23
130	0x30	48
131	0xb8	-72
132	0x0d	13
133	0xc9	-55
134	0x4a	74
135	0xde	-34
136	0x1e	30
137	0x0e	14
138	0x41	65
139	0xe5	-27
140	0x7f	127
141	0x2e	46
142	0x56	86
143	0x08	8
144	0xbe	-66
145	0x07	7
146	0xe4	-28
147	0x45	69
148	0xeb	-21
149	0x4a	74
150	0xdc	-36
151	0xfd	-3
152	0xd5	-43
153	0x1b	27
154	0x0c	12
155	0xc8	-56
156	0x2e	46
157	0xef	-17
158	0x08	8
159	0x05	5
160	0x14	20
161	0x06	6
162	0x04	4
163	0xc7	-57
164	0xdc	-36
165	0xfa	-6
166	0x2d	45
167	0x15	21
168	0x15	21
169	0xc0	-64
170	0x37	55
171	0x33	51
172	0x30	48
173	0x08	8
174	0xdd	-35
175	0xdb	-37
176	0x25	37
177	0x48	72
178	0x39	57
179	0xf2	-14
180	0xbc	-68
181	0x25	37
182	0xd1	-47
183	0xe3	-29
184	0x0f	15
185	0xc6	-58
186	0x67	103
187	0xe6	-26
188	0x0f	15
189	0x1e	30
190	0x06	6
191	0xd2	-46
192	0xef	-17
193	0xda	-38
194	0x0c	12
195	0xe1	-31
196	0x0b	11
197	0x1a	26
198	0xa2	-94
199	0x1a	26
200	0xc6	-58
201	0xca	-54
202	0xfa	-6
203	0x2f	47
204	0xd6	-42
205	0x2a	42
206	0xf3	-13
207	0xea	-22
208	0xfe	-2
209	0x40	64
210	0xff	-1
211	0xe7	-25
212	0xca	-54
213	0x42	66
214	0xe6	-26
215	0x29	41
216	0x1f	31
217	0xdd	-35
218	0xbe	-66
219	0xe5	-27
220	0x0d	13
221	0xd1	-47
222	0x00	0
223	0xc1	-63
224	0x3b	59
225	0xd5	-43
226	0xbf	-65
227	0x04	4
228	0x04	4
229	0xe9	-23
230	0x34	52
231	0x17	23
232	0x1e	30
233	0x8c	-116
234	0xe0	-32
235	0x07	7
236	0x1c	28
237	0xc7	-57
238	0xd5	-43
239	0xf1	-15
240	0x23	35
241	0x1f	31
242	0xbf	-65
243	0x04	4
244	0x00	0
245	0x34	52
246	0xf9	-7
247	0x37	55
248	0x1f	31
249	0xeb	-21
250	0xec	-20
251	0x16	22
252	0xde	-34
253	0x18	24
254	0x3e	62
255	0xf8	-8
