Homework 6/project/mobilenet_v1/NUCLEO-F446RE/mobilenet_v1_quant.tflite (tflite, 305760 bytes, 28 tensors)

tfl.pseudo_qconst1 i1 [10, 256]
00000000: 273c f620 9ccf e9e1 c00f 14dd aee4 ee1b
00000010: 20c8 00c3 350f a9c0 2bb4 d2a4 09d0 14e6
00000020: 032c 46cb dc24 d0fb 1cd5 e5ce 4cdf b0bf
00000030: bcfd c6bb 2eec 3a29 1ab0 a7e6 faf5 10cb
00000040: fe14 16ae aed5 2238 8fe1 d1e9 c220 fe2a
00000050: bb9b 21ca 3618 9eb3 1522 2a07 a4c1 e691
00000060: 0509 3281 ce39 05da e003 d3f9 3ebc 1d33
00000070: 36e7 0cc0 dbd9 fc0c f0dc e3d2 1429 19b6
00000080: 110b cee4 a92a f9f2 2dc2 d5e4 012a c02b
00000090: 42c3 ce13 ddbb 2610 3e2a 13a1 af28 d2fb
000000a0: 2dd3 d116 c8f0 29db ebfc 2731 f0ad 2b0e
000000b0: fb2c 29c5 cf13 f42a 1d2d f4e7 372a 481d
000000c0: 190b c8ef 35dd c430 32cc 30fe 33ca f110
000000d0: e9dc d9c1 d113 f5c7 b1eb 2232 19a8 c34a
000000e0: fd23 ae19 cc01 a12a 1eca 2c02 4223 ef13
000000f0: 1ace 3afa beba ad15 0cd9 aee7 2c21 3bc9
39 60 -10 32 -100 -49 -23 -31
-64 15 20 -35 -82 -28 -18 27
32 -56 0 -61 53 15 -87 -64
43 -76 -46 -92 9 -48 20 -26
3 44 70 -53 -36 36 -48 -5
28 -43 -27 -50 76 -33 -80 -65
-68 -3 -58 -69 46 -20 58 41
26 -80 -89 -26 -6 -11 16 -53
-2 20 22 -82 -82 -43 34 56
-113 -31 -47 -23 -62 32 -2 42
-69 -101 33 -54 54 24 -98 -77
21 34 42 7 -92 -63 -26 -111
5 9 50 -127 -50 57 5 -38
-32 3 -45 -7 62 -68 29 51
54 -25 12 -64 -37 -39 -4 12
-16 -36 -29 -46 20 41 25 -74
17 11 -50 -28 -87 42 -7 -14
45 -62 -43 -28 1 42 -64 43
66 -61 -50 19 -35 -69 38 16
62 42 19 -95 -81 40 -46 -5
45 -45 -47 22 -56 -16 41 -37
-21 -4 39 49 -16 -83 43 14
-5 44 41 -59 -49 19 -12 42
29 45 -12 -25 55 42 72 29
25 11 -56 -17 53 -35 -60 48
50 -52 48 -2 51 -54 -15 16
-23 -36 -39 -63 -47 19 -11 -57
-79 -21 34 50 25 -88 -61 74
-3 35 -82 25 -52 1 -95 42
30 -54 44 2 66 35 -17 19
26 -50 58 -6 -66 -70 -83 21
12 -39 -82 -25 44 33 59 -55

tfl.pseudo_qconst3 i1 [256, 1, 1, 256]
00000000: 9ff7 09f6 35dc eefa 2afc eb4c 1324 69f3
00000010: 00f9 0b1a c1f2 f619 e1ec ff27 2508 22bc
00000020: 1ed4 4ada 2630 e3f6 d3ce 1224 23f1 de03
00000030: dfe0 20ee 0f19 1c1f bef5 0e12 1dd5 271e
00000040: 1f2b d415 eb06 cb34 dbc9 3641 4de4 e9f3
00000050: 2509 e3f5 d3bb ff3c 3449 ced1 efe2 efcf
00000060: e2ef 0c15 bcee 38ed faf4 02ef 3000 bfd9
00000070: f9c4 191b e51c 1ce6 2a49 2634 ee0e b634
00000080: b7ef 1251 cddf fdfa ef20 1de0 0de5 1ae1
00000090: 0ffa f237 1bcc f5f2 1bbc 0707 110d dfdc
000000a0: f92e 0dbe 1204 31db 0b00 d60d 180c c6fe
000000b0: 1f5b f701 e8bc d104 dafb f6ca 130b 2e23
000000c0: 0c23 c140 6103 3814 f805 0ef9 f641 ee07
000000d0: 72c7 23f6 6fad 14d9 f7fd d6d5 23cc e4e0
000000e0: fe01 f8f5 4a28 0f00 d8f2 e40f 81d8 ff48
000000f0: 1a63 c0f9 d959 f742 1001 f2d8 00b0 27dd
-97 -9 9 -10 53 -36 -18 -6
42 -4 -21 76 19 36 105 -13
0 -7 11 26 -63 -14 -10 25
-31 -20 -1 39 37 8 34 -68
30 -44 74 -38 38 48 -29 -10
-45 -50 18 36 35 -15 -34 3
-33 -32 32 -18 15 25 28 31
-66 -11 14 18 29 -43 39 30
31 43 -44 21 -21 6 -53 52
-37 -55 54 65 77 -28 -23 -13
37 9 -29 -11 -45 -69 -1 60
52 73 -50 -47 -17 -30 -17 -49
-30 -17 12 21 -68 -18 56 -19
-6 -12 2 -17 48 0 -65 -39
-7 -60 25 27 -27 28 28 -26
42 73 38 52 -18 14 -74 52
-73 -17 18 81 -51 -33 -3 -6
-17 32 29 -32 13 -27 26 -31
15 -6 -14 55 27 -52 -11 -14
27 -68 7 7 17 13 -33 -36
-7 46 13 -66 18 4 49 -37
11 0 -42 13 24 12 -58 -2
31 91 -9 1 -24 -68 -47 4
-38 -5 -10 -54 19 11 46 35
12 35 -63 64 97 3 56 20
-8 5 14 -7 -10 65 -18 7
114 -57 35 -10 111 -83 20 -39
-9 -3 -42 -43 35 -52 -28 -32
-2 1 -8 -11 74 40 15 0
-40 -14 -28 15 -127 -40 -1 72
26 99 -64 -7 -39 89 -9 66
16 1 -14 -40 0 -80 39 -35

tfl.pseudo_qconst5 i1 [1, 3, 3, 256]
00000000: 0fd5 067f ed1b 8615 a734 e000 f1fb 201b
00000010: ce71 30f2 7f10 bf2d 023b 3a86 085e 121e
00000020: 81bf d2d7 5819 01f5 3b83 5b21 c7bb 8d0d
00000030: 3eee f225 ff16 7ffa 1ff1 c2fb aa20 af7f
00000040: 150e 092b 8ee5 2250 812c 2df5 137b de87
00000050: ad0f dc0c 88f4 ce60 73ee 0027 2781 3bd1
00000060: e6b7 ece0 ce24 f6f8 2ca5 e202 3588 e4b2
00000070: f69a 3b26 012b 7f99 8ce3 2c81 a465 7f24
00000080: c503 4303 7fea dffc 120a d541 cecb 366c
00000090: d521 342d f6f2 7cac 1a3f 8113 4831 7fee
000000a0: 0cc7 6e97 4764 16fa 5e3a c5e8 eded e024
000000b0: 3c20 7fe3 1d16 11a3 4d7f d5b8 6fa0 5693
000000c0: 8133 0d81 d075 c410 cb5e b10d 8609 a116
000000d0: f4f3 e3e3 7a25 e0dd 7be4 d443 dd28 1c1c
000000e0: efd0 fb7f 1695 2a3b 51c6 dde2 1443 fa6a
000000f0: 0e1b e25e c9f8 1aee dac8 4cf1 c847 09d7
15 -43 6 127 -19 27 -122 21
-89 52 -32 0 -15 -5 32 27
-50 113 48 -14 127 16 -65 45
2 59 58 -122 8 94 18 30
-127 -65 -46 -41 88 25 1 -11
59 -125 91 33 -57 -69 -115 13
62 -18 -14 37 -1 22 127 -6
31 -15 -62 -5 -86 32 -81 127
21 14 9 43 -114 -27 34 80
-127 44 45 -11 19 123 -34 -121
-83 15 -36 12 -120 -12 -50 96
115 -18 0 39 39 -127 59 -47
-26 -73 -20 -32 -50 36 -10 -8
44 -91 -30 2 53 -120 -28 -78
-10 -102 59 38 1 43 127 -103
-116 -29 44 -127 -92 101 127 36
-59 3 67 3 127 -22 -33 -4
18 10 -43 65 -50 -53 54 108
-43 33 52 45 -10 -14 124 -84
26 63 -127 19 72 49 127 -18
12 -57 110 -105 71 100 22 -6
94 58 -59 -24 -19 -19 -32 36
60 32 127 -29 29 22 17 -93
77 127 -43 -72 111 -96 86 -109
-127 51 13 -127 -48 117 -60 16
-53 94 -79 13 -122 9 -95 22
-12 -13 -29 -29 122 37 -32 -35
123 -28 -44 67 -35 40 28 28
-17 -48 -5 127 22 -107 42 59
81 -58 -35 -30 20 67 -6 106
14 27 -30 94 -55 -8 26 -18
-38 -56 76 -15 -56 71 9 -41

tfl.pseudo_qconst7 i1 [256, 1, 1, 128]
00000000: d13f fdeb 2609 ef0a 14ed 2105 3d2c 71d1
00000010: 48d8 1be4 0b35 f949 f3a2 221f 02ff d5eb
00000020: 1fcc d60c 0df3 2141 151e 143e e61d 1ff0
00000030: efea 0434 41fd 3414 f97f 2c9d 04c4 4613
00000040: f6d9 cbfd 2b51 fd20 3605 d523 d620 d3e8
00000050: be5f ed1d 2d33 086e ef0e 2217 2407 f9f5
00000060: e503 41ec 3b2f f8e8 01ed 07de 28b4 c4f7
00000070: 0201 19ef dd02 1203 2df2 d165 0b31 0bde
00000080: 26f8 ce05 d914 063a 39e7 fe34 63df ed7c
00000090: a1d9 1bd1 4b50 b2e4 bb22 32d9 3356 320d
000000a0: 4f12 31df 11f0 3f65 0a2c 1e02 450f f67b
000000b0: f526 5ccb fa17 fef4 2af7 9378 64fe 0c46
000000c0: 6c7f c202 3ea4 e2ed 232f 273f fb47 4609
000000d0: db19 ea1a 03d3 eb2a 0e0e 3006 ada9 e134
000000e0: 262a c21c d9fd 1cf7 0a36 d5b7 4a44 dc0a
000000f0: edcb f327 12fa e5ed e7f1 03ed 198e 0fd7
-47 63 -3 -21 38 9 -17 10
20 -19 33 5 61 44 113 -47
72 -40 27 -28 11 53 -7 73
-13 -94 34 31 2 -1 -43 -21
31 -52 -42 12 13 -13 33 65
21 30 20 62 -26 29 31 -16
-17 -22 4 52 65 -3 52 20
-7 127 44 -99 4 -60 70 19
-10 -39 -53 -3 43 81 -3 32
54 5 -43 35 -42 32 -45 -24
-66 95 -19 29 45 51 8 110
-17 14 34 23 36 7 -7 -11
-27 3 65 -20 59 47 -8 -24
1 -19 7 -34 40 -76 -60 -9
2 1 25 -17 -35 2 18 3
45 -14 -47 101 11 49 11 -34
38 -8 -50 5 -39 20 6 58
57 -25 -2 52 99 -33 -19 124
-95 -39 27 -47 75 80 -78 -28
-69 34 50 -39 51 86 50 13
79 18 49 -33 17 -16 63 101
10 44 30 2 69 15 -10 123
-11 38 92 -53 -6 23 -2 -12
42 -9 -109 120 100 -2 12 70
108 127 -62 2 62 -92 -30 -19
35 47 39 63 -5 71 70 9
-37 25 -22 26 3 -45 -21 42
14 14 48 6 -83 -87 -31 52
38 42 -62 28 -39 -3 28 -9
10 54 -43 -73 74 68 -36 10
-19 -53 -13 39 18 -6 -27 -19
-25 -15 3 -19 25 -114 15 -41

tfl.pseudo_qconst9 i1 [1, 3, 3, 128]
00000000: 1d7f da7f fa81 174e c01c 11fb 0563 b622
00000010: 4903 ad03 81dd f434 817f a9f8 320f cd7f
00000020: c7a7 7f81 f038 0600 36ed c764 3cf3 deed
00000030: 287f fbda de15 d581 2dd3 3620 7f4c 047f
00000040: fd7f f4d5 e018 30ec e9e8 814d 1649 f335
00000050: 8119 227f 4c7f 2c3d 07ff f6f1 817f b320
00000060: 7f7f 13a2 bbd7 eeec 7f1b d39c 93f9 da52
00000070: 3805 0f3d 7fe1 7f05 17e4 5402 2dd6 e4c0
00000080: cb22 f80a 7f22 817f 81f7 f836 027f 817f
00000090: 817f 81ff e2b2 f0ec edb5 fbcd e1f6 8164
000000a0: 1691 f0cf f956 227f 1dd2 27df 0f48 7fed
000000b0: 336f f3e9 7f7f 86c2 7f1f 0f21 d22c 1800
000000c0: f414 7ff5 001b 817f 9628 eaf3 7c81 7f7f
000000d0: b5ea 1add 7f01 7f7f 7f7f fe34 2568 8181
000000e0: c2c1 2e81 810a 207f 4604 7f81 f709 fa7f
000000f0: 1a1f 587f e0f1 af44 1081 7ffd f47f 81d9
29 127 -38 127 -6 -127 23 78
-64 28 17 -5 5 99 -74 34
73 3 -83 3 -127 -35 -12 52
-127 127 -87 -8 50 15 -51 127
-57 -89 127 -127 -16 56 6 0
54 -19 -57 100 60 -13 -34 -19
40 127 -5 -38 -34 21 -43 -127
45 -45 54 32 127 76 4 127
-3 127 -12 -43 -32 24 48 -20
-23 -24 -127 77 22 73 -13 53
-127 25 34 127 76 127 44 61
7 -1 -10 -15 -127 127 -77 32
127 127 19 -94 -69 -41 -18 -20
127 27 -45 -100 -109 -7 -38 82
56 5 15 61 127 -31 127 5
23 -28 84 2 45 -42 -28 -64
-53 34 -8 10 127 34 -127 127
-127 -9 -8 54 2 127 -127 127
-127 127 -127 -1 -30 -78 -16 -20
-19 -75 -5 -51 -31 -10 -127 100
22 -111 -16 -49 -7 86 34 127
29 -46 39 -33 15 72 127 -19
51 111 -13 -23 127 127 -122 -62
127 31 15 33 -46 44 24 0
-12 20 127 -11 0 27 -127 127
-106 40 -22 -13 124 -127 127 127
-75 -22 26 -35 127 1 127 127
127 127 -2 52 37 104 -127 -127
-62 -63 46 -127 -127 10 32 127
70 4 127 -127 -9 9 -6 127
26 31 88 127 -32 -15 -81 68
16 -127 127 -3 -12 127 -127 -39

tfl.pseudo_qconst11 i1 [128, 1, 1, 128]
00000000: c23b ee2a 1b08 d55e 101a ecf5 0e1e 14cc
00000010: 2d30 ec64 dd40 0e4a 02ed 1e19 2dd0 c3fd
00000020: 0cf5 ca61 f66c a3d3 b8db c03d 06bb c7ec
00000030: 2913 eaea 241d 0ac2 13ff 7fd6 33d8 f305
00000040: 16ec cb25 5f1a 01c7 2af6 2fe2 cef5 14f7
00000050: de06 fa13 18f1 01dc b009 3fbd f0d6 7345
00000060: c7fd ea2c 0b22 eb0e fef1 ce03 33df e148
00000070: daf5 40d4 3ce6 e325 ce5a 67dc 31d2 3752
00000080: d028 2ee1 d4f8 d5ba e940 2239 e2fd 33a5
00000090: 03da f5e1 f00d 1445 dedd ece9 9755 dee4
000000a0: 27e5 1db4 fd30 161c 1d1a a3c4 1532 199e
000000b0: 8bf3 d6fb 02fd 0fd3 01b9 cc46 0fad 4902
000000c0: 440d 39a6 121f be08 56d7 b829 c612 18c8
000000d0: 10e4 b630 0291 c9df 1ff4 0cef af03 81f9
000000e0: 242f 0a24 cdca 4708 03e4 5cdf ea3a 0c1b
000000f0: 5deb 07f3 e9cd f5ed f9d5 0dd0 f157 4505
-62 59 -18 42 27 8 -43 94
16 26 -20 -11 14 30 20 -52
45 48 -20 100 -35 64 14 74
2 -19 30 25 45 -48 -61 -3
12 -11 -54 97 -10 108 -93 -45
-72 -37 -64 61 6 -69 -57 -20
41 19 -22 -22 36 29 10 -62
19 -1 127 -42 51 -40 -13 5
22 -20 -53 37 95 26 1 -57
42 -10 47 -30 -50 -11 20 -9
-34 6 -6 19 24 -15 1 -36
-80 9 63 -67 -16 -42 115 69
-57 -3 -22 44 11 34 -21 14
-2 -15 -50 3 51 -33 -31 72
-38 -11 64 -44 60 -26 -29 37
-50 90 103 -36 49 -46 55 82
-48 40 46 -31 -44 -8 -43 -70
-23 64 34 57 -30 -3 51 -91
3 -38 -11 -31 -16 13 20 69
-34 -35 -20 -23 -105 85 -34 -28
39 -27 29 -76 -3 48 22 28
29 26 -93 -60 21 50 25 -98
-117 -13 -42 -5 2 -3 15 -45
1 -71 -52 70 15 -83 73 2
68 13 57 -90 18 31 -66 8
86 -41 -72 41 -58 18 24 -56
16 -28 -74 48 2 -111 -55 -33
31 -12 12 -17 -81 3 -127 -7
36 47 10 36 -51 -54 71 8
3 -28 92 -33 -22 58 12 27
93 -21 7 -13 -23 -51 -11 -19
-7 -43 13 -48 -15 87 69 5

tfl.pseudo_qconst13 i1 [1, 3, 3, 128]
00000000: 1de0 eb1d c7a6 3911 3c81 5f24 8107 8113
00000010: 16a9 05d4 ceda a9f6 fffc 81f5 dee2 b97f
00000020: 3240 1529 0cca b0e4 eaa1 1bee ebee ddd4
00000030: 7fc6 fdfa f819 3b31 81b4 4f32 ce7f 02f0
00000040: c2b2 8d29 0c16 e8b0 e903 dc31 6c4e 257f
00000050: ae1f 025d d91b 1113 0dee 0f32 f6f6 03d9
00000060: f2f0 0717 3313 b3ec b349 8133 07f8 e340
00000070: e4cc dc43 c7e7 e5fa 814b f41d 0cc1 2809
00000080: edfc 2481 45b5 ba7f 45cb 7081 bd0f be48
00000090: f807 81f4 25eb 817f d820 35eb c2f7 64f5
000000a0: ecea 5afa cde5 4cc1 5204 7f20 7fc6 f4de
000000b0: d87f ebe8 7f1b 8121 008d c838 7df4 85fa
000000c0: b6f1 f1ee 02c8 ab7f 19d3 11c4 fc7f ab4f
000000d0: 1b34 1a9c 7f7f 26d4 179e e355 e47f 7fdf
000000e0: d3aa 3ed4 28ad db81 5581 d1d4 7f0e fef9
000000f0: 5bd3 e5d7 93c0 be15 9381 3a18 3eb6 817f
29 -32 -21 29 -57 -90 57 17
60 -127 95 36 -127 7 -127 19
22 -87 5 -44 -50 -38 -87 -10
-1 -4 -127 -11 -34 -30 -71 127
50 64 21 41 12 -54 -80 -28
-22 -95 27 -18 -21 -18 -35 -44
127 -58 -3 -6 -8 25 59 49
-127 -76 79 50 -50 127 2 -16
-62 -78 -115 41 12 22 -24 -80
-23 3 -36 49 108 78 37 127
-82 31 2 93 -39 27 17 19
13 -18 15 50 -10 -10 3 -39
-14 -16 7 23 51 19 -77 -20
-77 73 -127 51 7 -8 -29 64
-28 -52 -36 67 -57 -25 -27 -6
-127 75 -12 29 12 -63 40 9
-19 -4 36 -127 69 -75 -70 127
69 -53 112 -127 -67 15 -66 72
-8 7 -127 -12 37 -21 -127 127
-40 32 53 -21 -62 -9 100 -11
-20 -22 90 -6 -51 -27 76 -63
82 4 127 32 127 -58 -12 -34
-40 127 -21 -24 127 27 -127 33
0 -115 -56 56 125 -12 -123 -6
-74 -15 -15 -18 2 -56 -85 127
25 -45 17 -60 -4 127 -85 79
27 52 26 -100 127 127 38 -44
23 -98 -29 85 -28 127 127 -33
-45 -86 62 -44 40 -83 -37 -127
85 -127 -47 -44 127 14 -2 -7
91 -45 -27 -41 -109 -64 -66 21
-109 -127 58 24 62 -74 -127 127

tfl.pseudo_qconst15 i1 [128, 1, 1, 128]
00000000: e70b da6f fd12 dfd0 39d9 fe29 fce9 2e09
00000010: 3705 e2d5 2cbd e327 d76c 2bfb e2d2 d90d
00000020: 1de7 1caf 16c1 d5b3 e9a4 f90e f112 e3e0
00000030: fbbc f32d fe46 ea15 e2f5 01e9 d0ef f32e
00000040: 1c41 bd07 a2e1 f9b2 1924 c8f3 eed0 ebd1
00000050: f24c 1db4 d142 d70f 20e0 e703 180f f2d5
00000060: 4b11 b727 2441 903a d455 d313 dd07 bfda
00000070: f4f4 e8ec f8e6 2cf0 f97f 10ae 073f 350f
00000080: 1937 ae07 3fd6 eff3 14d9 c7fc d3eb 25dd
00000090: aa02 d26a e0fc 102c ce08 f829 bcd7 388a
000000a0: 27f5 1b1a 18de 26fe 42b5 4508 cad0 fee2
000000b0: f17f 1319 ee20 e6cc b50b ca47 b6df eff2
000000c0: e631 99dc 2539 1cb2 fd1e fccc e6e8 f5bd
000000d0: 3310 c342 30fd dcf4 0bf4 f8f9 0eab f1e6
000000e0: 1f08 d36c 2516 6533 39d5 121d ef1f 5e06
000000f0: 26f0 dbc5 1dee 0ef1 5be9 fcd6 2e09 14e0
-25 11 -38 111 -3 18 -33 -48
57 -39 -2 41 -4 -23 46 9
55 5 -30 -43 44 -67 -29 39
-41 108 43 -5 -30 -46 -39 13
29 -25 28 -81 22 -63 -43 -77
-23 -92 -7 14 -15 18 -29 -32
-5 -68 -13 45 -2 70 -22 21
-30 -11 1 -23 -48 -17 -13 46
28 65 -67 7 -94 -31 -7 -78
25 36 -56 -13 -18 -48 -21 -47
-14 76 29 -76 -47 66 -41 15
32 -32 -25 3 24 15 -14 -43
75 17 -73 39 36 65 -112 58
-44 85 -45 19 -35 7 -65 -38
-12 -12 -24 -20 -8 -26 44 -16
-7 127 16 -82 7 63 53 15
25 55 -82 7 63 -42 -17 -13
20 -39 -57 -4 -45 -21 37 -35
-86 2 -46 106 -32 -4 16 44
-50 8 -8 41 -68 -41 56 -118
39 -11 27 26 24 -34 38 -2
66 -75 69 8 -54 -48 -2 -30
-15 127 19 25 -18 32 -26 -52
-75 11 -54 71 -74 -33 -17 -14
-26 49 -103 -36 37 57 28 -78
-3 30 -4 -52 -26 -24 -11 -67
51 16 -61 66 48 -3 -36 -12
11 -12 -8 -7 14 -85 -15 -26
31 8 -45 108 37 22 101 51
57 -43 18 29 -17 31 94 6
38 -16 -37 -59 29 -18 14 -15
91 -23 -4 -42 46 9 20 -32

tfl.pseudo_qconst17 i1 [1, 3, 3, 128]
00000000: 3eae dc06 2dd7 273d c8bb ce5f 0e9c 8518
00000010: faaf 23c0 7fca 0038 3af7 c5f7 543f e7b6
00000020: 81c4 7f66 c5d2 c681 0708 e034 dadf a818
00000030: 19c9 01fe 0c83 e100 b709 81a9 7fc0 2502
00000040: 479e 2af0 0a0b 0ed7 026b f51c d3fa e021
00000050: 6095 f206 3dd6 7fb4 a6eb b7a5 a4bd eff0
00000060: 05f2 31b6 9f93 6520 c416 ad36 d1bc 8716
00000070: d810 5869 e927 e1f7 81e4 ca6c ff7f 819a
00000080: c8ac 9c7f 5a74 e381 16f3 da7f e124 cd0e
00000090: 7f45 f705 23ff eeb9 5dcd 39f7 d3be 7fcd
000000a0: cae7 ccb6 f563 9b54 45cb 48a6 aaa2 ed81
000000b0: f6f7 9c9f 813b 38e5 bd42 86e5 e2fc c0d2
000000c0: f318 0806 318a e80c e0d8 344a bbb2 f419
000000d0: 0544 157f b497 2681 04ea 81ac e8f4 22fb
000000e0: 02f4 2b5a f67f 43ef dee7 e45a 2d7f 3771
000000f0: 9f35 d92c be07 7ff0 c9f8 eafb fbe7 bcf9
62 -82 -36 6 45 -41 39 61
-56 -69 -50 95 14 -100 -123 24
-6 -81 35 -64 127 -54 0 56
58 -9 -59 -9 84 63 -25 -74
-127 -60 127 102 -59 -46 -58 -127
7 8 -32 52 -38 -33 -88 24
25 -55 1 -2 12 -125 -31 0
-73 9 -127 -87 127 -64 37 2
71 -98 42 -16 10 11 14 -41
2 107 -11 28 -45 -6 -32 33
96 -107 -14 6 61 -42 127 -76
-90 -21 -73 -91 -92 -67 -17 -16
5 -14 49 -74 -97 -109 101 32
-60 22 -83 54 -47 -68 -121 22
-40 16 88 105 -23 39 -31 -9
-127 -28 -54 108 -1 127 -127 -102
-56 -84 -100 127 90 116 -29 -127
22 -13 -38 127 -31 36 -51 14
127 69 -9 5 35 -1 -18 -71
93 -51 57 -9 -45 -66 127 -51
-54 -25 -52 -74 -11 99 -101 84
69 -53 72 -90 -86 -94 -19 -127
-10 -9 -100 -97 -127 59 56 -27
-67 66 -122 -27 -30 -4 -64 -46
-13 24 8 6 49 -118 -24 12
-32 -40 52 74 -69 -78 -12 25
5 68 21 127 -76 -105 38 -127
4 -22 -127 -84 -24 -12 34 -5
2 -12 43 90 -10 127 67 -17
-34 -25 -28 90 45 127 55 113
-97 53 -39 44 -66 7 127 -16
-55 -8 -22 -5 -5 -25 -68 -7

tfl.pseudo_qconst19 i1 [128, 1, 1, 128]
00000000: c72f e118 394a e1e2 114c 40db 1c11 c139
00000010: df0e 114b c3cd fad6 07eb f72a 27bc 32e7
00000020: 0fe4 f6d1 1bee 2ef5 efca 2934 ff39 fb3e
00000030: 18c9 f0af 2fda 0edc ccb7 bbae e865 4906
00000040: 3229 a440 d733 2100 1bde 0135 c9aa 28e3
00000050: e919 0aca d123 e161 2ff0 12dd e716 d907
00000060: 28d3 4f25 18f2 2b35 1da8 c705 7fe6 10ee
00000070: e724 0797 0f39 0707 ed21 f2f2 ec04 ef1e
00000080: 320e c6fe d815 3201 40bb 45f8 e49b 07d4
00000090: d3bd d639 d2e4 229b 81e5 0ae0 fb17 56e6
000000a0: cdfc 33f4 d517 d721 b019 1c05 ccf1 5522
000000b0: e918 4b9f 4e57 d9da 0d1a ee45 2715 184a
000000c0: fcfe fa1b feeb eef0 cbe5 6004 5fee 293e
000000d0: bbd3 05f8 3ce7 e7e7 19fa 17f1 2f0f c80a
000000e0: 1db7 0e3c 1307 2b9c aaf3 3a9f c916 e519
000000f0: a83d 1dec d4c1 df97 3517 c40b e92c ac0a
-57 47 -31 24 57 74 -31 -30
17 76 64 -37 28 17 -63 57
-33 14 17 75 -61 -51 -6 -42
7 -21 -9 42 39 -68 50 -25
15 -28 -10 -47 27 -18 46 -11
-17 -54 41 52 -1 57 -5 62
24 -55 -16 -81 47 -38 14 -36
-52 -73 -69 -82 -24 101 73 6
50 41 -92 64 -41 51 33 0
27 -34 1 53 -55 -86 40 -29
-23 25 10 -54 -47 35 -31 97
47 -16 18 -35 -25 22 -39 7
40 -45 79 37 24 -14 43 53
29 -88 -57 5 127 -26 16 -18
-25 36 7 -105 15 57 7 7
-19 33 -14 -14 -20 4 -17 30
50 14 -58 -2 -40 21 50 1
64 -69 69 -8 -28 -101 7 -44
-45 -67 -42 57 -46 -28 34 -101
-127 -27 10 -32 -5 23 86 -26
-51 -4 51 -12 -43 23 -41 33
-80 25 28 5 -52 -15 85 34
-23 24 75 -97 78 87 -39 -38
13 26 -18 69 39 21 24 74
-4 -2 -6 27 -2 -21 -18 -16
-53 -27 96 4 95 -18 41 62
-69 -45 5 -8 60 -25 -25 -25
25 -6 23 -15 47 15 -56 10
29 -73 14 60 19 7 43 -100
-86 -13 58 -97 -55 22 -27 25
-88 61 29 -20 -44 -63 -33 -105
53 23 -60 11 -23 44 -84 10

tfl.pseudo_qconst21 i1 [1, 3, 3, 128]
00000000: 0491 cd81 f9e5 2b19 efdd 3d63 1fd8 df7f
00000010: 01e2 5331 ac38 f1e2 13b4 d852 aa9f e48e
00000020: 063f f7ed 58c4 03e2 34a7 8181 57a1 5005
00000030: 150d b6f7 9e30 1216 ecfd e6bc 4281 0cf5
00000040: dac7 9c40 7fe5 0be9 7faf bde0 d5d0 edfe
00000050: e825 d21a b07f 75a1 d3ed 5d07 bdf8 1da6
00000060: b888 74f0 00eb 7f7f ba7f 08b9 e3b8 ec75
00000070: 8114 39b4 e41a fd0d 1dc6 8133 fd3b f98d
00000080: 9024 2206 7f1f c182 f72e c9d6 e95d 030f
00000090: 54bf 1214 bcc8 4f28 7f0a 901e e409 d5e3
000000a0: 7fee 8104 fe28 c702 0aeb cff7 cdbc 1ba6
000000b0: de7f c57f 2bd5 5715 e181 7feb 3dfb a0ee
000000c0: be03 719f d081 032b fcb2 ecae f7c3 7f31
000000d0: 300f daf9 b82a 7917 0e61 81cc a9de d97f
000000e0: fb7d ace3 01c4 46e2 7f01 dc41 6fed 2427
000000f0: 7a1f f7a2 6b59 e73e 81b9 7e9b 7e96 7f2c
4 -111 -51 -127 -7 -27 43 25
-17 -35 61 99 31 -40 -33 127
1 -30 83 49 -84 56 -15 -30
19 -76 -40 82 -86 -97 -28 -114
6 63 -9 -19 88 -60 3 -30
52 -89 -127 -127 87 -95 80 5
21 13 -74 -9 -98 48 18 22
-20 -3 -26 -68 66 -127 12 -11
-38 -57 -100 64 127 -27 11 -23
127 -81 -67 -32 -43 -48 -19 -2
-24 37 -46 26 -80 127 117 -95
-45 -19 93 7 -67 -8 29 -90
-72 -120 116 -16 0 -21 127 127
-70 127 8 -71 -29 -72 -20 117
-127 20 57 -76 -28 26 -3 13
29 -58 -127 51 -3 59 -7 -115
-112 36 34 6 127 31 -63 -126
-9 46 -55 -42 -23 93 3 15
84 -65 18 20 -68 -56 79 40
127 10 -112 30 -28 9 -43 -29
127 -18 -127 4 -2 40 -57 2
10 -21 -49 -9 -51 -68 27 -90
-34 127 -59 127 43 -43 87 21
-31 -127 127 -21 61 -5 -96 -18
-66 3 113 -97 -48 -127 3 43
-4 -78 -20 -82 -9 -61 127 49
48 15 -38 -7 -72 42 121 23
14 97 -127 -52 -87 -34 -39 127
-5 125 -84 -29 1 -60 70 -30
127 1 -36 65 111 -19 36 39
122 31 -9 -94 107 89 -25 62
-127 -71 126 -101 126 -106 127 44

tfl.pseudo_qconst23 i1 [128, 1, 1, 128]
00000000: 41e7 cfc9 1e05 a63e 2e04 ff2c 22e9 4a30
00000010: e539 3da1 9c0c d121 0e26 0f11 e31e b81f
00000020: 7fd6 4505 0ac8 eac8 450a 01df 14fb bdf5
00000030: 2fc8 2fee d20d c7f1 16ca f5d7 36f7 1af1
00000040: b6d2 3dd6 05e0 ed01 fe2e 07f9 3511 1b43
00000050: 39f8 3805 e542 29f8 2536 bbc3 fe19 3218
00000060: 2fc0 e8c8 e522 f108 d9c9 f518 34cd e200
00000070: 1ae0 0308 1dcd b1f8 0e3a 20ff d3cb ecae
00000080: e0e5 f5de fb05 1202 020e db0f 17cd e920
00000090: ebfd d3de e0e2 10fc ebfb f6f6 e40f 2a15
000000a0: acd3 e03a d64b 1d4d 292e 08f9 3219 01d5
000000b0: 2910 ea30 1a2d 2bc5 00f2 fe0e d5f2 ce26
000000c0: e7d5 d61a 181e fc30 e007 07e3 431e 2a2b
000000d0: 30bb 811b e0f1 ebef d6ff ce02 fbdb 0943
000000e0: bbbb 290c f214 ea15 fac2 1b25 f0f4 2001
000000f0: ff38 edfc f816 3123 ed6c f2f2 f727 e331
65 -25 -49 -55 30 5 -90 62
46 4 -1 44 34 -23 74 48
-27 57 61 -95 -100 12 -47 33
14 38 15 17 -29 30 -72 31
127 -42 69 5 10 -56 -22 -56
69 10 1 -33 20 -5 -67 -11
47 -56 47 -18 -46 13 -57 -15
22 -54 -11 -41 54 -9 26 -15
-74 -46 61 -42 5 -32 -19 1
-2 46 7 -7 53 17 27 67
57 -8 56 5 -27 66 41 -8
37 54 -69 -61 -2 25 50 24
47 -64 -24 -56 -27 34 -15 8
-39 -55 -11 24 52 -51 -30 0
26 -32 3 8 29 -51 -79 -8
14 58 32 -1 -45 -53 -20 -82
-32 -27 -11 -34 -5 5 18 2
2 14 -37 15 23 -51 -23 32
-21 -3 -45 -34 -32 -30 16 -4
-21 -5 -10 -10 -28 15 42 21
-84 -45 -32 58 -42 75 29 77
41 46 8 -7 50 25 1 -43
41 16 -22 48 26 45 43 -59
0 -14 -2 14 -43 -14 -50 38
-25 -43 -42 26 24 30 -4 48
-32 7 7 -29 67 30 42 43
48 -69 -127 27 -32 -15 -21 -17
-42 -1 -50 2 -5 -37 9 67
-69 -69 41 12 -14 20 -22 21
-6 -62 27 37 -16 -12 32 1
-1 56 -19 -4 -8 22 49 35
-19 108 -14 -14 -9 39 -29 49

tfl.pseudo_qconst25 i1 [1, 3, 3, 128]
00000000: 171d d8e2 b151 1918 051e 64fb a105 057f
00000010: 7f06 30e3 4c81 3230 d44a 7ff5 7af5 9c2f
00000020: 0db7 fbd6 f7d5 7f50 d5b9 81bf c1bf 3330
00000030: 370b 11bc 5a1c 229d 0a27 c6c8 9405 0960
00000040: 570a ae30 45ef 281c 41e1 fc1d c701 5b39
00000050: e8f7 d0f6 c37f 7f7f dcb4 e9b2 3f2b 203c
00000060: d4a2 eac0 f7ef ffd2 8b46 8132 13a2 c7f3
00000070: 6cfa 2cfb 7f14 024c 655f 8946 7feb e5e9
00000080: 38f6 7fdd 150e e938 6281 686a f67f 3c31
00000090: a3f0 e2da 1a44 267f ee7f 768f 4c48 857f
000000a0: 7fbc 12e2 13c5 dbe2 fc81 8f7f 441a c6f3
000000b0: 4eaf b57f 64ea aacf 5d7f 1499 cdf4 1716
000000c0: bdc9 3139 ffe1 00dc d47d e6e7 438c 4b53
000000d0: 3ec9 7f81 9d36 d225 95ca cba4 0809 ea7a
000000e0: e2ce f781 1681 02f2 71bf 6a7f 0ed5 81dd
000000f0: 3be9 fa37 40d2 1a67 817f c6e2 d27f 8d01
23 29 -40 -30 -79 81 25 24
5 30 100 -5 -95 5 5 127
127 6 48 -29 76 -127 50 48
-44 74 127 -11 122 -11 -100 47
13 -73 -5 -42 -9 -43 127 80
-43 -71 -127 -65 -63 -65 51 48
55 11 17 -68 90 28 34 -99
10 39 -58 -56 -108 5 9 96
87 10 -82 48 69 -17 40 28
65 -31 -4 29 -57 1 91 57
-24 -9 -48 -10 -61 127 127 127
-36 -76 -23 -78 63 43 32 60
-44 -94 -22 -64 -9 -17 -1 -46
-117 70 -127 50 19 -94 -57 -13
108 -6 44 -5 127 20 2 76
101 95 -119 70 127 -21 -27 -23
56 -10 127 -35 21 14 -23 56
98 -127 104 106 -10 127 60 49
-93 -16 -30 -38 26 68 38 127
-18 127 118 -113 76 72 -123 127
127 -68 18 -30 19 -59 -37 -30
-4 -127 -113 127 68 26 -58 -13
78 -81 -75 127 100 -22 -86 -49
93 127 20 -103 -51 -12 23 22
-67 -55 49 57 -1 -31 0 -36
-44 125 -26 -25 67 -116 75 83
62 -55 127 -127 -99 54 -46 37
-107 -54 -53 -92 8 9 -22 122
-30 -50 -9 -127 22 -127 2 -14
113 -65 106 127 14 -43 -127 -35
59 -23 -6 55 64 -46 26 103
-127 127 -58 -30 -46 127 -115 1

tfl.pseudo_qconst27 i1 [128, 1, 1, 128]
00000000: f82d e0ee f4c9 aa22 a4eb 47e3 31b9 bbff
00000010: daea f89a dbbd 7f21 52d0 4a32 29b6 0f4d
00000020: e547 c431 14c9 1ed5 4607 af25 ccc6 f132
00000030: 8411 4820 f742 2218 e8a3 2d2f 398d efed
00000040: 3814 07ae 1bc3 cf34 3cef b5f0 02d1 245b
00000050: 7024 ccb8 ecb1 1a39 5923 f7e1 8eda a53d
00000060: ef1d 3970 f8e3 d647 1e8d 27c7 2c61 f70d
00000070: e3e0 e820 470f 3e07 b2cf 9730 aa07 00d7
00000080: 0633 4f07 e5f8 04b6 d2e3 fdf4 1064 1cf7
00000090: 451b 3bc7 0a1e 34db 7f0e f63a e8db 31d6
000000a0: 44ea f5d3 f0c8 270e ff1c bcea 2d12 e9fe
000000b0: 1e2c 103c b4e1 03f5 22e3 d90e 3503 1cf2
000000c0: 1ff0 e2e7 e245 f949 07fa 2f2e e421 6b35
000000d0: 4fe3 35cf 1d16 e7f8 fd01 5b13 05c3 2ec6
000000e0: fa51 e615 dc39 d620 1744 0343 f1ec 1650
000000f0: e976 d518 cc0c 5e45 f809 f5de 36f1 35fe
-8 45 -32 -18 -12 -55 -86 34
-92 -21 71 -29 49 -71 -69 -1
-38 -22 -8 -102 -37 -67 127 33
82 -48 74 50 41 -74 15 77
-27 71 -60 49 20 -55 30 -43
70 7 -81 37 -52 -58 -15 50
-124 17 72 32 -9 66 34 24
-24 -93 45 47 57 -115 -17 -19
56 20 7 -82 27 -61 -49 52
60 -17 -75 -16 2 -47 36 91
112 36 -52 -72 -20 -79 26 57
89 35 -9 -31 -114 -38 -91 61
-17 29 57 112 -8 -29 -42 71
30 -115 39 -57 44 97 -9 13
-29 -32 -24 32 71 15 62 7
-78 -49 -105 48 -86 7 0 -41
6 51 79 7 -27 -8 4 -74
-46 -29 -3 -12 16 100 28 -9
69 27 59 -57 10 30 52 -37
127 14 -10 58 -24 -37 49 -42
68 -22 -11 -45 -16 -56 39 14
-1 28 -68 -22 45 18 -23 -2
30 44 16 60 -76 -31 3 -11
34 -29 -39 14 53 3 28 -14
31 -16 -30 -25 -30 69 -7 73
7 -6 47 46 -28 33 107 53
79 -29 53 -49 29 22 -25 -8
-3 1 91 19 5 -61 46 -58
-6 81 -26 21 -36 57 -42 32
23 68 3 67 -15 -20 22 80
-23 118 -43 24 -52 12 94 69
-8 9 -11 -34 54 -15 53 -2

tfl.pseudo_qconst29 i1 [1, 3, 3, 128]
00000000: 5666 ce98 eda0 eb7f 339e f3c7 d4d8 e37f
00000010: 67e5 b0ec 0918 f14e 7fe5 44cd c8ce ec9a
00000020: df62 bbc7 add5 7f9e b091 1b7f 0f47 ec12
00000030: cbd3 f7d7 bc81 cf1a 69d1 e87f fca3 21ea
00000040: 6c12 8181 3621 d77f e0d3 98f8 a0a1 3dff
00000050: 7f46 d8f2 318f dbcc 0cc2 b3f5 e5c4 7fd9
00000060: 8169 ad62 3313 d6ab eb1a 4ed1 0a41 8b5b
00000070: eb19 14fc 2b2a 0b77 381e 60e8 1f1a 3ad6
00000080: caf5 ee56 e4b6 e910 fa81 cbf1 637a 405f
00000090: c8b1 19f7 3270 7f81 ff50 f07f 00fe ebf3
000000a0: 3b14 aa7f 08da 123b 2fd0 0e4e 7f2c eae3
000000b0: f77e fe7f 55e2 df11 bf49 f721 08fe 18ca
000000c0: 0824 ded7 e27b dd10 94da 997f 9887 ee73
000000d0: c068 5098 72cd e3a1 81dd b31b 4afe 2ad3
000000e0: 3a7f 0581 81d4 6c2d 4f2d 8171 fe07 c567
000000f0: 09c0 a817 9ffa eb3a 01ce ec50 58ef 0d20
86 102 -50 -104 -19 -96 -21 127
51 -98 -13 -57 -44 -40 -29 127
103 -27 -80 -20 9 24 -15 78
127 -27 68 -51 -56 -50 -20 -102
-33 98 -69 -57 -83 -43 127 -98
-80 -111 27 127 15 71 -20 18
-53 -45 -9 -41 -68 -127 -49 26
105 -47 -24 127 -4 -93 33 -22
108 18 -127 -127 54 33 -41 127
-32 -45 -104 -8 -96 -95 61 -1
127 70 -40 -14 49 -113 -37 -52
12 -62 -77 -11 -27 -60 127 -39
-127 105 -83 98 51 19 -42 -85
-21 26 78 -47 10 65 -117 91
-21 25 20 -4 43 42 11 119
56 30 96 -24 31 26 58 -42
-54 -11 -18 86 -28 -74 -23 16
-6 -127 -53 -15 99 122 64 95
-56 -79 25 -9 50 112 127 -127
-1 80 -16 127 0 -2 -21 -13
59 20 -86 127 8 -38 18 59
47 -48 14 78 127 44 -22 -29
-9 126 -2 127 85 -30 -33 17
-65 73 -9 33 8 -2 24 -54
8 36 -34 -41 -30 123 -35 16
-108 -38 -103 127 -104 -121 -18 115
-64 104 80 -104 114 -51 -29 -95
-127 -35 -77 27 74 -2 42 -45
58 127 5 -127 -127 -44 108 45
79 45 -127 113 -2 7 -59 103
9 -64 -88 23 -97 -6 -21 58
1 -50 -20 80 88 -17 13 32

tfl.pseudo_qconst31 i1 [128, 1, 1, 64]
00000000: ea9e 41d1 b449 fc81 f95e 32ec 0887 9933
00000010: 0595 2737 217d cbc1 ca31 2d31 1133 a6ab
00000020: 13db 34f8 4555 1913 ed34 0354 eddd e4e0
00000030: f824 25f3 cae0 041a 9d4f 6361 f70e 0041
00000040: c5bb ea58 c905 08ce 81d7 55f4 462f 0226
00000050: e229 efe4 2d25 c3f5 a1fc d82c 0a48 6013
00000060: 4b40 56c7 cb98 df11 11b3 5422 e6b3 5827
00000070: acf0 1a93 3f55 e3b0 35f8 271c f13e cfc3
00000080: 81e1 fb48 ec34 f503 1f2a 1edd de36 47c5
00000090: a3b7 564c 190a f117 2a38 2bb0 33ce 0f31
000000a0: bdf8 1632 aee2 4929 1b4b 2910 2cf9 f3f7
000000b0: 1811 f326 e90b 1a06 08dc 4bc5 0d07 41fb
000000c0: 4407 f9fc 14e9 1e4f f5f7 2601 7f05 3073
000000d0: 299b 021a f704 f85b 5df3 574b a40d 41d4
000000e0: 31b7 dc08 121a c4da 13ee 1ce0 1cfb 2ba3
000000f0: c23b bfb5 f6cf 7829 f311 2100 f3d6 e404
-22 -98 65 -47 -76 73 -4 -127
-7 94 50 -20 8 -121 -103 51
5 -107 39 55 33 125 -53 -63
-54 49 45 49 17 51 -90 -85
19 -37 52 -8 69 85 25 19
-19 52 3 84 -19 -35 -28 -32
-8 36 37 -13 -54 -32 4 26
-99 79 99 97 -9 14 0 65
-59 -69 -22 88 -55 5 8 -50
-127 -41 85 -12 70 47 2 38
-30 41 -17 -28 45 37 -61 -11
-95 -4 -40 44 10 72 96 19
75 64 86 -57 -53 -104 -33 17
17 -77 84 34 -26 -77 88 39
-84 -16 26 -109 63 85 -29 -80
53 -8 39 28 -15 62 -49 -61
-127 -31 -5 72 -20 52 -11 3
31 42 30 -35 -34 54 71 -59
-93 -73 86 76 25 10 -15 23
42 56 43 -80 51 -50 15 49
-67 -8 22 50 -82 -30 73 41
27 75 41 16 44 -7 -13 -9
24 17 -13 38 -23 11 26 6
8 -36 75 -59 13 7 65 -5
68 7 -7 -4 20 -23 30 79
-11 -9 38 1 127 5 48 115
41 -101 2 26 -9 4 -8 91
93 -13 87 75 -92 13 65 -44
49 -73 -36 8 18 26 -60 -38
19 -18 28 -32 28 -5 43 -93
-62 59 -65 -75 -10 -49 120 41
-13 17 33 0 -13 -42 -28 4

tfl.pseudo_qconst33 i1 [1, 3, 3, 64]
00000000: a00f ffb9 42c4 8199 ad23 a09b 86d2 8181
00000010: 817f 981c 81d2 88c0 5ccd f7d5 1bbb 0bac
00000020: 347f d27f 1cc4 c57f 7fdd f2bf 5b19 957b
00000030: 3e81 a4ac e8c0 2aa1 4005 9ecb f081 aebb
00000040: 9430 817f 8181 453d 7c7f 8124 d2c9 edff
00000050: 36c7 3656 cf38 8109 7fdc 3ad4 09fe 7f5e
00000060: fa23 7f90 5aeb 2de3 287f 6f1a 4b7d df6e
00000070: e6f4 3dd4 7ff0 d22a 332a 04e3 5789 27e9
00000080: 6c81 bd15 c90f ecd8 ee40 6b2c 14ed a24b
00000090: 2b69 f397 1312 4566 3ee3 a284 0231 8b81
000000a0: 90e8 3617 b1dc d3f3 2cfc e3e5 047f b486
000000b0: 50c7 f902 27ea 2f1f fdcf d502 7f12 2ee8
000000c0: 7f4b ec64 8a92 aaad 8f24 2181 81ff ba3d
000000d0: ee26 29bb 63b5 0c39 19ce 0df4 98b2 34a6
000000e0: 81c9 5a58 717f 5587 d72f c981 3902 0eb7
000000f0: 8167 4a0d 5d7f 7f1b 1981 0c0b 0a87 e981
-96 15 -1 -71 66 -60 -127 -103
-83 35 -96 -101 -122 -46 -127 -127
-127 127 -104 28 -127 -46 -120 -64
92 -51 -9 -43 27 -69 11 -84
52 127 -46 127 28 -60 -59 127
127 -35 -14 -65 91 25 -107 123
62 -127 -92 -84 -24 -64 42 -95
64 5 -98 -53 -16 -127 -82 -69
-108 48 -127 127 -127 -127 69 61
124 127 -127 36 -46 -55 -19 -1
54 -57 54 86 -49 56 -127 9
127 -36 58 -44 9 -2 127 94
-6 35 127 -112 90 -21 45 -29
40 127 111 26 75 125 -33 110
-26 -12 61 -44 127 -16 -46 42
51 42 4 -29 87 -119 39 -23
108 -127 -67 21 -55 15 -20 -40
-18 64 107 44 20 -19 -94 75
43 105 -13 -105 19 18 69 102
62 -29 -94 -124 2 49 -117 -127
-112 -24 54 23 -79 -36 -45 -13
44 -4 -29 -27 4 127 -76 -122
80 -57 -7 2 39 -22 47 31
-3 -49 -43 2 127 18 46 -24
127 75 -20 100 -118 -110 -86 -83
-113 36 33 -127 -127 -1 -70 61
-18 38 41 -69 99 -75 12 57
25 -50 13 -12 -104 -78 52 -90
-127 -55 90 88 113 127 85 -121
-41 47 -55 -127 57 2 14 -73
-127 103 74 13 93 127 127 27
25 -127 12 11 10 -121 -23 -127

tfl.pseudo_qconst35 i1 [64, 1, 1, 64]
00000000: 2738 1991 4409 215d 40c3 35c9 c803 0ee5
00000010: b0e3 0238 c7b7 ef01 14f8 ff4b 0ed1 b5dd
00000020: 0540 34e4 a3ab 2d9d f392 d1ab f312 cb2b
00000030: 0f1b 0124 c00e b61d f3bc 4081 553d 5db4
00000040: 5630 1417 e737 0c25 d0d6 2381 6434 1500
00000050: 50b9 15e0 be34 d5f5 ce05 74e9 e704 f414
00000060: 5f0c 321b d649 ccc5 e130 e2d6 deec efe8
00000070: 18a8 25c1 4d1e c930 f0ec 1a04 3cec c0fb
00000080: ea19 ecfe 03f7 bc38 c31a f0ee 4768 317f
00000090: bfb4 0a39 f72e 1509 ecde 44c2 00e1 2b44
000000a0: e7fb d61b 15b2 362c 270f c11c 09e1 d915
000000b0: 0422 35ff ff2a 013a 0ef8 affd 08b0 19de
000000c0: b5fc 0f35 65aa 5509 aff5 1bba 992d be2f
000000d0: f2b1 8347 cde6 46a9 322c e8ce f16c 497a
000000e0: 0bcf 30bc 0c11 f336 bbd5 cd10 4c21 4d32
000000f0: ccf8 eaff b7f6 3a4c 0dea 7ffb c4d7 ead9
39 56 25 -111 68 9 33 93
64 -61 53 -55 -56 3 14 -27
-80 -29 2 56 -57 -73 -17 1
20 -8 -1 75 14 -47 -75 -35
5 64 52 -28 -93 -85 45 -99
-13 -110 -47 -85 -13 18 -53 43
15 27 1 36 -64 14 -74 29
-13 -68 64 -127 85 61 93 -76
86 48 20 23 -25 55 12 37
-48 -42 35 -127 100 52 21 0
80 -71 21 -32 -66 52 -43 -11
-50 5 116 -23 -25 4 -12 20
95 12 50 27 -42 73 -52 -59
-31 48 -30 -42 -34 -20 -17 -24
24 -88 37 -63 77 30 -55 48
-16 -20 26 4 60 -20 -64 -5
-22 25 -20 -2 3 -9 -68 56
-61 26 -16 -18 71 104 49 127
-65 -76 10 57 -9 46 21 9
-20 -34 68 -62 0 -31 43 68
-25 -5 -42 27 21 -78 54 44
39 15 -63 28 9 -31 -39 21
4 34 53 -1 -1 42 1 58
14 -8 -81 -3 8 -80 25 -34
-75 -4 15 53 101 -86 85 9
-81 -11 27 -70 -103 45 -66 47
-14 -79 -125 71 -51 -26 70 -87
50 44 -24 -50 -15 108 73 122
11 -49 48 -68 12 17 -13 54
-69 -43 -51 16 76 33 77 50
-52 -8 -22 -1 -73 -10 58 76
13 -22 127 -5 -60 -41 -22 -39

tfl.pseudo_qconst37 i1 [1, 3, 3, 64]
00000000: 3781 a645 24f3 d3fa dcf1 2d4d 0b06 8cae
00000010: 5beb 7fe8 7f32 d07b 0eca 7f9e 097e 4a1c
00000020: a8dc 2510 b42f cc26 c63a 577c 5670 b9eb
00000030: c4c0 e9fb 1a94 9b16 2d7f 0c37 cffb 83e3
00000040: 3d0f 0cb9 1c7f 8171 f481 b937 207f f004
00000050: 0e55 1e94 a254 e6b7 8137 047f dcec 3d71
00000060: 3081 7f3c 097f 1525 ec66 d087 812c 9e01
00000070: 8ecf a21c ec94 32f6 0343 c144 f393 b0ba
00000080: 2fc6 abee 242a d57f e6ff c37f 0264 c9f6
00000090: 24b2 c028 3aef 8c6b 4f81 281a 8130 4000
000000a0: 2c11 5305 7542 0575 11e2 2d12 354a 5819
000000b0: ac45 de52 c126 5ab2 0a2f 7f06 18c7 efa8
000000c0: 5e21 de4e 47a9 bf01 7fc5 7fcc 7f2c 7f7f
000000d0: 7f0e 6f19 8a7f c2c0 05bf 1632 329f efee
000000e0: 2af6 0d81 2b46 7f36 8109 daaa ab93 81ad
000000f0: 1225 187c 7f7f 6614 3a63 337f 7f81 b754
55 -127 -90 69 36 -13 -45 -6
-36 -15 45 77 11 6 -116 -82
91 -21 127 -24 127 50 -48 123
14 -54 127 -98 9 126 74 28
-88 -36 37 16 -76 47 -52 38
-58 58 87 124 86 112 -71 -21
-60 -64 -23 -5 26 -108 -101 22
45 127 12 55 -49 -5 -125 -29
61 15 12 -71 28 127 -127 113
-12 -127 -71 55 32 127 -16 4
14 85 30 -108 -94 84 -26 -73
-127 55 4 127 -36 -20 61 113
48 -127 127 60 9 127 21 37
-20 102 -48 -121 -127 44 -98 1
-114 -49 -94 28 -20 -108 50 -10
3 67 -63 68 -13 -109 -80 -70
47 -58 -85 -18 36 42 -43 127
-26 -1 -61 127 2 100 -55 -10
36 -78 -64 40 58 -17 -116 107
79 -127 40 26 -127 48 64 0
44 17 83 5 117 66 5 117
17 -30 45 18 53 74 88 25
-84 69 -34 82 -63 38 90 -78
10 47 127 6 24 -57 -17 -88
94 33 -34 78 71 -87 -65 1
127 -59 127 -52 127 44 127 127
127 14 111 25 -118 127 -62 -64
5 -65 22 50 50 -97 -17 -18
42 -10 13 -127 43 70 127 54
-127 9 -38 -86 -85 -109 -127 -83
18 37 24 124 127 127 102 20
58 99 51 127 127 -127 -73 84

tfl.pseudo_qconst39 i1 [64, 1, 1, 32]
00000000: 9ffe 27d9 9b3f dfd8 4e0e 237f a126 b3ca
00000010: 22fd 3a1e 4b96 4ad4 7c9f 01ae bf18 00c5
00000020: a530 ed41 a013 e581 b638 0026 1a61 dbf6
00000030: 32cf c605 61b8 05ff 8ef0 a70f f6b1 3cf3
00000040: 3c56 91e2 81db bff1 feec 9f13 4fdb 3b27
00000050: e266 aeec 0e0c d2d0 d3e0 ade8 2c2d c42a
00000060: ecf5 11ec bff2 26e2 c43e 673d 73f8 2463
00000070: 0291 d87f 482d b2bf bf07 28ef 5708 350a
00000080: ddef 15ca 10f2 c6cd 3e5a beab ea81 2d9f
00000090: 110a ff06 e7d6 0166 dd26 cfcf e65a f220
000000a0: 25ff 08d8 1a5f 88fb bbb1 fdec d899 c995
000000b0: 11b4 4e27 c1fc 9e81 fe36 6b06 f203 2125
000000c0: 34da 20e9 f702 81dd 2505 8ef8 c924 5b2a
000000d0: 0d13 5f2b db41 bbdb 3aed baf8 f42c c1f3
000000e0: cd13 efaf cad5 feca dee1 29eb d9f4 364c
000000f0: a0db 3c40 1c81 ea79 0da2 71d5 1033 35f3
-97 -2 39 -39 -101 63 -33 -40
78 14 35 127 -95 38 -77 -54
34 -3 58 30 75 -106 74 -44
124 -97 1 -82 -65 24 0 -59
-91 48 -19 65 -96 19 -27 -127
-74 56 0 38 26 97 -37 -10
50 -49 -58 5 97 -72 5 -1
-114 -16 -89 15 -10 -79 60 -13
60 86 -111 -30 -127 -37 -65 -15
-2 -20 -97 19 79 -37 59 39
-30 102 -82 -20 14 12 -46 -48
-45 -32 -83 -24 44 45 -60 42
-20 -11 17 -20 -65 -14 38 -30
-60 62 103 61 115 -8 36 99
2 -111 -40 127 72 45 -78 -65
-65 7 40 -17 87 8 53 10
-35 -17 21 -54 16 -14 -58 -51
62 90 -66 -85 -22 -127 45 -97
17 10 -1 6 -25 -42 1 102
-35 38 -49 -49 -26 90 -14 32
37 -1 8 -40 26 95 -120 -5
-69 -79 -3 -20 -40 -103 -55 -107
17 -76 78 39 -63 -4 -98 -127
-2 54 107 6 -14 3 33 37
52 -38 32 -23 -9 2 -127 -35
37 5 -114 -8 -55 36 91 42
13 19 95 43 -37 65 -69 -37
58 -19 -70 -8 -12 44 -63 -13
-51 19 -17 -81 -54 -43 -2 -54
-34 -31 41 -21 -39 -12 54 76
-96 -37 60 64 28 -127 -22 121
13 -94 113 -43 16 51 53 -13

tfl.pseudo_qconst41 i1 [1, 3, 3, 32]
00000000: 0638 52bc 16c0 2c7f 17cd c57f 7ff7 6dc4
00000010: 00ae 4858 b99f 81da faae b7a9 8111 3226
00000020: 1f8a 7fdf fc81 aa44 cd57 ee28 bb47 4fd7
00000030: 818d 7f7f 32fc b18b 7fab 8181 fd04 327f
00000040: ff83 3b09 23a3 30f6 147f 01c4 3d09 5dd7
00000050: 12d6 343c 780a 1c81 58d3 a0c3 e500 e02c
00000060: 99eb d253 63b6 ea29 c20a abce 8a52 6881
00000070: 4345 ba46 9d07 ba07 db63 84ca 8b7f 2dec
00000080: 81c6 6276 0d39 8111 fd13 46b2 a57f 7f0b
00000090: 32dd fa6a 2944 c4b5 437f 8ea8 05f7 7ff8
000000a0: 4801 207f e9c4 9037 36f7 5e0e 444e 2b0b
000000b0: a014 2422 577f d4a3 4a2e c93d 1fe7 f9a1
000000c0: 76eb f761 7fd9 c116 3014 e5a8 9cbc 396f
000000d0: 55a4 0b0d 812f fb5f e361 f532 4b1c 100d
000000e0: 0381 1372 ea38 26da 7fe2 7feb 15bd 344a
000000f0: b481 faff a83c e7f3 1033 e60a 30d1 16f8
6 56 82 -68 22 -64 44 127
23 -51 -59 127 127 -9 109 -60
0 -82 72 88 -71 -97 -127 -38
-6 -82 -73 -87 -127 17 50 38
31 -118 127 -33 -4 -127 -86 68
-51 87 -18 40 -69 71 79 -41
-127 -115 127 127 50 -4 -79 -117
127 -85 -127 -127 -3 4 50 127
-1 -125 59 9 35 -93 48 -10
20 127 1 -60 61 9 93 -41
18 -42 52 60 120 10 28 -127
88 -45 -96 -61 -27 0 -32 44
-103 -21 -46 83 99 -74 -22 41
-62 10 -85 -50 -118 82 104 -127
67 69 -70 70 -99 7 -70 7
-37 99 -124 -54 -117 127 45 -20
-127 -58 98 118 13 57 -127 17
-3 19 70 -78 -91 127 127 11
50 -35 -6 106 41 68 -60 -75
67 127 -114 -88 5 -9 127 -8
72 1 32 127 -23 -60 -112 55
54 -9 94 14 68 78 43 11
-96 20 36 34 87 127 -44 -93
74 46 -55 61 31 -25 -7 -95
118 -21 -9 97 127 -39 -63 22
48 20 -27 -88 -100 -68 57 111
85 -92 11 13 -127 47 -5 95
-29 97 -11 50 75 28 16 13
3 -127 19 114 -22 56 38 -38
127 -30 127 -21 21 -67 52 74
-76 -127 -6 -1 -88 60 -25 -13
16 51 -26 10 48 -47 22 -8

tfl.pseudo_qconst43 i1 [32, 1, 1, 32]
00000000: ce92 0f32 2acc e056 7f34 daba f1e2 1e2b
00000010: 1ad0 16aa 1a07 7008 36e6 c23a 1115 1d16
00000020: d154 b919 0b1a 04a3 f99d b6ee 0feb a2ad
00000030: e8b8 2dde 4aaf 4e0a b299 9eeb 790c 8125
00000040: 10b2 32f1 293a e4f6 caf5 ac06 e3c3 9437
00000050: ecfd 7376 0b9f 147b 864b 8121 bb16 0e11
00000060: 2dbd 00e3 d781 acb4 bac4 4432 b5db 4a98
00000070: e293 b023 cf0c 94fe fb42 d928 3f38 cbc8
00000080: dfea dc05 9044 2e4f 3b61 d2b6 b2fd 3bf1
00000090: 19d5 e4a9 2d81 eadf 4733 5a10 5e2e 2440
000000a0: 6b09 d6d0 1efe 1ada c7d9 07c3 e4da f42d
000000b0: 6918 2eaf 1395 132e a681 66b0 0f26 d8e5
000000c0: 1560 4f47 d95a 3f05 67df c181 bda0 fee8
000000d0: 410f e3d4 3c4e a82e cd2c d5ee c3e0 1fe0
000000e0: 12c8 dcee 670f c581 c206 30f6 ca30 ecf3
000000f0: bad0 4b37 e554 ab11 4021 0be8 f624 e53e
-50 -110 15 50 42 -52 -32 86
127 52 -38 -70 -15 -30 30 43
26 -48 22 -86 26 7 112 8
54 -26 -62 58 17 21 29 22
-47 84 -71 25 11 26 4 -93
-7 -99 -74 -18 15 -21 -94 -83
-24 -72 45 -34 74 -81 78 10
-78 -103 -98 -21 121 12 -127 37
16 -78 50 -15 41 58 -28 -10
-54 -11 -84 6 -29 -61 -108 55
-20 -3 115 118 11 -97 20 123
-122 75 -127 33 -69 22 14 17
45 -67 0 -29 -41 -127 -84 -76
-70 -60 68 50 -75 -37 74 -104
-30 -109 -80 35 -49 12 -108 -2
-5 66 -39 40 63 56 -53 -56
-33 -22 -36 5 -112 68 46 79
59 97 -46 -74 -78 -3 59 -15
25 -43 -28 -87 45 -127 -22 -33
71 51 90 16 94 46 36 64
107 9 -42 -48 30 -2 26 -38
-57 -39 7 -61 -28 -38 -12 45
105 24 46 -81 19 -107 19 46
-90 -127 102 -80 15 38 -40 -27
21 96 79 71 -39 90 63 5
103 -33 -63 -127 -67 -96 -2 -24
65 15 -29 -44 60 78 -88 46
-51 44 -43 -18 -61 -32 31 -32
18 -56 -36 -18 103 15 -59 -127
-62 6 48 -10 -54 48 -20 -13
-70 -48 75 55 -27 84 -85 17
64 33 11 -24 -10 36 -27 62

tfl.pseudo_qconst45 i1 [1, 3, 3, 32]
00000000: 68cc f4db 4c7f cf0e c8fb b896 f4d6 42aa
00000010: 1b40 c526 71b8 b4cf 2920 5492 05fe 8278
00000020: fde1 059d 25c2 31da a4c4 d8c6 e084 1407
00000030: e144 5c01 77f0 8181 e30c e98d 818a d60b
00000040: 33f3 c6a9 3fe0 fbac cfcd 1b19 d6e9 0c7d
00000050: 6a47 76cd 5e4f dc9d 364f af57 cc2b 4741
00000060: 34eb 9801 9d67 fbd7 527f 7ff6 ae3b f792
00000070: f7da e525 452e d406 2f8b 7f7f 4c31 dec8
00000080: b516 24ea 9a28 ed81 535b 240d 7f18 8135
00000090: fd7f 8181 3de7 9db5 9c10 f117 fbd2 d6ec
000000a0: 8202 812d 7fda 17e8 0c18 23f6 4a81 4d7f
000000b0: 4729 f9b1 2472 1218 2f65 0083 e4e8 fb4f
000000c0: fdbe ed32 d9e2 b7df 7f22 c581 3bcf 17fb
000000d0: e30e b2c2 d419 27dc 1c81 d9c5 0a81 8141
000000e0: 81f6 386f 601b 81c5 6ffb 8fba 1ace 0219
000000f0: d723 48e5 9877 e696 81e0 de29 b614 1e7f
104 -52 -12 -37 76 127 -49 14
-56 -5 -72 -106 -12 -42 66 -86
27 64 -59 38 113 -72 -76 -49
41 32 84 -110 5 -2 -126 120
-3 -31 5 -99 37 -62 49 -38
-92 -60 -40 -58 -32 -124 20 7
-31 68 92 1 119 -16 -127 -127
-29 12 -23 -115 -127 -118 -42 11
51 -13 -58 -87 63 -32 -5 -84
-49 -51 27 25 -42 -23 12 125
106 71 118 -51 94 79 -36 -99
54 79 -81 87 -52 43 71 65
52 -21 -104 1 -99 103 -5 -41
82 127 127 -10 -82 59 -9 -110
-9 -38 -27 37 69 46 -44 6
47 -117 127 127 76 49 -34 -56
-75 22 36 -22 -102 40 -19 -127
83 91 36 13 127 24 -127 53
-3 127 -127 -127 61 -25 -99 -75
-100 16 -15 23 -5 -46 -42 -20
-126 2 -127 45 127 -38 23 -24
12 24 35 -10 74 -127 77 127
71 41 -7 -79 36 114 18 24
47 101 0 -125 -28 -24 -5 79
-3 -66 -19 50 -39 -30 -73 -33
127 34 -59 -127 59 -49 23 -5
-29 14 -78 -62 -44 25 39 -36
28 -127 -39 -59 10 -127 -127 65
-127 -10 56 111 96 27 -127 -59
111 -5 -113 -70 26 -50 2 25
-41 35 72 -27 -104 119 -26 -106
-127 -32 -34 41 -74 20 30 127

tfl.pseudo_qconst47 i1 [32, 1, 1, 16]
00000000: c97a 0f14 bad6 57f6 2d3b c45a 3281 dd56
00000010: c1af b215 070b 48d3 917f 4004 b61c 341b
00000020: 5bc9 c7ec 1bf6 7fc0 b548 d3e7 a3ff 40a5
00000030: b259 264e 4032 caa7 0307 f235 1f05 7f00
00000040: 7f9c 1109 8f16 0eef 08f7 d368 e0b6 2f3f
00000050: 3ee7 191b eee3 c61b e915 7f1c 41d9 fcc1
00000060: 407a ee36 37e3 3493 a4e3 027f 4d1e 0a65
00000070: f9a5 b61e 4b58 cdd8 eb36 b30d 2a5c 7f99
00000080: 3719 dbed b818 9310 81a4 3e07 00bf 0840
00000090: 5da2 0bd3 718e 6f1c 2838 fa7f d68a d861
000000a0: 18a5 9857 5066 7f4b cdc3 f046 0fe9 5a1a
000000b0: aaab 7fd9 41be 631a 0a22 3838 7f16 dd0b
000000c0: 2581 caaa d756 c1c8 2bed 7ef0 2705 5edc
000000d0: 96cb c6a5 bc6b 8102 c67a e601 6c0d 9be2
000000e0: e032 dd51 b3f0 7bc3 fd43 0912 819f 1aea
000000f0: ce17 7fd1 ca12 1ae7 2d2c 122b f697 1cf4
-55 122 15 20 -70 -42 87 -10
45 59 -60 90 50 -127 -35 86
-63 -81 -78 21 7 11 72 -45
-111 127 64 4 -74 28 52 27
91 -55 -57 -20 27 -10 127 -64
-75 72 -45 -25 -93 -1 64 -91
-78 89 38 78 64 50 -54 -89
3 7 -14 53 31 5 127 0
127 -100 17 9 -113 22 14 -17
8 -9 -45 104 -32 -74 47 63
62 -25 25 27 -18 -29 -58 27
-23 21 127 28 65 -39 -4 -63
64 122 -18 54 55 -29 52 -109
-92 -29 2 127 77 30 10 101
-7 -91 -74 30 75 88 -51 -40
-21 54 -77 13 42 92 127 -103
55 25 -37 -19 -72 24 -109 16
-127 -92 62 7 0 -65 8 64
93 -94 11 -45 113 -114 111 28
40 56 -6 127 -42 -118 -40 97
24 -91 -104 87 80 102 127 75
-51 -61 -16 70 15 -23 90 26
-86 -85 127 -39 65 -66 99 26
10 34 56 56 127 22 -35 11
37 -127 -54 -86 -41 86 -63 -56
43 -19 126 -16 39 5 94 -36
-106 -53 -58 -91 -68 107 -127 2
-58 122 -26 1 108 13 -101 -30
-32 50 -35 81 -77 -16 123 -61
-3 67 9 18 -127 -97 26 -22
-50 23 127 -47 -54 18 26 -25
45 44 18 43 -10 -105 28 -12

tfl.pseudo_qconst49 i1 [1, 3, 3, 16]
00000000: 0039 4a31 bcb0 91ef 8121 ea2f b5b7 c534
00000010: 7f7a 55f9 8181 a8b1 8d74 de7f 38ad b87f
00000020: 34b0 dc81 9a98 fbd5 e97f 7c9d 5790 8167
00000030: fe65 2d4f 44fc 81f8 be23 dda3 a181 d315
00000040: 627f 7f3f de32 dbc4 bf46 4731 e2e1 ca2a
00000050: 6cc6 3702 a2ff ce06 916f 7ff2 5a0e ec3b
00000060: bbe3 2c2e 144b d884 a6d1 e3ca e4b5 fe19
00000070: e2a1 4f3a fa19 1481 b2ea 6401 81ca 44ed
00000080: 0392 2a12 e829 1c28 0730 2aa2 f1c3 4801
0 57 74 49 -68 -80 -111 -17
-127 33 -22 47 -75 -73 -59 52
127 122 85 -7 -127 -127 -88 -79
-115 116 -34 127 56 -83 -72 127
52 -80 -36 -127 -102 -104 -5 -43
-23 127 124 -99 87 -112 -127 103
-2 101 45 79 68 -4 -127 -8
-66 35 -35 -93 -95 -127 -45 21
98 127 127 63 -34 50 -37 -60
-65 70 71 49 -30 -31 -54 42
108 -58 55 2 -94 -1 -50 6
-111 111 127 -14 90 14 -20 59
-69 -29 44 46 20 75 -40 -124
-90 -47 -29 -54 -28 -75 -2 25
-30 -95 79 58 -6 25 20 -127
-78 -22 100 1 -127 -54 68 -19
3 -110 42 18 -24 41 28 40
7 48 42 -94 -15 -61 72 1

tfl.pseudo_qconst51 i1 [16, 1, 1, 8]
00000000: 6b7b 7fc7 e787 e2d7 e211 3e7f 8eab b049
00000010: 8158 6c34 334a 1bf6 1cc9 814e a242 d562
00000020: 3555 41df d7dc 81fe 0081 963b a9b5 e888
00000030: bf6f c557 ba11 8131 a749 d5e2 7f91 679d
00000040: 7f40 e36d a82e 2023 1005 3bb8 5830 4a7f
00000050: 8118 f0d8 e601 308f c3f1 c027 0d4d 7481
00000060: e4ed 2081 f237 423e a833 7fc2 b8ea 171d
00000070: 06dc 44bc f228 815d 5c7f 5deb 9b01 c6ea
107 123 127 -57 -25 -121 -30 -41
-30 17 62 127 -114 -85 -80 73
-127 88 108 52 51 74 27 -10
28 -55 -127 78 -94 66 -43 98
53 85 65 -33 -41 -36 -127 -2
0 -127 -106 59 -87 -75 -24 -120
-65 111 -59 87 -70 17 -127 49
-89 73 -43 -30 127 -111 103 -99
127 64 -29 109 -88 46 32 35
16 5 59 -72 88 48 74 127
-127 24 -16 -40 -26 1 48 -113
-61 -15 -64 39 13 77 116 -127
-28 -19 32 -127 -14 55 66 62
-88 51 127 -62 -72 -22 23 29
6 -36 68 -68 -14 40 -127 93
92 127 93 -21 -101 1 -58 -22

tfl.pseudo_qconst53 i1 [1, 3, 3, 8]
00000000: fb05 a770 5b10 20b8 cf28 19cf bfdb f7ad
00000010: 1b55 7164 83b7 4781 cfa6 3966 1702 c614
00000020: ff7f ca81 1341 3c76 0a5c 7fde 7f4b 7f08
00000030: 4f0c 9d1f 2551 96c1 7b5a 2efc 4781 344c
00000040: 7ffd 33b4 cb9e 6b1f
-5 5 -89 112 91 16 32 -72
-49 40 25 -49 -65 -37 -9 -83
27 85 113 100 -125 -73 71 -127
-49 -90 57 102 23 2 -58 20
-1 127 -54 -127 19 65 60 118
10 92 127 -34 127 75 127 8
79 12 -99 31 37 81 -106 -63
123 90 46 -4 71 -127 52 76
127 -3 51 -76 -53 -98 107 31

tfl.pseudo_qconst55 i1 [8, 3, 3, 3]
00000000: 65f4 f4ea 3a00 c313 fccd 16db 1183 d19b
00000010: cfa1 b6c4 8145 5ee6 135c 075f 41e8 05d3
00000020: 3ca0 b13e 28bf 1409 345a d281 0e5a d665
00000030: db11 32bd e182 45bc d63c cfb5 d2d4 c313
00000040: 7f7b 8bd6 c995 4229 0578 5da5 9e9c b014
00000050: 2024 5935 2c2d 040e 8131 47f3 697a 0b53
00000060: ef05 0210 8d5e 9099 4c72 cb03 c53f 064f
00000070: ad95 21a0 a37f 44e2 6803 30c2 f752 a0ff
00000080: 06bf 3d47 ed4c fddb a80e d849 14f3 e0bc
00000090: 2fb0 fdc8 814d d49a e6e8 ef46 3104 a281
000000a0: fcc6 3ad9 e5f7 b324 c00a 17d2 7fd3 e154
000000b0: 3809 f1ab 3a5c f253 4759 532f 33f6 b3f6
000000c0: a0f6 19a3 938d 36f2 5953 23bb 2dbb 1ff2
000000d0: ab79 ccfd 7f54 3149
101 -12 -12 -22 58 0 -61 19
-4 -51 22 -37 17 -125 -47 -101
-49 -95 -74 -60 -127 69 94 -26
19 92 7 95 65 -24 5 -45
60 -96 -79 62 40 -65 20 9
52 90 -46 -127 14 90 -42 101
-37 17 50 -67 -31 -126 69 -68
-42 60 -49 -75 -46 -44 -61 19
127 123 -117 -42 -55 -107 66 41
5 120 93 -91 -98 -100 -80 20
32 36 89 53 44 45 4 14
-127 49 71 -13 105 122 11 83
-17 5 2 16 -115 94 -112 -103
76 114 -53 3 -59 63 6 79
-83 -107 33 -96 -93 127 68 -30
104 3 48 -62 -9 82 -96 -1
6 -65 61 71 -19 76 -3 -37
-88 14 -40 73 20 -13 -32 -68
47 -80 -3 -56 -127 77 -44 -102
-26 -24 -17 70 49 4 -94 -127
-4 -58 58 -39 -27 -9 -77 36
-64 10 23 -46 127 -45 -31 84
56 9 -15 -85 58 92 -14 83
71 89 83 47 51 -10 -77 -10
-96 -10 25 -93 -109 -115 54 -14
89 83 35 -69 45 -69 31 -14
-85 121 -52 -3 127 84 49 73
