Homework 6/project/fdmobilenet/NUCLEO-F446RE/fdmobilenet_quant.tflite (tflite, 197368 bytes, 24 tensors)

tfl.pseudo_qconst1 i1 [10, 1, 1, 256]
000000 f4 06 dc 07 1c df 0b 1d d0 10 d5 04 ca 08 02 e6
       -12 6 -36 7 28 -33 11 29 -48 16 -43 4 -54 8 2 -26
000010 da f1 0b ec 04 0d e9 16 23 d8 e3 ed fc d1 01 81
       -38 -15 11 -20 4 13 -23 22 35 -40 -29 -19 -4 -47 1 -127
000020 f1 07 e4 11 09 f2 10 11 0f 0a 1a 0d d9 13 01 c0
       -15 7 -28 17 9 -14 16 17 15 10 26 13 -39 19 1 -64
000030 02 cc 0e 1a d8 cc 11 f4 25 de c8 d6 de d3 f3 0f
       2 -52 14 26 -40 -52 17 -12 37 -34 -56 -42 -34 -45 -13 15
000040 05 e5 bb f6 f9 03 da dc d9 0c 17 fc 02 b4 28 e6
       5 -27 -69 -10 -7 3 -38 -36 -39 12 23 -4 2 -76 40 -26
000050 fa 13 e6 f4 e5 e3 0a 1b f5 f6 0b 0a a7 cf f2 fe
       -6 19 -26 -12 -27 -29 10 27 -11 -10 11 10 -89 -49 -14 -2
000060 18 fd 0f 02 fe e0 02 00 c1 d9 fc bd 0b 09 cd 09
       24 -3 15 2 -2 -32 2 0 -63 -39 -4 -67 11 9 -51 9
000070 fb f1 20 17 e4 01 0c cd fa f8 1b ee da 11 d1 e5
       -5 -15 32 23 -28 1 12 -51 -6 -8 27 -18 -38 17 -47 -27
000080 dd f1 f1 f1 e0 09 b6 0c e8 d3 0d c9 0d f1 e1 0f
       -35 -15 -15 -15 -32 9 -74 12 -24 -45 13 -55 13 -15 -31 15
000090 0e 1d 0f e5 e0 14 0c e7 11 df 0b 0a 0d d6 ff c2
       14 29 15 -27 -32 20 12 -25 17 -33 11 10 13 -42 -1 -62
0000a0 d8 f4 10 19 e4 0a 12 ec c5 e8 bc 1a 05 e2 e5 dd
       -40 -12 16 25 -28 10 18 -20 -59 -24 -68 26 5 -30 -27 -35
0000b0 12 ed cd ec db 16 e0 ff d4 d8 fe 1a e7 db 06 c8
       18 -19 -51 -20 -37 22 -32 -1 -44 -40 -2 26 -25 -37 6 -56
0000c0 e1 09 19 09 04 0a f8 10 10 d2 eb db 07 11 18 0d
       -31 9 25 9 4 10 -8 16 16 -46 -21 -37 7 17 24 13
0000d0 13 10 04 e9 f9 ff 0b 0d e4 f4 22 d4 0c de f3 eb
       19 16 4 -23 -7 -1 11 13 -28 -12 34 -44 12 -34 -13 -21
0000e0 02 db f9 ec 0e 06 f0 0e 1a 21 19 f6 13 02 0d d8
       2 -37 -7 -20 14 6 -16 14 26 33 25 -10 19 2 13 -40
0000f0 0c 1d be ef 0b 02 20 11 dc 0a e4 11 1c ec f1 ff
       12 29 -66 -17 11 2 32 17 -36 10 -28 17 28 -20 -15 -1

tfl.pseudo_qconst3 i1 [256, 1, 1, 128]
000000 c5 ef f0 12 04 2f 31 01 d8 da 3d fb 0f c9 0c fd
       -59 -17 -16 18 4 47 49 1 -40 -38 61 -5 15 -55 12 -3
000010 15 0e f0 fc 60 09 da 17 f1 39 fb f9 c9 45 3c f1
       21 14 -16 -4 96 9 -38 23 -15 57 -5 -7 -55 69 60 -15
000020 e2 1a 2a 35 f7 17 f7 0c d7 2a 07 07 60 46 da 09
       -30 26 42 53 -9 23 -9 12 -41 42 7 7 96 70 -38 9
000030 20 0b ea 22 2d da 26 dc 19 ef cd 0f ca 04 46 41
       32 11 -22 34 45 -38 38 -36 25 -17 -51 15 -54 4 70 65
000040 2e 26 fb 4f 3c 30 bb d3 bb de 14 0d cf 41 d8 08
       46 38 -5 79 60 48 -69 -45 -69 -34 20 13 -49 65 -40 8
000050 f3 20 00 f5 56 4f 1c 14 a2 d5 2b 01 c3 e6 b1 30
       -13 32 0 -11 86 79 28 20 -94 -43 43 1 -61 -26 -79 48
000060 50 81 cf 00 1c e5 9c 15 34 e2 f1 2d e7 f3 b8 08
       80 -127 -49 0 28 -27 -100 21 52 -30 -15 45 -25 -13 -72 8
000070 f8 12 c1 2f e8 f5 23 5c 14 10 02 13 09 01 c7 17
       -8 18 -63 47 -24 -11 35 92 20 16 2 19 9 1 -57 23
000080 f4 f1 1d 40 3e 1f fa 11 f4 fe 83 34 ee 1a c8 0e
       -12 -15 29 64 62 31 -6 17 -12 -2 -125 52 -18 26 -56 14
000090 ff c1 bb 32 f2 63 30 05 dd e9 d4 c1 7f a4 01 dd
       -1 -63 -69 50 -14 99 48 5 -35 -23 -44 -63 127 -92 1 -35
0000a0 dc 17 ef f9 0c 3d 2c 62 d8 36 29 49 4b 27 2e 18
       -36 23 -17 -7 12 61 44 98 -40 54 41 73 75 39 46 24
0000b0 0a ef 2f c4 e1 cf 06 cb 14 2c 2c d9 64 d9 ac 05
       10 -17 47 -60 -31 -49 6 -53 20 44 44 -39 100 -39 -84 5
0000c0 2d 9b 31 d6 b8 d0 08 45 fc fd d6 45 47 16 3c b3
       45 -101 49 -42 -72 -48 8 69 -4 -3 -42 69 71 22 60 -77
0000d0 fc af 1f e2 41 f8 00 23 4e 58 fd e7 ea a9 02 22
       -4 -81 31 -30 65 -8 0 35 78 88 -3 -25 -22 -87 2 34
0000e0 05 aa e5 35 a0 4c 32 e0 16 f1 17 29 39 07 34 2f
       5 -86 -27 53 -96 76 50 -32 22 -15 23 41 57 7 52 47
0000f0 55 38 6d 3e e7 05 a5 b2 08 c2 f9 97 96 11 a2 c9
       85 56 109 62 -25 5 -91 -78 8 -62 -7 -105 -106 17 -94 -55

tfl.pseudo_qconst5 i1 [1, 3, 3, 128]
000000 9f e9 2f 98 f7 0f 00 fa 8b 2b 29 16 06 0c b0 ca
       -97 -23 47 -104 -9 15 0 -6 -117 43 41 22 6 12 -80 -54
000010 f2 5a ff 45 bc c7 19 bf 9d da f5 aa eb d1 e6 8c
       -14 90 -1 69 -68 -57 25 -65 -99 -38 -11 -86 -21 -47 -26 -116
000020 c9 0d 31 43 4a e8 e4 50 45 06 39 f6 30 15 00 b5
       -55 13 49 67 74 -24 -28 80 69 6 57 -10 48 21 0 -75
000030 30 91 05 38 59 fd d7 5e 1d 14 48 56 0a 99 29 ee
       48 -111 5 56 89 -3 -41 94 29 20 72 86 10 -103 41 -18
000040 fa 64 de 7f f5 da 40 0a 5a 31 38 82 ee 74 24 f0
       -6 100 -34 127 -11 -38 64 10 90 49 56 -126 -18 116 36 -16
000050 b0 2e d1 a7 c3 04 34 31 f9 29 df 35 34 14 b8 9a
       -80 46 -47 -89 -61 4 52 49 -7 41 -33 53 52 20 -72 -102
000060 22 19 b7 6b f6 0f 5c c7 c1 2a 7f 15 40 6d 26 2b
       34 25 -73 107 -10 15 92 -57 -63 42 127 21 64 109 38 43
000070 04 93 3a 1f 64 22 de f0 81 f8 3e 01 10 e0 e8 84
       4 -109 58 31 100 34 -34 -16 -127 -8 62 1 16 -32 -24 -124
000080 c6 7e fe 64 0a 10 2a 81 ed 3f 44 b7 ba e7 7f 11
       -58 126 -2 100 10 16 42 -127 -19 63 68 -73 -70 -25 127 17
000090 23 f5 60 5a fe a9 11 fe d9 58 1f 1b c5 f9 af 5b
       35 -11 96 90 -2 -87 17 -2 -39 88 31 27 -59 -7 -81 91
0000a0 c7 d1 40 dc 4a eb e1 b6 5c 41 1b 00 e0 d0 25 fb
       -57 -47 64 -36 74 -21 -31 -74 92 65 27 0 -32 -48 37 -5
0000b0 65 7f e2 eb 7d 81 bf df 73 e7 20 ef 36 14 f6 54
       101 127 -30 -21 125 -127 -65 -33 115 -25 32 -17 54 20 -10 84
0000c0 0e 83 c9 1a e4 16 2d 18 85 c9 cb a9 c4 f9 09 bb
       14 -125 -55 26 -28 22 45 24 -123 -55 -53 -87 -60 -7 9 -69
0000d0 32 27 33 15 36 b8 1a 26 39 50 7d 49 9f c1 12 16
       50 39 51 21 54 -72 26 38 57 80 125 73 -97 -63 18 22
0000e0 21 17 fd 7f df a7 ce 5d cc fb 85 22 09 db 41 19
       33 23 -3 127 -33 -89 -50 93 -52 -5 -123 34 9 -37 65 25
0000f0 ab 4c 9a 1f 20 13 fb a3 35 e1 35 16 cc 3e eb 81
       -85 76 -102 31 32 19 -5 -93 53 -31 53 22 -52 62 -21 -127

tfl.pseudo_qconst7 i1 [128, 1, 1, 128]
000000 16 01 f3 f0 c4 e9 26 ed 29 fa 03 f6 fe e3 18 d1
       22 1 -13 -16 -60 -23 38 -19 41 -6 3 -10 -2 -29 24 -47
000010 09 14 07 14 13 ee f6 13 21 1a f7 1b d4 fe 20 fb
       9 20 7 20 19 -18 -10 19 33 26 -9 27 -44 -2 32 -5
000020 dc f0 db f9 be 3e e4 f0 00 1b 07 22 12 ca df e5
       -36 -16 -37 -7 -66 62 -28 -16 0 27 7 34 18 -54 -33 -27
000030 01 2f c6 f4 14 c0 d9 d2 de 00 d9 0b ea fe cd 01
       1 47 -58 -12 20 -64 -39 -46 -34 0 -39 11 -22 -2 -51 1
000040 04 dc d4 47 f5 13 1a 2c fc 16 b1 c6 ec f2 f6 35
       4 -36 -44 71 -11 19 26 44 -4 22 -79 -58 -20 -14 -10 53
000050 e6 7f ed da f0 dd 09 f9 e0 01 1b 22 f2 00 32 14
       -26 127 -19 -38 -16 -35 9 -7 -32 1 27 34 -14 0 50 20
000060 02 f4 31 08 e7 0c 20 25 02 1a e1 f6 c6 0c e2 00
       2 -12 49 8 -25 12 32 37 2 26 -31 -10 -58 12 -30 0
000070 ef f1 ba dc fa 0f 35 0b ff 00 06 d5 e5 19 c3 d7
       -17 -15 -70 -36 -6 15 53 11 -1 0 6 -43 -27 25 -61 -41
000080 09 52 d7 8c e5 ea f3 29 41 54 d3 22 f1 95 39 02
       9 82 -41 -116 -27 -22 -13 41 65 84 -45 34 -15 -107 57 2
000090 3b 16 1b 5d 0e cd 14 fa 1c f6 10 f7 27 54 bd 18
       59 22 27 93 14 -51 20 -6 28 -10 16 -9 39 84 -67 24
0000a0 c6 b9 0c bd 39 32 ef 1d e7 39 1d db 0d 02 db 1a
       -58 -71 12 -67 57 50 -17 29 -25 57 29 -37 13 2 -37 26
0000b0 26 db d7 f0 52 f5 21 e2 fb 4c a9 d4 27 a4 ef f4
       38 -37 -41 -16 82 -11 33 -30 -5 76 -87 -44 39 -92 -17 -12
0000c0 cf f2 2c 3c 18 f1 b1 2d cf 04 af 4a fc c6 a7 35
       -49 -14 44 60 24 -15 -79 45 -49 4 -81 74 -4 -58 -89 53
0000d0 d9 c7 fd 2a 0b 47 b2 e2 5f 34 f3 f1 93 32 25 cd
       -39 -57 -3 42 11 71 -78 -30 95 52 -13 -15 -109 50 37 -51
0000e0 7f 35 bf b2 f7 69 0b 14 0c 19 c7 ae 0a f5 3d d6
       127 53 -65 -78 -9 105 11 20 12 25 -57 -82 10 -11 61 -42
0000f0 4d dc 05 df 24 2b cc 4d b9 f5 22 bf 2b 4a bc ce
       77 -36 5 -33 36 43 -52 77 -71 -11 34 -65 43 74 -68 -50

tfl.pseudo_qconst9 i1 [1, 3, 3, 128]
000000 24 d8 f0 02 a4 2c 4f ef 3d 82 7f 13 1c a3 ac c5
       36 -40 -16 2 -92 44 79 -17 61 -126 127 19 28 -93 -84 -59
000010 0f 1c 21 1e c8 e7 b8 7f 39 3a c8 81 4e ae ba 14
       15 28 33 30 -56 -25 -72 127 57 58 -56 -127 78 -82 -70 20
000020 db d1 10 e8 cb 65 23 a9 dd 12 1c 32 17 dc 31 2d
       -37 -47 16 -24 -53 101 35 -87 -35 18 28 50 23 -36 49 45
000030 3e 06 cc 81 48 ea d8 33 6a f3 3b 81 cc e5 76 a6
       62 6 -52 -127 72 -22 -40 51 106 -13 59 -127 -52 -27 118 -90
000040 bf 41 83 45 06 2b 04 df da 81 22 5b 20 de 40 2d
       -65 65 -125 69 6 43 4 -33 -38 -127 34 91 32 -34 64 45
000050 7f 3a 6b bf a2 c1 dc f9 02 81 ff 18 f3 86 33 d9
       127 58 107 -65 -94 -63 -36 -7 2 -127 -1 24 -13 -122 51 -39
000060 42 e0 41 3a 34 cb 3d 8d c9 c9 62 63 a6 09 81 bd
       66 -32 65 58 52 -53 61 -115 -55 -55 98 99 -90 9 -127 -67
000070 9f 94 34 3f 1c e8 eb c3 f9 7e c9 ee 27 4c 32 44
       -97 -108 52 63 28 -24 -21 -61 -7 126 -55 -18 39 76 50 68
000080 1b 37 81 b3 35 2e 03 a8 81 75 01 cf 51 fa e1 e2
       27 55 -127 -77 53 46 3 -88 -127 117 1 -49 81 -6 -31 -30
000090 9b d9 ce a6 e5 fb e6 1c 46 98 e2 2c c8 81 ee 27
       -101 -39 -50 -90 -27 -5 -26 28 70 -104 -30 44 -56 -127 -18 39
0000a0 42 81 03 38 cc 7e ea b0 46 bc 7d e1 1f 0e c5 cc
       66 -127 3 56 -52 126 -22 -80 70 -68 125 -31 31 14 -59 -52
0000b0 4d 2d 2f 0e 49 e4 45 3e b3 28 3a e8 b7 72 01 52
       77 45 47 14 73 -28 69 62 -77 40 58 -24 -73 114 1 82
0000c0 23 63 16 38 2e ff 36 3a e2 ac f4 3f 2a e1 50 81
       35 99 22 56 46 -1 54 58 -30 -84 -12 63 42 -31 80 -127
0000d0 86 1b 5f 31 b6 13 24 54 2f 78 4c da c0 a3 d6 1a
       -122 27 95 49 -74 19 36 84 47 120 76 -38 -64 -93 -42 26
0000e0 ce ec 3b e2 25 22 9c 17 34 f7 58 e8 63 c6 ec c5
       -50 -20 59 -30 37 34 -100 23 52 -9 88 -24 99 -58 -20 -59
0000f0 03 cb f2 7d f9 1c e9 d6 e1 96 cc 19 7d 0f d2 17
       3 -53 -14 125 -7 28 -23 -42 -31 -106 -52 25 125 15 -46 23

tfl.pseudo_qconst11 i1 [128, 1, 1, 128]
000000 c3 e6 9c de f8 02 ce 26 dc 1a 0c ff 13 2d 0d f8
       -61 -26 -100 -34 -8 2 -50 38 -36 26 12 -1 19 45 13 -8
000010 f2 f0 a7 2c 51 f9 ef bf d9 ec 22 0a 35 ee ee 1f
       -14 -16 -89 44 81 -7 -17 -65 -39 -20 34 10 53 -18 -18 31
000020 10 e4 00 f2 2a 24 31 c8 db 18 e3 d6 52 06 f7 56
       16 -28 0 -14 42 36 49 -56 -37 24 -29 -42 82 6 -9 86
000030 12 23 3d f7 c0 17 ff d5 ed 2e f7 11 2e d3 e0 5e
       18 35 61 -9 -64 23 -1 -43 -19 46 -9 17 46 -45 -32 94
000040 24 d4 aa e7 07 34 ee cc bd 16 ba 15 29 d9 09 ef
       36 -44 -86 -25 7 52 -18 -52 -67 22 -70 21 41 -39 9 -17
000050 e7 ed 12 ef d1 d8 ed eb eb 0c fd 24 24 14 dd 5c
       -25 -19 18 -17 -47 -40 -19 -21 -21 12 -3 36 36 20 -35 92
000060 01 48 f5 17 4e 0f f2 e4 28 e5 29 81 03 ff f7 13
       1 72 -11 23 78 15 -14 -28 40 -27 41 -127 3 -1 -9 19
000070 ff 39 b8 3f 11 d3 b5 24 e9 da 28 f4 1b f3 17 92
       -1 57 -72 63 17 -45 -75 36 -23 -38 40 -12 27 -13 23 -110
000080 ce 31 dc f7 f4 fe f5 0e 03 e6 1a 27 f7 45 34 f4
       -50 49 -36 -9 -12 -2 -11 14 3 -26 26 39 -9 69 52 -12
000090 f3 1f 03 41 0a 18 0b dd 17 e6 d7 fd 46 04 fe 14
       -13 31 3 65 10 24 11 -35 23 -26 -41 -3 70 4 -2 20
0000a0 f2 b4 0f 1c 01 e0 24 d0 10 12 da cf fb e0 27 1e
       -14 -76 15 28 1 -32 36 -48 16 18 -38 -49 -5 -32 39 30
0000b0 38 04 36 03 f1 3c 58 bd cc 0a 1f 09 fe e6 08 2f
       56 4 54 3 -15 60 88 -67 -52 10 31 9 -2 -26 8 47
0000c0 18 1f b9 e8 df 07 08 11 d1 3f e7 2e 02 f0 1d f5
       24 31 -71 -24 -33 7 8 17 -47 63 -25 46 2 -16 29 -11
0000d0 c3 1e d5 e0 bd 0b 1e e8 e5 4f 1d e1 08 0f 0c 20
       -61 30 -43 -32 -67 11 30 -24 -27 79 29 -31 8 15 12 32
0000e0 28 7f cb f7 74 d4 e9 ed 67 da 06 fb 24 cf dd e1
       40 127 -53 -9 116 -44 -23 -19 103 -38 6 -5 36 -49 -35 -31
0000f0 e7 31 f1 09 f3 d3 ce 4f f2 eb e7 e0 23 f8 21 b0
       -25 49 -15 9 -13 -45 -50 79 -14 -21 -25 -32 35 -8 33 -80

tfl.pseudo_qconst13 i1 [1, 3, 3, 128]
000000 81 7f 04 eb 2c 88 6f fe 1b 0a f8 15 a2 f7 00 30
       -127 127 4 -21 44 -120 111 -2 27 10 -8 21 -94 -9 0 48
000010 f0 ed 9e 18 a8 c7 16 33 a9 91 ae 7f 15 b7 f5 51
       -16 -19 -98 24 -88 -57 22 51 -87 -111 -82 127 21 -73 -11 81
000020 09 d0 5e fa ce f2 65 20 7d 55 11 ba fd fd 2d 9e
       9 -48 94 -6 -50 -14 101 32 125 85 17 -70 -3 -3 45 -98
000030 32 30 35 e6 04 1d dd c6 38 bf 30 4a 01 90 f1 9c
       50 48 53 -26 4 29 -35 -58 56 -65 48 74 1 -112 -15 -100
000040 30 7f 48 7f 7f aa da 5e 04 87 0e 02 7f ed 37 31
       48 127 72 127 127 -86 -38 94 4 -121 14 2 127 -19 55 49
000050 ce a8 df 2a 96 fb f1 81 81 11 60 bd 91 5c f4 54
       -50 -88 -33 42 -106 -5 -15 -127 -127 17 96 -67 -111 92 -12 84
000060 b3 d8 d4 ce d8 c4 8e 92 12 4f cf c2 00 2d 38 1f
       -77 -40 -44 -50 -40 -60 -114 -110 18 79 -49 -62 0 45 56 31
000070 26 97 8a e0 a0 9f db f7 bc 4a e3 7f ce 6e 7f 46
       38 -105 -118 -32 -96 -97 -37 -9 -68 74 -29 127 -50 110 127 70
000080 82 1a dd bb ec e0 d9 1a 86 d2 f6 67 7f ef f7 f8
       -126 26 -35 -69 -20 -32 -39 26 -122 -46 -10 103 127 -17 -9 -8
000090 f5 41 f2 ac 5b cc 12 07 ec 0a 15 0f dd 1a 32 a3
       -11 65 -14 -84 91 -52 18 7 -20 10 21 15 -35 26 50 -93
0000a0 0e 09 13 e7 39 31 37 b2 f0 7f 0b 2a ef 3b 81 03
       14 9 19 -25 57 49 55 -78 -16 127 11 42 -17 59 -127 3
0000b0 39 7f cd 31 1c c6 18 4f 00 1a 02 38 17 81 ca 97
       57 127 -51 49 28 -58 24 79 0 26 2 56 23 -127 -54 -105
0000c0 40 8b 67 a1 46 12 24 81 02 1e 5f 1f a0 98 95 5b
       64 -117 103 -95 70 18 36 -127 2 30 95 31 -96 -104 -107 91
0000d0 11 30 d8 3c 60 04 da a4 cc 04 04 c1 32 72 05 24
       17 48 -40 60 96 4 -38 -92 -52 4 4 -63 50 114 5 36
0000e0 bd 55 10 e2 0f 71 c8 7f aa 0c 16 fa 39 ec ea f0
       -67 85 16 -30 15 113 -56 127 -86 12 22 -6 57 -20 -22 -16
0000f0 00 20 7f d6 fd 3f 21 0f fd 6e 26 a9 11 f9 24 c6
       0 32 127 -42 -3 63 33 15 -3 110 38 -87 17 -7 36 -58

tfl.pseudo_qconst15 i1 [128, 1, 1, 128]
000000 f9 0a cd fd d4 ad 69 17 ab 07 fd fa ee f2 31 de
       -7 10 -51 -3 -44 -83 105 23 -85 7 -3 -6 -18 -14 49 -34
000010 0e 21 f3 cd 11 e2 d4 0d 2e bc 04 cc 0e 1f d4 e1
       14 33 -13 -51 17 -30 -44 13 46 -68 4 -52 14 31 -44 -31
000020 34 53 28 38 20 03 fa d0 2b 36 f9 f4 7f 07 22 fc
       52 83 40 56 32 3 -6 -48 43 54 -7 -12 127 7 34 -4
000030 18 f6 38 da 5e 2d 0a dc 02 38 43 cc 1f ac 30 2c
       24 -10 56 -38 94 45 10 -36 2 56 67 -52 31 -84 48 44
000040 1a 70 2f d6 e2 d7 d7 f2 08 05 36 e8 ea 29 da 2a
       26 112 47 -42 -30 -41 -41 -14 8 5 54 -24 -22 41 -38 42
000050 9c 42 13 30 28 23 c9 fc 10 3b f3 d1 ae ef 0d 9c
       -100 66 19 48 40 35 -55 -4 16 59 -13 -47 -82 -17 13 -100
000060 9f ad 4f 17 25 e0 00 2f 20 1f 07 29 b8 b4 b3 de
       -97 -83 79 23 37 -32 0 47 32 31 7 41 -72 -76 -77 -34
000070 89 f6 af e7 a8 f6 0b d5 70 25 da f3 d9 15 27 e2
       -119 -10 -81 -25 -88 -10 11 -43 112 37 -38 -13 -39 21 39 -30
000080 32 d6 d7 ff b7 de 42 c4 df de 2a 25 e7 2b 41 c2
       50 -42 -41 -1 -73 -34 66 -60 -33 -34 42 37 -25 43 65 -62
000090 02 e9 d0 d8 f2 1a 29 f9 19 2c 21 06 0e ce 66 06
       2 -23 -48 -40 -14 26 41 -7 25 44 33 6 14 -50 102 6
0000a0 40 88 2d 21 19 2d d7 05 d0 15 f0 a3 2e 0b 3d 28
       64 -120 45 33 25 45 -41 5 -48 21 -16 -93 46 11 61 40
0000b0 e1 b6 41 26 cb cb e5 d6 10 d2 28 65 12 07 db a9
       -31 -74 65 38 -53 -53 -27 -42 16 -46 40 101 18 7 -37 -87
0000c0 d9 5b 1b f7 d9 00 00 3f 24 36 41 f6 ba e1 23 0b
       -39 91 27 -9 -39 0 0 63 36 54 65 -10 -70 -31 35 11
0000d0 43 03 00 2f cd 03 f2 a5 19 e6 cb dc 3d b7 cf ee
       67 3 0 47 -51 3 -14 -91 25 -26 -53 -36 61 -73 -49 -18
0000e0 4a 32 7f 21 1e b9 49 23 c3 ae 32 d9 bd e3 be 6e
       74 50 127 33 30 -71 73 35 -61 -82 50 -39 -67 -29 -66 110
0000f0 ce 1f 07 d2 f6 69 f8 02 1a 47 26 24 45 57 b9 48
       -50 31 7 -46 -10 105 -8 2 26 71 38 36 69 87 -71 72

tfl.pseudo_qconst17 i1 [1, 3, 3, 128]
000000 e3 46 bb 03 83 57 7f 0f 77 e0 ee 81 f8 bc 32 10
       -29 70 -69 3 -125 87 127 15 119 -32 -18 -127 -8 -68 50 16
000010 e2 d3 c0 66 f5 d1 fc 7c 14 11 7c f4 a4 12 ed 54
       -30 -45 -64 102 -11 -47 -4 124 20 17 124 -12 -92 18 -19 84
000020 d3 1c cd e8 8f 5e d2 2e 1b bd 1f 0c bc 5b b6 67
       -45 28 -51 -24 -113 94 -46 46 27 -67 31 12 -68 91 -74 103
000030 b1 ea 48 2d 58 16 65 b2 b0 0d 22 b1 3d 5d 46 de
       -79 -22 72 45 88 22 101 -78 -80 13 34 -79 61 93 70 -34
000040 cc bb 12 97 57 73 1f 95 d6 29 f8 0b 3a 97 b7 01
       -52 -69 18 -105 87 115 31 -107 -42 41 -8 11 58 -105 -73 1
000050 c3 ea d1 f7 66 0a 28 3e 4c 20 f6 09 11 e7 07 bc
       -61 -22 -47 -9 102 10 40 62 76 32 -10 9 17 -25 7 -68
000060 b4 00 dc 7f 51 f3 ec 42 15 2f e9 e6 e1 fb 30 12
       -76 0 -36 127 81 -13 -20 66 21 47 -23 -26 -31 -5 48 18
000070 81 4a cd 2d d7 cd 7c 2b 0e da 3e 28 55 5e f4 5a
       -127 74 -51 45 -41 -51 124 43 14 -38 62 40 85 94 -12 90
000080 14 07 83 39 1f ed e9 bf 8f ee 3c 77 cc 09 c3 19
       20 7 -125 57 31 -19 -23 -65 -113 -18 60 119 -52 9 -61 25
000090 ed 1f 1e 2f ea 67 2e 81 88 03 54 38 74 4b c4 c5
       -19 31 30 47 -22 103 46 -127 -120 3 84 56 116 75 -60 -59
0000a0 f5 e4 0d 14 69 90 ac b6 c2 0f d5 d9 ac b1 34 ab
       -11 -28 13 20 105 -112 -84 -74 -62 15 -43 -39 -84 -79 52 -85
0000b0 7f e1 b7 de 26 0f c9 55 03 cf bd b5 c3 3b b0 45
       127 -31 -73 -34 38 15 -55 85 3 -49 -67 -75 -61 59 -80 69
0000c0 ca ab fb a7 c1 e2 dc b7 00 ee 03 d0 f2 e5 7a d0
       -54 -85 -5 -89 -63 -30 -36 -73 0 -18 3 -48 -14 -27 122 -48
0000d0 fe 40 26 1b 06 ea cf f8 41 07 3f 47 37 10 24 5e
       -2 64 38 27 6 -22 -49 -8 65 7 63 71 55 16 36 94
0000e0 37 3a 26 56 6b f8 98 73 fa 41 7f d6 c5 39 c3 2e
       55 58 38 86 107 -8 -104 115 -6 65 127 -42 -59 57 -61 46
0000f0 c8 9d 1f 35 06 e2 a5 49 d0 ef c8 1c 77 eb 5e 63
       -56 -99 31 53 6 -30 -91 73 -48 -17 -56 28 119 -21 94 99

tfl.pseudo_qconst19 i1 [128, 1, 1, 128]
000000 e4 bf 75 96 ed d6 e5 bc da 2a 41 30 1f 10 f2 61
       -28 -65 117 -106 -19 -42 -27 -68 -38 42 65 48 31 16 -14 97
000010 be 69 17 39 69 e0 25 1e 9c 08 02 34 06 f9 16 51
       -66 105 23 57 105 -32 37 30 -100 8 2 52 6 -7 22 81
000020 ca a9 45 20 ef b0 28 47 ee f4 c2 cc db e9 07 e3
       -54 -87 69 32 -17 -80 40 71 -18 -12 -62 -52 -37 -23 7 -29
000030 e2 06 f4 c9 f6 2d a1 17 2d f0 3a 23 c7 91 28 23
       -30 6 -12 -55 -10 45 -95 23 45 -16 58 35 -57 -111 40 35
000040 ec fa 1c f5 c4 d9 07 1c e3 15 3a c7 2e 2b 07 b9
       -20 -6 28 -11 -60 -39 7 28 -29 21 58 -57 46 43 7 -71
000050 0b ec 3b 25 0f fc 39 0e b4 08 9b 34 14 c7 27 7f
       11 -20 59 37 15 -4 57 14 -76 8 -101 52 20 -57 39 127
000060 15 02 5c b6 f7 3b f3 30 1e 76 1a 15 e6 da e1 e3
       21 2 92 -74 -9 59 -13 48 30 118 26 21 -26 -38 -31 -29
000070 7d dd 26 19 06 2f 26 ea 2c d2 ec c8 31 07 9c c7
       125 -35 38 25 6 47 38 -22 44 -46 -20 -56 49 7 -100 -57
000080 1b d5 0d b7 56 02 ca 04 06 f5 b0 51 8a bf 2c c0
       27 -43 13 -73 86 2 -54 4 6 -11 -80 81 -118 -65 44 -64
000090 d1 ef 3a 29 3d 3e 1b 3b ba d9 a3 d7 94 da c3 d6
       -47 -17 58 41 61 62 27 59 -70 -39 -93 -41 -108 -38 -61 -42
0000a0 cb c5 65 b6 00 48 f4 d1 01 14 c3 aa b3 ef 05 d7
       -53 -59 101 -74 0 72 -12 -47 1 20 -61 -86 -77 -17 5 -41
0000b0 9e 7f ff c2 c3 23 a7 12 16 09 5f d0 fc 9a c1 04
       -98 127 -1 -62 -61 35 -89 18 22 9 95 -48 -4 -102 -63 4
0000c0 f4 bf fa 55 7e 16 3b 6c 2a 63 34 ee 11 0b f6 5d
       -12 -65 -6 85 126 22 59 108 42 99 52 -18 17 11 -10 93
0000d0 f5 06 2e 57 95 0c 1b 13 78 af 44 91 0b 45 f7 2a
       -11 6 46 87 -107 12 27 19 120 -81 68 -111 11 69 -9 42
0000e0 9b 54 67 ab 2d 20 34 62 1f ac 1b d4 61 58 f1 23
       -101 84 103 -85 45 32 52 98 31 -84 27 -44 97 88 -15 35
0000f0 bf ec 3c e1 f3 63 28 87 0e 61 49 b3 4b 12 e6 53
       -65 -20 60 -31 -13 99 40 -121 14 97 73 -77 75 18 -26 83

tfl.pseudo_qconst21 i1 [1, 3, 3, 128]
000000 ed 3d 1e 3a 9f 0a 29 bf 56 ec fe 1c 25 eb 02 12
       -19 61 30 58 -97 10 41 -65 86 -20 -2 28 37 -21 2 18
000010 54 d7 5d 25 3b d5 21 0c 29 1e e5 d2 b2 ee f8 2d
       84 -41 93 37 59 -43 33 12 41 30 -27 -46 -78 -18 -8 45
000020 d4 b8 d2 ff 16 de 96 af 19 11 f7 05 08 f3 41 d9
       -44 -72 -46 -1 22 -34 -106 -81 25 17 -9 5 8 -13 65 -39
000030 3a e4 ed f0 78 d4 fd 32 32 c6 b7 57 d4 c3 78 cc
       58 -28 -19 -16 120 -44 -3 50 50 -58 -73 87 -44 -61 120 -52
000040 f4 04 ec 78 7d e4 9a 24 3a d6 54 ce 07 ce 18 da
       -12 4 -20 120 125 -28 -102 36 58 -42 84 -50 7 -50 24 -38
000050 ba 9e d8 ca 3e c3 4b ed db 2d f7 36 7f fe 0a 8f
       -70 -98 -40 -54 62 -61 75 -19 -37 45 -9 54 127 -2 10 -113
000060 bf 38 5e 15 1d cd cd d3 d7 37 cc e0 6f 48 a5 fd
       -65 56 94 21 29 -51 -51 -45 -41 55 -52 -32 111 72 -91 -3
000070 70 d0 c3 81 c7 fd 22 df cd fd 69 3d d5 f4 4d ad
       112 -48 -61 -127 -57 -3 34 -33 -51 -3 105 61 -43 -12 77 -83
000080 fc 7f 5c 01 ba d9 54 2a 09 20 17 5a cc 11 98 0c
       -4 127 92 1 -70 -39 84 42 9 32 23 90 -52 17 -104 12
000090 16 f7 9e ec bd 04 2c c3 fe d4 f1 cd 06 22 01 d5
       22 -9 -98 -20 -67 4 44 -61 -2 -44 -15 -51 6 34 1 -43
0000a0 55 28 1d ee 4f a7 ed 15 cd 2d ed 41 db 1a 43 46
       85 40 29 -18 79 -89 -19 21 -51 45 -19 65 -37 26 67 70
0000b0 53 57 46 0a ee 18 26 d1 d6 3c fa 51 28 12 20 5c
       83 87 70 10 -18 24 38 -47 -42 60 -6 81 40 18 32 92
0000c0 4d 03 2c 40 45 65 79 0c a0 ce e0 1e c9 d0 d3 c3
       77 3 44 64 69 101 121 12 -96 -50 -32 30 -55 -48 -45 -61
0000d0 e8 a3 e4 8f e0 0f af c9 2f 9c e8 ba 61 25 ef 5c
       -24 -93 -28 -113 -32 15 -81 -55 47 -100 -24 -70 97 37 -17 92
0000e0 3f 22 b9 81 be 26 e6 fc c3 fe 33 da 4f bd 20 e8
       63 34 -71 -127 -66 38 -26 -4 -61 -2 51 -38 79 -67 32 -24
0000f0 76 c4 7a 61 c3 41 c8 ff 08 b4 1e c9 15 fb d4 a3
       118 -60 122 97 -61 65 -56 -1 8 -76 30 -55 21 -5 -44 -93

tfl.pseudo_qconst23 i1 [128, 1, 1, 64]
000000 0e a3 be f6 34 38 1b f9 49 da b2 7f 44 36 e4 da
       14 -93 -66 -10 52 56 27 -7 73 -38 -78 127 68 54 -28 -38
000010 11 66 ec c4 7c e9 5e 3a bf 82 59 f8 36 38 ef 2a
       17 102 -20 -60 124 -23 94 58 -65 -126 89 -8 54 56 -17 42
000020 0c 3e 01 33 4d 35 d5 42 33 53 fa 6d de 19 f8 6a
       12 62 1 51 77 53 -43 66 51 83 -6 109 -34 25 -8 106
000030 cc 55 14 05 af 21 72 ff 7c dc 3e ca bc d0 52 1d
       -52 85 20 5 -81 33 114 -1 124 -36 62 -54 -68 -48 82 29
000040 28 02 be 32 19 2c cf c1 e8 d5 f0 3a c3 f1 0a d6
       40 2 -66 50 25 44 -49 -63 -24 -43 -16 58 -61 -15 10 -42
000050 c6 b2 c9 00 f3 22 0c c6 81 22 14 d4 e9 22 3a 45
       -58 -78 -55 0 -13 34 12 -58 -127 34 20 -44 -23 34 58 69
000060 f3 23 cc d4 d9 22 3f 34 0a 36 16 0e 18 84 43 28
       -13 35 -52 -44 -39 34 63 52 10 54 22 14 24 -124 67 40
000070 46 21 9b 10 e6 17 1e 53 37 c9 ff 0e bd c7 db d2
       70 33 -101 16 -26 23 30 83 55 -55 -1 14 -67 -57 -37 -46
000080 3f 34 ea a7 1a 2c 42 de 00 0a e2 07 32 c2 b6 2d
       63 52 -22 -89 26 44 66 -34 0 10 -30 7 50 -62 -74 45
000090 f4 f9 18 38 d1 20 cc e6 85 28 e6 c6 ae 69 1c ed
       -12 -7 24 56 -47 32 -52 -26 -123 40 -26 -58 -82 105 28 -19
0000a0 05 43 06 24 34 7f e1 38 46 fd f8 46 e1 ae dc 2c
       5 67 6 36 52 127 -31 56 70 -3 -8 70 -31 -82 -36 44
0000b0 29 09 fd d5 e8 4a f8 c0 67 e8 fc f4 f4 e8 ee cd
       41 9 -3 -43 -24 74 -8 -64 103 -24 -4 -12 -12 -24 -18 -51
0000c0 26 d3 ad bb 99 eb 55 40 14 be 16 35 43 00 22 1c
       38 -45 -83 -69 -103 -21 85 64 20 -66 22 53 67 0 34 28
0000d0 84 0e 44 f2 5b 0f e6 cc 63 17 3c ee 5f e6 4c 36
       -124 14 68 -14 91 15 -26 -52 99 23 60 -18 95 -26 76 54
0000e0 1c d1 1b be d9 3c 09 0e ad 95 2e 5c f6 fd a7 e9
       28 -47 27 -66 -39 60 9 14 -83 -107 46 92 -10 -3 -89 -23
0000f0 56 d5 7f 91 c1 24 1e e6 bf 2f 9f 2a 1b 27 29 6f
       86 -43 127 -111 -63 36 30 -26 -65 47 -97 42 27 39 41 111

tfl.pseudo_qconst25 i1 [1, 3, 3, 64]
000000 95 81 4f b8 8f 9f 4f 7f 20 f8 ff 81 81 26 52 7f
       -107 -127 79 -72 -113 -97 79 127 32 -8 -1 -127 -127 38 82 127
000010 f2 0c 7f d6 7f 7f 4c 2f f8 97 4b ac ad 81 cb 64
       -14 12 127 -42 127 127 76 47 -8 -105 75 -84 -83 -127 -53 100
000020 11 7f 7f 7f 27 59 1a bd e8 06 81 3b 9e 7f 5c 7f
       17 127 127 127 39 89 26 -67 -24 6 -127 59 -98 127 92 127
000030 07 81 eb 05 93 e6 30 81 42 7f 07 76 7f 7f 3d d7
       7 -127 -21 5 -109 -26 48 -127 66 127 7 118 127 127 61 -41
000040 81 9c 81 81 7f 81 89 ac 25 7f 93 d5 ac 74 0a 4e
       -127 -100 -127 -127 127 -127 -119 -84 37 127 -109 -43 -84 116 10 78
000050 10 7f 1b e7 64 dc 88 5c 01 78 f7 a5 06 49 b1 b1
       16 127 27 -25 100 -36 -120 92 1 120 -9 -91 6 73 -79 -79
000060 16 8a 8a 33 81 20 36 67 7f 18 bd 7f a1 55 81 dc
       22 -118 -118 51 -127 32 54 103 127 24 -67 127 -95 85 -127 -36
000070 7f 3a b4 b2 fb 2c fc 79 e0 41 7f 7f 36 df 12 b1
       127 58 -76 -78 -5 44 -4 121 -32 65 127 127 54 -33 18 -79
000080 17 13 2b e8 bd d1 cc 45 bc cb 23 2c 18 35 4f ba
       23 19 43 -24 -67 -47 -52 69 -68 -53 35 44 24 53 79 -70
000090 2b c9 f1 e6 b8 04 b8 5b dc 24 f2 cb 39 49 4a 01
       43 -55 -15 -26 -72 4 -72 91 -36 36 -14 -53 57 73 74 1
0000a0 ae 42 05 d8 c4 03 19 02 00 b8 11 15 d6 c8 df 03
       -82 66 5 -40 -60 3 25 2 0 -72 17 21 -42 -56 -33 3
0000b0 ee c3 10 ef 07 3e c9 cf f0 1b 29 14 04 d8 14 dc
       -18 -61 16 -17 7 62 -55 -49 -16 27 41 20 4 -40 20 -36
0000c0 f4 b2 8e 0b 73 ee 73 6d 8f 0f 81 3c 44 d4 8c 04
       -12 -78 -114 11 115 -18 115 109 -113 15 -127 60 68 -44 -116 4
0000d0 81 15 f0 7f 74 5b 81 7f 57 7f 81 e0 81 62 81 44
       -127 21 -16 127 116 91 -127 127 87 127 -127 -32 -127 98 -127 68
0000e0 d8 c3 e9 cd c2 03 81 b2 f9 7f e3 83 7f fb 09 38
       -40 -61 -23 -51 -62 3 -127 -78 -7 127 -29 -125 127 -5 9 56
0000f0 1b 56 47 81 7f fd 7f a3 7f ca e9 e4 e4 5a 81 81
       27 86 71 -127 127 -3 127 -93 127 -54 -23 -28 -28 90 -127 -127

tfl.pseudo_qconst27 i1 [64, 1, 1, 64]
000000 dd 27 28 f1 24 e2 e8 0f e5 ff db 33 30 1a 25 41
       -35 39 40 -15 36 -30 -24 15 -27 -1 -37 51 48 26 37 65
000010 4e 0f 10 47 27 ff 0f 7f 03 c8 ec 16 04 32 18 d2
       78 15 16 71 39 -1 15 127 3 -56 -20 22 4 50 24 -46
000020 fc cd 16 23 f5 e2 eb 12 12 fc cd 14 f2 f4 26 e1
       -4 -51 22 35 -11 -30 -21 18 18 -4 -51 20 -14 -12 38 -31
000030 f6 34 f5 14 21 cf e2 e5 f7 f5 10 df d0 0e 04 28
       -10 52 -11 20 33 -49 -30 -27 -9 -11 16 -33 -48 14 4 40
000040 26 55 34 da 49 26 ee ea cf f3 e4 7f 3a c9 05 02
       38 85 52 -38 73 38 -18 -22 -49 -13 -28 127 58 -55 5 2
000050 08 15 15 fe e7 f5 ec a5 b8 0c 4b 46 14 ef 41 fb
       8 21 21 -2 -25 -11 -20 -91 -72 12 75 70 20 -17 65 -5
000060 db 42 2c 23 ed 44 e4 2c e4 24 ae fd b5 bc 2b ca
       -37 66 44 35 -19 68 -28 44 -28 36 -82 -3 -75 -68 43 -54
000070 f2 eb 18 ea f3 2b bd 1c c3 1f d3 42 0d 69 22 4e
       -14 -21 24 -22 -13 43 -67 28 -61 31 -45 66 13 105 34 78
000080 f2 98 d6 f5 75 1d d5 12 0d 25 38 ed cb 0f 50 12
       -14 -104 -42 -11 117 29 -43 18 13 37 56 -19 -53 15 80 18
000090 26 59 f3 34 1d e8 a6 fe ab d5 fc fa e8 4a 41 a3
       38 89 -13 52 29 -24 -90 -2 -85 -43 -4 -6 -24 74 65 -93
0000a0 0e 21 cb cf 18 3e 42 fb a0 5f 56 2c d5 f1 37 68
       14 33 -53 -49 24 62 66 -5 -96 95 86 44 -43 -15 55 104
0000b0 f5 cd 0e 72 41 29 54 0d 83 0e 81 20 a9 2d 27 b3
       -11 -51 14 114 65 41 84 13 -125 14 -127 32 -87 45 39 -77
0000c0 c6 85 f8 17 08 c5 be a7 f9 ee 4b ec da f1 4b 1f
       -58 -123 -8 23 8 -59 -66 -89 -7 -18 75 -20 -38 -15 75 31
0000d0 ce e4 bf d4 3c 0e 5e 20 ac 0c b5 5e e6 06 ee 79
       -50 -28 -65 -44 60 14 94 32 -84 12 -75 94 -26 6 -18 121
0000e0 a9 31 a9 00 a8 f9 ff ea c2 df 06 e1 e4 3a ca f6
       -87 49 -87 0 -88 -7 -1 -22 -62 -33 6 -31 -28 58 -54 -10
0000f0 df 29 02 2c 42 2d fa d7 45 1b 28 2a 7f cb e0 13
       -33 41 2 44 66 45 -6 -41 69 27 40 42 127 -53 -32 19

tfl.pseudo_qconst29 i1 [1, 3, 3, 64]
000000 1d f5 00 50 33 21 dd 9c 0e c9 32 0e fe 7f f1 ed
       29 -11 0 80 51 33 -35 -100 14 -55 50 14 -2 127 -15 -19
000010 b5 7f 81 c0 18 58 30 44 8f 09 68 b0 9a 8d 14 db
       -75 127 -127 -64 24 88 48 68 -113 9 104 -80 -102 -115 20 -37
000020 65 bf 00 d4 df e5 47 57 ef a7 00 ce c1 7f 38 6e
       101 -65 0 -44 -33 -27 71 87 -17 -89 0 -50 -63 127 56 110
000030 b3 f2 10 32 81 50 81 3c d3 0f 74 26 63 9c 81 d6
       -77 -14 16 50 -127 80 -127 60 -45 15 116 38 99 -100 -127 -42
000040 7f 81 de 81 51 35 7f 00 65 31 fd 55 94 e5 7f 63
       127 -127 -34 -127 81 53 127 0 101 49 -3 85 -108 -27 127 99
000050 86 20 bd 5f 7f 45 92 dc 14 ab 3f 7f de 51 55 29
       -122 32 -67 95 127 69 -110 -36 20 -85 63 127 -34 81 85 41
000060 ad 57 35 41 9d 16 e1 7f c2 b3 54 19 03 c9 02 ab
       -83 87 53 65 -99 22 -31 127 -62 -77 84 25 3 -55 2 -85
000070 e2 1d b7 3d 07 f1 35 81 81 2e fc 7f d5 06 a3 c6
       -30 29 -73 61 7 -15 53 -127 -127 46 -4 127 -43 6 -93 -58
000080 2e f1 27 e6 81 e4 c9 da de f3 f9 8c 13 28 92 af
       46 -15 39 -26 -127 -28 -55 -38 -34 -13 -7 -116 19 40 -110 -81
000090 8c 04 22 3d 1c 81 63 ed e7 e8 40 13 44 c4 04 7f
       -116 4 34 61 28 -127 99 -19 -25 -24 64 19 68 -60 4 127
0000a0 17 90 21 4d 34 b7 0c e2 db 1f 6f 1c 4c 57 cf 7f
       23 -112 33 77 52 -73 12 -30 -37 31 111 28 76 87 -49 127
0000b0 e7 81 e1 e3 05 c4 cb bf a0 d2 7f d0 85 59 3b 7f
       -25 -127 -31 -29 5 -60 -53 -65 -96 -46 127 -48 -123 89 59 127
0000c0 05 ff 0b b2 2d 25 cd f7 8d b1 b9 9f 1c 12 48 02
       5 -1 11 -78 45 37 -51 -9 -115 -79 -71 -97 28 18 72 2
0000d0 ad d4 f2 0a 6f fd ce 0b 7f 67 b7 44 7f bf b1 3e
       -83 -44 -14 10 111 -3 -50 11 127 103 -73 68 127 -65 -79 62
0000e0 81 aa ab d2 43 7f f7 bb c4 17 e3 81 40 1e fb b4
       -127 -86 -85 -46 67 127 -9 -69 -60 23 -29 -127 64 30 -5 -76
0000f0 f4 7a 81 e7 2f 81 76 2b 5f 29 04 ea a1 88 2b 4c
       -12 122 -127 -25 47 -127 118 43 95 41 4 -22 -95 -120 43 76

tfl.pseudo_qconst31 i1 [64, 1, 1, 32]
000000 9e 1d d3 2e 16 34 33 f6 81 56 56 30 fc 5a a4 f9
       -98 29 -45 46 22 52 51 -10 -127 86 86 48 -4 90 -92 -7
000010 bf cf bc a4 28 de ec f0 d2 e1 9d 7f ba 22 0b 20
       -65 -49 -68 -92 40 -34 -20 -16 -46 -31 -99 127 -70 34 11 32
000020 6e 0d f4 51 3e 03 c6 cc d1 7d 6c 25 1f b3 4e 59
       110 13 -12 81 62 3 -58 -52 -47 125 108 37 31 -77 78 89
000030 8e 3c cf d6 7f 35 9f ad 0b 71 5b da dd 1b c1 17
       -114 60 -49 -42 127 53 -97 -83 11 113 91 -38 -35 27 -63 23
000040 11 0c cd 2b 19 2c 0c 02 c3 2f 16 3c 4e 23 59 7f
       17 12 -51 43 25 44 12 2 -61 47 22 60 78 35 89 127
000050 3d 1e 46 15 0a 27 f9 b8 be 5e f6 dd d9 56 ef 40
       61 30 70 21 10 39 -7 -72 -66 94 -10 -35 -39 86 -17 64
000060 99 e9 b1 bf a9 d9 f4 0b 3c 95 07 05 b6 7f 40 da
       -103 -23 -79 -65 -87 -39 -12 11 60 -107 7 5 -74 127 64 -38
000070 57 05 21 76 f5 de 72 b0 12 f0 17 c3 f6 19 94 6a
       87 5 33 118 -11 -34 114 -80 18 -16 23 -61 -10 25 -108 106
000080 ea e8 34 cb 2d 08 04 c6 6e 27 f7 25 a6 73 7d 51
       -22 -24 52 -53 45 8 4 -58 110 39 -9 37 -90 115 125 81
000090 94 40 02 fe 08 43 31 4b 50 e2 d6 81 c2 e6 10 4a
       -108 64 2 -2 8 67 49 75 80 -30 -42 -127 -62 -26 16 74
0000a0 27 2e 14 d3 d0 d5 31 da 42 2d 20 c7 c2 21 e8 cd
       39 46 20 -45 -48 -43 49 -38 66 45 32 -57 -62 33 -24 -51
0000b0 6a 10 cd 02 f6 41 e2 30 0d 19 4a ef 46 b2 c2 7f
       106 16 -51 2 -10 65 -30 48 13 25 74 -17 70 -78 -62 127
0000c0 de f6 fc f9 2d 83 49 16 30 ff 92 f2 90 01 7f 9d
       -34 -10 -4 -7 45 -125 73 22 48 -1 -110 -14 -112 1 127 -99
0000d0 e6 28 13 2f e2 eb a7 d0 c8 1d 03 ec d8 f3 b7 3d
       -26 40 19 47 -30 -21 -89 -48 -56 29 3 -20 -40 -13 -73 61
0000e0 d7 2a fc d1 03 2a 45 66 3f df 41 40 40 10 4e 07
       -41 42 -4 -47 3 42 69 102 63 -33 65 64 64 16 78 7
0000f0 7f fb 48 cb c6 89 cc 26 32 1d f5 d5 ea 97 0b 0c
       127 -5 72 -53 -58 -119 -52 38 50 29 -11 -43 -22 -105 11 12

tfl.pseudo_qconst33 i1 [1, 3, 3, 32]
000000 7f 07 24 ce 61 3f 78 b5 dd 81 5e 0d 7f 24 5f 07
       127 7 36 -50 97 63 120 -75 -35 -127 94 13 127 36 95 7
000010 81 24 32 19 14 ea 6b 42 7f 7f 53 d1 a1 7f 68 bf
       -127 36 50 25 20 -22 107 66 127 127 83 -47 -95 127 104 -65
000020 ab 7f 05 35 ce 7f 07 7f b4 70 db 7f e6 9e 81 70
       -85 127 5 53 -50 127 7 127 -76 112 -37 127 -26 -98 -127 112
000030 e6 da ea 5b c9 e6 2a bf 43 5a aa 81 f0 02 42 6c
       -26 -38 -22 91 -55 -26 42 -65 67 90 -86 -127 -16 2 66 108
000040 5e d2 60 0a 03 2c 95 a8 a6 d7 67 f5 37 4b b6 51
       94 -46 96 10 3 44 -107 -88 -90 -41 103 -11 55 75 -74 81
000050 16 3e 37 cf e9 74 18 9e 41 f9 04 92 38 14 fe 4d
       22 62 55 -49 -23 116 24 -98 65 -7 4 -110 56 20 -2 77
000060 b2 9c d7 ec 7f 0b 7d 77 a3 6f 49 e2 b1 23 32 d8
       -78 -100 -41 -20 127 11 125 119 -93 111 73 -30 -79 35 50 -40
000070 be 3a 81 dd d7 5c 81 32 85 07 e1 9a 20 aa b5 3b
       -66 58 -127 -35 -41 92 -127 50 -123 7 -31 -102 32 -86 -75 59
000080 36 af fb 8c f0 51 7f 96 b3 43 aa 5f 1f 2e f7 e1
       54 -81 -5 -116 -16 81 127 -106 -77 67 -86 95 31 46 -9 -31
000090 c9 30 a6 2e 8d 81 98 db 24 17 3b 1e 0d b5 3f 7f
       -55 48 -90 46 -115 -127 -104 -37 36 23 59 30 13 -75 63 127
0000a0 3c 4f e3 c5 ba 21 ab 1a 67 d8 81 16 01 a6 1d af
       60 79 -29 -59 -70 33 -85 26 103 -40 -127 22 1 -90 29 -81
0000b0 cd 32 1c 2b 94 07 4b 96 93 f4 7f ca 45 c0 65 35
       -51 50 28 43 -108 7 75 -106 -109 -12 127 -54 69 -64 101 53
0000c0 9d cd e9 81 10 2a 8b 1d 0f e1 ba ce d3 76 ca da
       -99 -51 -23 -127 16 42 -117 29 15 -31 -70 -50 -45 118 -54 -38
0000d0 44 d7 a7 dc a2 20 7d 81 41 15 49 53 eb eb 7f 06
       68 -41 -89 -36 -94 32 125 -127 65 21 73 83 -21 -21 127 6
0000e0 d7 ce 81 e5 0f 10 7f e8 7f e6 52 34 4f 28 d0 27
       -41 -50 -127 -27 15 16 127 -24 127 -26 82 52 79 40 -48 39
0000f0 f6 81 ea 81 81 1d 03 60 c5 0e 9b e1 81 fe b2 cc
       -10 -127 -22 -127 -127 29 3 96 -59 14 -101 -31 -127 -2 -78 -52

tfl.pseudo_qconst35 i1 [32, 1, 1, 32]
000000 d6 2a e7 df f5 41 7f d4 b1 1e 14 d7 6b 0b cd 28
       -42 42 -25 -33 -11 65 127 -44 -79 30 20 -41 107 11 -51 40
000010 a5 fd 0d 33 d2 17 ec f6 00 10 d4 e4 ec 3d d8 3a
       -91 -3 13 51 -46 23 -20 -10 0 16 -44 -28 -20 61 -40 58
000020 4a e2 7f e4 35 3f fb 09 2f b5 0a 4a d3 34 1c fc
       74 -30 127 -28 53 63 -5 9 47 -75 10 74 -45 52 28 -4
000030 5c eb e1 3a d2 0c 08 e2 15 2b 0a 1a bb db 0e 08
       92 -21 -31 58 -46 12 8 -30 21 43 10 26 -69 -37 14 8
000040 02 e6 38 f3 06 7f bd 29 e1 f6 29 3d 23 06 ef d6
       2 -26 56 -13 6 127 -67 41 -31 -10 41 61 35 6 -17 -42
000050 b3 d8 1c 5e 15 dd 14 17 bc 1b 1e e7 de 51 db ff
       -77 -40 28 94 21 -35 20 23 -68 27 30 -25 -34 81 -37 -1
000060 f3 33 e5 64 04 59 1a 09 12 a2 61 d7 f1 38 7f ef
       -13 51 -27 100 4 89 26 9 18 -94 97 -41 -15 56 127 -17
000070 2d d4 f1 e0 1a 01 46 f6 d7 31 5d d4 2f 3b e1 4d
       45 -44 -15 -32 26 1 70 -10 -41 49 93 -44 47 59 -31 77
000080 ee 12 81 41 78 c7 5d 57 1d 49 93 e3 11 0e 55 22
       -18 18 -127 65 120 -57 93 87 29 73 -109 -29 17 14 85 34
000090 39 41 26 e9 ca f8 20 6f f3 22 40 23 e4 3c f9 ef
       57 65 38 -23 -54 -8 32 111 -13 34 64 35 -28 60 -7 -17
0000a0 ce f7 4a 81 ca 0c e6 40 11 d3 f2 fa f4 ed 6f 7c
       -50 -9 74 -127 -54 12 -26 64 17 -45 -14 -6 -12 -19 111 124
0000b0 e1 7f 4e ef 3c d6 46 24 1e ba 36 ee dd e2 26 fd
       -31 127 78 -17 60 -42 70 36 30 -70 54 -18 -35 -30 38 -3
0000c0 d9 8d bb 21 11 1a ec 11 e6 ea 40 a2 15 99 07 ee
       -39 -115 -69 33 17 26 -20 17 -26 -22 64 -94 21 -103 7 -18
0000d0 75 b6 26 31 18 c7 e8 ed 89 60 5b 22 1b 81 bb 8f
       117 -74 38 49 24 -57 -24 -19 -119 96 91 34 27 -127 -69 -113
0000e0 4b 97 49 3d 15 91 a5 e5 ec 2c 46 da 8f ef bb db
       75 -105 73 61 21 -111 -91 -27 -20 44 70 -38 -113 -17 -69 -37
0000f0 2d d7 ae c2 d9 cd 62 17 f8 81 6b 39 2d ec c0 ec
       45 -41 -82 -62 -39 -51 98 23 -8 -127 107 57 45 -20 -64 -20

tfl.pseudo_qconst37 i1 [1, 3, 3, 32]
000000 60 02 a2 1d b2 83 81 eb 05 b1 4c b7 fc 87 7f 04
       96 2 -94 29 -78 -125 -127 -21 5 -79 76 -73 -4 -121 127 4
000010 ae 17 81 7f a6 f0 2e d2 48 e7 45 a7 81 81 07 c9
       -82 23 -127 127 -90 -16 46 -46 72 -25 69 -89 -127 -127 7 -55
000020 ae fc ba 5c 81 7f e8 d2 81 6f 7f f2 d8 bf ac e7
       -82 -4 -70 92 -127 127 -24 -46 -127 111 127 -14 -40 -65 -84 -25
000030 9a 06 30 ca 56 91 ee 71 00 56 7f 81 e4 4d 7f 88
       -102 6 48 -54 86 -111 -18 113 0 86 127 -127 -28 77 127 -120
000040 81 0a b6 9f 00 be 2a be ba d7 9c 2c 17 a5 04 12
       -127 10 -74 -97 0 -66 42 -66 -70 -41 -100 44 23 -91 4 18
000050 07 93 e7 14 f9 8f 2e 05 63 03 39 ac b2 b1 98 22
       7 -109 -25 20 -7 -113 46 5 99 3 57 -84 -78 -79 -104 34
000060 46 4e 7f 99 c9 5b c9 c5 58 7f 97 14 57 35 a6 81
       70 78 127 -103 -55 91 -55 -59 88 127 -105 20 87 53 -90 -127
000070 18 a4 93 17 cb c7 81 48 72 81 c1 63 cb cc a5 00
       24 -92 -109 23 -53 -57 -127 72 114 -127 -63 99 -53 -52 -91 0
000080 40 7f c9 81 33 ef 5c 4e 50 14 3a 2d 51 7f ed 39
       64 127 -55 -127 51 -17 92 78 80 20 58 45 81 127 -19 57
000090 bc 9e 7f e2 2b 7f 46 7f 16 3b b6 bc bf d6 ea 81
       -68 -98 127 -30 43 127 70 127 22 59 -74 -68 -65 -42 -22 -127
0000a0 07 bf ee 78 fe a7 e5 f7 f7 15 ae 04 7f e7 a6 cf
       7 -65 -18 120 -2 -89 -27 -9 -9 21 -82 4 127 -25 -90 -49
0000b0 19 bf 1e e4 81 c0 fc 05 2b 01 0a 11 1f 20 b0 db
       25 -65 30 -28 -127 -64 -4 5 43 1 10 17 31 32 -80 -37
0000c0 72 f5 e1 33 ce 0a ef 7f f2 fa 9b 11 ed f7 21 f5
       114 -11 -31 51 -50 10 -17 127 -14 -6 -101 17 -19 -9 33 -11
0000d0 ca 1b 22 37 e9 cb d8 38 5a 11 b3 ba aa 26 41 b1
       -54 27 34 55 -23 -53 -40 56 90 17 -77 -70 -86 38 65 -79
0000e0 df b3 07 f6 e9 0c 1b 5b d5 3e 7b 81 60 c9 56 f1
       -33 -77 7 -10 -23 12 27 91 -43 62 123 -127 96 -55 86 -15
0000f0 81 dc dd d2 92 21 e8 dc 02 14 16 b0 3f 96 b5 6c
       -127 -36 -35 -46 -110 33 -24 -36 2 20 22 -80 63 -106 -75 108

tfl.pseudo_qconst39 i1 [32, 1, 1, 16]
000000 04 1a 56 31 81 bf e2 cb e4 fe 2a 1d 06 e6 d9 12
       4 26 86 49 -127 -65 -30 -53 -28 -2 42 29 6 -26 -39 18
000010 b2 e9 07 2f ec eb 15 f8 29 81 51 4d 40 dc 33 f3
       -78 -23 7 47 -20 -21 21 -8 41 -127 81 77 64 -36 51 -13
000020 b8 d5 de f5 e4 07 8e c6 81 11 24 c8 c7 dd e6 d4
       -72 -43 -34 -11 -28 7 -114 -58 -127 17 36 -56 -57 -35 -26 -44
000030 3c fb 92 a7 5a 7f df e9 d5 ba dc ee c4 3a 9c 2d
       60 -5 -110 -89 90 127 -33 -23 -43 -70 -36 -18 -60 58 -100 45
000040 e1 24 bf 2e 8c 41 54 81 14 5f ce 3a ed 7b 54 69
       -31 36 -65 46 -116 65 84 -127 20 95 -50 58 -19 123 84 105
000050 d4 0e 71 11 a4 e9 9e bd 81 f2 91 ed 1c fc 0b 27
       -44 14 113 17 -92 -23 -98 -67 -127 -14 -111 -19 28 -4 11 39
000060 81 f8 02 2d 4e d9 1f 48 7d b4 3a a6 a2 4e 40 e6
       -127 -8 2 45 78 -39 31 72 125 -76 58 -90 -94 78 64 -26
000070 23 36 0d f7 7f 01 d1 cc f3 6a 67 bb c9 15 a1 df
       35 54 13 -9 127 1 -47 -52 -13 106 103 -69 -55 21 -95 -33
000080 e2 f1 fd 57 f3 c4 c8 20 97 e0 ef 7f e7 4c fe 33
       -30 -15 -3 87 -13 -60 -56 32 -105 -32 -17 127 -25 76 -2 51
000090 df 5a 46 81 eb d6 2e 26 09 ad fa 48 ed a9 cd d6
       -33 90 70 -127 -21 -42 46 38 9 -83 -6 72 -19 -87 -51 -42
0000a0 07 c1 96 ce bb fe 06 76 96 41 fb cc 7f 0c 0e eb
       7 -63 -106 -50 -69 -2 6 118 -106 65 -5 -52 127 12 14 -21
0000b0 01 01 ab 2b 7f 66 5c dd ec c5 e0 24 ef 07 29 40
       1 1 -85 43 127 102 92 -35 -20 -59 -32 36 -17 7 41 64
0000c0 6d b9 c4 9a cc 39 04 e3 81 b4 c9 37 cf 58 96 f7
       109 -71 -60 -102 -52 57 4 -29 -127 -76 -55 55 -49 88 -106 -9
0000d0 36 a1 8e bf 24 e0 64 ba f4 7e 56 a7 ed b2 7f 2c
       54 -95 -114 -65 36 -32 100 -70 -12 126 86 -89 -19 -78 127 44
0000e0 f9 7f 57 de c2 36 4b 9f 41 e9 12 38 ac 20 e9 b5
       -7 127 87 -34 -62 54 75 -97 65 -23 18 56 -84 32 -23 -75
0000f0 51 46 0e 4b 56 bc e2 5e 74 7f 1c 0c e4 eb e2 02
       81 70 14 75 86 -68 -30 94 116 127 28 12 -28 -21 -30 2

tfl.pseudo_qconst41 i1 [1, 3, 3, 16]
000000 fe c7 26 ea b4 02 96 54 e2 ef b6 47 fd 9e 54 84
       -2 -57 38 -22 -76 2 -106 84 -30 -17 -74 71 -3 -98 84 -124
000010 3b 81 7f bb c5 d7 c1 69 fa 85 59 42 9d 84 16 81
       59 -127 127 -69 -59 -41 -63 105 -6 -123 89 66 -99 -124 22 -127
000020 06 a9 55 f2 d9 9b ed 29 d0 81 43 1e b3 d0 b7 a1
       6 -87 85 -14 -39 -101 -19 41 -48 -127 67 30 -77 -48 -73 -95
000030 93 07 22 7f 81 81 2b cf c7 2b 7f ae e4 a4 7f 92
       -109 7 34 127 -127 -127 43 -49 -57 43 127 -82 -28 -92 127 -110
000040 c9 c5 68 35 4e f3 cf 4c a7 f2 4e a9 81 81 21 d9
       -55 -59 104 53 78 -13 -49 76 -89 -14 78 -87 -127 -127 33 -39
000050 18 2d 1f aa 3e 72 a0 98 bb 32 33 e6 87 b6 28 10
       24 45 31 -86 62 114 -96 -104 -69 50 51 -26 -121 -74 40 16
000060 2e 52 0e 24 40 1b 20 19 02 f3 40 8e f2 99 03 c8
       46 82 14 36 64 27 32 25 2 -13 64 -114 -14 -103 3 -56
000070 13 0f e9 3d e7 b3 7f 3d 7f f1 48 81 bf b5 95 15
       19 15 -23 61 -25 -77 127 61 127 -15 72 -127 -65 -75 -107 21
000080 7f 07 be ec cc 10 5c 81 27 fb 4c 39 b9 d4 02 03
       127 7 -66 -20 -52 16 92 -127 39 -5 76 57 -71 -44 2 3

tfl.pseudo_qconst43 i1 [16, 1, 1, 8]
000000 81 e0 f6 a7 ab 38 9f 9d df 59 f6 c6 7f 35 14 40
       -127 -32 -10 -89 -85 56 -97 -99 -33 89 -10 -58 127 53 20 64
000010 c8 53 b2 2b 00 62 c0 7f de c4 a6 54 f5 21 06 81
       -56 83 -78 43 0 98 -64 127 -34 -60 -90 84 -11 33 6 -127
000020 65 fc 61 2f 7f 14 de 20 eb 9c 43 04 f7 39 93 7f
       101 -4 97 47 127 20 -34 32 -21 -100 67 4 -9 57 -109 127
000030 81 e5 7d 0a 27 1a d6 7d eb 2f 7f c1 2d 51 1e ce
       -127 -27 125 10 39 26 -42 125 -21 47 127 -63 45 81 30 -50
000040 de eb 98 e5 81 53 36 01 7f 3a 0c e9 28 cb 46 3d
       -34 -21 -104 -27 -127 83 54 1 127 58 12 -23 40 -53 70 61
000050 10 57 81 59 5c 6b e6 70 e1 e8 5c b7 14 7f dc e4
       16 87 -127 89 92 107 -26 112 -31 -24 92 -73 20 127 -36 -28
000060 17 b0 b2 79 7f 8c b6 f5 48 eb f4 db ed 7f 3e ea
       23 -80 -78 121 127 -116 -74 -11 72 -21 -12 -37 -19 127 62 -22
000070 a3 2d 4b 81 2f 72 9c 93 fd 7f 10 60 b3 24 b9 2e
       -93 45 75 -127 47 114 -100 -109 -3 127 16 96 -77 36 -71 46

tfl.pseudo_qconst45 i1 [1, 3, 3, 8]
000000 8b a9 92 28 e7 df b3 a2 81 10 8c 23 b2 81 e0 06
       -117 -87 -110 40 -25 -33 -77 -94 -127 16 -116 35 -78 -127 -32 6
000010 bc 31 25 d1 e2 82 0e 7f 08 ac c7 f7 34 d3 57 cb
       -68 49 37 -47 -30 -126 14 127 8 -84 -57 -9 52 -45 87 -53
000020 01 b8 73 df 7f b3 0e 07 2d d7 7f c2 60 af 81 00
       1 -72 115 -33 127 -77 14 7 45 -41 127 -62 96 -81 -127 0
000030 04 4a 41 12 6a ca 4f d9 06 7f 5b 81 6f ae ff 98
       4 74 65 18 106 -54 79 -39 6 127 91 -127 111 -82 -1 -104
000040 1b 53 32 a9 35 e3 4f d6
       27 83 50 -87 53 -29 79 -42

tfl.pseudo_qconst47 i1 [8, 3, 3, 3]
000000 1a 31 5a f7 5c ee e5 12 c7 fb cf 3a 2c 43 cc 31
       26 49 90 -9 92 -18 -27 18 -57 -5 -49 58 44 67 -52 49
000010 06 22 32 1d f4 6a 1a 46 18 5c 7f 04 d8 31 c6 f2
       6 34 50 29 -12 106 26 70 24 92 127 4 -40 49 -58 -14
000020 0c e1 f1 e8 7f 61 18 ec 14 32 fe 0c 41 26 0e 3b
       12 -31 -15 -24 127 97 24 -20 20 50 -2 12 65 38 14 59
000030 37 38 0e cc 26 19 3c eb 6a 13 3c f2 51 6c 7b 7f
       55 56 14 -52 38 25 60 -21 106 19 60 -14 81 108 123 127
000040 59 49 e2 15 28 fb 02 45 bf a4 51 0e 15 82 2b ba
       89 73 -30 21 40 -5 2 69 -65 -92 81 14 21 -126 43 -70
000050 e3 65 7f f5 6b 70 29 21 a2 c4 63 26 00 f5 63 32
       -29 101 127 -11 107 112 41 33 -94 -60 99 38 0 -11 99 50
000060 2b fb 37 31 f4 a2 d3 fa bf d0 40 4b e1 8e 81 95
       43 -5 55 49 -12 -94 -45 -6 -65 -48 64 75 -31 -114 -127 -107
000070 34 ad 7b f3 55 e2 a5 84 f3 bf 5a 5c 52 4e 04 b1
       52 -83 123 -13 85 -30 -91 -124 -13 -65 90 92 82 78 4 -79
000080 56 61 1b 67 c0 74 43 ef 43 05 d9 87 cf f1 04 87
       86 97 27 103 -64 116 67 -17 67 5 -39 -121 -49 -15 4 -121
000090 f9 27 42 f2 b7 d1 08 16 40 f1 d1 0a bb 81 ca 2a
       -7 39 66 -14 -73 -47 8 22 64 -15 -47 10 -69 -127 -54 42
0000a0 c1 54 14 38 d6 28 14 0c 15 f1 17 48 ee 00 f9 46
       -63 84 20 56 -42 40 20 12 21 -15 23 72 -18 0 -7 70
0000b0 31 67 38 7f 02 0f dc f2 2c 0b 3d 13 de 7f 08 54
       49 103 56 127 2 15 -36 -14 44 11 61 19 -34 127 8 84
0000c0 be 22 47 f6 2c 40 f8 e1 1c e1 0b 08 40 21 51 e2
       -66 34 71 -10 44 64 -8 -31 28 -31 11 8 64 33 81 -30
0000d0 1d 31 cb 1d 36 06 48 4d
       29 49 -53 29 54 6 72 77
