Homework 5/project/audio_model_project/NUCLEO-F446RE/audio_model.tflite (tflite, 23696 bytes, 6 tensors)

arith.constant f4 [64]
0	0xbe148b72	-0.14506319
1	0xbd5991cd	-0.053117562
2	0x3cb966b2	0.022631977
3	0x00000000	0.0
4	0x3bdc2be1	0.006719098
5	0xbc223751	-0.009900884
6	0xbcec014f	-0.028809218
7	0x00000000	0.0
8	0xbd0ebe96	-0.034849726
9	0xbc8c90b8	-0.017158851
10	0xbc44f1ce	-0.012020541
11	0xbc440077	-0.011963001
12	0x3cdf766d	0.02727815
13	0xbba8e487	-0.0051541957
14	0xbd211dca	-0.03933505
15	0xba9a6d03	-0.0011781756
16	0xbcc42708	-0.023944393
17	0xbd254785	-0.04035141
18	0x00000000	0.0
19	0x00000000	0.0
20	0xbb41f7e8	-0.0029597227
21	0x00000000	0.0
22	0x00000000	0.0
23	0x00000000	0.0
24	0xbd4eebda	-0.050517894
25	0x00000000	0.0
26	0xbd36f780	-0.04466963
27	0x3bb8b229	0.0056364727
28	0x3cedd5b2	0.029032562
29	0xbd213943	-0.03936125
30	0xbce51eda	-0.027968813
31	0x00000000	0.0
32	0xbdbc857d	-0.09205148
33	0xbc21fa0a	-0.009886274
34	0xbc22cbd4	-0.009936292
35	0x3c8e3840	0.017360806
36	0xbd567394	-0.052356318
37	0x00000000	0.0
38	0xbbe0d155	-0.006860892
39	0x00000000	0.0
40	0x00000000	0.0
41	0xbbf1b8b9	-0.007376757
42	0xbd48b907	-0.04900458
43	0x3dacb52f	0.084329955
44	0xbd51ca63	-0.0512184
45	0xbd2f8801	-0.042854313
46	0xbc1ed3b7	-0.009694031
47	0xbca0f0e3	-0.019646114
48	0x00000000	0.0
49	0xbd838884	-0.06422523
50	0x3ca14afc	0.019689076
51	0xbb3ab049	-0.0028486422
52	0x00000000	0.0
53	0xbbe2f2ab	-0.006925901
54	0xbb1ddd1e	-0.0024088095
55	0xbba6e529	-0.005093236
56	0xbd06714c	-0.032822892
57	0xbc028190	-0.00796546
58	0x00000000	0.0
59	0xbd0c5d0e	-0.03426843
60	0xbc7ac131	-0.0153048495
61	0x00000000	0.0
62	0xbdc2067e	-0.094738945
63	0xbc0de251	-0.008659915

arith.constant1 f4 [32]
0	0x3f2158e8	0.63026285
1	0x3e850c99	0.25986174
2	0xbec3c8f9	-0.38239267
3	0xbe1cb355	-0.15302785
4	0xbf6f9613	-0.9358837
5	0x3f162339	0.58647496
6	0xbf1852ae	-0.5950116
7	0xbdbee2ca	-0.093206
8	0x3f05b676	0.5223154
9	0x3f61defb	0.88230866
10	0xbea1d16a	-0.31605083
11	0x3e2762fe	0.16346356
12	0xbe883fb8	-0.26611114
13	0xbc493637	-0.012280992
14	0xbf61d38b	-0.88213414
15	0x3df70b78	0.12062734
16	0xbe1c0c91	-0.15239169
17	0xbf06a369	-0.52593094
18	0xbe114c24	-0.14189202
19	0xbca5f41f	-0.020258008
20	0xbd783584	-0.06059791
21	0xbf573b1e	-0.8407458
22	0x3f27a318	0.65483236
23	0xbed7c47b	-0.4214209
24	0x3eeeba58	0.46626544
25	0xbf360a7f	-0.71109766
26	0xbe458eb0	-0.19292712
27	0xbe4bfe8f	-0.19921325
28	0x3e89f7a9	0.26946762
29	0x3f48fbb0	0.78509045
30	0x3e099801	0.13436891
31	0xbe45f6a6	-0.1933237

arith.constant2 f4 [10]
0	0x3ec8d18b	0.3922237
1	0x3e4e77dd	0.20162912
2	0xbde45f51	-0.11150993
3	0x3d64e824	0.05588545
4	0xbef8f746	-0.48626155
5	0xbe985d78	-0.2975881
6	0xbe8ceaba	-0.27522832
7	0x3fae57e8	1.3620577
8	0xbecd8928	-0.40143704
9	0xbf29c802	-0.6632081

arith.constant3 f4 [10, 32]
0	0xbcb8289e	-0.022480305
1	0xbe4f26eb	-0.2022969
2	0xbda8411d	-0.082155444
3	0x3b3a4425	0.0028421965
4	0xbc8ae984	-0.016957052
5	0xbb959103	-0.004564406
6	0xbe91adf9	-0.28453043
7	0x3acbb12b	0.0015540471
8	0xbdbf6bcf	-0.09346735
9	0x3e95a1de	0.29225057
10	0xbe556ef6	-0.2084311
11	0x3d9cf06b	0.076630436
12	0xbe0ea8f4	-0.13931638
13	0xbd0f0ed4	-0.03492625
14	0x3e7afd38	0.24510658
15	0x3e1ff1bd	0.1561956
16	0xbdb66598	-0.08906096
17	0x3e4b0ca4	0.19829041
18	0xbe265fce	-0.16247484
19	0xbd1c64c5	-0.03818204
20	0xbe001a61	-0.12510063
21	0x3dc02be7	0.09383374
22	0x3d4d7584	0.0501609
23	0x3e638426	0.2221838
24	0x3ea2dedf	0.31810662
25	0xbe82afd7	-0.2552478
26	0xbc6e706a	-0.014553169
27	0xbd67cbb7	-0.056590762
28	0x3bb4532e	0.00550308
29	0xbde73e58	-0.11291188
30	0x3df46792	0.11933817
31	0xbe15b744	-0.14620692
32	0x3cc7c7d4	0.024387278
33	0xbddb6e25	-0.10714368
34	0x3e13ff7f	0.14452933
35	0xbe292c0c	-0.16520709
36	0x3c37eff3	0.011226642
37	0xbdcba5b9	-0.099437185
38	0xbd5f5d0d	-0.0545321
39	0xbd02a10c	-0.031891868
40	0xbdb364fe	-0.08759497
41	0x3dda9620	0.10673165
42	0xbe078523	-0.13234381
43	0x3e0989b3	0.13431434
44	0x3b9d002a	0.0047912793
45	0xbe828851	-0.25494626
46	0x3e16780d	0.14694233
47	0x3e9035bb	0.28165993
48	0xbdd8d0da	-0.1058671
49	0xbd4308eb	-0.047615927
50	0x3e0531b0	0.13007236
51	0xbde3fc8f	-0.11132156
52	0xbe19a3da	-0.1500391
53	0x3da66257	0.081242256
54	0x3e0fb26b	0.14032905
55	0xbe1ad0d0	-0.15118718
56	0x3e2cfe49	0.16893877
57	0x3d9d8d3a	0.076929525
58	0x3e706514	0.23476058
59	0x3c6c6264	0.014427755
60	0x3ec65805	0.3873903
61	0xbe2487e9	-0.1606747
62	0x3ea0884b	0.31353983
63	0xbd9cf95c	-0.07664749
64	0x3d5bfb13	0.05370624
65	0xbbfaad40	-0.0076500475
66	0x3e8fbc4a	0.2807334
67	0xbcd6d7fd	-0.026226038
68	0x3e7105ad	0.23537321
69	0x3e5c456a	0.21510854
70	0xbeb8793c	-0.36029994
71	0x3d8417bf	0.06449842
72	0x3dc612b1	0.09671534
73	0x3e624349	0.2209598
74	0xbd8b404f	-0.06799375
75	0xbd1b123a	-0.03785918
76	0xbe2ddce8	-0.169788
77	0xbe393a4f	-0.18088649
78	0x3e246989	0.16055883
79	0x3e82bda2	0.25535303
80	0x3d4f8f09	0.05067352
81	0x3e1a7d3a	0.15086833
82	0xbc04eba9	-0.008112826
83	0x3d5e9fdb	0.05435167
84	0xbc8f3f67	-0.017486287
85	0x3bee1077	0.0072651464
86	0x3c1baf8d	0.009502304
87	0xbe27f228	-0.16400969
88	0x3e6d7c59	0.23191966
89	0xbe1a17f2	-0.15048197
90	0x3e41b55d	0.18916841
91	0x3d0b9906	0.03408148
92	0xbda1c4eb	-0.07898887
93	0xbd488a24	-0.048959866
94	0xbcd295e0	-0.025706232
95	0xbe2852b2	-0.16437796
96	0xbe84e1e6	-0.25953597
97	0xbe05460a	-0.13014999
98	0xbc1f0b92	-0.009707348
99	0xbdbe777e	-0.09300135
100	0x3df39133	0.11892929
101	0x3d6be65f	0.057592746
102	0xbea6aa11	-0.32551625
103	0x3e88442a	0.26614505
104	0xbdde9a64	-0.108692914
105	0x3d2f4625	0.042791504
106	0x3d804e7a	0.06264968
107	0xbe328780	-0.17434502
108	0xbe3c52f1	-0.18391015
109	0xbdb50de7	-0.08840542
110	0x3e812435	0.25222936
111	0x3e636d78	0.22209728
112	0x3c96a73c	0.01839029
113	0xbdd23737	-0.10264438
114	0x3d959bda	0.07305117
115	0x3e2fd0cb	0.17169492
116	0xbe3aae33	-0.18230514
117	0xbdcd27c9	-0.10017354
118	0xbdf259a0	-0.11833501
119	0x3e81a4b2	0.25320965
120	0x3de0a73b	0.10969397
121	0xbe1ea122	-0.15491155
122	0x3e7b2165	0.24524458
123	0x3e49dbd7	0.19712768
124	0x3d095ef6	0.033537827
125	0x3e55e620	0.20888567
126	0x3ca60b10	0.020268947
127	0xbe401069	-0.1875626
128	0x3e8db4a6	0.27676886
129	0xbe924d74	-0.28574717
130	0x3e9cae2a	0.30601627
131	0xbd9471d4	-0.072482735
132	0xbdddab56	-0.10823695
133	0x3e3b3d50	0.18285108
134	0xbd9c331f	-0.07626938
135	0x3c6df3cf	0.0145234605
136	0x3da9a7ec	0.08283982
137	0xbca2652a	-0.01982363
138	0xbe85e2b3	-0.2614952
139	0x3e527bf7	0.20555101
140	0x3e6077f8	0.21920764
141	0xbeb2b4e0	-0.34903622
142	0x3e4159c4	0.18881899
143	0x3e1e1650	0.15438199
144	0x3d309c58	0.04311785
145	0x3d20baf8	0.039240807
146	0x3e13f909	0.14450468
147	0xbdbc4bf8	-0.091941774
148	0xbe01bc23	-0.12669425
149	0x3e8babde	0.27279562
150	0xbe112561	-0.14174415
151	0x3ea0bd50	0.31394434
152	0x3debdcd1	0.11516727
153	0x3e127a0f	0.14304374
154	0x3dcebd9b	0.10094758
155	0xbd72d204	-0.059282318
156	0x3e4d606e	0.20056316
157	0xbdb48fdf	-0.08816504
158	0x3e6c584e	0.2308056
159	0xbe19cad8	-0.15018785
160	0x3dd04a32	0.10170402
161	0x3d6f7edb	0.05847059
162	0x3d3f13ea	0.04664985
163	0x3e272a96	0.16324839
164	0xbd5e4b94	-0.054271296
165	0xbe3f3b5f	-0.18674992
166	0xbd83dfe4	-0.06439188
167	0xbc6d58e4	-0.014486525
168	0xbe4b6084	-0.19861037
169	0xbe78ac14	-0.24284393
170	0xbe01545b	-0.12629835
171	0x3cb2dbd3	0.021833336
172	0xbde25259	-0.11050863
173	0xbdedffa6	-0.11621027
174	0x3e8cd79b	0.27508244
175	0x3e538e08	0.2065965
176	0xbcbd7739	-0.023128139
177	0x3e71a1ca	0.23596874
178	0xbe16d07b	-0.14727966
179	0x3e161878	0.14657772
180	0xbd5ba165	-0.053620715
181	0xbd4bb1bd	-0.04973005
182	0xbdfe8a66	-0.12428741
183	0x3e2cac58	0.16862619
184	0xbda11fc7	-0.07867389
185	0x3e846bc9	0.25863484
186	0xbb9cad86	-0.004781428
187	0xbe0f00bc	-0.13965124
188	0x3e9351bf	0.28773305
189	0xbdf88f0b	-0.12136658
190	0x3e080f12	0.13286999
191	0x3dd800ea	0.10547049
192	0xbdd090fb	-0.10183903
193	0x3c922baa	0.017843086
194	0x3d67f0f5	0.05662628
195	0xbd8930a3	-0.0669873
196	0x3c3d516a	0.011555055
197	0x3e043bd3	0.12913446
198	0xbe6d26c6	-0.23159322
199	0xbd2623f1	-0.04056162
200	0x3da4ecec	0.08053002
201	0xbbe58f2e	-0.0070055937
202	0x3e59a470	0.21254134
203	0x3e813387	0.25234625
204	0x3dc15fb9	0.09442086
205	0x3db572d8	0.08859795
206	0x3e8f7567	0.28019258
207	0xbc3658b4	-0.011129547
208	0xbdcd5132	-0.100252524
209	0xbe0d6d72	-0.13811281
210	0xbd375d71	-0.044766847
211	0x3dbe26b3	0.09284725
212	0xbe3988e0	-0.1811862
213	0xbd3fce3a	-0.046827532
214	0xbde9cfa0	-0.114165545
215	0xb980c6d1	-0.00024562192
216	0x3e50a06f	0.203737
217	0x3d17d668	0.037069708
218	0xbdd4dd79	-0.10393805
219	0xbe18dbc0	-0.14927578
220	0x3e178511	0.14796855
221	0x3dc4c2b4	0.09607449
222	0xbdd5ba95	-0.10435978
223	0xbe8a0d46	-0.26963252
224	0x3e45fd1a	0.19334832
225	0x3d96b858	0.073593795
226	0x3dc8d053	0.0980536
227	0x3d87a055	0.06622378
228	0xbdab51a2	-0.083651796
229	0x3d18e80f	0.037330683
230	0xbea61841	-0.3244038
231	0x3d84acf8	0.06478304
232	0xbc2678e8	-0.010160662
233	0x3ac503ae	0.0015031004
234	0xbe587f94	-0.21142417
235	0x3e0d777f	0.13815115
236	0xbd117ab1	-0.0355174
237	0xbcf96bbf	-0.030446885
238	0xbcc6a394	-0.024247922
239	0xbdc2a036	-0.09503214
240	0xbe2fe132	-0.17175749
241	0xbd7a2782	-0.061072834
242	0x3cbf48d3	0.023350155
243	0x3df92042	0.12164356
244	0xbce8af96	-0.028404038
245	0xbe621b30	-0.22080684
246	0x3e5a6dc5	0.21330936
247	0x3de78c9d	0.11306117
248	0x3e2d768b	0.16939752
249	0x3d49e185	0.049287338
250	0x3db3417e	0.08752726
251	0xbdbc9808	-0.09208685
252	0x3dcc854c	0.09986362
253	0x3dcac0d9	0.09900064
254	0x3d2c313d	0.042039145
255	0xbe6af670	-0.22945571

tfl.pseudo_qconst i1 [32, 64]
0	0xfc	-4
1	0x32	50
2	0x09	9
3	0x10	16
4	0xde	-34
5	0x03	3
6	0xfd	-3
7	0xe3	-29
8	0xe6	-26
9	0xfd	-3
10	0x35	53
11	0xc8	-56
12	0xfe	-2
13	0xc4	-60
14	0xca	-54
15	0x92	-110
16	0x2f	47
17	0xd1	-47
18	0x2f	47
19	0x3d	61
20	0xde	-34
21	0x11	17
22	0x37	55
23	0x41	65
24	0xcf	-49
25	0xd3	-45
26	0x1b	27
27	0xf5	-11
28	0x2b	43
29	0x16	22
30	0x20	32
31	0x2f	47
32	0xf9	-7
33	0x23	35
34	0x07	7
35	0xf0	-16
36	0xd0	-48
37	0xdf	-33
38	0xfb	-5
39	0x18	24
40	0xcc	-52
41	0xca	-54
42	0x17	23
43	0xb8	-72
44	0x81	-127
45	0xc8	-56
46	0x30	48
47	0xe5	-27
48	0xd1	-47
49	0xd5	-43
50	0x29	41
51	0xef	-17
52	0xcb	-53
53	0x2d	45
54	0xd9	-39
55	0x45	69
56	0x08	8
57	0xe1	-31
58	0xb8	-72
59	0x14	20
60	0x1f	31
61	0x12	18
62	0x42	66
63	0x0f	15
64	0xdf	-33
65	0x1f	31
66	0xcb	-53
67	0x0b	11
68	0xea	-22
69	0x12	18
70	0xef	-17
71	0xc9	-55
72	0xae	-82
73	0xcb	-53
74	0xf4	-12
75	0x32	50
76	0xee	-18
77	0xda	-38
78	0xdb	-37
79	0xcd	-51
80	0xd6	-42
81	0xdd	-35
82	0x1a	26
83	0xeb	-21
84	0x14	20
85	0x36	54
86	0x01	1
87	0x2c	44
88	0x2a	42
89	0xda	-38
90	0x05	5
91	0x1e	30
92	0xe8	-24
93	0xef	-17
94	0xcf	-49
95	0xdd	-35
96	0x03	3
97	0xca	-54
98	0xeb	-21
99	0x11	17
100	0x0b	11
101	0x32	50
102	0x1b	27
103	0xc9	-55
104	0x40	64
105	0x1a	26
106	0x41	65
107	0x17	23
108	0xe4	-28
109	0xf9	-7
110	0xf6	-10
111	0xe1	-31
112	0x3c	60
113	0x01	1
114	0x26	38
115	0x81	-127
116	0xe2	-30
117	0xf6	-10
118	0xfa	-6
119	0xe6	-26
120	0xcb	-53
121	0xf8	-8
122	0xc4	-60
123	0x2a	42
124	0x13	19
125	0xe3	-29
126	0x0f	15
127	0x15	21
128	0xaf	-81
129	0x1f	31
130	0x92	-110
131	0x44	68
132	0xdd	-35
133	0xb3	-77
134	0xc5	-59
135	0xcd	-51
136	0xbf	-65
137	0x9c	-100
138	0x27	39
139	0xe9	-23
140	0xf0	-16
141	0x2d	45
142	0x81	-127
143	0x38	56
144	0xb7	-73
145	0xc1	-63
146	0x2c	44
147	0x56	86
148	0xed	-19
149	0x4d	77
150	0x10	16
151	0xd5	-43
152	0xef	-17
153	0x2f	47
154	0xf8	-8
155	0x0f	15
156	0x4d	77
157	0x20	32
158	0x47	71
159	0xb9	-71
160	0xde	-34
161	0x37	55
162	0x2d	45
163	0xe9	-23
164	0x1e	30
165	0xf3	-13
166	0xd3	-45
167	0x5d	93
168	0xf1	-15
169	0x1b	27
170	0xb3	-77
171	0xea	-22
172	0xd2	-46
173	0xed	-19
174	0x0f	15
175	0xc6	-58
176	0xe5	-27
177	0xc8	-56
178	0x56	86
179	0x3a	58
180	0x11	17
181	0x0d	13
182	0x0b	11
183	0xcf	-49
184	0x2c	44
185	0x8c	-116
186	0x3d	61
187	0xac	-84
188	0xdf	-33
189	0x38	56
190	0xa1	-95
191	0x24	36
192	0x2b	43
193	0x40	64
194	0xba	-70
195	0xe4	-28
196	0xc6	-58
197	0x0a	10
198	0xac	-84
199	0x24	36
200	0x07	7
201	0x02	2
202	0x41	65
203	0x17	23
204	0xbd	-67
205	0x9d	-99
206	0x70	112
207	0x81	-127
208	0xb1	-79
209	0x21	33
210	0x49	73
211	0xbb	-69
212	0xf3	-13
213	0x56	86
214	0x2e	46
215	0x3a	58
216	0x09	9
217	0x46	70
218	0x43	67
219	0x36	54
220	0x61	97
221	0x1c	28
222	0x0a	10
223	0xd2	-46
224	0x38	56
225	0x52	82
226	0xee	-18
227	0xdf	-33
228	0xa3	-93
229	0xe7	-25
230	0xd7	-41
231	0x3c	60
232	0xdc	-36
233	0xea	-22
234	0xdc	-36
235	0x0e	14
236	0x2a	42
237	0xd0	-48
238	0xc3	-61
239	0x48	72
240	0x31	49
241	0xcf	-49
242	0x0e	14
243	0x98	-104
244	0x3b	59
245	0x21	33
246	0xef	-17
247	0xe9	-23
248	0x50	80
249	0xbc	-68
250	0x30	48
251	0xf7	-9
252	0xac	-84
253	0xe2	-30
254	0x12	18
255	0xdf	-33

sequential_1/dense_1/MatMul i1 [64, 260]
0	0xfa	-6
1	0xff	-1
2	0x08	8
3	0xfb	-5
4	0xf4	-12
5	0x0a	10
6	0xfb	-5
7	0xff	-1
8	0x03	3
9	0x00	0
10	0xf8	-8
11	0x00	0
12	0x08	8
13	0x09	9
14	0x04	4
15	0xf8	-8
16	0xf1	-15
17	0x07	7
18	0xf1	-15
19	0xfc	-4
20	0x2a	42
21	0xf3	-13
22	0xf4	-12
23	0xd9	-39
24	0xf0	-16
25	0x04	4
26	0x13	19
27	0x16	22
28	0xfd	-3
29	0xf7	-9
30	0x0a	10
31	0x0c	12
32	0x05	5
33	0xff	-1
34	0xde	-34
35	0xdd	-35
36	0x14	20
37	0xfd	-3
38	0xfb	-5
39	0x11	17
40	0x13	19
41	0xdd	-35
42	0xdc	-36
43	0xd9	-39
44	0xf8	-8
45	0x19	25
46	0x36	54
47	0x32	50
48	0x2a	42
49	0x0f	15
50	0x13	19
51	0xef	-17
52	0x1c	28
53	0x16	22
54	0xff	-1
55	0xeb	-21
56	0x03	3
57	0xee	-18
58	0x02	2
59	0x03	3
60	0x7f	127
61	0x47	71
62	0x17	23
63	0x22	34
64	0x0e	14
65	0xdd	-35
66	0xb6	-74
67	0xdc	-36
68	0xd9	-39
69	0xea	-22
70	0xde	-34
71	0xde	-34
72	0x16	22
73	0x00	0
74	0xfb	-5
75	0xd8	-40
76	0x0c	12
77	0x12	18
78	0xf6	-10
79	0x08	8
80	0x4a	74
81	0x43	67
82	0x24	36
83	0xfa	-6
84	0xd4	-44
85	0xd6	-42
86	0xda	-38
87	0xef	-17
88	0xec	-20
89	0x05	5
90	0x0d	13
91	0xdb	-37
92	0xdd	-35
93	0xd2	-46
94	0xfd	-3
95	0xff	-1
96	0xf8	-8
97	0x04	4
98	0xfe	-2
99	0xf6	-10
100	0x01	1
101	0xd1	-47
102	0xdf	-33
103	0x28	40
104	0x29	41
105	0x3c	60
106	0x3a	58
107	0x1b	27
108	0x22	34
109	0x26	38
110	0x10	16
111	0x13	19
112	0xec	-20
113	0xe0	-32
114	0xec	-20
115	0xdd	-35
116	0x14	20
117	0x03	3
118	0x0a	10
119	0xed	-19
120	0xb4	-76
121	0xf7	-9
122	0x07	7
123	0xff	-1
124	0x06	6
125	0xf7	-9
126	0x01	1
127	0xf1	-15
128	0xf9	-7
129	0xfa	-6
130	0x05	5
131	0x07	7
132	0xe5	-27
133	0x00	0
134	0x28	40
135	0x24	36
136	0x03	3
137	0x13	19
138	0xf3	-13
139	0x0c	12
140	0x0f	15
141	0xfb	-5
142	0xfa	-6
143	0xf8	-8
144	0x11	17
145	0xe1	-31
146	0xdd	-35
147	0xcc	-52
148	0x0b	11
149	0xd7	-41
150	0xaa	-86
151	0xe1	-31
152	0xeb	-21
153	0xf6	-10
154	0x07	7
155	0xf4	-12
156	0xf3	-13
157	0x0f	15
158	0x0b	11
159	0xf5	-11
160	0xbf	-65
161	0xdb	-37
162	0xfd	-3
163	0xed	-19
164	0x1a	26
165	0x1a	26
166	0xf1	-15
167	0xdb	-37
168	0xed	-19
169	0x3a	58
170	0x17	23
171	0x05	5
172	0x16	22
173	0x14	20
174	0x09	9
175	0xfd	-3
176	0x09	9
177	0xfd	-3
178	0x0f	15
179	0x06	6
180	0xdb	-37
181	0x15	21
182	0x25	37
183	0x25	37
184	0x1f	31
185	0x0f	15
186	0x05	5
187	0xef	-17
188	0x00	0
189	0x08	8
190	0xe2	-30
191	0x03	3
192	0x04	4
193	0x0c	12
194	0x06	6
195	0xf6	-10
196	0x12	18
197	0x02	2
198	0x00	0
199	0xf2	-14
200	0x4d	77
201	0xfe	-2
202	0xdf	-33
203	0xea	-22
204	0xe7	-25
205	0xf7	-9
206	0xe5	-27
207	0xd1	-47
208	0xf1	-15
209	0xd2	-46
210	0xef	-17
211	0xee	-18
212	0x41	65
213	0x34	52
214	0xff	-1
215	0x1d	29
216	0xfd	-3
217	0xfd	-3
218	0x09	9
219	0xf2	-14
220	0xfa	-6
221	0xf1	-15
222	0xfd	-3
223	0xf0	-16
224	0xf4	-12
225	0xdd	-35
226	0xcc	-52
227	0xc7	-57
228	0x07	7
229	0x39	57
230	0x31	49
231	0x31	49
232	0x28	40
233	0x20	32
234	0x12	18
235	0x2d	45
236	0x0f	15
237	0xf9	-7
238	0xec	-20
239	0xef	-17
240	0xd0	-48
241	0xf1	-15
242	0x0b	11
243	0xf6	-10
244	0xf3	-13
245	0x23	35
246	0x1a	26
247	0x19	25
248	0xfa	-6
249	0x14	20
250	0x13	19
251	0xf0	-16
252	0x22	34
253	0x46	70
254	0xfd	-3
255	0xf9	-7
