Homework 5/project/mnist_model_project/NUCLEO-F446RE/mnist_model.tflite (tflite, 20960 bytes, 6 tensors)

arith.constant f4 [100]
00000000: 9333 8abe 47ee 80be 86bc 363d 2af4 f9bc
00000010: 5e09 3cbe 07ff 09be 2399 b5be 5707 06be
00000020: 53dc 5ebd 6983 91bd 4973 093e c081 f7bd
00000030: d521 0e3e 73c5 ad3d 8165 5cbe d2b7 f9bd
00000040: f9da 91be 8c9c 68bd 96a6 88be 9205 083e
00000050: add4 bc3d cd1d 3dbe 885f c0be 6da5 7b3d
00000060: 0f98 9bbc 6254 00bf 98b9 9bbe 776a 74bd
00000070: c8ee 99be 00b3 0abe 496c d8be 188d f2bd
00000080: aa6d 74bf 9893 6f3d 6eba a6be ebd5 5dbd
00000090: bc0b 27be d121 b73d 20a5 e23d 9df9 713e
000000a0: 6a79 733c db62 0c3d 8329 893e 7391 cebe
000000b0: 077f 4f3e c7a5 2fbe 42b2 2a3c 5e17 013e
000000c0: 90fb 9b3e 75de fb3c 7498 4c3e ac24 783e
000000d0: 4a2e 723d eaaa 3d3d 6674 803c 331d 52bd
000000e0: 0fff 3e3d 3021 4bbe 2469 dcbe 2652 61be
000000f0: f106 463d 79d9 5dbd 45c5 91be 53d6 92be
00000100: b56f 013c 99d5 193d b286 49bd df0e 99be
00000110: 39ec 0f3d ffe3 c1bd 34af e03d 3aaa 393d
00000120: 2058 cb3d 3466 8ebe fda1 543e 9df3 5abe
00000130: c91a bcbe 22d6 313e 801d ccbd 40f6 14be
00000140: a4d3 53be b3b8 043e a67f bdbe f598 18bd
00000150: 7028 02bd c304 6cbf cb06 743d c92a 3e3e
00000160: dcae cfbf 6b7e 143e 5352 aa3c cc0d 88bd
00000170: 1751 00be 59c7 dcbd 71b9 c0bd 2371 18bb
00000180: a0fa a5be f4f3 cbbd 2fd5 5bbd e656 57bd
-0.26992473 -0.2518179 0.044613384 -0.030511934 -0.18362948 -0.13476191 -0.35468397 -0.13088737
-0.054409336 -0.071051426 0.13422884 -0.12085295 0.13880093 0.08484926 -0.21523096 -0.12193264
-0.28487375 -0.05678992 -0.26689595 0.13283375 0.09220252 -0.184684 -0.37572885 0.06143706
-0.018993406 -0.5012876 -0.30415034 -0.059671845 -0.30064988 -0.13544846 -0.42270115 -0.11843318
-0.95479834 0.058490366 -0.3256411 -0.054159086 -0.1631307 0.08941997 0.11066651 0.23630376
0.01486049 0.034273963 0.26789483 -0.40345344 0.20263301 -0.17153083 0.010418477 0.1260657
0.30465364 0.030745724 0.19980031 0.24232739 0.059126176 0.046305574 0.015680503 -0.051297378
0.04662996 -0.19836879 -0.43048966 -0.22003993 0.048346464 -0.054162476 -0.28470817 -0.2867914
0.007900168 0.03755722 -0.04920072 -0.29894158 0.03513739 -0.09467315 0.10970917 0.045328356
0.09928918 -0.2781235 0.20764919 -0.21381994 -0.36739185 0.17366841 -0.09966564 -0.14547062
-0.20686203 0.12961082 -0.3701145 -0.037255246 -0.031776845 -0.92194766 0.05957679 0.18571009
-1.6225238 0.1450135 0.020791208 -0.066432565 -0.12530933 -0.1078021 -0.0941037 -0.0023260794
-0.32417774 -0.0995864 -0.053670105 -0.052573107

arith.constant1 f4 [100, 7]
00000000: 35a9 84ba f24f 6a3d 64c7 0abd d387 4dbf
00000010: 2ce0 2cbb 8cf3 b13e 9fd9 8bbe 4261 c8bd
00000020: acaf 2d3e 7177 ff3d 0c19 53bf b95d 323e
00000030: f53e 703e 485a 263e 190d c2bc fcf7 703d
00000040: 8473 40bd d721 13be dd8d e6bf 85c3 8c3e
00000050: bc2f a5bf afb4 5c3e 7e68 5dbe f5ff 06bf
00000060: 9a24 7dbd e67a 83bd f003 a03e fcca a53f
00000070: d400 803e e668 693d 183d 6cbf d0b7 c6bc
00000080: 1411 9e3e eb6f 963e a1eb 9bbd cc4f fd3d
00000090: 1f79 bc3d 4005 3abc 7088 4abf 1fb3 863e
000000a0: ff7a 2b3e 30b0 653e 34e7 e1bd 8285 0bbd
000000b0: 5228 cfbe e02f 56bd d410 f5be a15a 25bf
000000c0: 0ff6 15bf 0d05 f03d 607d 7fbe a800 61be
000000d0: 25c7 1fbf 51f2 8f3e ab0b e53e ecdd 01bf
000000e0: c4bd d7bc 7c39 81be add1 91be a450 4c3d
000000f0: fa05 87be 28cb 1b3f 69cc b1be b423 8cbd
00000100: 19b0 63be 1a9b bb3d cc01 4c3e 781d f33c
00000110: 23f9 02be 8730 223e c0d8 0dbc bf53 793e
00000120: b8d6 9bbe 2fb3 6c3e de64 32be 1205 f9bd
00000130: 967f 35bf 6012 243e ad1b 98be bbe9 bcbd
00000140: ee66 f8be ce2d 3dbe 5469 0e3f 870b 4c3f
00000150: 86b7 803c 1da4 e93c b049 353c 03c9 cb3e
00000160: 9893 73bf 0ded 22bf acea 38bf 2a64 093d
00000170: 3a73 9b3c 9208 c73e 69fc b8be e045 ec3e
00000180: 75c9 8fbe a1ab abbe 9f47 a53c 667a 153e
00000190: ba38 4abe 45a6 37bf 53bd 923d 6884 913e
000001a0: 97a3 a1be 96fd 4fbe aa6a 40be 20e1 dabb
000001b0: 73dc 553e 8b53 82be 145e 4dbe 2233 293d
000001c0: e438 bebc 6c23 913d 249d 25bf 46cb 6cbd
000001d0: 4103 a53e f0db 12bf ec5a 313f 122e 51bd
000001e0: 70d7 493e f56e a23d 0c74 88be 5697 96bc
000001f0: 8ddc ea3d 6077 aa3f 326a d03d cb3f 85be
00000200: 8014 32be 8885 28bf 6eb9 e4be 98f8 4f3f
00000210: abe0 4d3e d303 d43e c987 b03b a8e2 b4be
00000220: 4483 bc3e 1d23 07be d3bf b83a 9dac 313f
00000230: fdfb 073c b472 b3bd 6f88 edbd 7502 a43e
00000240: fef7 6ebe 48f4 72be 9fe5 12bf 9a63 bd3c
00000250: 2acd bfbe 26ce 21bf e175 d23e 2739 8bbb
00000260: c673 87bd c335 3bbf 4f85 8bbd ade5 4b3d
00000270: c7d1 19bf 13eb b1be bfd3 913d 2f6e 543e
00000280: 0044 12be 60ba 013b b441 a53e 7415 533e
00000290: f947 56be 87fc 03c0 cf01 e43d 86ef bc3e
000002a0: cac8 fc3d 46cb 21be ec87 373d 6760 0cbd
000002b0: 0116 c43e 58c3 8bbd 40ff 6a3e 0628 d93e
000002c0: 0be9 3a3f d850 073b 7ba0 a53e 35f9 1abe
000002d0: 0838 a83e 2e59 e8bc 0767 6e3d 73e5 013e
000002e0: 02a4 79be 3fca ffbe 8c36 303f 830c 76bf
000002f0: a23c 73bd 49d9 0dbf 4ea8 253f bea0 cc3e
00000300: 1126 01be 11d0 ecbd 69ad a23d b376 e53d
00000310: 0c44 2f3e cf7e 9ebe 335a dcbe 7f34 94be
00000320: e1f3 e1bd 3e20 d53d b9b0 103f 4083 a93e
00000330: d02b 4cbe 4670 403e 61c9 b33e 2cda 22bf
00000340: 3086 6b3e 9204 d9bc 072d 96bd 80e5 87bf
00000350: 1b10 873e 2601 f23d 77c8 733d 6509 903e
00000360: dd74 9dbe 00ec 96be 2152 e03e d9c1 93be
00000370: 9ec9 193f ad0c 093e bb0d d9bd d779 263f
00000380: 775e 873e 0306 33be 0ec5 323e d176 693f
00000390: 2f92 a23d 46cd 13be b658 bb3c d6f6 edbe
000003a0: fae1 133f be1b 353f 3a14 70be c808 8e3d
000003b0: d4bf 973d 0c76 0ebf d815 c2be 368d 723e
000003c0: d5e7 bfbe f14f 673e 51d5 a2bd b296 22bf
000003d0: ed06 62bc feee 47be 84c5 cb3e c266 44bf
000003e0: bf85 163f f71b 8c3e 81f7 96be 5bcd f2be
000003f0: a55d d7bc e580 efbe de4f 443d 9553 9fbe
-0.0010121228 0.057205148 -0.03388156 -0.80285376 -0.0026378734 0.34756124 -0.2731447 -0.097841755
0.16961545 0.124739535 -0.82460093 0.17418565 0.23461516 0.16245377 -0.023687886 0.058830246
-0.046985164 -0.14368378 -1.8012043 0.2749292 -1.2905192 0.215533 -0.21621892 -0.5273431
-0.061802484 -0.064199254 0.31253004 1.2952571 0.25000632 0.056984805 -0.9228072 -0.02425757
0.30872405 0.29382262 -0.07613302 0.12368736 0.092027895 -0.011353791 -0.7911444 0.26308534
0.16746138 0.22430491 -0.110304266 -0.03406287 -0.4046045 -0.05229175 -0.478644 -0.64591414
-0.5857858 0.11719713 -0.2495017 -0.21972907 -0.62413245 0.2811456 0.44735464 -0.5072925
-0.026335604 -0.2523917 -0.28480282 0.049881592 -0.26371747 0.60856867 -0.34726265 -0.06842747
-0.22235145 0.09160443 0.1992256 0.029677138 -0.1279035 0.15838824 -0.008657634 0.24348353
-0.30437255 0.23115228 -0.1742129 -0.1215917 -0.70897806 0.16022635 -0.29708615 -0.09224268
-0.4851603 -0.18474504 0.5562947 0.7970509 0.01571251 0.028520638 0.011064932 0.39801797
-0.95147085 -0.6364296 -0.7223308 0.03354279 0.018975843 0.38873726 -0.36130074 0.4614706
-0.28083387 -0.3352938 0.020175753 0.14597473 -0.19748202 -0.7173808 0.07165017 0.2842133
-0.31570122 -0.20311579 -0.18790689 -0.006679669 0.20884876 -0.25454363 -0.20055419 0.04130853
-0.023220487 0.07086834 -0.646929 -0.057811044 0.32229045 -0.5736685 0.6927936 -0.051069327
0.19711089 0.079313196 -0.26651037 -0.01838271 0.11467848 1.331768 0.10176505 -0.26025233
-0.17390633 -0.6582875 -0.44672722 0.812387 0.20105235 0.41409168 0.0053872806 -0.35329175
0.36818898 -0.13196988 0.0014095254 0.6940401 0.008299825 -0.08762112 -0.11598288 0.32033125
-0.23336789 -0.23725998 -0.57381624 0.023118783 -0.37461215 -0.6320518 0.4110556 -0.0042487564
-0.06613879 -0.7312891 -0.06812536 0.049779583 -0.6008572 -0.3474966 0.071204655 0.20745157
-0.14283752 0.0019794926 0.3227669 0.20613652 -0.20925893 -2.062288 0.111331575 0.36901492
0.12342985 -0.15800199 0.04480736 -0.034271624 0.38298038 -0.06824368 0.22948933 0.42413348
0.73011845 0.0020647552 0.32349 -0.15134127 0.32855248 -0.028362837 0.058203723 0.12685184
-0.2437897 -0.4995899 0.6883323 -0.9611284 -0.059383996 -0.55409676 0.6470994 0.39966387
-0.12612177 -0.11563123 0.079432316 0.11204281 0.17115802 -0.30956122 -0.43037567 -0.289463
-0.11032844 0.1040654 0.5651966 0.33107948 -0.19938588 0.18792829 0.35114577 -0.63614154
0.23000407 -0.026491437 -0.07332807 -1.0616913 0.26379475 0.11816625 0.05951735 0.28132167
-0.30753222 -0.2947693 0.4381266 -0.28858832 0.6007327 0.13383742 -0.10598322 0.6502966
0.26439258 -0.17482762 0.17457983 0.91196924 0.079380386 -0.14433774 0.02286945 -0.46477383
0.5776669 0.70745456 -0.23445216 0.06935269 0.07409635 -0.55648875 -0.3790729 0.2368668
-0.3748156 0.22589089 -0.07950843 -0.6351119 -0.013795597 -0.19524762 0.3979913 -0.76719296
0.5879783 0.27365085 -0.29485705 -0.474223 -0.02628977 -0.46778026 0.04792773 -0.31118456

arith.constant2 f4 [100]
00000000: 6340 1bbe d4e9 b6be 7342 003f fd2a f73d
00000010: 8844 023e 39bc 063d 1628 813e 46e9 e4bc
00000020: 6b26 d23e dd21 103e 7dcb 873e 9e9a 773e
00000030: dfb4 2cbe 7ddd 123f 2741 8e3e 15f7 fe3d
00000040: 0d9f a73e 2842 ad3e e3e4 d13e b557 e43e
00000050: ca12 a63e 4c31 18bd 7d91 3c3e 7964 593c
00000060: cff7 e03d 65e7 8abe 10f6 6dbd 24de ae3e
00000070: 08c5 7b3e d704 05bd 012a 263e f47c 523e
00000080: 1473 1cbd e60d 893e 0be4 ce3b 150b 103e
00000090: 77bb be3e a7e2 e6bd 057c a8bd 3ec0 a83e
000000a0: cf51 58be d4f7 df3e 2b15 703e 412b 643e
000000b0: 37d7 fc3e 068d c9bd 569c 583d b682 bdbe
000000c0: ecbc 99bc 2ddd aabb d45e 2b3e 87cd 8d3e
000000d0: df38 723e ec0a 9c3e 1002 823e 2119 ab3e
000000e0: dd55 a03e ad80 71bc 06ee 543c 9c7d e2be
000000f0: 80ec 823e e0b3 c03e 941d c03e 3097 a83e
00000100: 2b42 dcbc 7738 273e ecf0 aabe 27e1 2dbc
00000110: a83e 5bbd f952 973d 4914 703d fc40 8cbe
00000120: eb65 b63e 12e0 213d ba79 663e da08 0ebe
00000130: aeac a03e 1c47 c43e 68f5 603e 382e f03d
00000140: 641b 3cbe b127 43bb 01d3 833d b4ba d03e
00000150: 61c0 9a3d 2eb0 543d debd cf3e 1928 25be
00000160: 9a4f a53e 651f 2b3d 53ee ca3e 1c61 223f
00000170: 60ab cc3e 5096 893e aaeb 933e b935 cabd
00000180: f1c0 98bc 3683 7f3d 1883 8c3e 7c7e 8f3e
-0.1516128 -0.35725272 0.50101393 0.12068746 0.12721455 0.032894347 0.25225896 -0.027943265
0.41044936 0.14075418 0.26522437 0.24180076 -0.16865872 0.57369214 0.27784082 0.12449471
0.32738534 0.33839536 0.4099494 0.44598165 0.3243621 -0.03715639 0.18414874 0.013268583
0.10984766 -0.27129665 -0.05809599 0.34153855 0.2458688 -0.03247532 0.1622696 0.20555478
-0.038195685 0.26768416 0.006313806 0.14066727 0.372524 -0.11273699 -0.0822678 0.3295917
-0.21124958 0.43743765 0.23445575 0.22282125 0.49382946 -0.09841351 0.05288347 -0.37013787
-0.018766843 -0.0052143545 0.16735393 0.27695867 0.23654507 0.30477083 0.253922 0.3341761
0.31315508 -0.014740151 0.012996202 -0.44236457 0.2557106 0.37637234 0.37522566 0.32927847
-0.02688702 0.16330133 -0.33386934 -0.0106127625 -0.05352655 0.07388873 0.058613095 -0.2739333
0.35624632 0.03952033 0.22507372 -0.13870564 0.31381744 0.38335502 0.21968615 0.117275655
-0.18369824 -0.0029778297 0.0643673 0.40767443 0.075562246 0.05192583 0.40574545 -0.16128577
0.32287294 0.041777987 0.39634952 0.6342943 0.399745 0.26872492 0.28890735 -0.09873528
-0.01864669 0.062380992 0.27443767 0.28026187

arith.constant3 f4 [10]
00000000: e5b8 8ebe 693d 5abf 72df b73a 8043 1f3e
00000010: a3f1 95bc cae8 ec3c 6980 6b3c 394e ca3d
00000020: 1b17 053e 6969 243e
-0.27875438 -0.85249954 0.0014028384 0.15553093 -0.018303698 0.028919596 0.014373877 0.09878201
0.12997095 0.16055836

arith.constant4 f4 [10, 100]
00000000: b292 7a3f 0793 093f ee23 8dbe f94d 91bf
00000010: bae9 2bbe 3d79 8a3e 3a4a d73e 432f 05be
00000020: 34c2 03bf 8c22 a5bf aafb 61bf 9767 c2be
00000030: 3b70 bb3e 6a6c a73d c3f5 863f 494a a53d
00000040: cdff 4bbf de13 81bf 7caa 4a3d c75f a43d
00000050: d1a4 843e 27c7 a93c 34bb f53c f2f7 b03e
00000060: 731a d23b ff2a 61be 810c 9abd 4e48 47bf
00000070: 9f76 6cbf a407 d83e 2b48 98be 0dee 543e
00000080: e4b9 813d d2db 0d3e 187a d9bf 1218 c7be
00000090: aaaf 84bf 4b3d 8a3f fe49 013f d4cc 283f
000000a0: 258c 833f eca3 2ebe 182e 2abf b330 b33d
000000b0: 09da fb3d d8b8 e43d 677e 10c0 496c a63e
000000c0: eae5 153f 0e95 543f bfd8 b6bf 415f f4be
000000d0: c5f2 21be 9938 97bf 046e 40be d32a dcbe
000000e0: 6948 a8bd 4374 bd3c e60c 45be 9b67 6e3f
000000f0: dfb4 b43c d3e2 3abe 0b3a 29bf 09cd adbf
00000100: 9bc6 9a3d 20b2 073f 60b1 873f f913 bc3e
00000110: 79a1 b03d 85b8 133e c4a6 3d3e 46a0 643f
00000120: 415f 9d3e d406 58bd ff6d b7be f78c 21bc
00000130: bcf2 36bf 8d0a 76bf 9559 093e f273 e13e
00000140: d113 153f b5bf 243f 1c93 1ebe 5d07 c3bf
00000150: 9f24 f2bf bbaa d6ba 9cec 01bf cda4 cebe
00000160: f05c e8bd 2bbc b1bf 76c7 eebf aa13 5ebe
00000170: 55cf b9be e4b6 a5bf fd59 eabe eae5 5cbe
00000180: 6a90 80bd e8ee f63e 50c2 253e 81c1 45bf
00000190: c0ad b4be a3e9 da3e 05b9 99bf 7a9a 833a
000001a0: 4da1 733e 620f d6bf e99d b8bc 8a1c 4d3d
000001b0: 6502 34be baae 7d3f ffc3 553d d792 90be
000001c0: 0a47 ba3e 2ed3 a4be 4ef8 843d 81ec 2cbe
000001d0: bc99 103f dd10 eb3e 669f e7bf af55 2ec0
000001e0: 35a1 e3bd 0289 a2bd 0642 9d3c 8fb4 aa3d
000001f0: 6ae4 a5be 1e73 193f 967a 083f b5fb b0bf
00000200: e9ca 9b3e 386e 953f b164 8ebb c660 f3bd
00000210: 3c95 a8bd 3dc7 033f 437d ce3e bcf4 313e
00000220: 6c5b 15bf 8240 ed3e ef83 96c0 a4b6 fcbd
00000230: d69b b73f 5384 d5be 90ce 6dbe 09d8 603f
00000240: 7cb4 ad3e b2a0 73be 9a5b c43e 6914 193f
00000250: 0f66 b2bd c7d8 a7be 179e 053f f00f 06bf
00000260: c31b d23d 4a3e 873c 86da fdbf 3ad5 87bd
00000270: 01bb c43e a605 fa3d a322 b93e 9032 9ebe
00000280: 8580 1fbe 99fb 2d3f 1e86 4e3f c256 51bd
00000290: 4741 f33d 7c34 f5be 0671 22bf ce58 24bf
000002a0: 0341 913e 36f8 bebc 8f0a b4be fecc 2f40
000002b0: 3795 9dbf 67b9 593e 2f04 ac3e 009c 713e
000002c0: 72d5 a6bf d56a 66bf e1b8 a4bf b3ae 3cbf
000002d0: b292 e83d 23e6 143f 1079 ebbe 9f72 1f3e
000002e0: c497 903f 1d0e 2e3e e2da 1ebf 646a fc3e
000002f0: 2c39 133e 137f 183e 6764 043e a892 73bf
00000300: 40e8 7a3f 3268 c7be bc5e a8bf fbf9 863f
00000310: c388 cabd a4a7 4bbf 0510 ccbe 00d9 e2bf
00000320: ef3d 49be a7eb 0cbf c195 8ebe b504 84be
00000330: b6f1 e73e 1dd9 863e 0f6f bcbe 96f6 21bc
00000340: 7a9e b2be 49d9 5dbd cac5 bf3c c286 d8b9
00000350: 62af 923e 01e4 463e bbc6 0840 a3aa 2f3e
00000360: 929c 593f 78fb 283e 22fb 263b 8ca3 6f3e
00000370: 421e b93d 49ed c7bd 0cbf a3bf 665c d33c
00000380: 34d8 3dbe f458 34be a71f 2bbe 9f9a 843e
00000390: fd67 443f 8226 c83a ece7 abbe 9634 43bf
000003a0: 10a3 1cbe 8778 09be 3e29 553d fb23 063e
000003b0: 2e65 9f3d baab 4bbf 98da 95bf 6637 a13e
000003c0: c9cf c1be c888 9a3e 9219 033f d559 66bf
000003d0: facc 223e 3831 c4bd 969a b93e d5ba 3abf
000003e0: 6e0e bebe 1ece 5f3e cdc3 8a3d d1b6 0bbe
000003f0: 1578 24bf 3f29 03bf f575 2b3e 5337 94be
0.9788009 0.5373997 -0.27566475 -1.135192 -0.16788378 0.27045622 0.42048818 -0.1300631
-0.51468205 -1.2901168 -0.88274634 -0.37969658 0.36609063 0.08174975 1.054375 0.080708094
-0.79687196 -1.0084188 0.049478993 0.080260806 0.25906995 0.020724846 0.029996492 0.34564167
0.0064118444 -0.21989058 -0.07521916 -0.77844703 -0.923685 0.4219333 -0.2974256 0.20793934
0.06334284 0.13853386 -1.6990385 -0.38885552 -1.0366108 1.0799955 0.5050353 0.6593754
1.0277144 -0.17054719 -0.66476583 0.08749523 0.12297446 0.11168069 -2.257715 0.3250449
0.58553946 0.8303994 -1.4284896 -0.47728923 -0.15815265 -1.1814147 -0.18791968 -0.43001422
-0.08216936 0.023126727 -0.19243202 0.9312684 0.022058902 -0.18250589 -0.6610419 -1.3578197
0.07557412 0.5300617 1.0601006 0.36733988 0.086245485 0.14425857 0.18520647 0.8930706
0.30736735 -0.052740887 -0.35826108 -0.009860269 -0.71464133 -0.9610985 0.13413079 0.44033772
0.5823336 0.6435502 -0.15485805 -1.5236622 -1.8917426 -0.0016377786 -0.5075166 -0.40360108
-0.113458514 -1.3885549 -1.8654621 -0.21687189 -0.36290994 -1.2946439 -0.4577178 -0.2157208
-0.06277545 0.48229146 0.16187406 -0.7724839 -0.3528881 0.42756376 -1.2009588 0.0010040544
0.23792 -1.6723444 -0.022536235 0.050076045 -0.17579038 0.99094737 0.05218887 -0.2823703
0.36382324 -0.32192367 0.06492673 -0.16887094 0.5648458 0.45911303 -1.809552 -2.7239797
-0.11114732 -0.079362884 0.019196521 0.0833522 -0.3240083 0.5994128 0.5331205 -1.3826815
0.30428246 1.1674261 -0.0043454994 -0.118836924 -0.08231589 0.5147589 0.40329942 0.17378515
-0.58342624 0.46338278 -4.703605 -0.123395234 1.4344432 -0.41702518 -0.23223329 0.87829643
0.3392676 -0.23791769 0.38351136 0.5979677 -0.087108724 -0.32782575 0.5219435 -0.5236807
0.102592014 0.016509194 -1.9832313 -0.066324666 0.38423923 0.122081086 0.36159238 -0.3089795
-0.1557637 0.6796203 0.80673397 -0.05110813 0.11877685 -0.47891605 -0.6345371 -0.64198005
0.28369913 -0.023311716 -0.35164306 2.7468867 -1.2311162 0.21262132 0.33596942 0.23594666
-1.3033888 -0.9000676 -1.286892 -0.7370407 0.11356105 0.5816366 -0.459908 0.15571068
1.1296315 0.16997571 -0.6205274 0.4929992 0.14377278 0.14892225 0.12928925 -0.95145655
0.98010635 -0.38946682 -1.3153911 1.0545038 -0.098893665 -0.79552674 -0.39855972 -1.7722473
-0.19652532 -0.55047077 -0.27848628 -0.2578484 0.45301598 0.2633752 -0.3680348 -0.009885451
-0.34886533 -0.054162297 0.023409743 -0.00041299133 0.2864943 0.19422914 2.1371295 0.17154936
0.8500453 0.16502178 0.0025479277 0.23402232 0.09038974 -0.097620554 -1.2792678 0.025800895
-0.18539506 -0.17612058 -0.16711293 0.25899217 0.76721174 0.0015270265 -0.3357538 -0.76252115
-0.15296578 -0.13424884 0.052041285 0.13099663 0.0778297 -0.7955891 -1.1707335 0.31487578
-0.3785384 0.3018248 0.5121089 -0.8998082 0.15898505 -0.095797 0.36250752 -0.72941333
-0.37120384 0.21855971 0.06775627 -0.13643958 -0.6424573 -0.5123481 0.16744216 -0.2894846

tfl.pseudo_qconst i1 [100, 100]
00000000: ede8 e500 f1aa f9e9 0301 faf0 16ef 02ff
00000010: 1303 e507 1813 e6e8 0dfa 0204 cc0f 1816
00000020: e901 2616 01e4 f4fc 0d04 01f9 f71c 81f8
00000030: fd16 0807 0802 1004 dd20 0611 0fd4 82ff
00000040: 070b 190e 00ff 14e8 210e f6ce 050d ecfd
00000050: f11d 0608 23fd 13fb f5df 0909 cdff 11fc
00000060: fa08 19f0 c6af 2925 df16 f306 11f1 c02e
00000070: 19f7 81e8 f328 010e f71e 1a1f faf5 de16
00000080: f8f9 0505 f3f7 a5da e318 fbf4 0328 f407
00000090: f428 0b05 b618 081b 11f7 05e3 b203 e409
000000a0: 07f3 350e e70e 12e3 02bb 1835 d8f0 0407
000000b0: 1b0c fe24 f70d e6e1 f4fe 04f6 0f11 2ee7
000000c0: 041d 1410 f109 f527 98d2 f2f4 f8e2 ddd0
000000d0: 1904 12e3 edfc 1038 fe08 be05 0843 13e2
000000e0: 07f8 bbf2 d8f1 fc1e 20e5 fcfa 0713 1021
000000f0: 0d2e 059b f325 de13 3029 3605 14fa a6f5
-19 -24 -27 0 -15 -86 -7 -23
3 1 -6 -16 22 -17 2 -1
19 3 -27 7 24 19 -26 -24
13 -6 2 4 -52 15 24 22
-23 1 38 22 1 -28 -12 -4
13 4 1 -7 -9 28 -127 -8
-3 22 8 7 8 2 16 4
-35 32 6 17 15 -44 -126 -1
7 11 25 14 0 -1 20 -24
33 14 -10 -50 5 13 -20 -3
-15 29 6 8 35 -3 19 -5
-11 -33 9 9 -51 -1 17 -4
-6 8 25 -16 -58 -81 41 37
-33 22 -13 6 17 -15 -64 46
25 -9 -127 -24 -13 40 1 14
-9 30 26 31 -6 -11 -34 22
-8 -7 5 5 -13 -9 -91 -38
-29 24 -5 -12 3 40 -12 7
-12 40 11 5 -74 24 8 27
17 -9 5 -29 -78 3 -28 9
7 -13 53 14 -25 14 18 -29
2 -69 24 53 -40 -16 4 7
27 12 -2 36 -9 13 -26 -31
-12 -2 4 -10 15 17 46 -25
4 29 20 16 -15 9 -11 39
-104 -46 -14 -12 -8 -30 -35 -48
25 4 18 -29 -19 -4 16 56
-2 8 -66 5 8 67 19 -30
7 -8 -69 -14 -40 -15 -4 30
32 -27 -4 -6 7 19 16 33
13 46 5 -101 -13 37 -34 19
48 41 54 5 20 -6 -90 -11
